…
    mean_value: 123
  }
  image_data_param {
    source: "./data/VisDA2017/train.txt"
    batch_size: 8
    shuffle: true
    new_height: 224
    new_width: 224
  }
}
layer {
  name: "target_data"
  type: "ImageData"
  top: "target_data"
  top: "target_label"
  include {
    phase: TRAIN
  }
  transform_param {
    mirror: true
    crop_size: 224
    mean_value: 104
    mean_value: 117
    mean_value: 123
  }
  image_data_param {
    source: "./data/VisDA2017/test.txt"
    batch_size: 8
    shuffle: true
    new_height: 224
    new_width: 224
  }
}
layer {
  name: "target_label_silence"
  type: "Silence"
  bottom: "target_label"
  include {
    phase: TRAIN
  }
}
layer {
  name: "data"
  type: "Concat"
  bottom: "source_data"
  bottom: "target_data"
  top: "data"
  include {
    phase: TRAIN
  }
  concat_param {
    axis: 0
  }
}
layer {
  name: "conv1/7x7_s2"
  type: "Convolution"
  bottom: "data"
  top: "conv1/7x7_s2"
  convolution_param {
    num_output: 64
    bias_term: false
    pad: 3
    kernel_size: 7
    stride: 2
  }
}
layer {
  name: "conv1/7x7_s2/bn"
  type: "BatchNorm"
  bottom: "conv1/7x7_s2"
  top: "conv1/7x7_s2"
  batch_norm_param {
    use_global_stats: true
  }
}
layer {
  name: "conv1/7x7_s2/bn/scale"
  type: "Scale"
  bottom: "conv1/7x7_s2"
  top: "conv1/7x7_s2"
  scale_param {
    bias_term: true
  }
}
layer {
  name: "conv1/relu_7x7_s2"
  type: "ReLU"
  bottom: "conv1/7x7_s2"
  top: "conv1/7x7_s2"
}
layer {
  name: "pool1/3x3_s2"
  type: "Pooling"
  bottom: "conv1/7x7_s2"
  top: "pool1/3x3_s2"
  pooling_param {
    pool: MAX
    kernel_size: 3
    stride: 2
  }
}
layer {
  name: "conv2_1_1x1_reduce"
  type: "Convolution"
  bottom: "pool1/3x3_s2"
  top: "conv2_1_1x1_reduce"
  convolution_param {
    num_output: 64
    bias_term: false
    kernel_size: 1
    stride: 1
  }
}
layer {
  name: "conv2_1_1x1_reduce/bn"
  type: "BatchNorm"
  bottom: "conv2_1_1x1_reduce"
  top: "conv2_1_1x1_reduce"
  batch_norm_param {
    use_global_stats: true
  }
}
layer {
  name: "conv2_1_1x1_reduce/bn/scale"
  type: "Scale"
  bottom: "conv2_1_1x1_reduce"
  top: "conv2_1_1x1_reduce"
  scale_param {
    bias_term: true
  }
}
layer {
  name: "conv2_1_1x1_reduce/relu"
  type: "ReLU"
  bottom: "conv2_1_1x1_reduce"
  top: "conv2_1_1x1_reduce"
}
layer {
  name: "conv2_1_3x3"
  type: "Convolution"
  bottom: "conv2_1_1x1_reduce"
  top: "conv2_1_3x3"
  convolution_param {
    num_output: 64
    bias_term: false
    pad: 1
    kernel_size: 3
    stride: 1
  }
}
layer {
  name: "conv2_1_3x3/bn"
  type: "BatchNorm"
  bottom: "conv2_1_3x3"
  top: "conv2_1_3x3"
  batch_norm_param {
    use_global_stats: true
  }
}
layer {
  name: "conv2_1_3x3/bn/scale"
  type: "Scale"
  bottom: "conv2_1_3x3"
  top: "conv2_1_3x3"
  scale_param {
    bias_term: true
  }
}
layer {
  name: "conv2_1_3x3/relu"
  type: "ReLU"
  bottom: "conv2_1_3x3"
  top: "conv2_1_3x3"
}
layer {
  name: "conv2_1_1x1_increase"
  type: "Convolution"
  bottom: "conv2_1_3x3"
  top: "conv2_1_1x1_increase"
  convolution_param {
    num_output: 256
    bias_term: false
    kernel_size: 1
    stride: 1
  }
}
layer {
  name: "conv2_1_1x1_increase/bn"
  type: "BatchNorm"
  bottom: "conv2_1_1x1_increase"
  top: "conv2_1_1x1_increase"
  batch_norm_param {
    use_global_stats: true
  }
}
layer {
  name: "conv2_1_1x1_increase/bn/scale"
  type: "Scale"
  bottom: "conv2_1_1x1_increase"
  top: "conv2_1_1x1_increase"
  scale_param {
    bias_term: true
  }
}
layer {
  name: "conv2_1_global_pool"
  type: "Pooling"
  bottom: "conv2_1_1x1_increase"
  top: "conv2_1_global_pool"
  pooling_param {
    pool: AVE
    engine: CAFFE
    global_pooling: true
  }
}
layer {
  name: "conv2_1_1x1_down"
  type: "Convolution"
  bottom: "conv2_1_global_pool"
  top: "conv2_1_1x1_down"
  convolution_param {
    num_output: 16
    kernel_size: 1
    stride: 1
  }
}
layer {
  name: "conv2_1_1x1_down/relu"
  type: "ReLU"
  bottom: "conv2_1_1x1_down"
  top: "conv2_1_1x1_down"
}
layer {
  name: "conv2_1_1x1_up"
  type: "Convolution"
  bottom: "conv2_1_1x1_down"
  top: "conv2_1_1x1_up"
  convolution_param {
    num_output: 256
    kernel_size: 1
    stride: 1
  }
}
layer {
  name: "conv2_1_prob"
  type: "Sigmoid"
  bottom: "conv2_1_1x1_up"
  top: "conv2_1_1x1_up"
}
layer {
  name: "conv2_1_1x1_proj"
  type: "Convolution"
  bottom: "pool1/3x3_s2"
  top: "conv2_1_1x1_proj"
  convolution_param {
    num_output: 256
    bias_term: false
    kernel_size: 1
    stride: 1
  }
}
layer {
  name: "conv2_1_1x1_proj/bn"
  type: "BatchNorm"
  bottom: "conv2_1_1x1_proj"
  top: "conv2_1_1x1_proj"
  batch_norm_param {
    use_global_stats: true
  }
}
layer {
  name: "conv2_1_1x1_proj/bn/scale"
  type: "Scale"
  bottom: "conv2_1_1x1_proj"
  top: "conv2_1_1x1_proj"
  scale_param {
    bias_term: true
  }
}
layer {
  name: "conv2_1"
  type: "Axpy"
  bottom: "conv2_1_1x1_up"
  bottom: "conv2_1_1x1_increase"
  bottom: "conv2_1_1x1_proj"
  top: "conv2_1"
}
layer {
  name: "conv2_1/relu"
  type: "ReLU"
  bottom: "conv2_1"
  top: "conv2_1"
}
layer {
  name: "conv2_2_1x1_reduce"
  type: "Convolution"
  bottom: "conv2_1"
  top: "conv2_2_1x1_reduce"
  convolution_param {
    num_output: 64
    bias_term: false
    kernel_size: 1
    stride: 1
  }
}
layer {
  name: "conv2_2_1x1_reduce/bn"
  type: "BatchNorm"
  bottom: "conv2_2_1x1_reduce"
  top: "conv2_2_1x1_reduce"
  batch_norm_param {
    use_global_stats: true
  }
}
layer {
  name: "conv2_2_1x1_reduce/bn/scale"
  type: "Scale"
  bottom: "conv2_2_1x1_reduce"
  top: "conv2_2_1x1_reduce"
  scale_param {
    bias_term: true
  }
}
layer {
  name: "conv2_2_1x1_reduce/relu"
  type: "ReLU"
  bottom: "conv2_2_1x1_reduce"
  top: "conv2_2_1x1_reduce"
}
layer {
  name: "conv2_2_3x3"
  type: "Convolution"
  bottom: "conv2_2_1x1_reduce"
  top: "conv2_2_3x3"
  convolution_param {
    num_output: 64
    bias_term: false
    pad: 1
    kernel_size: 3
    stride: 1
  }
}
layer {
  name: "conv2_2_3x3/bn"
  type: "BatchNorm"
  bottom: "conv2_2_3x3"
  top: "conv2_2_3x3"
  batch_norm_param {
    use_global_stats: true
  }
}
layer {
  name: "conv2_2_3x3/bn/scale"
  type: "Scale"
  bottom: "conv2_2_3x3"
  top: "conv2_2_3x3"
  scale_param {
    bias_term: true
  }
}
layer {
  name: "conv2_2_3x3/relu"
  type: "ReLU"
  bottom: "conv2_2_3x3"
  top: "conv2_2_3x3"
}
layer {
  name: "conv2_2_1x1_increase"
  type: "Convolution"
  bottom: "conv2_2_3x3"
  top: "conv2_2_1x1_increase"
  convolution_param {
    num_output: 256
    bias_term: false
    kernel_size: 1
    stride: 1
  }
}
layer {
  name: "conv2_2_1x1_increase/bn"
  type: "BatchNorm"
  bottom: "conv2_2_1x1_increase"
  top: "conv2_2_1x1_increase"
  batch_norm_param {
    use_global_stats: true
  }
}
layer {
  name: "conv2_2_1x1_increase/bn/scale"
  type: "Scale"
  bottom: "conv2_2_1x1_increase"
  top: "conv2_2_1x1_increase"
  scale_param {
    bias_term: true
  }
}
layer {
  name: "conv2_2_global_pool"
  type: "Pooling"
  bottom: "conv2_2_1x1_increase"
  top: "conv2_2_global_pool"
  pooling_param {
    pool: AVE
    engine: CAFFE
    global_pooling: true
  }
}
layer {
  name: "conv2_2_1x1_down"
  type: "Convolution"
  bottom: "conv2_2_global_pool"
  top: "conv2_2_1x1_down"
  convolution_param {
    num_output: 16
    kernel_size: 1
    stride: 1
  }
}
layer {
  name: "conv2_2_1x1_down/relu"
  type: "ReLU"
  bottom: "conv2_2_1x1_down"
  top: "conv2_2_1x1_down"
}
layer {
  name: "conv2_2_1x1_up"
  type: "Convolution"
  bottom: "conv2_2_1x1_down"
  top: "conv2_2_1x1_up"
  convolution_param {
    num_output: 256
    kernel_size: 1
    stride: 1
  }
}
layer {
  name: "conv2_2_prob"
  type: "Sigmoid"
  bottom: "conv2_2_1x1_up"
  top: "conv2_2_1x1_up"
}
layer {
  name: "conv2_2"
  type: "Axpy"
  bottom: "conv2_2_1x1_up"
  bottom: "conv2_2_1x1_increase"
  bottom: "conv2_1"
  top: "conv2_2"
}
layer {
  name: "conv2_2/relu"
  type: "ReLU"
  bottom: "conv2_2"
  top: "conv2_2"
}
layer {
  name: "conv2_3_1x1_reduce"
  type: "Convolution"
  bottom: "conv2_2"
  top: "conv2_3_1x1_reduce"
  convolution_param {
    num_output: 64
    bias_term: false
    kernel_size: 1
    stride: 1
  }
}
layer {
  name: "conv2_3_1x1_reduce/bn"
  type: "BatchNorm"
  bottom: "conv2_3_1x1_reduce"
  top: "conv2_3_1x1_reduce"
  batch_norm_param {
    use_global_stats: true
  }
}
layer {
  name: "conv2_3_1x1_reduce/bn/scale"
  type: "Scale"
  bottom: "conv2_3_1x1_reduce"
  top: "conv2_3_1x1_reduce"
  scale_param {
    bias_term: true
  }
}
layer {
  name: "conv2_3_1x1_reduce/relu"
  type: "ReLU"
  bottom: "conv2_3_1x1_reduce"
  top: "conv2_3_1x1_reduce"
}
layer {
  name: "conv2_3_3x3"
  type: "Convolution"
  bottom: "conv2_3_1x1_reduce"
  top: "conv2_3_3x3"
  convolution_param {
    num_output: 64
    bias_term: false
    pad: 1
    kernel_size: 3
    stride: 1
  }
}
layer {
  name: "conv2_3_3x3/bn"
  type: "BatchNorm"
  bottom: "conv2_3_3x3"
  top: "conv2_3_3x3"
  batch_norm_param {
    use_global_stats: true
  }
}
layer {
  name: "conv2_3_3x3/bn/scale"
  type: "Scale"
  bottom: "conv2_3_3x3"
  top: "conv2_3_3x3"
  scale_param {
    bias_term: true
  }
}
layer {
  name: "conv2_3_3x3/relu"
  type: "ReLU"
  bottom: "conv2_3_3x3"
  top: "conv2_3_3x3"
}
layer {
  name: "conv2_3_1x1_increase"
  type: "Convolution"
  bottom: "conv2_3_3x3"
  top: "conv2_3_1x1_increase"
  convolution_param {
    num_output: 256
    bias_term: false
    kernel_size: 1
    stride: 1
  }
}
layer {
  name: "conv2_3_1x1_increase/bn"
  type: "BatchNorm"
  bottom: "conv2_3_1x1_increase"
  top: "conv2_3_1x1_increase"
  batch_norm_param {
    use_global_stats: true
  }
}
layer {
  name: "conv2_3_1x1_increase/bn/scale"
  type: "Scale"
  bottom: "conv2_3_1x1_increase"
  top: "conv2_3_1x1_increase"
  scale_param {
    bias_term: true
  }
}
layer {
  name: "conv2_3_global_pool"
  type: "Pooling"
  bottom: "conv2_3_1x1_increase"
  top: "conv2_3_global_pool"
  pooling_param {
    pool: AVE
    engine: CAFFE
    global_pooling: true
  }
}
layer {
  name: "conv2_3_1x1_down"
  type: "Convolution"
  bottom: "conv2_3_global_pool"
  top: "conv2_3_1x1_down"
  convolution_param {
    num_output: 16
    kernel_size: 1
    stride: 1
  }
}
layer {
  name: "conv2_3_1x1_down/relu"
  type: "ReLU"
  bottom: "conv2_3_1x1_down"
  top: "conv2_3_1x1_down"
}
layer {
  name: "conv2_3_1x1_up"
  type: "Convolution"
  bottom: "conv2_3_1x1_down"
  top: "conv2_3_1x1_up"
  convolution_param {
    num_output: 256
    kernel_size: 1
    stride: 1
  }
}
layer {
  name: "conv2_3_prob"
  type: "Sigmoid"
  bottom: "conv2_3_1x1_up"
  top: "conv2_3_1x1_up"
}
layer {
  name: "conv2_3"
  type: "Axpy"
  bottom: "conv2_3_1x1_up"
  bottom: "conv2_3_1x1_increase"
  bottom: "conv2_2"
  top: "conv2_3"
}
layer {
  name: "conv2_3/relu"
  type: "ReLU"
  bottom: "conv2_3"
  top: "conv2_3"
}
layer {
  name: "conv3_1_1x1_reduce"
  type: "Convolution"
  bottom: "conv2_3"
  top: "conv3_1_1x1_reduce"
  convolution_param {
    num_output: 128
    bias_term: false
    kernel_size: 1
    stride: 2
  }
}
layer {
  name: "conv3_1_1x1_reduce/bn"
  type: "BatchNorm"
  bottom: "conv3_1_1x1_reduce"
  top: "conv3_1_1x1_reduce"
  batch_norm_param {
    use_global_stats: true
  }
}
layer {
  name: "conv3_1_1x1_reduce/bn/scale"
  type: "Scale"
  bottom: "conv3_1_1x1_reduce"
  top: "conv3_1_1x1_reduce"
  scale_param {
    bias_term: true
  }
}
layer {
  name: "conv3_1_1x1_reduce/relu"
  type: "ReLU"
  bottom: "conv3_1_1x1_reduce"
  top: "conv3_1_1x1_reduce"
}
layer {
  name: "conv3_1_3x3"
  type: "Convolution"
  bottom: "conv3_1_1x1_reduce"
  top: "conv3_1_3x3"
  convolution_param {
    num_output: 128
    bias_term: false
    pad: 1
    kernel_size: 3
    stride: 1
  }
}
layer {
  name: "conv3_1_3x3/bn"
  type: "BatchNorm"
  bottom: "conv3_1_3x3"
  top: "conv3_1_3x3"
  batch_norm_param {
    use_global_stats: true
  }
}
layer {
  name: "conv3_1_3x3/bn/scale"
  type: "Scale"
  bottom: "conv3_1_3x3"
  top: "conv3_1_3x3"
  scale_param {
    bias_term: true
  }
}
layer {
  name: "conv3_1_3x3/relu"
  type: "ReLU"
  bottom: "conv3_1_3x3"
  top: "conv3_1_3x3"
}
layer {
  name: "conv3_1_1x1_increase"
  type: "Convolution"
  bottom: "conv3_1_3x3"
  top: "conv3_1_1x1_increase"
  convolution_param {
    num_output: 512
    bias_term: false
    kernel_size: 1
    stride: 1
  }
}
layer {
  name: "conv3_1_1x1_increase/bn"
  type: "BatchNorm"
  bottom: "conv3_1_1x1_increase"
  top: "conv3_1_1x1_increase"
  batch_norm_param {
    use_global_stats: true
  }
}
layer {
  name: "conv3_1_1x1_increase/bn/scale"
  type: "Scale"
  bottom: "conv3_1_1x1_increase"
  top: "conv3_1_1x1_increase"
  scale_param {
    bias_term: true
  }
}
layer {
  name: "conv3_1_global_pool"
  type: "Pooling"
  bottom: "conv3_1_1x1_increase"
  top: "conv3_1_global_pool"
  pooling_param {
    pool: AVE
    engine: CAFFE
    global_pooling: true
  }
}
layer {
  name: "conv3_1_1x1_down"
  type: "Convolution"
  bottom: "conv3_1_global_pool"
  top: "conv3_1_1x1_down"
  convolution_param {
    num_output: 32
    kernel_size: 1
    stride: 1
  }
}
layer {
  name: "conv3_1_1x1_down/relu"
  type: "ReLU"
  bottom: "conv3_1_1x1_down"
  top: "conv3_1_1x1_down"
}
layer {
  name: "conv3_1_1x1_up"
  type: "Convolution"
  bottom: "conv3_1_1x1_down"
  top: "conv3_1_1x1_up"
  convolution_param {
    num_output: 512
    kernel_size: 1
    stride: 1
  }
}
layer {
  name: "conv3_1_prob"
  type: "Sigmoid"
  bottom: "conv3_1_1x1_up"
  top: "conv3_1_1x1_up"
}
layer {
  name: "conv3_1_1x1_proj"
  type: "Convolution"
  bottom: "conv2_3"
  top: "conv3_1_1x1_proj"
  convolution_param {
    num_output: 512
    bias_term: false
    kernel_size: 1
    stride: 2
  }
}
layer {
  name: "conv3_1_1x1_proj/bn"
  type: "BatchNorm"
  bottom: "conv3_1_1x1_proj"
  top: "conv3_1_1x1_proj"
  batch_norm_param {
    use_global_stats: true
  }
}
layer {
  name: "conv3_1_1x1_proj/bn/scale"
  type: "Scale"
  bottom: "conv3_1_1x1_proj"
  top: "conv3_1_1x1_proj"
  scale_param {
    bias_term: true
  }
}
layer {
  name: "conv3_1"
  type: "Axpy"
  bottom: "conv3_1_1x1_up"
  bottom: "conv3_1_1x1_increase"
  bottom: "conv3_1_1x1_proj"
  top: "conv3_1"
}
layer {
  name: "conv3_1/relu"
  type: "ReLU"
  bottom: "conv3_1"
  top: "conv3_1"
}
layer {
  name: "conv3_2_1x1_reduce"
  type: "Convolution"
  bottom: "conv3_1"
  top: "conv3_2_1x1_reduce"
  convolution_param {
    num_output: 128
    bias_term: false
    kernel_size: 1
    stride: 1
  }
}
layer {
  name: "conv3_2_1x1_reduce/bn"
  type: "BatchNorm"
  bottom: "conv3_2_1x1_reduce"
  top: "conv3_2_1x1_reduce"
  batch_norm_param {
    use_global_stats: true
  }
}
layer {
  name: "conv3_2_1x1_reduce/bn/scale"
  type: "Scale"
  bottom: "conv3_2_1x1_reduce"
  top: "conv3_2_1x1_reduce"
  scale_param {
    bias_term: true
  }
}
layer {
  name: "conv3_2_1x1_reduce/relu"
  type: "ReLU"
  bottom: "conv3_2_1x1_reduce"
  top: "conv3_2_1x1_reduce"
}
layer {
  name: "conv3_2_3x3"
  type: "Convolution"
  bottom: "conv3_2_1x1_reduce"
  top: "conv3_2_3x3"
  convolution_param {
    num_output: 128
    bias_term: false
    pad: 1
    kernel_size: 3
    stride: 1
  }
}
layer {
  name: "conv3_2_3x3/bn"
  type: "BatchNorm"
  bottom: "conv3_2_3x3"
  top: "conv3_2_3x3"
  batch_norm_param {
    use_global_stats: true
  }
}
layer {
  name: "conv3_2_3x3/bn/scale"
  type: "Scale"
  bottom: "conv3_2_3x3"
  top: "conv3_2_3x3"
  scale_param {
    bias_term: true
  }
}
layer {
  name: "conv3_2_3x3/relu"
  type: "ReLU"
  bottom: "conv3_2_3x3"
  top: "conv3_2_3x3"
}
layer {
  name: "conv3_2_1x1_increase"
  type: "Convolution"
  bottom: "conv3_2_3x3"
  top: "conv3_2_1x1_increase"
  convolution_param {
    num_output: 512
    bias_term: false
    kernel_size: 1
    stride: 1
  }
}
layer {
  name: "conv3_2_1x1_increase/bn"
  type: "BatchNorm"
  bottom: "conv3_2_1x1_increase"
  top: "conv3_2_1x1_increase"
  batch_norm_param {
    use_global_stats: true
  }
}
layer {
  name: "conv3_2_1x1_increase/bn/scale"
  type: "Scale"
  bottom: "conv3_2_1x1_increase"
  top: "conv3_2_1x1_increase"
  scale_param {
    bias_term: true
  }
}
layer {
  name: "conv3_2_global_pool"
  type: "Pooling"
  bottom: "conv3_2_1x1_increase"
  top: "conv3_2_global_pool"
  pooling_param {
    pool: AVE
    engine: CAFFE
    global_pooling: true
  }
}
layer {
  name: "conv3_2_1x1_down"
  type: "Convolution"
  bottom: "conv3_2_global_pool"
  top: "conv3_2_1x1_down"
  convolution_param {
    num_output: 32
    kernel_size: 1
    stride: 1
  }
}
layer {
  name: "conv3_2_1x1_down/relu"
  type: "ReLU"
  bottom: "conv3_2_1x1_down"
  top: "conv3_2_1x1_down"
}
layer {
  name: "conv3_2_1x1_up"
  type: "Convolution"
  bottom: "conv3_2_1x1_down"
  top: "conv3_2_1x1_up"
  convolution_param {
    num_output: 512
    kernel_size: 1
    stride: 1
  }
}
layer {
  name: "conv3_2_prob"
  type: "Sigmoid"
  bottom: "conv3_2_1x1_up"
  top: "conv3_2_1x1_up"
}
layer {
  name: "conv3_2"
  type: "Axpy"
  bottom: "conv3_2_1x1_up"
  bottom: "conv3_2_1x1_increase"
  bottom: "conv3_1"
  top: "conv3_2"
}
layer {
  name: "conv3_2/relu"
  type: "ReLU"
  bottom: "conv3_2"
  top: "conv3_2"
}
layer {
  name: "conv3_3_1x1_reduce"
  type: "Convolution"
  bottom: "conv3_2"
  top: "conv3_3_1x1_reduce"
  convolution_param {
    num_output: 128
    bias_term: false
    kernel_size: 1
    stride: 1
  }
}
layer {
  name: "conv3_3_1x1_reduce/bn"
  type: "BatchNorm"
  bottom: "conv3_3_1x1_reduce"
  top: "conv3_3_1x1_reduce"
  batch_norm_param {
    use_global_stats: true
  }
}
layer {
  name: "conv3_3_1x1_reduce/bn/scale"
  type: "Scale"
  bottom: "conv3_3_1x1_reduce"
  top: "conv3_3_1x1_reduce"
  scale_param {
    bias_term: true
  }
}
layer {
  name: "conv3_3_1x1_reduce/relu"
  type: "ReLU"
  bottom: "conv3_3_1x1_reduce"
  top: "conv3_3_1x1_reduce"
}
layer {
  name: "conv3_3_3x3"
  type: "Convolution"
  bottom: "conv3_3_1x1_reduce"
  top: "conv3_3_3x3"
  convolution_param {
    num_output: 128
    bias_term: false
    pad: 1
    kernel_size: 3
    stride: 1
  }
}
layer {
  name: "conv3_3_3x3/bn"
  type: "BatchNorm"
  bottom: "conv3_3_3x3"
  top: "conv3_3_3x3"
  batch_norm_param {
    use_global_stats: true
  }
}
layer {
  name: "conv3_3_3x3/bn/scale"
  type: "Scale"
  bottom: "conv3_3_3x3"
  top: "conv3_3_3x3"
  scale_param {
    bias_term: true
  }
}
layer {
  name: "conv3_3_3x3/relu"
  type: "ReLU"
  bottom: "conv3_3_3x3"
  top: "conv3_3_3x3"
}
layer {
  name: "conv3_3_1x1_increase"
  type: "Convolution"
  bottom: "conv3_3_3x3"
  top: "conv3_3_1x1_increase"
  convolution_param {
    num_output: 512
    bias_term: false
    kernel_size: 1
    stride: 1
  }
}
layer {
  name: "conv3_3_1x1_increase/bn"
  type: "BatchNorm"
  bottom: "conv3_3_1x1_increase"
  top: "conv3_3_1x1_increase"
  batch_norm_param {
    use_global_stats: true
  }
}
layer {
  name: "conv3_3_1x1_increase/bn/scale"
  type: "Scale"
  bottom: "conv3_3_1x1_increase"
  top: "conv3_3_1x1_increase"
  scale_param {
    bias_term: true
  }
}
layer {
  name: "conv3_3_global_pool"
  type: "Pooling"
  bottom: "conv3_3_1x1_increase"
  top: "conv3_3_global_pool"
  pooling_param {
    pool: AVE
    engine: CAFFE
    global_pooling: true
  }
}
layer {
  name: "conv3_3_1x1_down"
  type: "Convolution"
  bottom: "conv3_3_global_pool"
  top: "conv3_3_1x1_down"
  convolution_param {
    num_output: 32
    kernel_size: 1
    stride: 1
  }
}
layer {
  name: "conv3_3_1x1_down/relu"
  type: "ReLU"
  bottom: "conv3_3_1x1_down"
  top: "conv3_3_1x1_down"
}
layer {
  name: "conv3_3_1x1_up"
  type: "Convolution"
  bottom: "conv3_3_1x1_down"
  top: "conv3_3_1x1_up"
  convolution_param {
    num_output: 512
    kernel_size: 1
    stride: 1
  }
}
layer {
  name: "conv3_3_prob"
  type: "Sigmoid"
  bottom: "conv3_3_1x1_up"
  top: "conv3_3_1x1_up"
}
layer {
  name: "conv3_3"
  type: "Axpy"
  bottom: "conv3_3_1x1_up"
  bottom: "conv3_3_1x1_increase"
  bottom: "conv3_2"
  top: "conv3_3"
}
layer {
  name: "conv3_3/relu"
  type: "ReLU"
  bottom: "conv3_3"
  top: "conv3_3"
}
layer {
  name: "conv3_4_1x1_reduce"
  type: "Convolution"
  bottom: "conv3_3"
  top: "conv3_4_1x1_reduce"
  convolution_param {
    num_output: 128
    bias_term: false
    kernel_size: 1
    stride: 1
  }
}
layer {
  name: "conv3_4_1x1_reduce/bn"
  type: "BatchNorm"
  bottom: "conv3_4_1x1_reduce"
  top: "conv3_4_1x1_reduce"
  batch_norm_param {
    use_global_stats: true
  }
}
layer {
  name: "conv3_4_1x1_reduce/bn/scale"
  type: "Scale"
  bottom: "conv3_4_1x1_reduce"
  top: "conv3_4_1x1_reduce"
  scale_param {
    bias_term: true
  }
}
layer {
  name: "conv3_4_1x1_reduce/relu"
  type: "ReLU"
  bottom: "conv3_4_1x1_reduce"
  top: "conv3_4_1x1_reduce"
}
layer {
  name: "conv3_4_3x3"
  type: "Convolution"
  bottom: "conv3_4_1x1_reduce"
  top: "conv3_4_3x3"
  convolution_param {
    num_output: 128
    bias_term: false
    pad: 1
    kernel_size: 3
    stride: 1
  }
}
layer {
  name: "conv3_4_3x3/bn"
  type: "BatchNorm"
  bottom: "conv3_4_3x3"
  top: "conv3_4_3x3"
  batch_norm_param {
    use_global_stats: true
  }
}
layer {
  name: "conv3_4_3x3/bn/scale"
  type: "Scale"
  bottom: "conv3_4_3x3"
  top: "conv3_4_3x3"
  scale_param {
    bias_term: true
  }
}
layer {
  name: "conv3_4_3x3/relu"
  type: "ReLU"
  bottom: "conv3_4_3x3"
  top: "conv3_4_3x3"
}
layer {
  name: "conv3_4_1x1_increase"
  type: "Convolution"
  bottom: "conv3_4_3x3"
  top: "conv3_4_1x1_increase"
  convolution_param {
    num_output: 512
    bias_term: false
    kernel_size: 1
    stride: 1
  }
}
layer {
  name: "conv3_4_1x1_increase/bn"
  type: "BatchNorm"
  bottom: "conv3_4_1x1_increase"
  top: "conv3_4_1x1_increase"
  batch_norm_param {
    use_global_stats: true
  }
}
layer {
  name: "conv3_4_1x1_increase/bn/scale"
  type: "Scale"
  bottom: "conv3_4_1x1_increase"
  top: "conv3_4_1x1_increase"
  scale_param {
    bias_term: true
  }
}
layer {
  name: "conv3_4_global_pool"
  type: "Pooling"
  bottom: "conv3_4_1x1_increase"
  top: "conv3_4_global_pool"
  pooling_param {
    pool: AVE
    engine: CAFFE
    global_pooling: true
  }
}
layer {
  name: "conv3_4_1x1_down"
  type: "Convolution"
  bottom: "conv3_4_global_pool"
  top: "conv3_4_1x1_down"
  convolution_param {
    num_output: 32
    kernel_size: 1
    stride: 1
  }
}
layer {
  name: "conv3_4_1x1_down/relu"
  type: "ReLU"
  bottom: "conv3_4_1x1_down"
  top: "conv3_4_1x1_down"
}
layer {
  name: "conv3_4_1x1_up"
  type: "Convolution"
  bottom: "conv3_4_1x1_down"
  top: "conv3_4_1x1_up"
  convolution_param {
    num_output: 512
    kernel_size: 1
    stride: 1
  }
}
layer {
  name: "conv3_4_prob"
  type: "Sigmoid"
  bottom: "conv3_4_1x1_up"
  top: "conv3_4_1x1_up"
}
layer {
  name: "conv3_4"
  type: "Axpy"
  bottom: "conv3_4_1x1_up"
  bottom: "conv3_4_1x1_increase"
  bottom: "conv3_3"
  top: "conv3_4"
}
layer {
  name: "conv3_4/relu"
  type: "ReLU"
  bottom: "conv3_4"
  top: "conv3_4"
}
layer {
  name: "conv4_1_1x1_reduce"
  type: "Convolution"
  bottom: "conv3_4"
  top: "conv4_1_1x1_reduce"
  convolution_param {
    num_output: 256
    bias_term: false
    kernel_size: 1
    stride: 2
  }
}
layer {
  name: "conv4_1_1x1_reduce/bn"
  type: "BatchNorm"
  bottom: "conv4_1_1x1_reduce"
  top: "conv4_1_1x1_reduce"
  batch_norm_param {
    use_global_stats: true
  }
}
layer {
  name: "conv4_1_1x1_reduce/bn/scale"
  type: "Scale"
  bottom: "conv4_1_1x1_reduce"
  top: "conv4_1_1x1_reduce"
  scale_param {
    bias_term: true
  }
}
layer {
  name: "conv4_1_1x1_reduce/relu"
  type: "ReLU"
  bottom: "conv4_1_1x1_reduce"
  top: "conv4_1_1x1_reduce"
}
layer {
  name: "conv4_1_3x3"
  type: "Convolution"
  bottom: "conv4_1_1x1_reduce"
  top: "conv4_1_3x3"
  convolution_param {
    num_output: 256
    bias_term: false
    pad: 1
    kernel_size: 3
    stride: 1
  }
}
layer {
  name: "conv4_1_3x3/bn"
  type: "BatchNorm"
  bottom: "conv4_1_3x3"
  top: "conv4_1_3x3"
  batch_norm_param {
    use_global_stats: true
  }
}
layer {
  name: "conv4_1_3x3/bn/scale"
  type: "Scale"
  bottom: "conv4_1_3x3"
  top: "conv4_1_3x3"
  scale_param {
    bias_term: true
  }
}
layer {
  name: "conv4_1_3x3/relu"
  type: "ReLU"
  bottom: "conv4_1_3x3"
  top: "conv4_1_3x3"
}
layer {
  name: "conv4_1_1x1_increase"
  type: "Convolution"
  bottom: "conv4_1_3x3"
  top: "conv4_1_1x1_increase"
  convolution_param {
    num_output: 1024
    bias_term: false
    kernel_size: 1
    stride: 1
  }
}
layer {
  name: "conv4_1_1x1_increase/bn"
  type: "BatchNorm"
  bottom: "conv4_1_1x1_increase"
  top: "conv4_1_1x1_increase"
  batch_norm_param {
    use_global_stats: true
  }
}
layer {
  name: "conv4_1_1x1_increase/bn/scale"
  type: "Scale"
  bottom: "conv4_1_1x1_increase"
  top: "conv4_1_1x1_increase"
  scale_param {
    bias_term: true
  }
}
layer {
  name: "conv4_1_global_pool"
  type: "Pooling"
  bottom: "conv4_1_1x1_increase"
  top: "conv4_1_global_pool"
  pooling_param {
    pool: AVE
    engine: CAFFE
    global_pooling: true
  }
}
layer {
  name: "conv4_1_1x1_down"
  type: "Convolution"
  bottom: "conv4_1_global_pool"
  top: "conv4_1_1x1_down"
  convolution_param {
    num_output: 64
    kernel_size: 1
    stride: 1
  }
}
layer {
  name: "conv4_1_1x1_down/relu"
  type: "ReLU"
  bottom: "conv4_1_1x1_down"
  top: "conv4_1_1x1_down"
}
layer {
  name: "conv4_1_1x1_up"
  type: "Convolution"
  bottom: "conv4_1_1x1_down"
  top: "conv4_1_1x1_up"
  convolution_param {
    num_output: 1024
    kernel_size: 1
    stride: 1
  }
}
layer {
  name: "conv4_1_prob"
  type: "Sigmoid"
  bottom: "conv4_1_1x1_up"
  top: "conv4_1_1x1_up"
}
layer {
  name: "conv4_1_1x1_proj"
  type: "Convolution"
  bottom: "conv3_4"
  top: "conv4_1_1x1_proj"
  convolution_param {
    num_output: 1024
    bias_term: false
    kernel_size: 1
    stride: 2
  }
}
layer {
  name: "conv4_1_1x1_proj/bn"
  type: "BatchNorm"
  bottom: "conv4_1_1x1_proj"
  top: "conv4_1_1x1_proj"
  batch_norm_param {
    use_global_stats: true
  }
}
layer {
  name: "conv4_1_1x1_proj/bn/scale"
  type: "Scale"
  bottom: "conv4_1_1x1_proj"
  top: "conv4_1_1x1_proj"
  scale_param {
    bias_term: true
  }
}
layer {
  name: "conv4_1"
  type: "Axpy"
  bottom: "conv4_1_1x1_up"
  bottom: "conv4_1_1x1_increase"
  bottom: "conv4_1_1x1_proj"
  top: "conv4_1"
}
layer {
  name: "conv4_1/relu"
  type: "ReLU"
  bottom: "conv4_1"
  top: "conv4_1"
}
layer {
  name: "conv4_2_1x1_reduce"
  type: "Convolution"
  bottom: "conv4_1"
  top: "conv4_2_1x1_reduce"
  convolution_param {
    num_output: 256
    bias_term: false
    kernel_size: 1
    stride: 1
  }
}
layer {
  name: "conv4_2_1x1_reduce/bn"
  type: "BatchNorm"
  bottom: "conv4_2_1x1_reduce"
  top: "conv4_2_1x1_reduce"
  batch_norm_param {
    use_global_stats: true
  }
}
layer {
  name: "conv4_2_1x1_reduce/bn/scale"
  type: "Scale"
  bottom: "conv4_2_1x1_reduce"
  top: "conv4_2_1x1_reduce"
  scale_param {
    bias_term: true
  }
}
layer {
  name: "conv4_2_1x1_reduce/relu"
  type: "ReLU"
  bottom: "conv4_2_1x1_reduce"
  top: "conv4_2_1x1_reduce"
}
layer {
  name: "conv4_2_3x3"
  type: "Convolution"
  bottom: "conv4_2_1x1_reduce"
  top: "conv4_2_3x3"
  convolution_param {
    num_output: 256
    bias_term: false
    pad: 1
    kernel_size: 3
    stride: 1
  }
}
layer {
  name: "conv4_2_3x3/bn"
  type: "BatchNorm"
  bottom: "conv4_2_3x3"
  top: "conv4_2_3x3"
  batch_norm_param {
    use_global_stats: true
  }
}
layer {
  name: "conv4_2_3x3/bn/scale"
  type: "Scale"
  bottom: "conv4_2_3x3"
  top: "conv4_2_3x3"
  scale_param {
    bias_term: true
  }
}
layer {
  name: "conv4_2_3x3/relu"
  type: "ReLU"
  bottom: "conv4_2_3x3"
  top: "conv4_2_3x3"
}
layer {
  name: "conv4_2_1x1_increase"
  type: "Convolution"
  bottom: "conv4_2_3x3"
  top: "conv4_2_1x1_increase"
  convolution_param {
    num_output: 1024
    bias_term: false
    kernel_size: 1
    stride: 1
  }
}
layer {
  name: "conv4_2_1x1_increase/bn"
  type: "BatchNorm"
  bottom: "conv4_2_1x1_increase"
  top: "conv4_2_1x1_increase"
  batch_norm_param {
    use_global_stats: true
  }
}
layer {
  name: "conv4_2_1x1_increase/bn/scale"
  type: "Scale"
  bottom: "conv4_2_1x1_increase"
  top: "conv4_2_1x1_increase"
  scale_param {
    bias_term: true
  }
}
layer {
  name: "conv4_2_global_pool"
  type: "Pooling"
  bottom: "conv4_2_1x1_increase"
  top: "conv4_2_global_pool"
  pooling_param {
    pool: AVE
    engine: CAFFE
    global_pooling: true
  }
}
layer {
  name: "conv4_2_1x1_down"
  type: "Convolution"
  bottom: "conv4_2_global_pool"
  top: "conv4_2_1x1_down"
  convolution_param {
    num_output: 64
    kernel_size: 1
    stride: 1
  }
}
layer {
  name: "conv4_2_1x1_down/relu"
  type: "ReLU"
  bottom: "conv4_2_1x1_down"
  top: "conv4_2_1x1_down"
}
layer {
  name: "conv4_2_1x1_up"
  type: "Convolution"
  bottom: "conv4_2_1x1_down"
  top: "conv4_2_1x1_up"
  convolution_param {
    num_output: 1024
    kernel_size: 1
    stride: 1
  }
}
layer {
  name: "conv4_2_prob"
  type: "Sigmoid"
  bottom: "conv4_2_1x1_up"
  top: "conv4_2_1x1_up"
}
layer {
  name: "conv4_2"
  type: "Axpy"
  bottom: "conv4_2_1x1_up"
  bottom: "conv4_2_1x1_increase"
  bottom: "conv4_1"
  top: "conv4_2"
}
layer {
  name: "conv4_2/relu"
  type: "ReLU"
  bottom: "conv4_2"
  top: "conv4_2"
}
layer {
  name: "conv4_3_1x1_reduce"
  type: "Convolution"
  bottom: "conv4_2"
  top: "conv4_3_1x1_reduce"
  convolution_param {
    num_output: 256
    bias_term: false
    kernel_size: 1
    stride: 1
  }
}
layer {
  name: "conv4_3_1x1_reduce/bn"
  type: "BatchNorm"
  bottom: "conv4_3_1x1_reduce"
  top: "conv4_3_1x1_reduce"
  batch_norm_param {
    use_global_stats: true
  }
}
layer {
  name: "conv4_3_1x1_reduce/bn/scale"
  type: "Scale"
  bottom: "conv4_3_1x1_reduce"
  top: "conv4_3_1x1_reduce"
  scale_param {
    bias_term: true
  }
}
layer {
  name: "conv4_3_1x1_reduce/relu"
  type: "ReLU"
  bottom: "conv4_3_1x1_reduce"
  top: "conv4_3_1x1_reduce"
}
layer {
  n
I0928 12:22:59.778162  4827 layer_factory.hpp:77] Creating layer source_data
I0928 12:22:59.778214  4827 net.cpp:100] Creating Layer source_data
I0928 12:22:59.778225  4827 net.cpp:408] source_data -> source_data
I0928 12:22:59.778254  4827 net.cpp:408] source_data -> source_label
I0928 12:22:59.778658  4827 image_data_layer.cpp:38] Opening file ./data/VisDA2017/train.txt
I0928 12:22:59.838188  4827 image_data_layer.cpp:53] Shuffling data
I0928 12:22:59.852912  4827 image_data_layer.cpp:58] A total of 152397 images.
I0928 12:22:59.890036  4827 image_data_layer.cpp:85] output data size: 8,3,224,224
I0928 12:22:59.899132  4827 net.cpp:150] Setting up source_data
I0928 12:22:59.899173  4827 net.cpp:157] Top shape: 8 3 224 224 (1204224)
I0928 12:22:59.899180  4827 net.cpp:157] Top shape: 8 (8)
I0928 12:22:59.899185  4827 net.cpp:165] Memory required for data: 4816928
I0928 12:22:59.899194  4827 layer_factory.hpp:77] Creating layer source_label_source_data_1_split
I0928 12:22:59.899210  4827 net.cpp:100] Creating Layer source_label_source_data_1_split
I0928 12:22:59.899219  4827 net.cpp:434] source_label_source_data_1_split <- source_label
I0928 12:22:59.899235  4827 net.cpp:408] source_label_source_data_1_split -> source_label_source_data_1_split_0
I0928 12:22:59.899250  4827 net.cpp:408] source_label_source_data_1_split -> source_label_source_data_1_split_1
I0928 12:22:59.899322  4827 net.cpp:150] Setting up source_label_source_data_1_split
I0928 12:22:59.899330  4827 net.cpp:157] Top shape: 8 (8)
I0928 12:22:59.899334  4827 net.cpp:157] Top shape: 8 (8)
I0928 12:22:59.899338  4827 net.cpp:165] Memory required for data: 4816992
I0928 12:22:59.899343  4827 layer_factory.hpp:77] Creating layer target_data
I0928 12:22:59.899360  4827 net.cpp:100] Creating Layer target_data
I0928 12:22:59.899366  4827 net.cpp:408] target_data -> target_data
I0928 12:22:59.899405  4827 net.cpp:408] target_data -> target_label
I0928 12:22:59.899418  4827 image_data_layer.cpp:38] Opening file ./data/VisDA2017/test.txt
I0928 12:22:59.917280  4827 image_data_layer.cpp:53] Shuffling data
I0928 12:22:59.921182  4827 image_data_layer.cpp:58] A total of 55388 images.
I0928 12:22:59.923799  4827 image_data_layer.cpp:85] output data size: 8,3,224,224
I0928 12:22:59.932920  4827 net.cpp:150] Setting up target_data
I0928 12:22:59.932941  4827 net.cpp:157] Top shape: 8 3 224 224 (1204224)
I0928 12:22:59.932947  4827 net.cpp:157] Top shape: 8 (8)
I0928 12:22:59.932950  4827 net.cpp:165] Memory required for data: 9633920
I0928 12:22:59.932956  4827 layer_factory.hpp:77] Creating layer target_label_silence
I0928 12:22:59.932973  4827 net.cpp:100] Creating Layer target_label_silence
I0928 12:22:59.932979  4827 net.cpp:434] target_label_silence <- target_label
I0928 12:22:59.932989  4827 net.cpp:150] Setting up target_label_silence
I0928 12:22:59.932996  4827 net.cpp:165] Memory required for data: 9633920
I0928 12:22:59.932998  4827 layer_factory.hpp:77] Creating layer data
I0928 12:22:59.933010  4827 net.cpp:100] Creating Layer data
I0928 12:22:59.933014  4827 net.cpp:434] data <- source_data
I0928 12:22:59.933018  4827 net.cpp:434] data <- target_data
I0928 12:22:59.933024  4827 net.cpp:408] data -> data
I0928 12:22:59.933068  4827 net.cpp:150] Setting up data
I0928 12:22:59.933076  4827 net.cpp:157] Top shape: 16 3 224 224 (2408448)
I0928 12:22:59.933079  4827 net.cpp:165] Memory required for data: 19267712
I0928 12:22:59.933084  4827 layer_factory.hpp:77] Creating layer conv1/7x7_s2
I0928 12:22:59.933099  4827 net.cpp:100] Creating Layer conv1/7x7_s2
I0928 12:22:59.933104  4827 net.cpp:434] conv1/7x7_s2 <- data
I0928 12:22:59.933109  4827 net.cpp:408] conv1/7x7_s2 -> conv1/7x7_s2
I0928 12:23:00.192854  4827 net.cpp:150] Setting up conv1/7x7_s2
I0928 12:23:00.192888  4827 net.cpp:157] Top shape: 16 64 112 112 (12845056)
I0928 12:23:00.192891  4827 net.cpp:165] Memory required for data: 70647936
I0928 12:23:00.192914  4827 layer_factory.hpp:77] Creating layer conv1/7x7_s2/bn
I0928 12:23:00.192930  4827 net.cpp:100] Creating Layer conv1/7x7_s2/bn
I0928 12:23:00.192936  4827 net.cpp:434] conv1/7x7_s2/bn <- conv1/7x7_s2
I0928 12:23:00.192944  4827 net.cpp:395] conv1/7x7_s2/bn -> conv1/7x7_s2 (in-place)
I0928 12:23:00.193136  4827 net.cpp:150] Setting up conv1/7x7_s2/bn
I0928 12:23:00.193145  4827 net.cpp:157] Top shape: 16 64 112 112 (12845056)
I0928 12:23:00.193150  4827 net.cpp:165] Memory required for data: 122028160
I0928 12:23:00.193161  4827 layer_factory.hpp:77] Creating layer conv1/7x7_s2/bn/scale
I0928 12:23:00.193171  4827 net.cpp:100] Creating Layer conv1/7x7_s2/bn/scale
I0928 12:23:00.193174  4827 net.cpp:434] conv1/7x7_s2/bn/scale <- conv1/7x7_s2
I0928 12:23:00.193179  4827 net.cpp:395] conv1/7x7_s2/bn/scale -> conv1/7x7_s2 (in-place)
I0928 12:23:00.193225  4827 layer_factory.hpp:77] Creating layer conv1/7x7_s2/bn/scale
I0928 12:23:00.193351  4827 net.cpp:150] Setting up conv1/7x7_s2/bn/scale
I0928 12:23:00.193358  4827 net.cpp:157] Top shape: 16 64 112 112 (12845056)
I0928 12:23:00.193362  4827 net.cpp:165] Memory required for data: 173408384
I0928 12:23:00.193370  4827 layer_factory.hpp:77] Creating layer conv1/relu_7x7_s2
I0928 12:23:00.193380  4827 net.cpp:100] Creating Layer conv1/relu_7x7_s2
I0928 12:23:00.193384  4827 net.cpp:434] conv1/relu_7x7_s2 <- conv1/7x7_s2
I0928 12:23:00.193388  4827 net.cpp:395] conv1/relu_7x7_s2 -> conv1/7x7_s2 (in-place)
I0928 12:23:00.193555  4827 net.cpp:150] Setting up conv1/relu_7x7_s2
I0928 12:23:00.193565  4827 net.cpp:157] Top shape: 16 64 112 112 (12845056)
I0928 12:23:00.193569  4827 net.cpp:165] Memory required for data: 224788608
I0928 12:23:00.193572  4827 layer_factory.hpp:77] Creating layer pool1/3x3_s2
I0928 12:23:00.193583  4827 net.cpp:100] Creating Layer pool1/3x3_s2
I0928 12:23:00.193586  4827 net.cpp:434] pool1/3x3_s2 <- conv1/7x7_s2
I0928 12:23:00.193591  4827 net.cpp:408] pool1/3x3_s2 -> pool1/3x3_s2
I0928 12:23:00.193675  4827 net.cpp:150] Setting up pool1/3x3_s2
I0928 12:23:00.193684  4827 net.cpp:157] Top shape: 16 64 56 56 (3211264)
I0928 12:23:00.193688  4827 net.cpp:165] Memory required for data: 237633664
I0928 12:23:00.193691  4827 layer_factory.hpp:77] Creating layer pool1/3x3_s2_pool1/3x3_s2_0_split
I0928 12:23:00.193698  4827 net.cpp:100] Creating Layer pool1/3x3_s2_pool1/3x3_s2_0_split
I0928 12:23:00.193701  4827 net.cpp:434] pool1/3x3_s2_pool1/3x3_s2_0_split <- pool1/3x3_s2
I0928 12:23:00.193707  4827 net.cpp:408] pool1/3x3_s2_pool1/3x3_s2_0_split -> pool1/3x3_s2_pool1/3x3_s2_0_split_0
I0928 12:23:00.193713  4827 net.cpp:408] pool1/3x3_s2_pool1/3x3_s2_0_split -> pool1/3x3_s2_pool1/3x3_s2_0_split_1
I0928 12:23:00.193742  4827 net.cpp:150] Setting up pool1/3x3_s2_pool1/3x3_s2_0_split
I0928 12:23:00.193748  4827 net.cpp:157] Top shape: 16 64 56 56 (3211264)
I0928 12:23:00.193753  4827 net.cpp:157] Top shape: 16 64 56 56 (3211264)
I0928 12:23:00.193755  4827 net.cpp:165] Memory required for data: 263323776
I0928 12:23:00.193758  4827 layer_factory.hpp:77] Creating layer conv2_1_1x1_reduce
I0928 12:23:00.193768  4827 net.cpp:100] Creating Layer conv2_1_1x1_reduce
I0928 12:23:00.193773  4827 net.cpp:434] conv2_1_1x1_reduce <- pool1/3x3_s2_pool1/3x3_s2_0_split_0
I0928 12:23:00.193778  4827 net.cpp:408] conv2_1_1x1_reduce -> conv2_1_1x1_reduce
I0928 12:23:00.195761  4827 net.cpp:150] Setting up conv2_1_1x1_reduce
I0928 12:23:00.195776  4827 net.cpp:157] Top shape: 16 64 56 56 (3211264)
I0928 12:23:00.195781  4827 net.cpp:165] Memory required for data: 276168832
I0928 12:23:00.195792  4827 layer_factory.hpp:77] Creating layer conv2_1_1x1_reduce/bn
I0928 12:23:00.195802  4827 net.cpp:100] Creating Layer conv2_1_1x1_reduce/bn
I0928 12:23:00.195807  4827 net.cpp:434] conv2_1_1x1_reduce/bn <- conv2_1_1x1_reduce
I0928 12:23:00.195812  4827 net.cpp:395] conv2_1_1x1_reduce/bn -> conv2_1_1x1_reduce (in-place)
I0928 12:23:00.195983  4827 net.cpp:150] Setting up conv2_1_1x1_reduce/bn
I0928 12:23:00.195991  4827 net.cpp:157] Top shape: 16 64 56 56 (3211264)
I0928 12:23:00.195994  4827 net.cpp:165] Memory required for data: 289013888
I0928 12:23:00.196004  4827 layer_factory.hpp:77] Creating layer conv2_1_1x1_reduce/bn/scale
I0928 12:23:00.196012  4827 net.cpp:100] Creating Layer conv2_1_1x1_reduce/bn/scale
I0928 12:23:00.196017  4827 net.cpp:434] conv2_1_1x1_reduce/bn/scale <- conv2_1_1x1_reduce
I0928 12:23:00.196020  4827 net.cpp:395] conv2_1_1x1_reduce/bn/scale -> conv2_1_1x1_reduce (in-place)
I0928 12:23:00.196058  4827 layer_factory.hpp:77] Creating layer conv2_1_1x1_reduce/bn/scale
I0928 12:23:00.196161  4827 net.cpp:150] Setting up conv2_1_1x1_reduce/bn/scale
I0928 12:23:00.196167  4827 net.cpp:157] Top shape: 16 64 56 56 (3211264)
I0928 12:23:00.196171  4827 net.cpp:165] Memory required for data: 301858944
I0928 12:23:00.196177  4827 layer_factory.hpp:77] Creating layer conv2_1_1x1_reduce/relu
I0928 12:23:00.196184  4827 net.cpp:100] Creating Layer conv2_1_1x1_reduce/relu
I0928 12:23:00.196188  4827 net.cpp:434] conv2_1_1x1_reduce/relu <- conv2_1_1x1_reduce
I0928 12:23:00.196193  4827 net.cpp:395] conv2_1_1x1_reduce/relu -> conv2_1_1x1_reduce (in-place)
I0928 12:23:00.196660  4827 net.cpp:150] Setting up conv2_1_1x1_reduce/relu
I0928 12:23:00.196673  4827 net.cpp:157] Top shape: 16 64 56 56 (3211264)
I0928 12:23:00.196678  4827 net.cpp:165] Memory required for data: 314704000
I0928 12:23:00.196681  4827 layer_factory.hpp:77] Creating layer conv2_1_3x3
I0928 12:23:00.196691  4827 net.cpp:100] Creating Layer conv2_1_3x3
I0928 12:23:00.196696  4827 net.cpp:434] conv2_1_3x3 <- conv2_1_1x1_reduce
I0928 12:23:00.196702  4827 net.cpp:408] conv2_1_3x3 -> conv2_1_3x3
I0928 12:23:00.198415  4827 net.cpp:150] Setting up conv2_1_3x3
I0928 12:23:00.198429  4827 net.cpp:157] Top shape: 16 64 56 56 (3211264)
I0928 12:23:00.198433  4827 net.cpp:165] Memory required for data: 327549056
I0928 12:23:00.198439  4827 layer_factory.hpp:77] Creating layer conv2_1_3x3/bn
I0928 12:23:00.198449  4827 net.cpp:100] Creating Layer conv2_1_3x3/bn
I0928 12:23:00.198467  4827 net.cpp:434] conv2_1_3x3/bn <- conv2_1_3x3
I0928 12:23:00.198477  4827 net.cpp:395] conv2_1_3x3/bn -> conv2_1_3x3 (in-place)
I0928 12:23:00.198654  4827 net.cpp:150] Setting up conv2_1_3x3/bn
I0928 12:23:00.198662  4827 net.cpp:157] Top shape: 16 64 56 56 (3211264)
I0928 12:23:00.198667  4827 net.cpp:165] Memory required for data: 340394112
I0928 12:23:00.198674  4827 layer_factory.hpp:77] Creating layer conv2_1_3x3/bn/scale
I0928 12:23:00.198681  4827 net.cpp:100] Creating Layer conv2_1_3x3/bn/scale
I0928 12:23:00.198685  4827 net.cpp:434] conv2_1_3x3/bn/scale <- conv2_1_3x3
I0928 12:23:00.198689  4827 net.cpp:395] conv2_1_3x3/bn/scale -> conv2_1_3x3 (in-place)
I0928 12:23:00.198726  4827 layer_factory.hpp:77] Creating layer conv2_1_3x3/bn/scale
I0928 12:23:00.198842  4827 net.cpp:150] Setting up conv2_1_3x3/bn/scale
I0928 12:23:00.198850  4827 net.cpp:157] Top shape: 16 64 56 56 (3211264)
I0928 12:23:00.198854  4827 net.cpp:165] Memory required for data: 353239168
I0928 12:23:00.198865  4827 layer_factory.hpp:77] Creating layer conv2_1_3x3/relu
I0928 12:23:00.198873  4827 net.cpp:100] Creating Layer conv2_1_3x3/relu
I0928 12:23:00.198876  4827 net.cpp:434] conv2_1_3x3/relu <- conv2_1_3x3
I0928 12:23:00.198880  4827 net.cpp:395] conv2_1_3x3/relu -> conv2_1_3x3 (in-place)
I0928 12:23:00.199321  4827 net.cpp:150] Setting up conv2_1_3x3/relu
I0928 12:23:00.199334  4827 net.cpp:157] Top shape: 16 64 56 56 (3211264)
I0928 12:23:00.199339  4827 net.cpp:165] Memory required for data: 366084224
I0928 12:23:00.199342  4827 layer_factory.hpp:77] Creating layer conv2_1_1x1_increase
I0928 12:23:00.199354  4827 net.cpp:100] Creating Layer conv2_1_1x1_increase
I0928 12:23:00.199358  4827 net.cpp:434] conv2_1_1x1_increase <- conv2_1_3x3
I0928 12:23:00.199363  4827 net.cpp:408] conv2_1_1x1_increase -> conv2_1_1x1_increase
I0928 12:23:00.200328  4827 net.cpp:150] Setting up conv2_1_1x1_increase
I0928 12:23:00.200342  4827 net.cpp:157] Top shape: 16 256 56 56 (12845056)
I0928 12:23:00.200347  4827 net.cpp:165] Memory required for data: 417464448
I0928 12:23:00.200352  4827 layer_factory.hpp:77] Creating layer conv2_1_1x1_increase/bn
I0928 12:23:00.200361  4827 net.cpp:100] Creating Layer conv2_1_1x1_increase/bn
I0928 12:23:00.200366  4827 net.cpp:434] conv2_1_1x1_increase/bn <- conv2_1_1x1_increase
I0928 12:23:00.200371  4827 net.cpp:395] conv2_1_1x1_increase/bn -> conv2_1_1x1_increase (in-place)
I0928 12:23:00.200541  4827 net.cpp:150] Setting up conv2_1_1x1_increase/bn
I0928 12:23:00.200551  4827 net.cpp:157] Top shape: 16 256 56 56 (12845056)
I0928 12:23:00.200553  4827 net.cpp:165] Memory required for data: 468844672
I0928 12:23:00.200562  4827 layer_factory.hpp:77] Creating layer conv2_1_1x1_increase/bn/scale
I0928 12:23:00.200567  4827 net.cpp:100] Creating Layer conv2_1_1x1_increase/bn/scale
I0928 12:23:00.200572  4827 net.cpp:434] conv2_1_1x1_increase/bn/scale <- conv2_1_1x1_increase
I0928 12:23:00.200577  4827 net.cpp:395] conv2_1_1x1_increase/bn/scale -> conv2_1_1x1_increase (in-place)
I0928 12:23:00.200613  4827 layer_factory.hpp:77] Creating layer conv2_1_1x1_increase/bn/scale
I0928 12:23:00.200713  4827 net.cpp:150] Setting up conv2_1_1x1_increase/bn/scale
I0928 12:23:00.200721  4827 net.cpp:157] Top shape: 16 256 56 56 (12845056)
I0928 12:23:00.200724  4827 net.cpp:165] Memory required for data: 520224896
I0928 12:23:00.200729  4827 layer_factory.hpp:77] Creating layer conv2_1_1x1_increase_conv2_1_1x1_increase/bn/scale_0_split
I0928 12:23:00.200737  4827 net.cpp:100] Creating Layer conv2_1_1x1_increase_conv2_1_1x1_increase/bn/scale_0_split
I0928 12:23:00.200742  4827 net.cpp:434] conv2_1_1x1_increase_conv2_1_1x1_increase/bn/scale_0_split <- conv2_1_1x1_increase
I0928 12:23:00.200747  4827 net.cpp:408] conv2_1_1x1_increase_conv2_1_1x1_increase/bn/scale_0_split -> conv2_1_1x1_increase_conv2_1_1x1_increase/bn/scale_0_split_0
I0928 12:23:00.200754  4827 net.cpp:408] conv2_1_1x1_increase_conv2_1_1x1_increase/bn/scale_0_split -> conv2_1_1x1_increase_conv2_1_1x1_increase/bn/scale_0_split_1
I0928 12:23:00.200811  4827 net.cpp:150] Setting up conv2_1_1x1_increase_conv2_1_1x1_increase/bn/scale_0_split
I0928 12:23:00.200820  4827 net.cpp:157] Top shape: 16 256 56 56 (12845056)
I0928 12:23:00.200825  4827 net.cpp:157] Top shape: 16 256 56 56 (12845056)
I0928 12:23:00.200829  4827 net.cpp:165] Memory required for data: 622985344
I0928 12:23:00.200832  4827 layer_factory.hpp:77] Creating layer conv2_1_global_pool
I0928 12:23:00.200840  4827 net.cpp:100] Creating Layer conv2_1_global_pool
I0928 12:23:00.200845  4827 net.cpp:434] conv2_1_global_pool <- conv2_1_1x1_increase_conv2_1_1x1_increase/bn/scale_0_split_0
I0928 12:23:00.200850  4827 net.cpp:408] conv2_1_global_pool -> conv2_1_global_pool
I0928 12:23:00.200876  4827 net.cpp:150] Setting up conv2_1_global_pool
I0928 12:23:00.200883  4827 net.cpp:157] Top shape: 16 256 1 1 (4096)
I0928 12:23:00.200887  4827 net.cpp:165] Memory required for data: 623001728
I0928 12:23:00.200891  4827 layer_factory.hpp:77] Creating layer conv2_1_1x1_down
I0928 12:23:00.200897  4827 net.cpp:100] Creating Layer conv2_1_1x1_down
I0928 12:23:00.200901  4827 net.cpp:434] conv2_1_1x1_down <- conv2_1_global_pool
I0928 12:23:00.200906  4827 net.cpp:408] conv2_1_1x1_down -> conv2_1_1x1_down
I0928 12:23:00.202148  4827 net.cpp:150] Setting up conv2_1_1x1_down
I0928 12:23:00.202162  4827 net.cpp:157] Top shape: 16 16 1 1 (256)
I0928 12:23:00.202167  4827 net.cpp:165] Memory required for data: 623002752
I0928 12:23:00.202173  4827 layer_factory.hpp:77] Creating layer conv2_1_1x1_down/relu
I0928 12:23:00.202179  4827 net.cpp:100] Creating Layer conv2_1_1x1_down/relu
I0928 12:23:00.202184  4827 net.cpp:434] conv2_1_1x1_down/relu <- conv2_1_1x1_down
I0928 12:23:00.202190  4827 net.cpp:395] conv2_1_1x1_down/relu -> conv2_1_1x1_down (in-place)
I0928 12:23:00.202369  4827 net.cpp:150] Setting up conv2_1_1x1_down/relu
I0928 12:23:00.202379  4827 net.cpp:157] Top shape: 16 16 1 1 (256)
I0928 12:23:00.202383  4827 net.cpp:165] Memory required for data: 623003776
I0928 12:23:00.202388  4827 layer_factory.hpp:77] Creating layer conv2_1_1x1_up
I0928 12:23:00.202396  4827 net.cpp:100] Creating Layer conv2_1_1x1_up
I0928 12:23:00.202401  4827 net.cpp:434] conv2_1_1x1_up <- conv2_1_1x1_down
I0928 12:23:00.202406  4827 net.cpp:408] conv2_1_1x1_up -> conv2_1_1x1_up
I0928 12:23:00.203411  4827 net.cpp:150] Setting up conv2_1_1x1_up
I0928 12:23:00.203425  4827 net.cpp:157] Top shape: 16 256 1 1 (4096)
I0928 12:23:00.203429  4827 net.cpp:165] Memory required for data: 623020160
I0928 12:23:00.203436  4827 layer_factory.hpp:77] Creating layer conv2_1_prob
I0928 12:23:00.203446  4827 net.cpp:100] Creating Layer conv2_1_prob
I0928 12:23:00.203451  4827 net.cpp:434] conv2_1_prob <- conv2_1_1x1_up
I0928 12:23:00.203459  4827 net.cpp:395] conv2_1_prob -> conv2_1_1x1_up (in-place)
I0928 12:23:00.203624  4827 net.cpp:150] Setting up conv2_1_prob
I0928 12:23:00.203634  4827 net.cpp:157] Top shape: 16 256 1 1 (4096)
I0928 12:23:00.203639  4827 net.cpp:165] Memory required for data: 623036544
I0928 12:23:00.203641  4827 layer_factory.hpp:77] Creating layer conv2_1_1x1_proj
I0928 12:23:00.203649  4827 net.cpp:100] Creating Layer conv2_1_1x1_proj
I0928 12:23:00.203655  4827 net.cpp:434] conv2_1_1x1_proj <- pool1/3x3_s2_pool1/3x3_s2_0_split_1
I0928 12:23:00.203660  4827 net.cpp:408] conv2_1_1x1_proj -> conv2_1_1x1_proj
I0928 12:23:00.204618  4827 net.cpp:150] Setting up conv2_1_1x1_proj
I0928 12:23:00.204634  4827 net.cpp:157] Top shape: 16 256 56 56 (12845056)
I0928 12:23:00.204639  4827 net.cpp:165] Memory required for data: 674416768
I0928 12:23:00.204644  4827 layer_factory.hpp:77] Creating layer conv2_1_1x1_proj/bn
I0928 12:23:00.204651  4827 net.cpp:100] Creating Layer conv2_1_1x1_proj/bn
I0928 12:23:00.204655  4827 net.cpp:434] conv2_1_1x1_proj/bn <- conv2_1_1x1_proj
I0928 12:23:00.204660  4827 net.cpp:395] conv2_1_1x1_proj/bn -> conv2_1_1x1_proj (in-place)
I0928 12:23:00.204836  4827 net.cpp:150] Setting up conv2_1_1x1_proj/bn
I0928 12:23:00.204844  4827 net.cpp:157] Top shape: 16 256 56 56 (12845056)
I0928 12:23:00.204849  4827 net.cpp:165] Memory required for data: 725796992
I0928 12:23:00.204870  4827 layer_factory.hpp:77] Creating layer conv2_1_1x1_proj/bn/scale
I0928 12:23:00.204879  4827 net.cpp:100] Creating Layer conv2_1_1x1_proj/bn/scale
I0928 12:23:00.204882  4827 net.cpp:434] conv2_1_1x1_proj/bn/scale <- conv2_1_1x1_proj
I0928 12:23:00.204887  4827 net.cpp:395] conv2_1_1x1_proj/bn/scale -> conv2_1_1x1_proj (in-place)
I0928 12:23:00.204928  4827 layer_factory.hpp:77] Creating layer conv2_1_1x1_proj/bn/scale
I0928 12:23:00.205029  4827 net.cpp:150] Setting up conv2_1_1x1_proj/bn/scale
I0928 12:23:00.205037  4827 net.cpp:157] Top shape: 16 256 56 56 (12845056)
I0928 12:23:00.205040  4827 net.cpp:165] Memory required for data: 777177216
I0928 12:23:00.205054  4827 layer_factory.hpp:77] Creating layer conv2_1
I0928 12:23:00.205061  4827 net.cpp:100] Creating Layer conv2_1
I0928 12:23:00.205066  4827 net.cpp:434] conv2_1 <- conv2_1_1x1_up
I0928 12:23:00.205070  4827 net.cpp:434] conv2_1 <- conv2_1_1x1_increase_conv2_1_1x1_increase/bn/scale_0_split_1
I0928 12:23:00.205075  4827 net.cpp:434] conv2_1 <- conv2_1_1x1_proj
I0928 12:23:00.205080  4827 net.cpp:408] conv2_1 -> conv2_1
I0928 12:23:00.205130  4827 net.cpp:150] Setting up conv2_1
I0928 12:23:00.205137  4827 net.cpp:157] Top shape: 16 256 56 56 (12845056)
I0928 12:23:00.205142  4827 net.cpp:165] Memory required for data: 828557440
I0928 12:23:00.205144  4827 layer_factory.hpp:77] Creating layer conv2_1/relu
I0928 12:23:00.205152  4827 net.cpp:100] Creating Layer conv2_1/relu
I0928 12:23:00.205157  4827 net.cpp:434] conv2_1/relu <- conv2_1
I0928 12:23:00.205162  4827 net.cpp:395] conv2_1/relu -> conv2_1 (in-place)
I0928 12:23:00.205327  4827 net.cpp:150] Setting up conv2_1/relu
I0928 12:23:00.205338  4827 net.cpp:157] Top shape: 16 256 56 56 (12845056)
I0928 12:23:00.205343  4827 net.cpp:165] Memory required for data: 879937664
I0928 12:23:00.205345  4827 layer_factory.hpp:77] Creating layer conv2_1_conv2_1/relu_0_split
I0928 12:23:00.205351  4827 net.cpp:100] Creating Layer conv2_1_conv2_1/relu_0_split
I0928 12:23:00.205355  4827 net.cpp:434] conv2_1_conv2_1/relu_0_split <- conv2_1
I0928 12:23:00.205360  4827 net.cpp:408] conv2_1_conv2_1/relu_0_split -> conv2_1_conv2_1/relu_0_split_0
I0928 12:23:00.205366  4827 net.cpp:408] conv2_1_conv2_1/relu_0_split -> conv2_1_conv2_1/relu_0_split_1
I0928 12:23:00.205407  4827 net.cpp:150] Setting up conv2_1_conv2_1/relu_0_split
I0928 12:23:00.205413  4827 net.cpp:157] Top shape: 16 256 56 56 (12845056)
I0928 12:23:00.205418  4827 net.cpp:157] Top shape: 16 256 56 56 (12845056)
I0928 12:23:00.205422  4827 net.cpp:165] Memory required for data: 982698112
I0928 12:23:00.205425  4827 layer_factory.hpp:77] Creating layer conv2_2_1x1_reduce
I0928 12:23:00.205433  4827 net.cpp:100] Creating Layer conv2_2_1x1_reduce
I0928 12:23:00.205437  4827 net.cpp:434] conv2_2_1x1_reduce <- conv2_1_conv2_1/relu_0_split_0
I0928 12:23:00.205443  4827 net.cpp:408] conv2_2_1x1_reduce -> conv2_2_1x1_reduce
I0928 12:23:00.206415  4827 net.cpp:150] Setting up conv2_2_1x1_reduce
I0928 12:23:00.206429  4827 net.cpp:157] Top shape: 16 64 56 56 (3211264)
I0928 12:23:00.206434  4827 net.cpp:165] Memory required for data: 995543168
I0928 12:23:00.206439  4827 layer_factory.hpp:77] Creating layer conv2_2_1x1_reduce/bn
I0928 12:23:00.206447  4827 net.cpp:100] Creating Layer conv2_2_1x1_reduce/bn
I0928 12:23:00.206452  4827 net.cpp:434] conv2_2_1x1_reduce/bn <- conv2_2_1x1_reduce
I0928 12:23:00.206459  4827 net.cpp:395] conv2_2_1x1_reduce/bn -> conv2_2_1x1_reduce (in-place)
I0928 12:23:00.206640  4827 net.cpp:150] Setting up conv2_2_1x1_reduce/bn
I0928 12:23:00.206648  4827 net.cpp:157] Top shape: 16 64 56 56 (3211264)
I0928 12:23:00.206652  4827 net.cpp:165] Memory required for data: 1008388224
I0928 12:23:00.206660  4827 layer_factory.hpp:77] Creating layer conv2_2_1x1_reduce/bn/scale
I0928 12:23:00.206667  4827 net.cpp:100] Creating Layer conv2_2_1x1_reduce/bn/scale
I0928 12:23:00.206671  4827 net.cpp:434] conv2_2_1x1_reduce/bn/scale <- conv2_2_1x1_reduce
I0928 12:23:00.206689  4827 net.cpp:395] conv2_2_1x1_reduce/bn/scale -> conv2_2_1x1_reduce (in-place)
I0928 12:23:00.206733  4827 layer_factory.hpp:77] Creating layer conv2_2_1x1_reduce/bn/scale
I0928 12:23:00.206852  4827 net.cpp:150] Setting up conv2_2_1x1_reduce/bn/scale
I0928 12:23:00.206861  4827 net.cpp:157] Top shape: 16 64 56 56 (3211264)
I0928 12:23:00.206866  4827 net.cpp:165] Memory required for data: 1021233280
I0928 12:23:00.206871  4827 layer_factory.hpp:77] Creating layer conv2_2_1x1_reduce/relu
I0928 12:23:00.206877  4827 net.cpp:100] Creating Layer conv2_2_1x1_reduce/relu
I0928 12:23:00.206882  4827 net.cpp:434] conv2_2_1x1_reduce/relu <- conv2_2_1x1_reduce
I0928 12:23:00.206887  4827 net.cpp:395] conv2_2_1x1_reduce/relu -> conv2_2_1x1_reduce (in-place)
I0928 12:23:00.207056  4827 net.cpp:150] Setting up conv2_2_1x1_reduce/relu
I0928 12:23:00.207067  4827 net.cpp:157] Top shape: 16 64 56 56 (3211264)
I0928 12:23:00.207072  4827 net.cpp:165] Memory required for data: 1034078336
I0928 12:23:00.207074  4827 layer_factory.hpp:77] Creating layer conv2_2_3x3
I0928 12:23:00.207082  4827 net.cpp:100] Creating Layer conv2_2_3x3
I0928 12:23:00.207087  4827 net.cpp:434] conv2_2_3x3 <- conv2_2_1x1_reduce
I0928 12:23:00.207093  4827 net.cpp:408] conv2_2_3x3 -> conv2_2_3x3
I0928 12:23:00.208078  4827 net.cpp:150] Setting up conv2_2_3x3
I0928 12:23:00.208092  4827 net.cpp:157] Top shape: 16 64 56 56 (3211264)
I0928 12:23:00.208096  4827 net.cpp:165] Memory required for data: 1046923392
I0928 12:23:00.208101  4827 layer_factory.hpp:77] Creating layer conv2_2_3x3/bn
I0928 12:23:00.208108  4827 net.cpp:100] Creating Layer conv2_2_3x3/bn
I0928 12:23:00.208113  4827 net.cpp:434] conv2_2_3x3/bn <- conv2_2_3x3
I0928 12:23:00.208120  4827 net.cpp:395] conv2_2_3x3/bn -> conv2_2_3x3 (in-place)
I0928 12:23:00.208304  4827 net.cpp:150] Setting up conv2_2_3x3/bn
I0928 12:23:00.208312  4827 net.cpp:157] Top shape: 16 64 56 56 (3211264)
I0928 12:23:00.208317  4827 net.cpp:165] Memory required for data: 1059768448
I0928 12:23:00.208323  4827 layer_factory.hpp:77] Creating layer conv2_2_3x3/bn/scale
I0928 12:23:00.208329  4827 net.cpp:100] Creating Layer conv2_2_3x3/bn/scale
I0928 12:23:00.208333  4827 net.cpp:434] conv2_2_3x3/bn/scale <- conv2_2_3x3
I0928 12:23:00.208341  4827 net.cpp:395] conv2_2_3x3/bn/scale -> conv2_2_3x3 (in-place)
I0928 12:23:00.208379  4827 layer_factory.hpp:77] Creating layer conv2_2_3x3/bn/scale
I0928 12:23:00.208487  4827 net.cpp:150] Setting up conv2_2_3x3/bn/scale
I0928 12:23:00.208494  4827 net.cpp:157] Top shape: 16 64 56 56 (3211264)
I0928 12:23:00.208498  4827 net.cpp:165] Memory required for data: 1072613504
I0928 12:23:00.208503  4827 layer_factory.hpp:77] Creating layer conv2_2_3x3/relu
I0928 12:23:00.208509  4827 net.cpp:100] Creating Layer conv2_2_3x3/relu
I0928 12:23:00.208513  4827 net.cpp:434] conv2_2_3x3/relu <- conv2_2_3x3
I0928 12:23:00.208518  4827 net.cpp:395] conv2_2_3x3/relu -> conv2_2_3x3 (in-place)
I0928 12:23:00.208683  4827 net.cpp:150] Setting up conv2_2_3x3/relu
I0928 12:23:00.208693  4827 net.cpp:157] Top shape: 16 64 56 56 (3211264)
I0928 12:23:00.208696  4827 net.cpp:165] Memory required for data: 1085458560
I0928 12:23:00.208699  4827 layer_factory.hpp:77] Creating layer conv2_2_1x1_increase
I0928 12:23:00.208709  4827 net.cpp:100] Creating Layer conv2_2_1x1_increase
I0928 12:23:00.208714  4827 net.cpp:434] conv2_2_1x1_increase <- conv2_2_3x3
I0928 12:23:00.208720  4827 net.cpp:408] conv2_2_1x1_increase -> conv2_2_1x1_increase
I0928 12:23:00.209692  4827 net.cpp:150] Setting up conv2_2_1x1_increase
I0928 12:23:00.209707  4827 net.cpp:157] Top shape: 16 256 56 56 (12845056)
I0928 12:23:00.209712  4827 net.cpp:165] Memory required for data: 1136838784
I0928 12:23:00.209717  4827 layer_factory.hpp:77] Creating layer conv2_2_1x1_increase/bn
I0928 12:23:00.209725  4827 net.cpp:100] Creating Layer conv2_2_1x1_increase/bn
I0928 12:23:00.209730  4827 net.cpp:434] conv2_2_1x1_increase/bn <- conv2_2_1x1_increase
I0928 12:23:00.209734  4827 net.cpp:395] conv2_2_1x1_increase/bn -> conv2_2_1x1_increase (in-place)
I0928 12:23:00.209933  4827 net.cpp:150] Setting up conv2_2_1x1_increase/bn
I0928 12:23:00.209942  4827 net.cpp:157] Top shape: 16 256 56 56 (12845056)
I0928 12:23:00.209946  4827 net.cpp:165] Memory required for data: 1188219008
I0928 12:23:00.209954  4827 layer_factory.hpp:77] Creating layer conv2_2_1x1_increase/bn/scale
I0928 12:23:00.209962  4827 net.cpp:100] Creating Layer conv2_2_1x1_increase/bn/scale
I0928 12:23:00.209966  4827 net.cpp:434] conv2_2_1x1_increase/bn/scale <- conv2_2_1x1_increase
I0928 12:23:00.209970  4827 net.cpp:395] conv2_2_1x1_increase/bn/scale -> conv2_2_1x1_increase (in-place)
I0928 12:23:00.210011  4827 layer_factory.hpp:77] Creating layer conv2_2_1x1_increase/bn/scale
I0928 12:23:00.210115  4827 net.cpp:150] Setting up conv2_2_1x1_increase/bn/scale
I0928 12:23:00.210122  4827 net.cpp:157] Top shape: 16 256 56 56 (12845056)
I0928 12:23:00.210126  4827 net.cpp:165] Memory required for data: 1239599232
I0928 12:23:00.210132  4827 layer_factory.hpp:77] Creating layer conv2_2_1x1_increase_conv2_2_1x1_increase/bn/scale_0_split
I0928 12:23:00.210137  4827 net.cpp:100] Creating Layer conv2_2_1x1_increase_conv2_2_1x1_increase/bn/scale_0_split
I0928 12:23:00.210141  4827 net.cpp:434] conv2_2_1x1_increase_conv2_2_1x1_increase/bn/scale_0_split <- conv2_2_1x1_increase
I0928 12:23:00.210149  4827 net.cpp:408] conv2_2_1x1_increase_conv2_2_1x1_increase/bn/scale_0_split -> conv2_2_1x1_increase_conv2_2_1x1_increase/bn/scale_0_split_0
I0928 12:23:00.210155  4827 net.cpp:408] conv2_2_1x1_increase_conv2_2_1x1_increase/bn/scale_0_split -> conv2_2_1x1_increase_conv2_2_1x1_increase/bn/scale_0_split_1
I0928 12:23:00.210191  4827 net.cpp:150] Setting up conv2_2_1x1_increase_conv2_2_1x1_increase/bn/scale_0_split
I0928 12:23:00.210197  4827 net.cpp:157] Top shape: 16 256 56 56 (12845056)
I0928 12:23:00.210202  4827 net.cpp:157] Top shape: 16 256 56 56 (12845056)
I0928 12:23:00.210206  4827 net.cpp:165] Memory required for data: 1342359680
I0928 12:23:00.210208  4827 layer_factory.hpp:77] Creating layer conv2_2_global_pool
I0928 12:23:00.210213  4827 net.cpp:100] Creating Layer conv2_2_global_pool
I0928 12:23:00.210217  4827 net.cpp:434] conv2_2_global_pool <- conv2_2_1x1_increase_conv2_2_1x1_increase/bn/scale_0_split_0
I0928 12:23:00.210222  4827 net.cpp:408] conv2_2_global_pool -> conv2_2_global_pool
I0928 12:23:00.210242  4827 net.cpp:150] Setting up conv2_2_global_pool
I0928 12:23:00.210248  4827 net.cpp:157] Top shape: 16 256 1 1 (4096)
I0928 12:23:00.210253  4827 net.cpp:165] Memory required for data: 1342376064
I0928 12:23:00.210254  4827 layer_factory.hpp:77] Creating layer conv2_2_1x1_down
I0928 12:23:00.210263  4827 net.cpp:100] Creating Layer conv2_2_1x1_down
I0928 12:23:00.210268  4827 net.cpp:434] conv2_2_1x1_down <- conv2_2_global_pool
I0928 12:23:00.210271  4827 net.cpp:408] conv2_2_1x1_down -> conv2_2_1x1_down
I0928 12:23:00.211336  4827 net.cpp:150] Setting up conv2_2_1x1_down
I0928 12:23:00.211350  4827 net.cpp:157] Top shape: 16 16 1 1 (256)
I0928 12:23:00.211355  4827 net.cpp:165] Memory required for data: 1342377088
I0928 12:23:00.211361  4827 layer_factory.hpp:77] Creating layer conv2_2_1x1_down/relu
I0928 12:23:00.211369  4827 net.cpp:100] Creating Layer conv2_2_1x1_down/relu
I0928 12:23:00.211374  4827 net.cpp:434] conv2_2_1x1_down/relu <- conv2_2_1x1_down
I0928 12:23:00.211381  4827 net.cpp:395] conv2_2_1x1_down/relu -> conv2_2_1x1_down (in-place)
I0928 12:23:00.211822  4827 net.cpp:150] Setting up conv2_2_1x1_down/relu
I0928 12:23:00.211836  4827 net.cpp:157] Top shape: 16 16 1 1 (256)
I0928 12:23:00.211840  4827 net.cpp:165] Memory required for data: 1342378112
I0928 12:23:00.211844  4827 layer_factory.hpp:77] Creating layer conv2_2_1x1_up
I0928 12:23:00.211854  4827 net.cpp:100] Creating Layer conv2_2_1x1_up
I0928 12:23:00.211859  4827 net.cpp:434] conv2_2_1x1_up <- conv2_2_1x1_down
I0928 12:23:00.211866  4827 net.cpp:408] conv2_2_1x1_up -> conv2_2_1x1_up
I0928 12:23:00.212592  4827 net.cpp:150] Setting up conv2_2_1x1_up
I0928 12:23:00.212604  4827 net.cpp:157] Top shape: 16 256 1 1 (4096)
I0928 12:23:00.212620  4827 net.cpp:165] Memory required for data: 1342394496
I0928 12:23:00.212630  4827 layer_factory.hpp:77] Creating layer conv2_2_prob
I0928 12:23:00.212638  4827 net.cpp:100] Creating Layer conv2_2_prob
I0928 12:23:00.212643  4827 net.cpp:434] conv2_2_prob <- conv2_2_1x1_up
I0928 12:23:00.212647  4827 net.cpp:395] conv2_2_prob -> conv2_2_1x1_up (in-place)
I0928 12:23:00.213098  4827 net.cpp:150] Setting up conv2_2_prob
I0928 12:23:00.213111  4827 net.cpp:157] Top shape: 16 256 1 1 (4096)
I0928 12:23:00.213115  4827 net.cpp:165] Memory required for data: 1342410880
I0928 12:23:00.213119  4827 layer_factory.hpp:77] Creating layer conv2_2
I0928 12:23:00.213129  4827 net.cpp:100] Creating Layer conv2_2
I0928 12:23:00.213132  4827 net.cpp:434] conv2_2 <- conv2_2_1x1_up
I0928 12:23:00.213137  4827 net.cpp:434] conv2_2 <- conv2_2_1x1_increase_conv2_2_1x1_increase/bn/scale_0_split_1
I0928 12:23:00.213142  4827 net.cpp:434] conv2_2 <- conv2_1_conv2_1/relu_0_split_1
I0928 12:23:00.213146  4827 net.cpp:408] conv2_2 -> conv2_2
I0928 12:23:00.213203  4827 net.cpp:150] Setting up conv2_2
I0928 12:23:00.213212  4827 net.cpp:157] Top shape: 16 256 56 56 (12845056)
I0928 12:23:00.213214  4827 net.cpp:165] Memory required for data: 1393791104
I0928 12:23:00.213218  4827 layer_factory.hpp:77] Creating layer conv2_2/relu
I0928 12:23:00.213225  4827 net.cpp:100] Creating Layer conv2_2/relu
I0928 12:23:00.213229  4827 net.cpp:434] conv2_2/relu <- conv2_2
I0928 12:23:00.213234  4827 net.cpp:395] conv2_2/relu -> conv2_2 (in-place)
I0928 12:23:00.213403  4827 net.cpp:150] Setting up conv2_2/relu
I0928 12:23:00.213414  4827 net.cpp:157] Top shape: 16 256 56 56 (12845056)
I0928 12:23:00.213418  4827 net.cpp:165] Memory required for data: 1445171328
I0928 12:23:00.213421  4827 layer_factory.hpp:77] Creating layer conv2_2_conv2_2/relu_0_split
I0928 12:23:00.213428  4827 net.cpp:100] Creating Layer conv2_2_conv2_2/relu_0_split
I0928 12:23:00.213430  4827 net.cpp:434] conv2_2_conv2_2/relu_0_split <- conv2_2
I0928 12:23:00.213436  4827 net.cpp:408] conv2_2_conv2_2/relu_0_split -> conv2_2_conv2_2/relu_0_split_0
I0928 12:23:00.213446  4827 net.cpp:408] conv2_2_conv2_2/relu_0_split -> conv2_2_conv2_2/relu_0_split_1
I0928 12:23:00.213488  4827 net.cpp:150] Setting up conv2_2_conv2_2/relu_0_split
I0928 12:23:00.213495  4827 net.cpp:157] Top shape: 16 256 56 56 (12845056)
I0928 12:23:00.213500  4827 net.cpp:157] Top shape: 16 256 56 56 (12845056)
I0928 12:23:00.213503  4827 net.cpp:165] Memory required for data: 1547931776
I0928 12:23:00.213506  4827 layer_factory.hpp:77] Creating layer conv2_3_1x1_reduce
I0928 12:23:00.213520  4827 net.cpp:100] Creating Layer conv2_3_1x1_reduce
I0928 12:23:00.213523  4827 net.cpp:434] conv2_3_1x1_reduce <- conv2_2_conv2_2/relu_0_split_0
I0928 12:23:00.213527  4827 net.cpp:408] conv2_3_1x1_reduce -> conv2_3_1x1_reduce
I0928 12:23:00.214766  4827 net.cpp:150] Setting up conv2_3_1x1_reduce
I0928 12:23:00.214781  4827 net.cpp:157] Top shape: 16 64 56 56 (3211264)
I0928 12:23:00.214788  4827 net.cpp:165] Memory required for data: 1560776832
I0928 12:23:00.214795  4827 layer_factory.hpp:77] Creating layer conv2_3_1x1_reduce/bn
I0928 12:23:00.214804  4827 net.cpp:100] Creating Layer conv2_3_1x1_reduce/bn
I0928 12:23:00.214809  4827 net.cpp:434] conv2_3_1x1_reduce/bn <- conv2_3_1x1_reduce
I0928 12:23:00.214815  4827 net.cpp:395] conv2_3_1x1_reduce/bn -> conv2_3_1x1_reduce (in-place)
I0928 12:23:00.215008  4827 net.cpp:150] Setting up conv2_3_1x1_reduce/bn
I0928 12:23:00.215015  4827 net.cpp:157] Top shape: 16 64 56 56 (3211264)
I0928 12:23:00.215019  4827 net.cpp:165] Memory required for data: 1573621888
I0928 12:23:00.215026  4827 layer_factory.hpp:77] Creating layer conv2_3_1x1_reduce/bn/scale
I0928 12:23:00.215034  4827 net.cpp:100] Creating Layer conv2_3_1x1_reduce/bn/scale
I0928 12:23:00.215039  4827 net.cpp:434] conv2_3_1x1_reduce/bn/scale <- conv2_3_1x1_reduce
I0928 12:23:00.215044  4827 net.cpp:395] conv2_3_1x1_reduce/bn/scale -> conv2_3_1x1_reduce (in-place)
I0928 12:23:00.215082  4827 layer_factory.hpp:77] Creating layer conv2_3_1x1_reduce/bn/scale
I0928 12:23:00.215219  4827 net.cpp:150] Setting up conv2_3_1x1_reduce/bn/scale
I0928 12:23:00.215229  4827 net.cpp:157] Top shape: 16 64 56 56 (3211264)
I0928 12:23:00.215232  4827 net.cpp:165] Memory required for data: 1586466944
I0928 12:23:00.215237  4827 layer_factory.hpp:77] Creating layer conv2_3_1x1_reduce/relu
I0928 12:23:00.215243  4827 net.cpp:100] Creating Layer conv2_3_1x1_reduce/relu
I0928 12:23:00.215247  4827 net.cpp:434] conv2_3_1x1_reduce/relu <- conv2_3_1x1_reduce
I0928 12:23:00.215253  4827 net.cpp:395] conv2_3_1x1_reduce/relu -> conv2_3_1x1_reduce (in-place)
I0928 12:23:00.215421  4827 net.cpp:150] Setting up conv2_3_1x1_reduce/relu
I0928 12:23:00.215431  4827 net.cpp:157] Top shape: 16 64 56 56 (3211264)
I0928 12:23:00.215435  4827 net.cpp:165] Memory required for data: 1599312000
I0928 12:23:00.215438  4827 layer_factory.hpp:77] Creating layer conv2_3_3x3
I0928 12:23:00.215448  4827 net.cpp:100] Creating Layer conv2_3_3x3
I0928 12:23:00.215452  4827 net.cpp:434] conv2_3_3x3 <- conv2_3_1x1_reduce
I0928 12:23:00.215457  4827 net.cpp:408] conv2_3_3x3 -> conv2_3_3x3
I0928 12:23:00.216475  4827 net.cpp:150] Setting up conv2_3_3x3
I0928 12:23:00.216490  4827 net.cpp:157] Top shape: 16 64 56 56 (3211264)
I0928 12:23:00.216497  4827 net.cpp:165] Memory required for data: 1612157056
I0928 12:23:00.216503  4827 layer_factory.hpp:77] Creating layer conv2_3_3x3/bn
I0928 12:23:00.216511  4827 net.cpp:100] Creating Layer conv2_3_3x3/bn
I0928 12:23:00.216516  4827 net.cpp:434] conv2_3_3x3/bn <- conv2_3_3x3
I0928 12:23:00.216521  4827 net.cpp:395] conv2_3_3x3/bn -> conv2_3_3x3 (in-place)
I0928 12:23:00.216709  4827 net.cpp:150] Setting up conv2_3_3x3/bn
I0928 12:23:00.216717  4827 net.cpp:157] Top shape: 16 64 56 56 (3211264)
I0928 12:23:00.216722  4827 net.cpp:165] Memory required for data: 1625002112
I0928 12:23:00.216740  4827 layer_factory.hpp:77] Creating layer conv2_3_3x3/bn/scale
I0928 12:23:00.216747  4827 net.cpp:100] Creating Layer conv2_3_3x3/bn/scale
I0928 12:23:00.216751  4827 net.cpp:434] conv2_3_3x3/bn/scale <- conv2_3_3x3
I0928 12:23:00.216756  4827 net.cpp:395] conv2_3_3x3/bn/scale -> conv2_3_3x3 (in-place)
I0928 12:23:00.216806  4827 layer_factory.hpp:77] Creating layer conv2_3_3x3/bn/scale
I0928 12:23:00.216922  4827 net.cpp:150] Setting up conv2_3_3x3/bn/scale
I0928 12:23:00.216929  4827 net.cpp:157] Top shape: 16 64 56 56 (3211264)
I0928 12:23:00.216933  4827 net.cpp:165] Memory required for data: 1637847168
I0928 12:23:00.216938  4827 layer_factory.hpp:77] Creating layer conv2_3_3x3/relu
I0928 12:23:00.216943  4827 net.cpp:100] Creating Layer conv2_3_3x3/relu
I0928 12:23:00.216948  4827 net.cpp:434] conv2_3_3x3/relu <- conv2_3_3x3
I0928 12:23:00.216951  4827 net.cpp:395] conv2_3_3x3/relu -> conv2_3_3x3 (in-place)
I0928 12:23:00.217118  4827 net.cpp:150] Setting up conv2_3_3x3/relu
I0928 12:23:00.217126  4827 net.cpp:157] Top shape: 16 64 56 56 (3211264)
I0928 12:23:00.217130  4827 net.cpp:165] Memory required for data: 1650692224
I0928 12:23:00.217133  4827 layer_factory.hpp:77] Creating layer conv2_3_1x1_increase
I0928 12:23:00.217144  4827 net.cpp:100] Creating Layer conv2_3_1x1_increase
I0928 12:23:00.217147  4827 net.cpp:434] conv2_3_1x1_increase <- conv2_3_3x3
I0928 12:23:00.217152  4827 net.cpp:408] conv2_3_1x1_increase -> conv2_3_1x1_increase
I0928 12:23:00.218147  4827 net.cpp:150] Setting up conv2_3_1x1_increase
I0928 12:23:00.218160  4827 net.cpp:157] Top shape: 16 256 56 56 (12845056)
I0928 12:23:00.218165  4827 net.cpp:165] Memory required for data: 1702072448
I0928 12:23:00.218170  4827 layer_factory.hpp:77] Creating layer conv2_3_1x1_increase/bn
I0928 12:23:00.218181  4827 net.cpp:100] Creating Layer conv2_3_1x1_increase/bn
I0928 12:23:00.218186  4827 net.cpp:434] conv2_3_1x1_increase/bn <- conv2_3_1x1_increase
I0928 12:23:00.218192  4827 net.cpp:395] conv2_3_1x1_increase/bn -> conv2_3_1x1_increase (in-place)
I0928 12:23:00.218377  4827 net.cpp:150] Setting up conv2_3_1x1_increase/bn
I0928 12:23:00.218385  4827 net.cpp:157] Top shape: 16 256 56 56 (12845056)
I0928 12:23:00.218401  4827 net.cpp:165] Memory required for data: 1753452672
I0928 12:23:00.218410  4827 layer_factory.hpp:77] Creating layer conv2_3_1x1_increase/bn/scale
I0928 12:23:00.218423  4827 net.cpp:100] Creating Layer conv2_3_1x1_increase/bn/scale
I0928 12:23:00.218428  4827 net.cpp:434] conv2_3_1x1_increase/bn/scale <- conv2_3_1x1_increase
I0928 12:23:00.218432  4827 net.cpp:395] conv2_3_1x1_increase/bn/scale -> conv2_3_1x1_increase (in-place)
I0928 12:23:00.218475  4827 layer_factory.hpp:77] Creating layer conv2_3_1x1_increase/bn/scale
I0928 12:23:00.218583  4827 net.cpp:150] Setting up conv2_3_1x1_increase/bn/scale
I0928 12:23:00.218591  4827 net.cpp:157] Top shape: 16 256 56 56 (12845056)
I0928 12:23:00.218595  4827 net.cpp:165] Memory required for data: 1804832896
I0928 12:23:00.218601  4827 layer_factory.hpp:77] Creating layer conv2_3_1x1_increase_conv2_3_1x1_increase/bn/scale_0_split
I0928 12:23:00.218611  4827 net.cpp:100] Creating Layer conv2_3_1x1_increase_conv2_3_1x1_increase/bn/scale_0_split
I0928 12:23:00.218616  4827 net.cpp:434] conv2_3_1x1_increase_conv2_3_1x1_increase/bn/scale_0_split <- conv2_3_1x1_increase
I0928 12:23:00.218621  4827 net.cpp:408] conv2_3_1x1_increase_conv2_3_1x1_increase/bn/scale_0_split -> conv2_3_1x1_increase_conv2_3_1x1_increase/bn/scale_0_split_0
I0928 12:23:00.218626  4827 net.cpp:408] conv2_3_1x1_increase_conv2_3_1x1_increase/bn/scale_0_split -> conv2_3_1x1_increase_conv2_3_1x1_increase/bn/scale_0_split_1
I0928 12:23:00.218663  4827 net.cpp:150] Setting up conv2_3_1x1_increase_conv2_3_1x1_increase/bn/scale_0_split
I0928 12:23:00.218670  4827 net.cpp:157] Top shape: 16 256 56 56 (12845056)
I0928 12:23:00.218675  4827 net.cpp:157] Top shape: 16 256 56 56 (12845056)
I0928 12:23:00.218679  4827 net.cpp:165] Memory required for data: 1907593344
I0928 12:23:00.218683  4827 layer_factory.hpp:77] Creating layer conv2_3_global_pool
I0928 12:23:00.218688  4827 net.cpp:100] Creating Layer conv2_3_global_pool
I0928 12:23:00.218691  4827 net.cpp:434] conv2_3_global_pool <- conv2_3_1x1_increase_conv2_3_1x1_increase/bn/scale_0_split_0
I0928 12:23:00.218695  4827 net.cpp:408] conv2_3_global_pool -> conv2_3_global_pool
I0928 12:23:00.218719  4827 net.cpp:150] Setting up conv2_3_global_pool
I0928 12:23:00.218725  4827 net.cpp:157] Top shape: 16 256 1 1 (4096)
I0928 12:23:00.218729  4827 net.cpp:165] Memory required for data: 1907609728
I0928 12:23:00.218732  4827 layer_factory.hpp:77] Creating layer conv2_3_1x1_down
I0928 12:23:00.218739  4827 net.cpp:100] Creating Layer conv2_3_1x1_down
I0928 12:23:00.218744  4827 net.cpp:434] conv2_3_1x1_down <- conv2_3_global_pool
I0928 12:23:00.218749  4827 net.cpp:408] conv2_3_1x1_down -> conv2_3_1x1_down
I0928 12:23:00.219774  4827 net.cpp:150] Setting up conv2_3_1x1_down
I0928 12:23:00.219794  4827 net.cpp:157] Top shape: 16 16 1 1 (256)
I0928 12:23:00.219799  4827 net.cpp:165] Memory required for data: 1907610752
I0928 12:23:00.219805  4827 layer_factory.hpp:77] Creating layer conv2_3_1x1_down/relu
I0928 12:23:00.219812  4827 net.cpp:100] Creating Layer conv2_3_1x1_down/relu
I0928 12:23:00.219817  4827 net.cpp:434] conv2_3_1x1_down/relu <- conv2_3_1x1_down
I0928 12:23:00.219822  4827 net.cpp:395] conv2_3_1x1_down/relu -> conv2_3_1x1_down (in-place)
I0928 12:23:00.219988  4827 net.cpp:150] Setting up conv2_3_1x1_down/relu
I0928 12:23:00.219998  4827 net.cpp:157] Top shape: 16 16 1 1 (256)
I0928 12:23:00.220002  4827 net.cpp:165] Memory required for data: 1907611776
I0928 12:23:00.220005  4827 layer_factory.hpp:77] Creating layer conv2_3_1x1_up
I0928 12:23:00.220013  4827 net.cpp:100] Creating Layer conv2_3_1x1_up
I0928 12:23:00.220018  4827 net.cpp:434] conv2_3_1x1_up <- conv2_3_1x1_down
I0928 12:23:00.220027  4827 net.cpp:408] conv2_3_1x1_up -> conv2_3_1x1_up
I0928 12:23:00.221041  4827 net.cpp:150] Setting up conv2_3_1x1_up
I0928 12:23:00.221055  4827 net.cpp:157] Top shape: 16 256 1 1 (4096)
I0928 12:23:00.221060  4827 net.cpp:165] Memory required for data: 1907628160
I0928 12:23:00.221065  4827 layer_factory.hpp:77] Creating layer conv2_3_prob
I0928 12:23:00.221086  4827 net.cpp:100] Creating Layer conv2_3_prob
I0928 12:23:00.221092  4827 net.cpp:434] conv2_3_prob <- conv2_3_1x1_up
I0928 12:23:00.221097  4827 net.cpp:395] conv2_3_prob -> conv2_3_1x1_up (in-place)
I0928 12:23:00.221531  4827 net.cpp:150] Setting up conv2_3_prob
I0928 12:23:00.221544  4827 net.cpp:157] Top shape: 16 256 1 1 (4096)
I0928 12:23:00.221549  4827 net.cpp:165] Memory required for data: 1907644544
I0928 12:23:00.221552  4827 layer_factory.hpp:77] Creating layer conv2_3
I0928 12:23:00.221560  4827 net.cpp:100] Creating Layer conv2_3
I0928 12:23:00.221565  4827 net.cpp:434] conv2_3 <- conv2_3_1x1_up
I0928 12:23:00.221570  4827 net.cpp:434] conv2_3 <- conv2_3_1x1_increase_conv2_3_1x1_increase/bn/scale_0_split_1
I0928 12:23:00.221575  4827 net.cpp:434] conv2_3 <- conv2_2_conv2_2/relu_0_split_1
I0928 12:23:00.221580  4827 net.cpp:408] conv2_3 -> conv2_3
I0928 12:23:00.221637  4827 net.cpp:150] Setting up conv2_3
I0928 12:23:00.221645  4827 net.cpp:157] Top shape: 16 256 56 56 (12845056)
I0928 12:23:00.221649  4827 net.cpp:165] Memory required for data: 1959024768
I0928 12:23:00.221652  4827 layer_factory.hpp:77] Creating layer conv2_3/relu
I0928 12:23:00.221658  4827 net.cpp:100] Creating Layer conv2_3/relu
I0928 12:23:00.221662  4827 net.cpp:434] conv2_3/relu <- conv2_3
I0928 12:23:00.221666  4827 net.cpp:395] conv2_3/relu -> conv2_3 (in-place)
I0928 12:23:00.221839  4827 net.cpp:150] Setting up conv2_3/relu
I0928 12:23:00.221849  4827 net.cpp:157] Top shape: 16 256 56 56 (12845056)
I0928 12:23:00.221853  4827 net.cpp:165] Memory required for data: 2010404992
I0928 12:23:00.221856  4827 layer_factory.hpp:77] Creating layer conv2_3_conv2_3/relu_0_split
I0928 12:23:00.221863  4827 net.cpp:100] Creating Layer conv2_3_conv2_3/relu_0_split
I0928 12:23:00.221866  4827 net.cpp:434] conv2_3_conv2_3/relu_0_split <- conv2_3
I0928 12:23:00.221871  4827 net.cpp:408] conv2_3_conv2_3/relu_0_split -> conv2_3_conv2_3/relu_0_split_0
I0928 12:23:00.221881  4827 net.cpp:408] conv2_3_conv2_3/relu_0_split -> conv2_3_conv2_3/relu_0_split_1
I0928 12:23:00.221922  4827 net.cpp:150] Setting up conv2_3_conv2_3/relu_0_split
I0928 12:23:00.221928  4827 net.cpp:157] Top shape: 16 256 56 56 (12845056)
I0928 12:23:00.221933  4827 net.cpp:157] Top shape: 16 256 56 56 (12845056)
I0928 12:23:00.221936  4827 net.cpp:165] Memory required for data: 2113165440
I0928 12:23:00.221940  4827 layer_factory.hpp:77] Creating layer conv3_1_1x1_reduce
I0928 12:23:00.221948  4827 net.cpp:100] Creating Layer conv3_1_1x1_reduce
I0928 12:23:00.221952  4827 net.cpp:434] conv3_1_1x1_reduce <- conv2_3_conv2_3/relu_0_split_0
I0928 12:23:00.221961  4827 net.cpp:408] conv3_1_1x1_reduce -> conv3_1_1x1_reduce
I0928 12:23:00.222942  4827 net.cpp:150] Setting up conv3_1_1x1_reduce
I0928 12:23:00.222956  4827 net.cpp:157] Top shape: 16 128 28 28 (1605632)
I0928 12:23:00.222961  4827 net.cpp:165] Memory required for data: 2119587968
I0928 12:23:00.222966  4827 layer_factory.hpp:77] Creating layer conv3_1_1x1_reduce/bn
I0928 12:23:00.222975  4827 net.cpp:100] Creating Layer conv3_1_1x1_reduce/bn
I0928 12:23:00.222980  4827 net.cpp:434] conv3_1_1x1_reduce/bn <- conv3_1_1x1_reduce
I0928 12:23:00.222987  4827 net.cpp:395] conv3_1_1x1_reduce/bn -> conv3_1_1x1_reduce (in-place)
I0928 12:23:00.224170  4827 net.cpp:150] Setting up conv3_1_1x1_reduce/bn
I0928 12:23:00.224184  4827 net.cpp:157] Top shape: 16 128 28 28 (1605632)
I0928 12:23:00.224189  4827 net.cpp:165] Memory required for data: 2126010496
I0928 12:23:00.224196  4827 layer_factory.hpp:77] Creating layer conv3_1_1x1_reduce/bn/scale
I0928 12:23:00.224203  4827 net.cpp:100] Creating Layer conv3_1_1x1_reduce/bn/scale
I0928 12:23:00.224208  4827 net.cpp:434] conv3_1_1x1_reduce/bn/scale <- conv3_1_1x1_reduce
I0928 12:23:00.224215  4827 net.cpp:395] conv3_1_1x1_reduce/bn/scale -> conv3_1_1x1_reduce (in-place)
I0928 12:23:00.224257  4827 layer_factory.hpp:77] Creating layer conv3_1_1x1_reduce/bn/scale
I0928 12:23:00.224364  4827 net.cpp:150] Setting up conv3_1_1x1_reduce/bn/scale
I0928 12:23:00.224385  4827 net.cpp:157] Top shape: 16 128 28 28 (1605632)
I0928 12:23:00.224390  4827 net.cpp:165] Memory required for data: 2132433024
I0928 12:23:00.224395  4827 layer_factory.hpp:77] Creating layer conv3_1_1x1_reduce/relu
I0928 12:23:00.224402  4827 net.cpp:100] Creating Layer conv3_1_1x1_reduce/relu
I0928 12:23:00.224406  4827 net.cpp:434] conv3_1_1x1_reduce/relu <- conv3_1_1x1_reduce
I0928 12:23:00.224411  4827 net.cpp:395] conv3_1_1x1_reduce/relu -> conv3_1_1x1_reduce (in-place)
I0928 12:23:00.224588  4827 net.cpp:150] Setting up conv3_1_1x1_reduce/relu
I0928 12:23:00.224599  4827 net.cpp:157] Top shape: 16 128 28 28 (1605632)
I0928 12:23:00.224604  4827 net.cpp:165] Memory required for data: 2138855552
I0928 12:23:00.224607  4827 layer_factory.hpp:77] Creating layer conv3_1_3x3
I0928 12:23:00.224616  4827 net.cpp:100] Creating Layer conv3_1_3x3
I0928 12:23:00.224619  4827 net.cpp:434] conv3_1_3x3 <- conv3_1_1x1_reduce
I0928 12:23:00.224627  4827 net.cpp:408] conv3_1_3x3 -> conv3_1_3x3
I0928 12:23:00.227027  4827 net.cpp:150] Setting up conv3_1_3x3
I0928 12:23:00.227041  4827 net.cpp:157] Top shape: 16 128 28 28 (1605632)
I0928 12:23:00.227046  4827 net.cpp:165] Memory required for data: 2145278080
I0928 12:23:00.227051  4827 layer_factory.hpp:77] Creating layer conv3_1_3x3/bn
I0928 12:23:00.227061  4827 net.cpp:100] Creating Layer conv3_1_3x3/bn
I0928 12:23:00.227066  4827 net.cpp:434] conv3_1_3x3/bn <- conv3_1_3x3
I0928 12:23:00.227071  4827 net.cpp:395] conv3_1_3x3/bn -> conv3_1_3x3 (in-place)
I0928 12:23:00.227259  4827 net.cpp:150] Setting up conv3_1_3x3/bn
I0928 12:23:00.227267  4827 net.cpp:157] Top shape: 16 128 28 28 (1605632)
I0928 12:23:00.227272  4827 net.cpp:165] Memory required for data: 2151700608
I0928 12:23:00.227278  4827 layer_factory.hpp:77] Creating layer conv3_1_3x3/bn/scale
I0928 12:23:00.227284  4827 net.cpp:100] Creating Layer conv3_1_3x3/bn/scale
I0928 12:23:00.227288  4827 net.cpp:434] conv3_1_3x3/bn/scale <- conv3_1_3x3
I0928 12:23:00.227296  4827 net.cpp:395] conv3_1_3x3/bn/scale -> conv3_1_3x3 (in-place)
I0928 12:23:00.227334  4827 layer_factory.hpp:77] Creating layer conv3_1_3x3/bn/scale
I0928 12:23:00.227439  4827 net.cpp:150] Setting up conv3_1_3x3/bn/scale
I0928 12:23:00.227447  4827 net.cpp:157] Top shape: 16 128 28 28 (1605632)
I0928 12:23:00.227452  4827 net.cpp:165] Memory required for data: 2158123136
I0928 12:23:00.227458  4827 layer_factory.hpp:77] Creating layer conv3_1_3x3/relu
I0928 12:23:00.227463  4827 net.cpp:100] Creating Layer conv3_1_3x3/relu
I0928 12:23:00.227466  4827 net.cpp:434] conv3_1_3x3/relu <- conv3_1_3x3
I0928 12:23:00.227471  4827 net.cpp:395] conv3_1_3x3/relu -> conv3_1_3x3 (in-place)
I0928 12:23:00.227643  4827 net.cpp:150] Setting up conv3_1_3x3/relu
I0928 12:23:00.227653  4827 net.cpp:157] Top shape: 16 128 28 28 (1605632)
I0928 12:23:00.227658  4827 net.cpp:165] Memory required for data: 2164545664
I0928 12:23:00.227659  4827 layer_factory.hpp:77] Creating layer conv3_1_1x1_increase
I0928 12:23:00.227669  4827 net.cpp:100] Creating Layer conv3_1_1x1_increase
I0928 12:23:00.227674  4827 net.cpp:434] conv3_1_1x1_increase <- conv3_1_3x3
I0928 12:23:00.227679  4827 net.cpp:408] conv3_1_1x1_increase -> conv3_1_1x1_increase
I0928 12:23:00.228744  4827 net.cpp:150] Setting up conv3_1_1x1_increase
I0928 12:23:00.228759  4827 net.cpp:157] Top shape: 16 512 28 28 (6422528)
I0928 12:23:00.228763  4827 net.cpp:165] Memory required for data: 2190235776
I0928 12:23:00.228768  4827 layer_factory.hpp:77] Creating layer conv3_1_1x1_increase/bn
I0928 12:23:00.228777  4827 net.cpp:100] Creating Layer conv3_1_1x1_increase/bn
I0928 12:23:00.228782  4827 net.cpp:434] conv3_1_1x1_increase/bn <- conv3_1_1x1_increase
I0928 12:23:00.228798  4827 net.cpp:395] conv3_1_1x1_increase/bn -> conv3_1_1x1_increase (in-place)
I0928 12:23:00.228986  4827 net.cpp:150] Setting up conv3_1_1x1_increase/bn
I0928 12:23:00.228992  4827 net.cpp:157] Top shape: 16 512 28 28 (6422528)
I0928 12:23:00.228996  4827 net.cpp:165] Memory required for data: 2215925888
I0928 12:23:00.229017  4827 layer_factory.hpp:77] Creating layer conv3_1_1x1_increase/bn/scale
I0928 12:23:00.229027  4827 net.cpp:100] Creating Layer conv3_1_1x1_increase/bn/scale
I0928 12:23:00.229032  4827 net.cpp:434] conv3_1_1x1_increase/bn/scale <- conv3_1_1x1_increase
I0928 12:23:00.229038  4827 net.cpp:395] conv3_1_1x1_increase/bn/scale -> conv3_1_1x1_increase (in-place)
I0928 12:23:00.229081  4827 layer_factory.hpp:77] Creating layer conv3_1_1x1_increase/bn/scale
I0928 12:23:00.229187  4827 net.cpp:150] Setting up conv3_1_1x1_increase/bn/scale
I0928 12:23:00.229193  4827 net.cpp:157] Top shape: 16 512 28 28 (6422528)
I0928 12:23:00.229197  4827 net.cpp:165] Memory required for data: 2241616000
I0928 12:23:00.229202  4827 layer_factory.hpp:77] Creating layer conv3_1_1x1_increase_conv3_1_1x1_increase/bn/scale_0_split
I0928 12:23:00.229208  4827 net.cpp:100] Creating Layer conv3_1_1x1_increase_conv3_1_1x1_increase/bn/scale_0_split
I0928 12:23:00.229212  4827 net.cpp:434] conv3_1_1x1_increase_conv3_1_1x1_increase/bn/scale_0_split <- conv3_1_1x1_increase
I0928 12:23:00.229218  4827 net.cpp:408] conv3_1_1x1_increase_conv3_1_1x1_increase/bn/scale_0_split -> conv3_1_1x1_increase_conv3_1_1x1_increase/bn/scale_0_split_0
I0928 12:23:00.229225  4827 net.cpp:408] conv3_1_1x1_increase_conv3_1_1x1_increase/bn/scale_0_split -> conv3_1_1x1_increase_conv3_1_1x1_increase/bn/scale_0_split_1
I0928 12:23:00.229259  4827 net.cpp:150] Setting up conv3_1_1x1_increase_conv3_1_1x1_increase/bn/scale_0_split
I0928 12:23:00.229266  4827 net.cpp:157] Top shape: 16 512 28 28 (6422528)
I0928 12:23:00.229271  4827 net.cpp:157] Top shape: 16 512 28 28 (6422528)
I0928 12:23:00.229275  4827 net.cpp:165] Memory required for data: 2292996224
I0928 12:23:00.229277  4827 layer_factory.hpp:77] Creating layer conv3_1_global_pool
I0928 12:23:00.229285  4827 net.cpp:100] Creating Layer conv3_1_global_pool
I0928 12:23:00.229288  4827 net.cpp:434] conv3_1_global_pool <- conv3_1_1x1_increase_conv3_1_1x1_increase/bn/scale_0_split_0
I0928 12:23:00.229293  4827 net.cpp:408] conv3_1_global_pool -> conv3_1_global_pool
I0928 12:23:00.229315  4827 net.cpp:150] Setting up conv3_1_global_pool
I0928 12:23:00.229321  4827 net.cpp:157] Top shape: 16 512 1 1 (8192)
I0928 12:23:00.229324  4827 net.cpp:165] Memory required for data: 2293028992
I0928 12:23:00.229326  4827 layer_factory.hpp:77] Creating layer conv3_1_1x1_down
I0928 12:23:00.229336  4827 net.cpp:100] Creating Layer conv3_1_1x1_down
I0928 12:23:00.229341  4827 net.cpp:434] conv3_1_1x1_down <- conv3_1_global_pool
I0928 12:23:00.229344  4827 net.cpp:408] conv3_1_1x1_down -> conv3_1_1x1_down
I0928 12:23:00.230406  4827 net.cpp:150] Setting up conv3_1_1x1_down
I0928 12:23:00.230422  4827 net.cpp:157] Top shape: 16 32 1 1 (512)
I0928 12:23:00.230425  4827 net.cpp:165] Memory required for data: 2293031040
I0928 12:23:00.230432  4827 layer_factory.hpp:77] Creating layer conv3_1_1x1_down/relu
I0928 12:23:00.230439  4827 net.cpp:100] Creating Layer conv3_1_1x1_down/relu
I0928 12:23:00.230444  4827 net.cpp:434] conv3_1_1x1_down/relu <- conv3_1_1x1_down
I0928 12:23:00.230449  4827 net.cpp:395] conv3_1_1x1_down/relu -> conv3_1_1x1_down (in-place)
I0928 12:23:00.230618  4827 net.cpp:150] Setting up conv3_1_1x1_down/relu
I0928 12:23:00.230628  4827 net.cpp:157] Top shape: 16 32 1 1 (512)
I0928 12:23:00.230631  4827 net.cpp:165] Memory required for data: 2293033088
I0928 12:23:00.230634  4827 layer_factory.hpp:77] Creating layer conv3_1_1x1_up
I0928 12:23:00.230646  4827 net.cpp:100] Creating Layer conv3_1_1x1_up
I0928 12:23:00.230650  4827 net.cpp:434] conv3_1_1x1_up <- conv3_1_1x1_down
I0928 12:23:00.230655  4827 net.cpp:408] conv3_1_1x1_up -> conv3_1_1x1_up
I0928 12:23:00.231719  4827 net.cpp:150] Setting up conv3_1_1x1_up
I0928 12:23:00.231732  4827 net.cpp:157] Top shape: 16 512 1 1 (8192)
I0928 12:23:00.231737  4827 net.cpp:165] Memory required for data: 2293065856
I0928 12:23:00.231744  4827 layer_factory.hpp:77] Creating layer conv3_1_prob
I0928 12:23:00.231751  4827 net.cpp:100] Creating Layer conv3_1_prob
I0928 12:23:00.231768  4827 net.cpp:434] conv3_1_prob <- conv3_1_1x1_up
I0928 12:23:00.231775  4827 net.cpp:395] conv3_1_prob -> conv3_1_1x1_up (in-place)
I0928 12:23:00.231956  4827 net.cpp:150] Setting up conv3_1_prob
I0928 12:23:00.231966  4827 net.cpp:157] Top shape: 16 512 1 1 (8192)
I0928 12:23:00.231971  4827 net.cpp:165] Memory required for data: 2293098624
I0928 12:23:00.231973  4827 layer_factory.hpp:77] Creating layer conv3_1_1x1_proj
I0928 12:23:00.231984  4827 net.cpp:100] Creating Layer conv3_1_1x1_proj
I0928 12:23:00.231989  4827 net.cpp:434] conv3_1_1x1_proj <- conv2_3_conv2_3/relu_0_split_1
I0928 12:23:00.231994  4827 net.cpp:408] conv3_1_1x1_proj -> conv3_1_1x1_proj
I0928 12:23:00.233067  4827 net.cpp:150] Setting up conv3_1_1x1_proj
I0928 12:23:00.233083  4827 net.cpp:157] Top shape: 16 512 28 28 (6422528)
I0928 12:23:00.233086  4827 net.cpp:165] Memory required for data: 2318788736
I0928 12:23:00.233091  4827 layer_factory.hpp:77] Creating layer conv3_1_1x1_proj/bn
I0928 12:23:00.233098  4827 net.cpp:100] Creating Layer conv3_1_1x1_proj/bn
I0928 12:23:00.233103  4827 net.cpp:434] conv3_1_1x1_proj/bn <- conv3_1_1x1_proj
I0928 12:23:00.233110  4827 net.cpp:395] conv3_1_1x1_proj/bn -> conv3_1_1x1_proj (in-place)
I0928 12:23:00.233290  4827 net.cpp:150] Setting up conv3_1_1x1_proj/bn
I0928 12:23:00.233297  4827 net.cpp:157] Top shape: 16 512 28 28 (6422528)
I0928 12:23:00.233302  4827 net.cpp:165] Memory required for data: 2344478848
I0928 12:23:00.233312  4827 layer_factory.hpp:77] Creating layer conv3_1_1x1_proj/bn/scale
I0928 12:23:00.233319  4827 net.cpp:100] Creating Layer conv3_1_1x1_proj/bn/scale
I0928 12:23:00.233322  4827 net.cpp:434] conv3_1_1x1_proj/bn/scale <- conv3_1_1x1_proj
I0928 12:23:00.233328  4827 net.cpp:395] conv3_1_1x1_proj/bn/scale -> conv3_1_1x1_proj (in-place)
I0928 12:23:00.233369  4827 layer_factory.hpp:77] Creating layer conv3_1_1x1_proj/bn/scale
I0928 12:23:00.233474  4827 net.cpp:150] Setting up conv3_1_1x1_proj/bn/scale
I0928 12:23:00.233481  4827 net.cpp:157] Top shape: 16 512 28 28 (6422528)
I0928 12:23:00.233485  4827 net.cpp:165] Memory required for data: 2370168960
I0928 12:23:00.233490  4827 layer_factory.hpp:77] Creating layer conv3_1
I0928 12:23:00.233497  4827 net.cpp:100] Creating Layer conv3_1
I0928 12:23:00.233501  4827 net.cpp:434] conv3_1 <- conv3_1_1x1_up
I0928 12:23:00.233505  4827 net.cpp:434] conv3_1 <- conv3_1_1x1_increase_conv3_1_1x1_increase/bn/scale_0_split_1
I0928 12:23:00.233510  4827 net.cpp:434] conv3_1 <- conv3_1_1x1_proj
I0928 12:23:00.233515  4827 net.cpp:408] conv3_1 -> conv3_1
I0928 12:23:00.233568  4827 net.cpp:150] Setting up conv3_1
I0928 12:23:00.233575  4827 net.cpp:157] Top shape: 16 512 28 28 (6422528)
I0928 12:23:00.233578  4827 net.cpp:165] Memory required for data: 2395859072
I0928 12:23:00.233582  4827 layer_factory.hpp:77] Creating layer conv3_1/relu
I0928 12:23:00.233587  4827 net.cpp:100] Creating Layer conv3_1/relu
I0928 12:23:00.233592  4827 net.cpp:434] conv3_1/relu <- conv3_1
I0928 12:23:00.233597  4827 net.cpp:395] conv3_1/relu -> conv3_1 (in-place)
I0928 12:23:00.234036  4827 net.cpp:150] Setting up conv3_1/relu
I0928 12:23:00.234050  4827 net.cpp:157] Top shape: 16 512 28 28 (6422528)
I0928 12:23:00.234055  4827 net.cpp:165] Memory required for data: 2421549184
I0928 12:23:00.234058  4827 layer_factory.hpp:77] Creating layer conv3_1_conv3_1/relu_0_split
I0928 12:23:00.234064  4827 net.cpp:100] Creating Layer conv3_1_conv3_1/relu_0_split
I0928 12:23:00.234069  4827 net.cpp:434] conv3_1_conv3_1/relu_0_split <- conv3_1
I0928 12:23:00.234076  4827 net.cpp:408] conv3_1_conv3_1/relu_0_split -> conv3_1_conv3_1/relu_0_split_0
I0928 12:23:00.234083  4827 net.cpp:408] conv3_1_conv3_1/relu_0_split -> conv3_1_conv3_1/relu_0_split_1
I0928 12:23:00.234127  4827 net.cpp:150] Setting up conv3_1_conv3_1/relu_0_split
I0928 12:23:00.234135  4827 net.cpp:157] Top shape: 16 512 28 28 (6422528)
I0928 12:23:00.234140  4827 net.cpp:157] Top shape: 16 512 28 28 (6422528)
I0928 12:23:00.234144  4827 net.cpp:165] Memory required for data: 2472929408
I0928 12:23:00.234160  4827 layer_factory.hpp:77] Creating layer conv3_2_1x1_reduce
I0928 12:23:00.234169  4827 net.cpp:100] Creating Layer conv3_2_1x1_reduce
I0928 12:23:00.234174  4827 net.cpp:434] conv3_2_1x1_reduce <- conv3_1_conv3_1/relu_0_split_0
I0928 12:23:00.234179  4827 net.cpp:408] conv3_2_1x1_reduce -> conv3_2_1x1_reduce
I0928 12:23:00.234931  4827 net.cpp:150] Setting up conv3_2_1x1_reduce
I0928 12:23:00.234943  4827 net.cpp:157] Top shape: 16 128 28 28 (1605632)
I0928 12:23:00.234947  4827 net.cpp:165] Memory required for data: 2479351936
I0928 12:23:00.234952  4827 layer_factory.hpp:77] Creating layer conv3_2_1x1_reduce/bn
I0928 12:23:00.234961  4827 net.cpp:100] Creating Layer conv3_2_1x1_reduce/bn
I0928 12:23:00.234966  4827 net.cpp:434] conv3_2_1x1_reduce/bn <- conv3_2_1x1_reduce
I0928 12:23:00.234971  4827 net.cpp:395] conv3_2_1x1_reduce/bn -> conv3_2_1x1_reduce (in-place)
I0928 12:23:00.235155  4827 net.cpp:150] Setting up conv3_2_1x1_reduce/bn
I0928 12:23:00.235162  4827 net.cpp:157] Top shape: 16 128 28 28 (1605632)
I0928 12:23:00.235167  4827 net.cpp:165] Memory required for data: 2485774464
I0928 12:23:00.235177  4827 layer_factory.hpp:77] Creating layer conv3_2_1x1_reduce/bn/scale
I0928 12:23:00.235183  4827 net.cpp:100] Creating Layer conv3_2_1x1_reduce/bn/scale
I0928 12:23:00.235186  4827 net.cpp:434] conv3_2_1x1_reduce/bn/scale <- conv3_2_1x1_reduce
I0928 12:23:00.235190  4827 net.cpp:395] conv3_2_1x1_reduce/bn/scale -> conv3_2_1x1_reduce (in-place)
I0928 12:23:00.235229  4827 layer_factory.hpp:77] Creating layer conv3_2_1x1_reduce/bn/scale
I0928 12:23:00.235333  4827 net.cpp:150] Setting up conv3_2_1x1_reduce/bn/scale
I0928 12:23:00.235340  4827 net.cpp:157] Top shape: 16 128 28 28 (1605632)
I0928 12:23:00.235344  4827 net.cpp:165] Memory required for data: 2492196992
I0928 12:23:00.235349  4827 layer_factory.hpp:77] Creating layer conv3_2_1x1_reduce/relu
I0928 12:23:00.235357  4827 net.cpp:100] Creating Layer conv3_2_1x1_reduce/relu
I0928 12:23:00.235360  4827 net.cpp:434] conv3_2_1x1_reduce/relu <- conv3_2_1x1_reduce
I0928 12:23:00.235364  4827 net.cpp:395] conv3_2_1x1_reduce/relu -> conv3_2_1x1_reduce (in-place)
I0928 12:23:00.235826  4827 net.cpp:150] Setting up conv3_2_1x1_reduce/relu
I0928 12:23:00.235839  4827 net.cpp:157] Top shape: 16 128 28 28 (1605632)
I0928 12:23:00.235843  4827 net.cpp:165] Memory required for data: 2498619520
I0928 12:23:00.235846  4827 layer_factory.hpp:77] Creating layer conv3_2_3x3
I0928 12:23:00.235857  4827 net.cpp:100] Creating Layer conv3_2_3x3
I0928 12:23:00.235862  4827 net.cpp:434] conv3_2_3x3 <- conv3_2_1x1_reduce
I0928 12:23:00.235867  4827 net.cpp:408] conv3_2_3x3 -> conv3_2_3x3
I0928 12:23:00.237198  4827 net.cpp:150] Setting up conv3_2_3x3
I0928 12:23:00.237212  4827 net.cpp:157] Top shape: 16 128 28 28 (1605632)
I0928 12:23:00.237217  4827 net.cpp:165] Memory required for data: 2505042048
I0928 12:23:00.237222  4827 layer_factory.hpp:77] Creating layer conv3_2_3x3/bn
I0928 12:23:00.237231  4827 net.cpp:100] Creating Layer conv3_2_3x3/bn
I0928 12:23:00.237236  4827 net.cpp:434] conv3_2_3x3/bn <- conv3_2_3x3
I0928 12:23:00.237241  4827 net.cpp:395] conv3_2_3x3/bn -> conv3_2_3x3 (in-place)
I0928 12:23:00.237435  4827 net.cpp:150] Setting up conv3_2_3x3/bn
I0928 12:23:00.237442  4827 net.cpp:157] Top shape: 16 128 28 28 (1605632)
I0928 12:23:00.237447  4827 net.cpp:165] Memory required for data: 2511464576
I0928 12:23:00.237453  4827 layer_factory.hpp:77] Creating layer conv3_2_3x3/bn/scale
I0928 12:23:00.237459  4827 net.cpp:100] Creating Layer conv3_2_3x3/bn/scale
I0928 12:23:00.237463  4827 net.cpp:434] conv3_2_3x3/bn/scale <- conv3_2_3x3
I0928 12:23:00.237468  4827 net.cpp:395] conv3_2_3x3/bn/scale -> conv3_2_3x3 (in-place)
I0928 12:23:00.237509  4827 layer_factory.hpp:77] Creating layer conv3_2_3x3/bn/scale
I0928 12:23:00.237614  4827 net.cpp:150] Setting up conv3_2_3x3/bn/scale
I0928 12:23:00.237622  4827 net.cpp:157] Top shape: 16 128 28 28 (1605632)
I0928 12:23:00.237625  4827 net.cpp:165] Memory required for data: 2517887104
I0928 12:23:00.237630  4827 layer_factory.hpp:77] Creating layer conv3_2_3x3/relu
I0928 12:23:00.237649  4827 net.cpp:100] Creating Layer conv3_2_3x3/relu
I0928 12:23:00.237655  4827 net.cpp:434] conv3_2_3x3/relu <- conv3_2_3x3
I0928 12:23:00.237659  4827 net.cpp:395] conv3_2_3x3/relu -> conv3_2_3x3 (in-place)
I0928 12:23:00.237846  4827 net.cpp:150] Setting up conv3_2_3x3/relu
I0928 12:23:00.237856  4827 net.cpp:157] Top shape: 16 128 28 28 (1605632)
I0928 12:23:00.237860  4827 net.cpp:165] Memory required for data: 2524309632
I0928 12:23:00.237864  4827 layer_factory.hpp:77] Creating layer conv3_2_1x1_increase
I0928 12:23:00.237874  4827 net.cpp:100] Creating Layer conv3_2_1x1_increase
I0928 12:23:00.237879  4827 net.cpp:434] conv3_2_1x1_increase <- conv3_2_3x3
I0928 12:23:00.237884  4827 net.cpp:408] conv3_2_1x1_increase -> conv3_2_1x1_increase
I0928 12:23:00.238935  4827 net.cpp:150] Setting up conv3_2_1x1_increase
I0928 12:23:00.238950  4827 net.cpp:157] Top shape: 16 512 28 28 (6422528)
I0928 12:23:00.238955  4827 net.cpp:165] Memory required for data: 2549999744
I0928 12:23:00.238961  4827 layer_factory.hpp:77] Creating layer conv3_2_1x1_increase/bn
I0928 12:23:00.238968  4827 net.cpp:100] Creating Layer conv3_2_1x1_increase/bn
I0928 12:23:00.238972  4827 net.cpp:434] conv3_2_1x1_increase/bn <- conv3_2_1x1_increase
I0928 12:23:00.238981  4827 net.cpp:395] conv3_2_1x1_increase/bn -> conv3_2_1x1_increase (in-place)
I0928 12:23:00.239171  4827 net.cpp:150] Setting up conv3_2_1x1_increase/bn
I0928 12:23:00.239177  4827 net.cpp:157] Top shape: 16 512 28 28 (6422528)
I0928 12:23:00.239181  4827 net.cpp:165] Memory required for data: 2575689856
I0928 12:23:00.239187  4827 layer_factory.hpp:77] Creating layer conv3_2_1x1_increase/bn/scale
I0928 12:23:00.239194  4827 net.cpp:100] Creating Layer conv3_2_1x1_increase/bn/scale
I0928 12:23:00.239198  4827 net.cpp:434] conv3_2_1x1_increase/bn/scale <- conv3_2_1x1_increase
I0928 12:23:00.239202  4827 net.cpp:395] conv3_2_1x1_increase/bn/scale -> conv3_2_1x1_increase (in-place)
I0928 12:23:00.239244  4827 layer_factory.hpp:77] Creating layer conv3_2_1x1_increase/bn/scale
I0928 12:23:00.239351  4827 net.cpp:150] Setting up conv3_2_1x1_increase/bn/scale
I0928 12:23:00.239358  4827 net.cpp:157] Top shape: 16 512 28 28 (6422528)
I0928 12:23:00.239362  4827 net.cpp:165] Memory required for data: 2601379968
I0928 12:23:00.239367  4827 layer_factory.hpp:77] Creating layer conv3_2_1x1_increase_conv3_2_1x1_increase/bn/scale_0_split
I0928 12:23:00.239373  4827 net.cpp:100] Creating Layer conv3_2_1x1_increase_conv3_2_1x1_increase/bn/scale_0_split
I0928 12:23:00.239377  4827 net.cpp:434] conv3_2_1x1_increase_conv3_2_1x1_increase/bn/scale_0_split <- conv3_2_1x1_increase
I0928 12:23:00.239385  4827 net.cpp:408] conv3_2_1x1_increase_conv3_2_1x1_increase/bn/scale_0_split -> conv3_2_1x1_increase_conv3_2_1x1_increase/bn/scale_0_split_0
I0928 12:23:00.239392  4827 net.cpp:408] conv3_2_1x1_increase_conv3_2_1x1_increase/bn/scale_0_split -> conv3_2_1x1_increase_conv3_2_1x1_increase/bn/scale_0_split_1
I0928 12:23:00.239428  4827 net.cpp:150] Setting up conv3_2_1x1_increase_conv3_2_1x1_increase/bn/scale_0_split
I0928 12:23:00.239436  4827 net.cpp:157] Top shape: 16 512 28 28 (6422528)
I0928 12:23:00.239440  4827 net.cpp:157] Top shape: 16 512 28 28 (6422528)
I0928 12:23:00.239444  4827 net.cpp:165] Memory required for data: 2652760192
I0928 12:23:00.239447  4827 layer_factory.hpp:77] Creating layer conv3_2_global_pool
I0928 12:23:00.239452  4827 net.cpp:100] Creating Layer conv3_2_global_pool
I0928 12:23:00.239456  4827 net.cpp:434] conv3_2_global_pool <- conv3_2_1x1_increase_conv3_2_1x1_increase/bn/scale_0_split_0
I0928 12:23:00.239461  4827 net.cpp:408] conv3_2_global_pool -> conv3_2_global_pool
I0928 12:23:00.239486  4827 net.cpp:150] Setting up conv3_2_global_pool
I0928 12:23:00.239492  4827 net.cpp:157] Top shape: 16 512 1 1 (8192)
I0928 12:23:00.239495  4827 net.cpp:165] Memory required for data: 2652792960
I0928 12:23:00.239498  4827 layer_factory.hpp:77] Creating layer conv3_2_1x1_down
I0928 12:23:00.239506  4827 net.cpp:100] Creating Layer conv3_2_1x1_down
I0928 12:23:00.239522  4827 net.cpp:434] conv3_2_1x1_down <- conv3_2_global_pool
I0928 12:23:00.239531  4827 net.cpp:408] conv3_2_1x1_down -> conv3_2_1x1_down
I0928 12:23:00.240603  4827 net.cpp:150] Setting up conv3_2_1x1_down
I0928 12:23:00.240617  4827 net.cpp:157] Top shape: 16 32 1 1 (512)
I0928 12:23:00.240622  4827 net.cpp:165] Memory required for data: 2652795008
I0928 12:23:00.240628  4827 layer_factory.hpp:77] Creating layer conv3_2_1x1_down/relu
I0928 12:23:00.240636  4827 net.cpp:100] Creating Layer conv3_2_1x1_down/relu
I0928 12:23:00.240641  4827 net.cpp:434] conv3_2_1x1_down/relu <- conv3_2_1x1_down
I0928 12:23:00.240646  4827 net.cpp:395] conv3_2_1x1_down/relu -> conv3_2_1x1_down (in-place)
I0928 12:23:00.240828  4827 net.cpp:150] Setting up conv3_2_1x1_down/relu
I0928 12:23:00.240838  4827 net.cpp:157] Top shape: 16 32 1 1 (512)
I0928 12:23:00.240841  4827 net.cpp:165] Memory required for data: 2652797056
I0928 12:23:00.240844  4827 layer_factory.hpp:77] Creating layer conv3_2_1x1_up
I0928 12:23:00.240854  4827 net.cpp:100] Creating Layer conv3_2_1x1_up
I0928 12:23:00.240857  4827 net.cpp:434] conv3_2_1x1_up <- conv3_2_1x1_down
I0928 12:23:00.240864  4827 net.cpp:408] conv3_2_1x1_up -> conv3_2_1x1_up
I0928 12:23:00.241941  4827 net.cpp:150] Setting up conv3_2_1x1_up
I0928 12:23:00.241955  4827 net.cpp:157] Top shape: 16 512 1 1 (8192)
I0928 12:23:00.241961  4827 net.cpp:165] Memory required for data: 2652829824
I0928 12:23:00.241966  4827 layer_factory.hpp:77] Creating layer conv3_2_prob
I0928 12:23:00.241977  4827 net.cpp:100] Creating Layer conv3_2_prob
I0928 12:23:00.241982  4827 net.cpp:434] conv3_2_prob <- conv3_2_1x1_up
I0928 12:23:00.241988  4827 net.cpp:395] conv3_2_prob -> conv3_2_1x1_up (in-place)
I0928 12:23:00.242157  4827 net.cpp:150] Setting up conv3_2_prob
I0928 12:23:00.242166  4827 net.cpp:157] Top shape: 16 512 1 1 (8192)
I0928 12:23:00.242171  4827 net.cpp:165] Memory required for data: 2652862592
I0928 12:23:00.242173  4827 layer_factory.hpp:77] Creating layer conv3_2
I0928 12:23:00.242182  4827 net.cpp:100] Creating Layer conv3_2
I0928 12:23:00.242187  4827 net.cpp:434] conv3_2 <- conv3_2_1x1_up
I0928 12:23:00.242190  4827 net.cpp:434] conv3_2 <- conv3_2_1x1_increase_conv3_2_1x1_increase/bn/scale_0_split_1
I0928 12:23:00.242195  4827 net.cpp:434] conv3_2 <- conv3_1_conv3_1/relu_0_split_1
I0928 12:23:00.242202  4827 net.cpp:408] conv3_2 -> conv3_2
I0928 12:23:00.242257  4827 net.cpp:150] Setting up conv3_2
I0928 12:23:00.242264  4827 net.cpp:157] Top shape: 16 512 28 28 (6422528)
I0928 12:23:00.242269  4827 net.cpp:165] Memory required for data: 2678552704
I0928 12:23:00.242271  4827 layer_factory.hpp:77] Creating layer conv3_2/relu
I0928 12:23:00.242277  4827 net.cpp:100] Creating Layer conv3_2/relu
I0928 12:23:00.242280  4827 net.cpp:434] conv3_2/relu <- conv3_2
I0928 12:23:00.242285  4827 net.cpp:395] conv3_2/relu -> conv3_2 (in-place)
I0928 12:23:00.242449  4827 net.cpp:150] Setting up conv3_2/relu
I0928 12:23:00.242458  4827 net.cpp:157] Top shape: 16 512 28 28 (6422528)
I0928 12:23:00.242462  4827 net.cpp:165] Memory required for data: 2704242816
I0928 12:23:00.242465  4827 layer_factory.hpp:77] Creating layer conv3_2_conv3_2/relu_0_split
I0928 12:23:00.242471  4827 net.cpp:100] Creating Layer conv3_2_conv3_2/relu_0_split
I0928 12:23:00.242475  4827 net.cpp:434] conv3_2_conv3_2/relu_0_split <- conv3_2
I0928 12:23:00.242482  4827 net.cpp:408] conv3_2_conv3_2/relu_0_split -> conv3_2_conv3_2/relu_0_split_0
I0928 12:23:00.242489  4827 net.cpp:408] conv3_2_conv3_2/relu_0_split -> conv3_2_conv3_2/relu_0_split_1
I0928 12:23:00.242532  4827 net.cpp:150] Setting up conv3_2_conv3_2/relu_0_split
I0928 12:23:00.242538  4827 net.cpp:157] Top shape: 16 512 28 28 (6422528)
I0928 12:23:00.242542  4827 net.cpp:157] Top shape: 16 512 28 28 (6422528)
I0928 12:23:00.242544  4827 net.cpp:165] Memory required for data: 2755623040
I0928 12:23:00.242547  4827 layer_factory.hpp:77] Creating layer conv3_3_1x1_reduce
I0928 12:23:00.242554  4827 net.cpp:100] Creating Layer conv3_3_1x1_reduce
I0928 12:23:00.242571  4827 net.cpp:434] conv3_3_1x1_reduce <- conv3_2_conv3_2/relu_0_split_0
I0928 12:23:00.242581  4827 net.cpp:408] conv3_3_1x1_reduce -> conv3_3_1x1_reduce
I0928 12:23:00.243903  4827 net.cpp:150] Setting up conv3_3_1x1_reduce
I0928 12:23:00.243918  4827 net.cpp:157] Top shape: 16 128 28 28 (1605632)
I0928 12:23:00.243922  4827 net.cpp:165] Memory required for data: 2762045568
I0928 12:23:00.243942  4827 layer_factory.hpp:77] Creating layer conv3_3_1x1_reduce/bn
I0928 12:23:00.243950  4827 net.cpp:100] Creating Layer conv3_3_1x1_reduce/bn
I0928 12:23:00.243955  4827 net.cpp:434] conv3_3_1x1_reduce/bn <- conv3_3_1x1_reduce
I0928 12:23:00.243960  4827 net.cpp:395] conv3_3_1x1_reduce/bn -> conv3_3_1x1_reduce (in-place)
I0928 12:23:00.244150  4827 net.cpp:150] Setting up conv3_3_1x1_reduce/bn
I0928 12:23:00.244158  4827 net.cpp:157] Top shape: 16 128 28 28 (1605632)
I0928 12:23:00.244160  4827 net.cpp:165] Memory required for data: 2768468096
I0928 12:23:00.244169  4827 layer_factory.hpp:77] Creating layer conv3_3_1x1_reduce/bn/scale
I0928 12:23:00.244174  4827 net.cpp:100] Creating Layer conv3_3_1x1_reduce/bn/scale
I0928 12:23:00.244177  4827 net.cpp:434] conv3_3_1x1_reduce/bn/scale <- conv3_3_1x1_reduce
I0928 12:23:00.244181  4827 net.cpp:395] conv3_3_1x1_reduce/bn/scale -> conv3_3_1x1_reduce (in-place)
I0928 12:23:00.244223  4827 layer_factory.hpp:77] Creating layer conv3_3_1x1_reduce/bn/scale
I0928 12:23:00.244330  4827 net.cpp:150] Setting up conv3_3_1x1_reduce/bn/scale
I0928 12:23:00.244338  4827 net.cpp:157] Top shape: 16 128 28 28 (1605632)
I0928 12:23:00.244340  4827 net.cpp:165] Memory required for data: 2774890624
I0928 12:23:00.244346  4827 layer_factory.hpp:77] Creating layer conv3_3_1x1_reduce/relu
I0928 12:23:00.244351  4827 net.cpp:100] Creating Layer conv3_3_1x1_reduce/relu
I0928 12:23:00.244356  4827 net.cpp:434] conv3_3_1x1_reduce/relu <- conv3_3_1x1_reduce
I0928 12:23:00.244360  4827 net.cpp:395] conv3_3_1x1_reduce/relu -> conv3_3_1x1_reduce (in-place)
I0928 12:23:00.244818  4827 net.cpp:150] Setting up conv3_3_1x1_reduce/relu
I0928 12:23:00.244832  4827 net.cpp:157] Top shape: 16 128 28 28 (1605632)
I0928 12:23:00.244835  4827 net.cpp:165] Memory required for data: 2781313152
I0928 12:23:00.244838  4827 layer_factory.hpp:77] Creating layer conv3_3_3x3
I0928 12:23:00.244848  4827 net.cpp:100] Creating Layer conv3_3_3x3
I0928 12:23:00.244853  4827 net.cpp:434] conv3_3_3x3 <- conv3_3_1x1_reduce
I0928 12:23:00.244861  4827 net.cpp:408] conv3_3_3x3 -> conv3_3_3x3
I0928 12:23:00.246981  4827 net.cpp:150] Setting up conv3_3_3x3
I0928 12:23:00.246995  4827 net.cpp:157] Top shape: 16 128 28 28 (1605632)
I0928 12:23:00.247000  4827 net.cpp:165] Memory required for data: 2787735680
I0928 12:23:00.247005  4827 layer_factory.hpp:77] Creating layer conv3_3_3x3/bn
I0928 12:23:00.247014  4827 net.cpp:100] Creating Layer conv3_3_3x3/bn
I0928 12:23:00.247018  4827 net.cpp:434] conv3_3_3x3/bn <- conv3_3_3x3
I0928 12:23:00.247023  4827 net.cpp:395] conv3_3_3x3/bn -> conv3_3_3x3 (in-place)
I0928 12:23:00.247225  4827 net.cpp:150] Setting up conv3_3_3x3/bn
I0928 12:23:00.247232  4827 net.cpp:157] Top shape: 16 128 28 28 (1605632)
I0928 12:23:00.247234  4827 net.cpp:165] Memory required for data: 2794158208
I0928 12:23:00.247241  4827 layer_factory.hpp:77] Creating layer conv3_3_3x3/bn/scale
I0928 12:23:00.247247  4827 net.cpp:100] Creating Layer conv3_3_3x3/bn/scale
I0928 12:23:00.247251  4827 net.cpp:434] conv3_3_3x3/bn/scale <- conv3_3_3x3
I0928 12:23:00.247256  4827 net.cpp:395] conv3_3_3x3/bn/scale -> conv3_3_3x3 (in-place)
I0928 12:23:00.247297  4827 layer_factory.hpp:77] Creating layer conv3_3_3x3/bn/scale
I0928 12:23:00.247406  4827 net.cpp:150] Setting up conv3_3_3x3/bn/scale
I0928 12:23:00.247414  4827 net.cpp:157] Top shape: 16 128 28 28 (1605632)
I0928 12:23:00.247418  4827 net.cpp:165] Memory required for data: 2800580736
I0928 12:23:00.247423  4827 layer_factory.hpp:77] Creating layer conv3_3_3x3/relu
I0928 12:23:00.247428  4827 net.cpp:100] Creating Layer conv3_3_3x3/relu
I0928 12:23:00.247444  4827 net.cpp:434] conv3_3_3x3/relu <- conv3_3_3x3
I0928 12:23:00.247450  4827 net.cpp:395] conv3_3_3x3/relu -> conv3_3_3x3 (in-place)
I0928 12:23:00.247906  4827 net.cpp:150] Setting up conv3_3_3x3/relu
I0928 12:23:00.247920  4827 net.cpp:157] Top shape: 16 128 28 28 (1605632)
I0928 12:23:00.247923  4827 net.cpp:165] Memory required for data: 2807003264
I0928 12:23:00.247927  4827 layer_factory.hpp:77] Creating layer conv3_3_1x1_increase
I0928 12:23:00.247937  4827 net.cpp:100] Creating Layer conv3_3_1x1_increase
I0928 12:23:00.247942  4827 net.cpp:434] conv3_3_1x1_increase <- conv3_3_3x3
I0928 12:23:00.247947  4827 net.cpp:408] conv3_3_1x1_increase -> conv3_3_1x1_increase
I0928 12:23:00.248988  4827 net.cpp:150] Setting up conv3_3_1x1_increase
I0928 12:23:00.249002  4827 net.cpp:157] Top shape: 16 512 28 28 (6422528)
I0928 12:23:00.249008  4827 net.cpp:165] Memory required for data: 2832693376
I0928 12:23:00.249014  4827 layer_factory.hpp:77] Creating layer conv3_3_1x1_increase/bn
I0928 12:23:00.249020  4827 net.cpp:100] Creating Layer conv3_3_1x1_increase/bn
I0928 12:23:00.249025  4827 net.cpp:434] conv3_3_1x1_increase/bn <- conv3_3_1x1_increase
I0928 12:23:00.249030  4827 net.cpp:395] conv3_3_1x1_increase/bn -> conv3_3_1x1_increase (in-place)
I0928 12:23:00.249229  4827 net.cpp:150] Setting up conv3_3_1x1_increase/bn
I0928 12:23:00.249236  4827 net.cpp:157] Top shape: 16 512 28 28 (6422528)
I0928 12:23:00.249239  4827 net.cpp:165] Memory required for data: 2858383488
I0928 12:23:00.249246  4827 layer_factory.hpp:77] Creating layer conv3_3_1x1_increase/bn/scale
I0928 12:23:00.249251  4827 net.cpp:100] Creating Layer conv3_3_1x1_increase/bn/scale
I0928 12:23:00.249254  4827 net.cpp:434] conv3_3_1x1_increase/bn/scale <- conv3_3_1x1_increase
I0928 12:23:00.249258  4827 net.cpp:395] conv3_3_1x1_increase/bn/scale -> conv3_3_1x1_increase (in-place)
I0928 12:23:00.249302  4827 layer_factory.hpp:77] Creating layer conv3_3_1x1_increase/bn/scale
I0928 12:23:00.249409  4827 net.cpp:150] Setting up conv3_3_1x1_increase/bn/scale
I0928 12:23:00.249416  4827 net.cpp:157] Top shape: 16 512 28 28 (6422528)
I0928 12:23:00.249418  4827 net.cpp:165] Memory required for data: 2884073600
I0928 12:23:00.249423  4827 layer_factory.hpp:77] Creating layer conv3_3_1x1_increase_conv3_3_1x1_increase/bn/scale_0_split
I0928 12:23:00.249440  4827 net.cpp:100] Creating Layer conv3_3_1x1_increase_conv3_3_1x1_increase/bn/scale_0_split
I0928 12:23:00.249444  4827 net.cpp:434] conv3_3_1x1_increase_conv3_3_1x1_increase/bn/scale_0_split <- conv3_3_1x1_increase
I0928 12:23:00.249449  4827 net.cpp:408] conv3_3_1x1_increase_conv3_3_1x1_increase/bn/scale_0_split -> conv3_3_1x1_increase_conv3_3_1x1_increase/bn/scale_0_split_0
I0928 12:23:00.249455  4827 net.cpp:408] conv3_3_1x1_increase_conv3_3_1x1_increase/bn/scale_0_split -> conv3_3_1x1_increase_conv3_3_1x1_increase/bn/scale_0_split_1
I0928 12:23:00.249493  4827 net.cpp:150] Setting up conv3_3_1x1_increase_conv3_3_1x1_increase/bn/scale_0_split
I0928 12:23:00.249500  4827 net.cpp:157] Top shape: 16 512 28 28 (6422528)
I0928 12:23:00.249503  4827 net.cpp:157] Top shape: 16 512 28 28 (6422528)
I0928 12:23:00.249505  4827 net.cpp:165] Memory required for data: 2935453824
I0928 12:23:00.249510  4827 layer_factory.hpp:77] Creating layer conv3_3_global_pool
I0928 12:23:00.249514  4827 net.cpp:100] Creating Layer conv3_3_global_pool
I0928 12:23:00.249518  4827 net.cpp:434] conv3_3_global_pool <- conv3_3_1x1_increase_conv3_3_1x1_increase/bn/scale_0_split_0
I0928 12:23:00.249522  4827 net.cpp:408] conv3_3_global_pool -> conv3_3_global_pool
I0928 12:23:00.249544  4827 net.cpp:150] Setting up conv3_3_global_pool
I0928 12:23:00.249550  4827 net.cpp:157] Top shape: 16 512 1 1 (8192)
I0928 12:23:00.249553  4827 net.cpp:165] Memory required for data: 2935486592
I0928 12:23:00.249555  4827 layer_factory.hpp:77] Creating layer conv3_3_1x1_down
I0928 12:23:00.249564  4827 net.cpp:100] Creating Layer conv3_3_1x1_down
I0928 12:23:00.249568  4827 net.cpp:434] conv3_3_1x1_down <- conv3_3_global_pool
I0928 12:23:00.249588  4827 net.cpp:408] conv3_3_1x1_down -> conv3_3_1x1_down
I0928 12:23:00.250373  4827 net.cpp:150] Setting up conv3_3_1x1_down
I0928 12:23:00.250385  4827 net.cpp:157] Top shape: 16 32 1 1 (512)
I0928 12:23:00.250388  4827 net.cpp:165] Memory required for data: 2935488640
I0928 12:23:00.250394  4827 layer_factory.hpp:77] Creating layer conv3_3_1x1_down/relu
I0928 12:23:00.250401  4827 net.cpp:100] Creating Layer conv3_3_1x1_down/relu
I0928 12:23:00.250406  4827 net.cpp:434] conv3_3_1x1_down/relu <- conv3_3_1x1_down
I0928 12:23:00.250411  4827 net.cpp:395] conv3_3_1x1_down/relu -> conv3_3_1x1_down (in-place)
I0928 12:23:00.250859  4827 net.cpp:150] Setting up conv3_3_1x1_down/relu
I0928 12:23:00.250871  4827 net.cpp:157] Top shape: 16 32 1 1 (512)
I0928 12:23:00.250875  4827 net.cpp:165] Memory required for data: 2935490688
I0928 12:23:00.250879  4827 layer_factory.hpp:77] Creating layer conv3_3_1x1_up
I0928 12:23:00.250888  4827 net.cpp:100] Creating Layer conv3_3_1x1_up
I0928 12:23:00.250893  4827 net.cpp:434] conv3_3_1x1_up <- conv3_3_1x1_down
I0928 12:23:00.250898  4827 net.cpp:408] conv3_3_1x1_up -> conv3_3_1x1_up
I0928 12:23:00.251986  4827 net.cpp:150] Setting up conv3_3_1x1_up
I0928 12:23:00.251999  4827 net.cpp:157] Top shape: 16 512 1 1 (8192)
I0928 12:23:00.252004  4827 net.cpp:165] Memory required for data: 2935523456
I0928 12:23:00.252010  4827 layer_factory.hpp:77] Creating layer conv3_3_prob
I0928 12:23:00.252017  4827 net.cpp:100] Creating Layer conv3_3_prob
I0928 12:23:00.252022  4827 net.cpp:434] conv3_3_prob <- conv3_3_1x1_up
I0928 12:23:00.252027  4827 net.cpp:395] conv3_3_prob -> conv3_3_1x1_up (in-place)
I0928 12:23:00.252197  4827 net.cpp:150] Setting up conv3_3_prob
I0928 12:23:00.252207  4827 net.cpp:157] Top shape: 16 512 1 1 (8192)
I0928 12:23:00.252209  4827 net.cpp:165] Memory required for data: 2935556224
I0928 12:23:00.252213  4827 layer_factory.hpp:77] Creating layer conv3_3
I0928 12:23:00.252219  4827 net.cpp:100] Creating Layer conv3_3
I0928 12:23:00.252224  4827 net.cpp:434] conv3_3 <- conv3_3_1x1_up
I0928 12:23:00.252228  4827 net.cpp:434] conv3_3 <- conv3_3_1x1_increase_conv3_3_1x1_increase/bn/scale_0_split_1
I0928 12:23:00.252233  4827 net.cpp:434] conv3_3 <- conv3_2_conv3_2/relu_0_split_1
I0928 12:23:00.252238  4827 net.cpp:408] conv3_3 -> conv3_3
I0928 12:23:00.252292  4827 net.cpp:150] Setting up conv3_3
I0928 12:23:00.252300  4827 net.cpp:157] Top shape: 16 512 28 28 (6422528)
I0928 12:23:00.252302  4827 net.cpp:165] Memory required for data: 2961246336
I0928 12:23:00.252305  4827 layer_factory.hpp:77] Creating layer conv3_3/relu
I0928 12:23:00.252310  4827 net.cpp:100] Creating Layer conv3_3/relu
I0928 12:23:00.252313  4827 net.cpp:434] conv3_3/relu <- conv3_3
I0928 12:23:00.252319  4827 net.cpp:395] conv3_3/relu -> conv3_3 (in-place)
I0928 12:23:00.252482  4827 net.cpp:150] Setting up conv3_3/relu
I0928 12:23:00.252490  4827 net.cpp:157] Top shape: 16 512 28 28 (6422528)
I0928 12:23:00.252493  4827 net.cpp:165] Memory required for data: 2986936448
I0928 12:23:00.252496  4827 layer_factory.hpp:77] Creating layer conv3_3_conv3_3/relu_0_split
I0928 12:23:00.252503  4827 net.cpp:100] Creating Layer conv3_3_conv3_3/relu_0_split
I0928 12:23:00.252506  4827 net.cpp:434] conv3_3_conv3_3/relu_0_split <- conv3_3
I0928 12:23:00.252511  4827 net.cpp:408] conv3_3_conv3_3/relu_0_split -> conv3_3_conv3_3/relu_0_split_0
I0928 12:23:00.252517  4827 net.cpp:408] conv3_3_conv3_3/relu_0_split -> conv3_3_conv3_3/relu_0_split_1
I0928 12:23:00.252560  4827 net.cpp:150] Setting up conv3_3_conv3_3/relu_0_split
I0928 12:23:00.252568  4827 net.cpp:157] Top shape: 16 512 28 28 (6422528)
I0928 12:23:00.252570  4827 net.cpp:157] Top shape: 16 512 28 28 (6422528)
I0928 12:23:00.252573  4827 net.cpp:165] Memory required for data: 3038316672
I0928 12:23:00.252576  4827 layer_factory.hpp:77] Creating layer conv3_4_1x1_reduce
I0928 12:23:00.252584  4827 net.cpp:100] Creating Layer conv3_4_1x1_reduce
I0928 12:23:00.252588  4827 net.cpp:434] conv3_4_1x1_reduce <- conv3_3_conv3_3/relu_0_split_0
I0928 12:23:00.252606  4827 net.cpp:408] conv3_4_1x1_reduce -> conv3_4_1x1_reduce
I0928 12:23:00.254667  4827 net.cpp:150] Setting up conv3_4_1x1_reduce
I0928 12:23:00.254683  4827 net.cpp:157] Top shape: 16 128 28 28 (1605632)
I0928 12:23:00.254686  4827 net.cpp:165] Memory required for data: 3044739200
I0928 12:23:00.254691  4827 layer_factory.hpp:77] Creating layer conv3_4_1x1_reduce/bn
I0928 12:23:00.254699  4827 net.cpp:100] Creating Layer conv3_4_1x1_reduce/bn
I0928 12:23:00.254706  4827 net.cpp:434] conv3_4_1x1_reduce/bn <- conv3_4_1x1_reduce
I0928 12:23:00.254711  4827 net.cpp:395] conv3_4_1x1_reduce/bn -> conv3_4_1x1_reduce (in-place)
I0928 12:23:00.254915  4827 net.cpp:150] Setting up conv3_4_1x1_reduce/bn
I0928 12:23:00.254925  4827 net.cpp:157] Top shape: 16 128 28 28 (1605632)
I0928 12:23:00.254927  4827 net.cpp:165] Memory required for data: 3051161728
I0928 12:23:00.254935  4827 layer_factory.hpp:77] Creating layer conv3_4_1x1_reduce/bn/scale
I0928 12:23:00.254941  4827 net.cpp:100] Creating Layer conv3_4_1x1_reduce/bn/scale
I0928 12:23:00.254946  4827 net.cpp:434] conv3_4_1x1_reduce/bn/scale <- conv3_4_1x1_reduce
I0928 12:23:00.254951  4827 net.cpp:395] conv3_4_1x1_reduce/bn/scale -> conv3_4_1x1_reduce (in-place)
I0928 12:23:00.254992  4827 layer_factory.hpp:77] Creating layer conv3_4_1x1_reduce/bn/scale
I0928 12:23:00.255107  4827 net.cpp:150] Setting up conv3_4_1x1_reduce/bn/scale
I0928 12:23:00.255115  4827 net.cpp:157] Top shape: 16 128 28 28 (1605632)
I0928 12:23:00.255117  4827 net.cpp:165] Memory required for data: 3057584256
I0928 12:23:00.255122  4827 layer_factory.hpp:77] Creating layer conv3_4_1x1_reduce/relu
I0928 12:23:00.255127  4827 net.cpp:100] Creating Layer conv3_4_1x1_reduce/relu
I0928 12:23:00.255131  4827 net.cpp:434] conv3_4_1x1_reduce/relu <- conv3_4_1x1_reduce
I0928 12:23:00.255136  4827 net.cpp:395] conv3_4_1x1_reduce/relu -> conv3_4_1x1_reduce (in-place)
I0928 12:23:00.255313  4827 net.cpp:150] Setting up conv3_4_1x1_reduce/relu
I0928 12:23:00.255323  4827 net.cpp:157] Top shape: 16 128 28 28 (1605632)
I0928 12:23:00.255326  4827 net.cpp:165] Memory required for data: 3064006784
I0928 12:23:00.255329  4827 layer_factory.hpp:77] Creating layer conv3_4_3x3
I0928 12:23:00.255338  4827 net.cpp:100] Creating Layer conv3_4_3x3
I0928 12:23:00.255342  4827 net.cpp:434] conv3_4_3x3 <- conv3_4_1x1_reduce
I0928 12:23:00.255348  4827 net.cpp:408] conv3_4_3x3 -> conv3_4_3x3
I0928 12:23:00.256705  4827 net.cpp:150] Setting up conv3_4_3x3
I0928 12:23:00.256719  4827 net.cpp:157] Top shape: 16 128 28 28 (1605632)
I0928 12:23:00.256724  4827 net.cpp:165] Memory required for data: 3070429312
I0928 12:23:00.256729  4827 layer_factory.hpp:77] Creating layer conv3_4_3x3/bn
I0928 12:23:00.256736  4827 net.cpp:100] Creating Layer conv3_4_3x3/bn
I0928 12:23:00.256742  4827 net.cpp:434] conv3_4_3x3/bn <- conv3_4_3x3
I0928 12:23:00.256747  4827 net.cpp:395] conv3_4_3x3/bn -> conv3_4_3x3 (in-place)
I0928 12:23:00.256959  4827 net.cpp:150] Setting up conv3_4_3x3/bn
I0928 12:23:00.256968  4827 net.cpp:157] Top shape: 16 128 28 28 (1605632)
I0928 12:23:00.256971  4827 net.cpp:165] Memory required for data: 3076851840
I0928 12:23:00.256978  4827 layer_factory.hpp:77] Creating layer conv3_4_3x3/bn/scale
I0928 12:23:00.256983  4827 net.cpp:100] Creating Layer conv3_4_3x3/bn/scale
I0928 12:23:00.256986  4827 net.cpp:434] conv3_4_3x3/bn/scale <- conv3_4_3x3
I0928 12:23:00.256990  4827 net.cpp:395] conv3_4_3x3/bn/scale -> conv3_4_3x3 (in-place)
I0928 12:23:00.257032  4827 layer_factory.hpp:77] Creating layer conv3_4_3x3/bn/scale
I0928 12:23:00.257144  4827 net.cpp:150] Setting up conv3_4_3x3/bn/scale
I0928 12:23:00.257151  4827 net.cpp:157] Top shape: 16 128 28 28 (1605632)
I0928 12:23:00.257154  4827 net.cpp:165] Memory required for data: 3083274368
I0928 12:23:00.257159  4827 layer_factory.hpp:77] Creating layer conv3_4_3x3/relu
I0928 12:23:00.257166  4827 net.cpp:100] Creating Layer conv3_4_3x3/relu
I0928 12:23:00.257170  4827 net.cpp:434] conv3_4_3x3/relu <- conv3_4_3x3
I0928 12:23:00.257174  4827 net.cpp:395] conv3_4_3x3/relu -> conv3_4_3x3 (in-place)
I0928 12:23:00.257642  4827 net.cpp:150] Setting up conv3_4_3x3/relu
I0928 12:23:00.257654  4827 net.cpp:157] Top shape: 16 128 28 28 (1605632)
I0928 12:23:00.257658  4827 net.cpp:165] Memory required for data: 3089696896
I0928 12:23:00.257663  4827 layer_factory.hpp:77] Creating layer conv3_4_1x1_increase
I0928 12:23:00.257670  4827 net.cpp:100] Creating Layer conv3_4_1x1_increase
I0928 12:23:00.257675  4827 net.cpp:434] conv3_4_1x1_increase <- conv3_4_3x3
I0928 12:23:00.257684  4827 net.cpp:408] conv3_4_1x1_increase -> conv3_4_1x1_increase
I0928 12:23:00.258456  4827 net.cpp:150] Setting up conv3_4_1x1_increase
I0928 12:23:00.258468  4827 net.cpp:157] Top shape: 16 512 28 28 (6422528)
I0928 12:23:00.258471  4827 net.cpp:165] Memory required for data: 3115387008
I0928 12:23:00.258476  4827 layer_factory.hpp:77] Creating layer conv3_4_1x1_increase/bn
I0928 12:23:00.258483  4827 net.cpp:100] Creating Layer conv3_4_1x1_increase/bn
I0928 12:23:00.258488  4827 net.cpp:434] conv3_4_1x1_increase/bn <- conv3_4_1x1_increase
I0928 12:23:00.258493  4827 net.cpp:395] conv3_4_1x1_increase/bn -> conv3_4_1x1_increase (in-place)
I0928 12:23:00.258693  4827 net.cpp:150] Setting up conv3_4_1x1_increase/bn
I0928 12:23:00.258702  4827 net.cpp:157] Top shape: 16 512 28 28 (6422528)
I0928 12:23:00.258703  4827 net.cpp:165] Memory required for data: 3141077120
I0928 12:23:00.258710  4827 layer_factory.hpp:77] Creating layer conv3_4_1x1_increase/bn/scale
I0928 12:23:00.258716  4827 net.cpp:100] Creating Layer conv3_4_1x1_increase/bn/scale
I0928 12:23:00.258719  4827 net.cpp:434] conv3_4_1x1_increase/bn/scale <- conv3_4_1x1_increase
I0928 12:23:00.258724  4827 net.cpp:395] conv3_4_1x1_increase/bn/scale -> conv3_4_1x1_increase (in-place)
I0928 12:23:00.258766  4827 layer_factory.hpp:77] Creating layer conv3_4_1x1_increase/bn/scale
I0928 12:23:00.258884  4827 net.cpp:150] Setting up conv3_4_1x1_increase/bn/scale
I0928 12:23:00.258894  4827 net.cpp:157] Top shape: 16 512 28 28 (6422528)
I0928 12:23:00.258898  4827 net.cpp:165] Memory required for data: 3166767232
I0928 12:23:00.258903  4827 layer_factory.hpp:77] Creating layer conv3_4_1x1_increase_conv3_4_1x1_increase/bn/scale_0_split
I0928 12:23:00.258908  4827 net.cpp:100] Creating Layer conv3_4_1x1_increase_conv3_4_1x1_increase/bn/scale_0_split
I0928 12:23:00.258911  4827 net.cpp:434] conv3_4_1x1_increase_conv3_4_1x1_increase/bn/scale_0_split <- conv3_4_1x1_increase
I0928 12:23:00.258915  4827 net.cpp:408] conv3_4_1x1_increase_conv3_4_1x1_increase/bn/scale_0_split -> conv3_4_1x1_increase_conv3_4_1x1_increase/bn/scale_0_split_0
I0928 12:23:00.258921  4827 net.cpp:408] conv3_4_1x1_increase_conv3_4_1x1_increase/bn/scale_0_split -> conv3_4_1x1_increase_conv3_4_1x1_increase/bn/scale_0_split_1
I0928 12:23:00.258960  4827 net.cpp:150] Setting up conv3_4_1x1_increase_conv3_4_1x1_increase/bn/scale_0_split
I0928 12:23:00.258967  4827 net.cpp:157] Top shape: 16 512 28 28 (6422528)
I0928 12:23:00.258970  4827 net.cpp:157] Top shape: 16 512 28 28 (6422528)
I0928 12:23:00.258973  4827 net.cpp:165] Memory required for data: 3218147456
I0928 12:23:00.258976  4827 layer_factory.hpp:77] Creating layer conv3_4_global_pool
I0928 12:23:00.258981  4827 net.cpp:100] Creating Layer conv3_4_global_pool
I0928 12:23:00.258985  4827 net.cpp:434] conv3_4_global_pool <- conv3_4_1x1_increase_conv3_4_1x1_increase/bn/scale_0_split_0
I0928 12:23:00.258991  4827 net.cpp:408] conv3_4_global_pool -> conv3_4_global_pool
I0928 12:23:00.259017  4827 net.cpp:150] Setting up conv3_4_global_pool
I0928 12:23:00.259023  4827 net.cpp:157] Top shape: 16 512 1 1 (8192)
I0928 12:23:00.259027  4827 net.cpp:165] Memory required for data: 3218180224
I0928 12:23:00.259028  4827 layer_factory.hpp:77] Creating layer conv3_4_1x1_down
I0928 12:23:00.259037  4827 net.cpp:100] Creating Layer conv3_4_1x1_down
I0928 12:23:00.259040  4827 net.cpp:434] conv3_4_1x1_down <- conv3_4_global_pool
I0928 12:23:00.259044  4827 net.cpp:408] conv3_4_1x1_down -> conv3_4_1x1_down
I0928 12:23:00.260118  4827 net.cpp:150] Setting up conv3_4_1x1_down
I0928 12:23:00.260144  4827 net.cpp:157] Top shape: 16 32 1 1 (512)
I0928 12:23:00.260149  4827 net.cpp:165] Memory required for data: 3218182272
I0928 12:23:00.260155  4827 layer_factory.hpp:77] Creating layer conv3_4_1x1_down/relu
I0928 12:23:00.260161  4827 net.cpp:100] Creating Layer conv3_4_1x1_down/relu
I0928 12:23:00.260165  4827 net.cpp:434] conv3_4_1x1_down/relu <- conv3_4_1x1_down
I0928 12:23:00.260172  4827 net.cpp:395] conv3_4_1x1_down/relu -> conv3_4_1x1_down (in-place)
I0928 12:23:00.260625  4827 net.cpp:150] Setting up conv3_4_1x1_down/relu
I0928 12:23:00.260638  4827 net.cpp:157] Top shape: 16 32 1 1 (512)
I0928 12:23:00.260641  4827 net.cpp:165] Memory required for data: 3218184320
I0928 12:23:00.260645  4827 layer_factory.hpp:77] Creating layer conv3_4_1x1_up
I0928 12:23:00.260654  4827 net.cpp:100] Creating Layer conv3_4_1x1_up
I0928 12:23:00.260659  4827 net.cpp:434] conv3_4_1x1_up <- conv3_4_1x1_down
I0928 12:23:00.260665  4827 net.cpp:408] conv3_4_1x1_up -> conv3_4_1x1_up
I0928 12:23:00.261471  4827 net.cpp:150] Setting up conv3_4_1x1_up
I0928 12:23:00.261482  4827 net.cpp:157] Top shape: 16 512 1 1 (8192)
I0928 12:23:00.261485  4827 net.cpp:165] Memory required for data: 3218217088
I0928 12:23:00.261492  4827 layer_factory.hpp:77] Creating layer conv3_4_prob
I0928 12:23:00.261500  4827 net.cpp:100] Creating Layer conv3_4_prob
I0928 12:23:00.261505  4827 net.cpp:434] conv3_4_prob <- conv3_4_1x1_up
I0928 12:23:00.261510  4827 net.cpp:395] conv3_4_prob -> conv3_4_1x1_up (in-place)
I0928 12:23:00.261957  4827 net.cpp:150] Setting up conv3_4_prob
I0928 12:23:00.261970  4827 net.cpp:157] Top shape: 16 512 1 1 (8192)
I0928 12:23:00.261976  4827 net.cpp:165] Memory required for data: 3218249856
I0928 12:23:00.261979  4827 layer_factory.hpp:77] Creating layer conv3_4
I0928 12:23:00.261986  4827 net.cpp:100] Creating Layer conv3_4
I0928 12:23:00.261991  4827 net.cpp:434] conv3_4 <- conv3_4_1x1_up
I0928 12:23:00.261996  4827 net.cpp:434] conv3_4 <- conv3_4_1x1_increase_conv3_4_1x1_increase/bn/scale_0_split_1
I0928 12:23:00.261999  4827 net.cpp:434] conv3_4 <- conv3_3_conv3_3/relu_0_split_1
I0928 12:23:00.262003  4827 net.cpp:408] conv3_4 -> conv3_4
I0928 12:23:00.262063  4827 net.cpp:150] Setting up conv3_4
I0928 12:23:00.262070  4827 net.cpp:157] Top shape: 16 512 28 28 (6422528)
I0928 12:23:00.262073  4827 net.cpp:165] Memory required for data: 3243939968
I0928 12:23:00.262076  4827 layer_factory.hpp:77] Creating layer conv3_4/relu
I0928 12:23:00.262082  4827 net.cpp:100] Creating Layer conv3_4/relu
I0928 12:23:00.262086  4827 net.cpp:434] conv3_4/relu <- conv3_4
I0928 12:23:00.262090  4827 net.cpp:395] conv3_4/relu -> conv3_4 (in-place)
I0928 12:23:00.262257  4827 net.cpp:150] Setting up conv3_4/relu
I0928 12:23:00.262266  4827 net.cpp:157] Top shape: 16 512 28 28 (6422528)
I0928 12:23:00.262269  4827 net.cpp:165] Memory required for data: 3269630080
I0928 12:23:00.262272  4827 layer_factory.hpp:77] Creating layer conv3_4_conv3_4/relu_0_split
I0928 12:23:00.262279  4827 net.cpp:100] Creating Layer conv3_4_conv3_4/relu_0_split
I0928 12:23:00.262282  4827 net.cpp:434] conv3_4_conv3_4/relu_0_split <- conv3_4
I0928 12:23:00.262286  4827 net.cpp:408] conv3_4_conv3_4/relu_0_split -> conv3_4_conv3_4/relu_0_split_0
I0928 12:23:00.262295  4827 net.cpp:408] conv3_4_conv3_4/relu_0_split -> conv3_4_conv3_4/relu_0_split_1
I0928 12:23:00.262341  4827 net.cpp:150] Setting up conv3_4_conv3_4/relu_0_split
I0928 12:23:00.262347  4827 net.cpp:157] Top shape: 16 512 28 28 (6422528)
I0928 12:23:00.262351  4827 net.cpp:157] Top shape: 16 512 28 28 (6422528)
I0928 12:23:00.262353  4827 net.cpp:165] Memory required for data: 3321010304
I0928 12:23:00.262356  4827 layer_factory.hpp:77] Creating layer conv4_1_1x1_reduce
I0928 12:23:00.262365  4827 net.cpp:100] Creating Layer conv4_1_1x1_reduce
I0928 12:23:00.262369  4827 net.cpp:434] conv4_1_1x1_reduce <- conv3_4_conv3_4/relu_0_split_0
I0928 12:23:00.262374  4827 net.cpp:408] conv4_1_1x1_reduce -> conv4_1_1x1_reduce
I0928 12:23:00.263478  4827 net.cpp:150] Setting up conv4_1_1x1_reduce
I0928 12:23:00.263504  4827 net.cpp:157] Top shape: 16 256 14 14 (802816)
I0928 12:23:00.263509  4827 net.cpp:165] Memory required for data: 3324221568
I0928 12:23:00.263514  4827 layer_factory.hpp:77] Creating layer conv4_1_1x1_reduce/bn
I0928 12:23:00.263520  4827 net.cpp:100] Creating Layer conv4_1_1x1_reduce/bn
I0928 12:23:00.263525  4827 net.cpp:434] conv4_1_1x1_reduce/bn <- conv4_1_1x1_reduce
I0928 12:23:00.263531  4827 net.cpp:395] conv4_1_1x1_reduce/bn -> conv4_1_1x1_reduce (in-place)
I0928 12:23:00.263736  4827 net.cpp:150] Setting up conv4_1_1x1_reduce/bn
I0928 12:23:00.263743  4827 net.cpp:157] Top shape: 16 256 14 14 (802816)
I0928 12:23:00.263746  4827 net.cpp:165] Memory required for data: 3327432832
I0928 12:23:00.263753  4827 layer_factory.hpp:77] Creating layer conv4_1_1x1_reduce/bn/scale
I0928 12:23:00.263758  4827 net.cpp:100] Creating Layer conv4_1_1x1_reduce/bn/scale
I0928 12:23:00.263761  4827 net.cpp:434] conv4_1_1x1_reduce/bn/scale <- conv4_1_1x1_reduce
I0928 12:23:00.263767  4827 net.cpp:395] conv4_1_1x1_reduce/bn/scale -> conv4_1_1x1_reduce (in-place)
I0928 12:23:00.263815  4827 layer_factory.hpp:77] Creating layer conv4_1_1x1_reduce/bn/scale
I0928 12:23:00.263929  4827 net.cpp:150] Setting up conv4_1_1x1_reduce/bn/scale
I0928 12:23:00.263937  4827 net.cpp:157] Top shape: 16 256 14 14 (802816)
I0928 12:23:00.263941  4827 net.cpp:165] Memory required for data: 3330644096
I0928 12:23:00.263945  4827 layer_factory.hpp:77] Creating layer conv4_1_1x1_reduce/relu
I0928 12:23:00.263952  4827 net.cpp:100] Creating Layer conv4_1_1x1_reduce/relu
I0928 12:23:00.263957  4827 net.cpp:434] conv4_1_1x1_reduce/relu <- conv4_1_1x1_reduce
I0928 12:23:00.263960  4827 net.cpp:395] conv4_1_1x1_reduce/relu -> conv4_1_1x1_reduce (in-place)
I0928 12:23:00.264132  4827 net.cpp:150] Setting up conv4_1_1x1_reduce/relu
I0928 12:23:00.264142  4827 net.cpp:157] Top shape: 16 256 14 14 (802816)
I0928 12:23:00.264147  4827 net.cpp:165] Memory required for data: 3333855360
I0928 12:23:00.264149  4827 layer_factory.hpp:77] Creating layer conv4_1_3x3
I0928 12:23:00.264156  4827 net.cpp:100] Creating Layer conv4_1_3x3
I0928 12:23:00.264159  4827 net.cpp:434] conv4_1_3x3 <- conv4_1_1x1_reduce
I0928 12:23:00.264166  4827 net.cpp:408] conv4_1_3x3 -> conv4_1_3x3
I0928 12:23:00.266942  4827 net.cpp:150] Setting up conv4_1_3x3
I0928 12:23:00.266957  4827 net.cpp:157] Top shape: 16 256 14 14 (802816)
I0928 12:23:00.266960  4827 net.cpp:165] Memory required for data: 3337066624
I0928 12:23:00.266965  4827 layer_factory.hpp:77] Creating layer conv4_1_3x3/bn
I0928 12:23:00.266973  4827 net.cpp:100] Creating Layer conv4_1_3x3/bn
I0928 12:23:00.266979  4827 net.cpp:434] conv4_1_3x3/bn <- conv4_1_3x3
I0928 12:23:00.266984  4827 net.cpp:395] conv4_1_3x3/bn -> conv4_1_3x3 (in-place)
I0928 12:23:00.267190  4827 net.cpp:150] Setting up conv4_1_3x3/bn
I0928 12:23:00.267199  4827 net.cpp:157] Top shape: 16 256 14 14 (802816)
I0928 12:23:00.267201  4827 net.cpp:165] Memory required for data: 3340277888
I0928 12:23:00.267207  4827 layer_factory.hpp:77] Creating layer conv4_1_3x3/bn/scale
I0928 12:23:00.267213  4827 net.cpp:100] Creating Layer conv4_1_3x3/bn/scale
I0928 12:23:00.267216  4827 net.cpp:434] conv4_1_3x3/bn/scale <- conv4_1_3x3
I0928 12:23:00.267222  4827 net.cpp:395] conv4_1_3x3/bn/scale -> conv4_1_3x3 (in-place)
I0928 12:23:00.267264  4827 layer_factory.hpp:77] Creating layer conv4_1_3x3/bn/scale
I0928 12:23:00.267377  4827 net.cpp:150] Setting up conv4_1_3x3/bn/scale
I0928 12:23:00.267383  4827 net.cpp:157] Top shape: 16 256 14 14 (802816)
I0928 12:23:00.267386  4827 net.cpp:165] Memory required for data: 3343489152
I0928 12:23:00.267391  4827 layer_factory.hpp:77] Creating layer conv4_1_3x3/relu
I0928 12:23:00.267396  4827 net.cpp:100] Creating Layer conv4_1_3x3/relu
I0928 12:23:00.267400  4827 net.cpp:434] conv4_1_3x3/relu <- conv4_1_3x3
I0928 12:23:00.267403  4827 net.cpp:395] conv4_1_3x3/relu -> conv4_1_3x3 (in-place)
I0928 12:23:00.267585  4827 net.cpp:150] Setting up conv4_1_3x3/relu
I0928 12:23:00.267594  4827 net.cpp:157] Top shape: 16 256 14 14 (802816)
I0928 12:23:00.267611  4827 net.cpp:165] Memory required for data: 3346700416
I0928 12:23:00.267614  4827 layer_factory.hpp:77] Creating layer conv4_1_1x1_increase
I0928 12:23:00.267623  4827 net.cpp:100] Creating Layer conv4_1_1x1_increase
I0928 12:23:00.267627  4827 net.cpp:434] conv4_1_1x1_increase <- conv4_1_3x3
I0928 12:23:00.267632  4827 net.cpp:408] conv4_1_1x1_increase -> conv4_1_1x1_increase
I0928 12:23:00.269846  4827 net.cpp:150] Setting up conv4_1_1x1_increase
I0928 12:23:00.269860  4827 net.cpp:157] Top shape: 16 1024 14 14 (3211264)
I0928 12:23:00.269865  4827 net.cpp:165] Memory required for data: 3359545472
I0928 12:23:00.269870  4827 layer_factory.hpp:77] Creating layer conv4_1_1x1_increase/bn
I0928 12:23:00.269877  4827 net.cpp:100] Creating Layer conv4_1_1x1_increase/bn
I0928 12:23:00.269882  4827 net.cpp:434] conv4_1_1x1_increase/bn <- conv4_1_1x1_increase
I0928 12:23:00.269887  4827 net.cpp:395] conv4_1_1x1_increase/bn -> conv4_1_1x1_increase (in-place)
I0928 12:23:00.270097  4827 net.cpp:150] Setting up conv4_1_1x1_increase/bn
I0928 12:23:00.270105  4827 net.cpp:157] Top shape: 16 1024 14 14 (3211264)
I0928 12:23:00.270108  4827 net.cpp:165] Memory required for data: 3372390528
I0928 12:23:00.270115  4827 layer_factory.hpp:77] Creating layer conv4_1_1x1_increase/bn/scale
I0928 12:23:00.270120  4827 net.cpp:100] Creating Layer conv4_1_1x1_increase/bn/scale
I0928 12:23:00.270123  4827 net.cpp:434] conv4_1_1x1_increase/bn/scale <- conv4_1_1x1_increase
I0928 12:23:00.270128  4827 net.cpp:395] conv4_1_1x1_increase/bn/scale -> conv4_1_1x1_increase (in-place)
I0928 12:23:00.270169  4827 layer_factory.hpp:77] Creating layer conv4_1_1x1_increase/bn/scale
I0928 12:23:00.270288  4827 net.cpp:150] Setting up conv4_1_1x1_increase/bn/scale
I0928 12:23:00.270295  4827 net.cpp:157] Top shape: 16 1024 14 14 (3211264)
I0928 12:23:00.270298  4827 net.cpp:165] Memory required for data: 3385235584
I0928 12:23:00.270303  4827 layer_factory.hpp:77] Creating layer conv4_1_1x1_increase_conv4_1_1x1_increase/bn/scale_0_split
I0928 12:23:00.270308  4827 net.cpp:100] Creating Layer conv4_1_1x1_increase_conv4_1_1x1_increase/bn/scale_0_split
I0928 12:23:00.270310  4827 net.cpp:434] conv4_1_1x1_increase_conv4_1_1x1_increase/bn/scale_0_split <- conv4_1_1x1_increase
I0928 12:23:00.270316  4827 net.cpp:408] conv4_1_1x1_increase_conv4_1_1x1_increase/bn/scale_0_split -> conv4_1_1x1_increase_conv4_1_1x1_increase/bn/scale_0_split_0
I0928 12:23:00.270323  4827 net.cpp:408] conv4_1_1x1_increase_conv4_1_1x1_increase/bn/scale_0_split -> conv4_1_1x1_increase_conv4_1_1x1_increase/bn/scale_0_split_1
I0928 12:23:00.270361  4827 net.cpp:150] Setting up conv4_1_1x1_increase_conv4_1_1x1_increase/bn/scale_0_split
I0928 12:23:00.270370  4827 net.cpp:157] Top shape: 16 1024 14 14 (3211264)
I0928 12:23:00.270373  4827 net.cpp:157] Top shape: 16 1024 14 14 (3211264)
I0928 12:23:00.270376  4827 net.cpp:165] Memory required for data: 3410925696
I0928 12:23:00.270380  4827 layer_factory.hpp:77] Creating layer conv4_1_global_pool
I0928 12:23:00.270385  4827 net.cpp:100] Creating Layer conv4_1_global_pool
I0928 12:23:00.270387  4827 net.cpp:434] conv4_1_global_pool <- conv4_1_1x1_increase_conv4_1_1x1_increase/bn/scale_0_split_0
I0928 12:23:00.270391  4827 net.cpp:408] conv4_1_global_pool -> conv4_1_global_pool
I0928 12:23:00.270417  4827 net.cpp:150] Setting up conv4_1_global_pool
I0928 12:23:00.270423  4827 net.cpp:157] Top shape: 16 1024 1 1 (16384)
I0928 12:23:00.270426  4827 net.cpp:165] Memory required for data: 3410991232
I0928 12:23:00.270428  4827 layer_factory.hpp:77] Creating layer conv4_1_1x1_down
I0928 12:23:00.270436  4827 net.cpp:100] Creating Layer conv4_1_1x1_down
I0928 12:23:00.270438  4827 net.cpp:434] conv4_1_1x1_down <- conv4_1_global_pool
I0928 12:23:00.270444  4827 net.cpp:408] conv4_1_1x1_down -> conv4_1_1x1_down
I0928 12:23:00.271580  4827 net.cpp:150] Setting up conv4_1_1x1_down
I0928 12:23:00.271597  4827 net.cpp:157] Top shape: 16 64 1 1 (1024)
I0928 12:23:00.271602  4827 net.cpp:165] Memory required for data: 3410995328
I0928 12:23:00.271621  4827 layer_factory.hpp:77] Creating layer conv4_1_1x1_down/relu
I0928 12:23:00.271630  4827 net.cpp:100] Creating Layer conv4_1_1x1_down/relu
I0928 12:23:00.271634  4827 net.cpp:434] conv4_1_1x1_down/relu <- conv4_1_1x1_down
I0928 12:23:00.271639  4827 net.cpp:395] conv4_1_1x1_down/relu -> conv4_1_1x1_down (in-place)
I0928 12:23:00.271822  4827 net.cpp:150] Setting up conv4_1_1x1_down/relu
I0928 12:23:00.271833  4827 net.cpp:157] Top shape: 16 64 1 1 (1024)
I0928 12:23:00.271837  4827 net.cpp:165] Memory required for data: 3410999424
I0928 12:23:00.271841  4827 layer_factory.hpp:77] Creating layer conv4_1_1x1_up
I0928 12:23:00.271847  4827 net.cpp:100] Creating Layer conv4_1_1x1_up
I0928 12:23:00.271850  4827 net.cpp:434] conv4_1_1x1_up <- conv4_1_1x1_down
I0928 12:23:00.271857  4827 net.cpp:408] conv4_1_1x1_up -> conv4_1_1x1_up
I0928 12:23:00.273003  4827 net.cpp:150] Setting up conv4_1_1x1_up
I0928 12:23:00.273017  4827 net.cpp:157] Top shape: 16 1024 1 1 (16384)
I0928 12:23:00.273021  4827 net.cpp:165] Memory required for data: 3411064960
I0928 12:23:00.273027  4827 layer_factory.hpp:77] Creating layer conv4_1_prob
I0928 12:23:00.273036  4827 net.cpp:100] Creating Layer conv4_1_prob
I0928 12:23:00.273041  4827 net.cpp:434] conv4_1_prob <- conv4_1_1x1_up
I0928 12:23:00.273046  4827 net.cpp:395] conv4_1_prob -> conv4_1_1x1_up (in-place)
I0928 12:23:00.273511  4827 net.cpp:150] Setting up conv4_1_prob
I0928 12:23:00.273524  4827 net.cpp:157] Top shape: 16 1024 1 1 (16384)
I0928 12:23:00.273528  4827 net.cpp:165] Memory required for data: 3411130496
I0928 12:23:00.273531  4827 layer_factory.hpp:77] Creating layer conv4_1_1x1_proj
I0928 12:23:00.273540  4827 net.cpp:100] Creating Layer conv4_1_1x1_proj
I0928 12:23:00.273545  4827 net.cpp:434] conv4_1_1x1_proj <- conv3_4_conv3_4/relu_0_split_1
I0928 12:23:00.273552  4827 net.cpp:408] conv4_1_1x1_proj -> conv4_1_1x1_proj
I0928 12:23:00.275651  4827 net.cpp:150] Setting up conv4_1_1x1_proj
I0928 12:23:00.275667  4827 net.cpp:157] Top shape: 16 1024 14 14 (3211264)
I0928 12:23:00.275671  4827 net.cpp:165] Memory required for data: 3423975552
I0928 12:23:00.275677  4827 layer_factory.hpp:77] Creating layer conv4_1_1x1_proj/bn
I0928 12:23:00.275683  4827 net.cpp:100] Creating Layer conv4_1_1x1_proj/bn
I0928 12:23:00.275688  4827 net.cpp:434] conv4_1_1x1_proj/bn <- conv4_1_1x1_proj
I0928 12:23:00.275693  4827 net.cpp:395] conv4_1_1x1_proj/bn -> conv4_1_1x1_proj (in-place)
I0928 12:23:00.275904  4827 net.cpp:150] Setting up conv4_1_1x1_proj/bn
I0928 12:23:00.275913  4827 net.cpp:157] Top shape: 16 1024 14 14 (3211264)
I0928 12:23:00.275916  4827 net.cpp:165] Memory required for data: 3436820608
I0928 12:23:00.275923  4827 layer_factory.hpp:77] Creating layer conv4_1_1x1_proj/bn/scale
I0928 12:23:00.275928  4827 net.cpp:100] Creating Layer conv4_1_1x1_proj/bn/scale
I0928 12:23:00.275931  4827 net.cpp:434] conv4_1_1x1_proj/bn/scale <- conv4_1_1x1_proj
I0928 12:23:00.275936  4827 net.cpp:395] conv4_1_1x1_proj/bn/scale -> conv4_1_1x1_proj (in-place)
I0928 12:23:00.275976  4827 layer_factory.hpp:77] Creating layer conv4_1_1x1_proj/bn/scale
I0928 12:23:00.276098  4827 net.cpp:150] Setting up conv4_1_1x1_proj/bn/scale
I0928 12:23:00.276104  4827 net.cpp:157] Top shape: 16 1024 14 14 (3211264)
I0928 12:23:00.276108  4827 net.cpp:165] Memory required for data: 3449665664
I0928 12:23:00.276113  4827 layer_factory.hpp:77] Creating layer conv4_1
I0928 12:23:00.276118  4827 net.cpp:100] Creating Layer conv4_1
I0928 12:23:00.276121  4827 net.cpp:434] conv4_1 <- conv4_1_1x1_up
I0928 12:23:00.276125  4827 net.cpp:434] conv4_1 <- conv4_1_1x1_increase_conv4_1_1x1_increase/bn/scale_0_split_1
I0928 12:23:00.276129  4827 net.cpp:434] conv4_1 <- conv4_1_1x1_proj
I0928 12:23:00.276134  4827 net.cpp:408] conv4_1 -> conv4_1
I0928 12:23:00.276187  4827 net.cpp:150] Setting up conv4_1
I0928 12:23:00.276195  4827 net.cpp:157] Top shape: 16 1024 14 14 (3211264)
I0928 12:23:00.276197  4827 net.cpp:165] Memory required for data: 3462510720
I0928 12:23:00.276201  4827 layer_factory.hpp:77] Creating layer conv4_1/relu
I0928 12:23:00.276219  4827 net.cpp:100] Creating Layer conv4_1/relu
I0928 12:23:00.276224  4827 net.cpp:434] conv4_1/relu <- conv4_1
I0928 12:23:00.276231  4827 net.cpp:395] conv4_1/relu -> conv4_1 (in-place)
I0928 12:23:00.276959  4827 net.cpp:150] Setting up conv4_1/relu
I0928 12:23:00.276973  4827 net.cpp:157] Top shape: 16 1024 14 14 (3211264)
I0928 12:23:00.276976  4827 net.cpp:165] Memory required for data: 3475355776
I0928 12:23:00.276980  4827 layer_factory.hpp:77] Creating layer conv4_1_conv4_1/relu_0_split
I0928 12:23:00.276985  4827 net.cpp:100] Creating Layer conv4_1_conv4_1/relu_0_split
I0928 12:23:00.276989  4827 net.cpp:434] conv4_1_conv4_1/relu_0_split <- conv4_1
I0928 12:23:00.276996  4827 net.cpp:408] conv4_1_conv4_1/relu_0_split -> conv4_1_conv4_1/relu_0_split_0
I0928 12:23:00.277004  4827 net.cpp:408] conv4_1_conv4_1/relu_0_split -> conv4_1_conv4_1/relu_0_split_1
I0928 12:23:00.277057  4827 net.cpp:150] Setting up conv4_1_conv4_1/relu_0_split
I0928 12:23:00.277065  4827 net.cpp:157] Top shape: 16 1024 14 14 (3211264)
I0928 12:23:00.277068  4827 net.cpp:157] Top shape: 16 1024 14 14 (3211264)
I0928 12:23:00.277071  4827 net.cpp:165] Memory required for data: 3501045888
I0928 12:23:00.277074  4827 layer_factory.hpp:77] Creating layer conv4_2_1x1_reduce
I0928 12:23:00.277082  4827 net.cpp:100] Creating Layer conv4_2_1x1_reduce
I0928 12:23:00.277086  4827 net.cpp:434] conv4_2_1x1_reduce <- conv4_1_conv4_1/relu_0_split_0
I0928 12:23:00.277091  4827 net.cpp:408] conv4_2_1x1_reduce -> conv4_2_1x1_reduce
I0928 12:23:00.278317  4827 net.cpp:150] Setting up conv4_2_1x1_reduce
I0928 12:23:00.278331  4827 net.cpp:157] Top shape: 16 256 14 14 (802816)
I0928 12:23:00.278337  4827 net.cpp:165] Memory required for data: 3504257152
I0928 12:23:00.278342  4827 layer_factory.hpp:77] Creating layer conv4_2_1x1_reduce/bn
I0928 12:23:00.278350  4827 net.cpp:100] Creating Layer conv4_2_1x1_reduce/bn
I0928 12:23:00.278354  4827 net.cpp:434] conv4_2_1x1_reduce/bn <- conv4_2_1x1_reduce
I0928 12:23:00.278359  4827 net.cpp:395] conv4_2_1x1_reduce/bn -> conv4_2_1x1_reduce (in-place)
I0928 12:23:00.278568  4827 net.cpp:150] Setting up conv4_2_1x1_reduce/bn
I0928 12:23:00.278574  4827 net.cpp:157] Top shape: 16 256 14 14 (802816)
I0928 12:23:00.278578  4827 net.cpp:165] Memory required for data: 3507468416
I0928 12:23:00.278584  4827 layer_factory.hpp:77] Creating layer conv4_2_1x1_reduce/bn/scale
I0928 12:23:00.278589  4827 net.cpp:100] Creating Layer conv4_2_1x1_reduce/bn/scale
I0928 12:23:00.278592  4827 net.cpp:434] conv4_2_1x1_reduce/bn/scale <- conv4_2_1x1_reduce
I0928 12:23:00.278596  4827 net.cpp:395] conv4_2_1x1_reduce/bn/scale -> conv4_2_1x1_reduce (in-place)
I0928 12:23:00.278640  4827 layer_factory.hpp:77] Creating layer conv4_2_1x1_reduce/bn/scale
I0928 12:23:00.278753  4827 net.cpp:150] Setting up conv4_2_1x1_reduce/bn/scale
I0928 12:23:00.278759  4827 net.cpp:157] Top shape: 16 256 14 14 (802816)
I0928 12:23:00.278762  4827 net.cpp:165] Memory required for data: 3510679680
I0928 12:23:00.278767  4827 layer_factory.hpp:77] Creating layer conv4_2_1x1_reduce/relu
I0928 12:23:00.278774  4827 net.cpp:100] Creating Layer conv4_2_1x1_reduce/relu
I0928 12:23:00.278779  4827 net.cpp:434] conv4_2_1x1_reduce/relu <- conv4_2_1x1_reduce
I0928 12:23:00.278781  4827 net.cpp:395] conv4_2_1x1_reduce/relu -> conv4_2_1x1_reduce (in-place)
I0928 12:23:00.278960  4827 net.cpp:150] Setting up conv4_2_1x1_reduce/relu
I0928 12:23:00.278970  4827 net.cpp:157] Top shape: 16 256 14 14 (802816)
I0928 12:23:00.278973  4827 net.cpp:165] Memory required for data: 3513890944
I0928 12:23:00.278976  4827 layer_factory.hpp:77] Creating layer conv4_2_3x3
I0928 12:23:00.278985  4827 net.cpp:100] Creating Layer conv4_2_3x3
I0928 12:23:00.278990  4827 net.cpp:434] conv4_2_3x3 <- conv4_2_1x1_reduce
I0928 12:23:00.278993  4827 net.cpp:408] conv4_2_3x3 -> conv4_2_3x3
I0928 12:23:00.281805  4827 net.cpp:150] Setting up conv4_2_3x3
I0928 12:23:00.281819  4827 net.cpp:157] Top shape: 16 256 14 14 (802816)
I0928 12:23:00.281837  4827 net.cpp:165] Memory required for data: 3517102208
I0928 12:23:00.281844  4827 layer_factory.hpp:77] Creating layer conv4_2_3x3/bn
I0928 12:23:00.281852  4827 net.cpp:100] Creating Layer conv4_2_3x3/bn
I0928 12:23:00.281857  4827 net.cpp:434] conv4_2_3x3/bn <- conv4_2_3x3
I0928 12:23:00.281862  4827 net.cpp:395] conv4_2_3x3/bn -> conv4_2_3x3 (in-place)
I0928 12:23:00.282074  4827 net.cpp:150] Setting up conv4_2_3x3/bn
I0928 12:23:00.282083  4827 net.cpp:157] Top shape: 16 256 14 14 (802816)
I0928 12:23:00.282085  4827 net.cpp:165] Memory required for data: 3520313472
I0928 12:23:00.282093  4827 layer_factory.hpp:77] Creating layer conv4_2_3x3/bn/scale
I0928 12:23:00.282097  4827 net.cpp:100] Creating Layer conv4_2_3x3/bn/scale
I0928 12:23:00.282100  4827 net.cpp:434] conv4_2_3x3/bn/scale <- conv4_2_3x3
I0928 12:23:00.282105  4827 net.cpp:395] conv4_2_3x3/bn/scale -> conv4_2_3x3 (in-place)
I0928 12:23:00.282152  4827 layer_factory.hpp:77] Creating layer conv4_2_3x3/bn/scale
I0928 12:23:00.282270  4827 net.cpp:150] Setting up conv4_2_3x3/bn/scale
I0928 12:23:00.282277  4827 net.cpp:157] Top shape: 16 256 14 14 (802816)
I0928 12:23:00.282279  4827 net.cpp:165] Memory required for data: 3523524736
I0928 12:23:00.282285  4827 layer_factory.hpp:77] Creating layer conv4_2_3x3/relu
I0928 12:23:00.282291  4827 net.cpp:100] Creating Layer conv4_2_3x3/relu
I0928 12:23:00.282295  4827 net.cpp:434] conv4_2_3x3/relu <- conv4_2_3x3
I0928 12:23:00.282301  4827 net.cpp:395] conv4_2_3x3/relu -> conv4_2_3x3 (in-place)
I0928 12:23:00.282479  4827 net.cpp:150] Setting up conv4_2_3x3/relu
I0928 12:23:00.282488  4827 net.cpp:157] Top shape: 16 256 14 14 (802816)
I0928 12:23:00.282491  4827 net.cpp:165] Memory required for data: 3526736000
I0928 12:23:00.282495  4827 layer_factory.hpp:77] Creating layer conv4_2_1x1_increase
I0928 12:23:00.282502  4827 net.cpp:100] Creating Layer conv4_2_1x1_increase
I0928 12:23:00.282507  4827 net.cpp:434] conv4_2_1x1_increase <- conv4_2_3x3
I0928 12:23:00.282512  4827 net.cpp:408] conv4_2_1x1_increase -> conv4_2_1x1_increase
I0928 12:23:00.284752  4827 net.cpp:150] Setting up conv4_2_1x1_increase
I0928 12:23:00.284767  4827 net.cpp:157] Top shape: 16 1024 14 14 (3211264)
I0928 12:23:00.284771  4827 net.cpp:165] Memory required for data: 3539581056
I0928 12:23:00.284776  4827 layer_factory.hpp:77] Creating layer conv4_2_1x1_increase/bn
I0928 12:23:00.284788  4827 net.cpp:100] Creating Layer conv4_2_1x1_increase/bn
I0928 12:23:00.284795  4827 net.cpp:434] conv4_2_1x1_increase/bn <- conv4_2_1x1_increase
I0928 12:23:00.284801  4827 net.cpp:395] conv4_2_1x1_increase/bn -> conv4_2_1x1_increase (in-place)
I0928 12:23:00.285012  4827 net.cpp:150] Setting up conv4_2_1x1_increase/bn
I0928 12:23:00.285019  4827 net.cpp:157] Top shape: 16 1024 14 14 (3211264)
I0928 12:23:00.285022  4827 net.cpp:165] Memory required for data: 3552426112
I0928 12:23:00.285029  4827 layer_factory.hpp:77] Creating layer conv4_2_1x1_increase/bn/scale
I0928 12:23:00.285037  4827 net.cpp:100] Creating Layer conv4_2_1x1_increase/bn/scale
I0928 12:23:00.285040  4827 net.cpp:434] conv4_2_1x1_increase/bn/scale <- conv4_2_1x1_increase
I0928 12:23:00.285044  4827 net.cpp:395] conv4_2_1x1_increase/bn/scale -> conv4_2_1x1_increase (in-place)
I0928 12:23:00.285085  4827 layer_factory.hpp:77] Creating layer conv4_2_1x1_increase/bn/scale
I0928 12:23:00.285207  4827 net.cpp:150] Setting up conv4_2_1x1_increase/bn/scale
I0928 12:23:00.285213  4827 net.cpp:157] Top shape: 16 1024 14 14 (3211264)
I0928 12:23:00.285217  4827 net.cpp:165] Memory required for data: 3565271168
I0928 12:23:00.285221  4827 layer_factory.hpp:77] Creating layer conv4_2_1x1_increase_conv4_2_1x1_increase/bn/scale_0_split
I0928 12:23:00.285226  4827 net.cpp:100] Creating Layer conv4_2_1x1_increase_conv4_2_1x1_increase/bn/scale_0_split
I0928 12:23:00.285229  4827 net.cpp:434] conv4_2_1x1_increase_conv4_2_1x1_increase/bn/scale_0_split <- conv4_2_1x1_increase
I0928 12:23:00.285235  4827 net.cpp:408] conv4_2_1x1_increase_conv4_2_1x1_increase/bn/scale_0_split -> conv4_2_1x1_increase_conv4_2_1x1_increase/bn/scale_0_split_0
I0928 12:23:00.285255  4827 net.cpp:408] conv4_2_1x1_increase_conv4_2_1x1_increase/bn/scale_0_split -> conv4_2_1x1_increase_conv4_2_1x1_increase/bn/scale_0_split_1
I0928 12:23:00.285301  4827 net.cpp:150] Setting up conv4_2_1x1_increase_conv4_2_1x1_increase/bn/scale_0_split
I0928 12:23:00.285308  4827 net.cpp:157] Top shape: 16 1024 14 14 (3211264)
I0928 12:23:00.285312  4827 net.cpp:157] Top shape: 16 1024 14 14 (3211264)
I0928 12:23:00.285315  4827 net.cpp:165] Memory required for data: 3590961280
I0928 12:23:00.285318  4827 layer_factory.hpp:77] Creating layer conv4_2_global_pool
I0928 12:23:00.285326  4827 net.cpp:100] Creating Layer conv4_2_global_pool
I0928 12:23:00.285329  4827 net.cpp:434] conv4_2_global_pool <- conv4_2_1x1_increase_conv4_2_1x1_increase/bn/scale_0_split_0
I0928 12:23:00.285333  4827 net.cpp:408] conv4_2_global_pool -> conv4_2_global_pool
I0928 12:23:00.285357  4827 net.cpp:150] Setting up conv4_2_global_pool
I0928 12:23:00.285364  4827 net.cpp:157] Top shape: 16 1024 1 1 (16384)
I0928 12:23:00.285367  4827 net.cpp:165] Memory required for data: 3591026816
I0928 12:23:00.285369  4827 layer_factory.hpp:77] Creating layer conv4_2_1x1_down
I0928 12:23:00.285377  4827 net.cpp:100] Creating Layer conv4_2_1x1_down
I0928 12:23:00.285382  4827 net.cpp:434] conv4_2_1x1_down <- conv4_2_global_pool
I0928 12:23:00.285387  4827 net.cpp:408] conv4_2_1x1_down -> conv4_2_1x1_down
I0928 12:23:00.286554  4827 net.cpp:150] Setting up conv4_2_1x1_down
I0928 12:23:00.286568  4827 net.cpp:157] Top shape: 16 64 1 1 (1024)
I0928 12:23:00.286573  4827 net.cpp:165] Memory required for data: 3591030912
I0928 12:23:00.286579  4827 layer_factory.hpp:77] Creating layer conv4_2_1x1_down/relu
I0928 12:23:00.286587  4827 net.cpp:100] Creating Layer conv4_2_1x1_down/relu
I0928 12:23:00.286593  4827 net.cpp:434] conv4_2_1x1_down/relu <- conv4_2_1x1_down
I0928 12:23:00.286599  4827 net.cpp:395] conv4_2_1x1_down/relu -> conv4_2_1x1_down (in-place)
I0928 12:23:00.286775  4827 net.cpp:150] Setting up conv4_2_1x1_down/relu
I0928 12:23:00.286790  4827 net.cpp:157] Top shape: 16 64 1 1 (1024)
I0928 12:23:00.286795  4827 net.cpp:165] Memory required for data: 3591035008
I0928 12:23:00.286798  4827 layer_factory.hpp:77] Creating layer conv4_2_1x1_up
I0928 12:23:00.286808  4827 net.cpp:100] Creating Layer conv4_2_1x1_up
I0928 12:23:00.286810  4827 net.cpp:434] conv4_2_1x1_up <- conv4_2_1x1_down
I0928 12:23:00.286815  4827 net.cpp:408] conv4_2_1x1_up -> conv4_2_1x1_up
I0928 12:23:00.287968  4827 net.cpp:150] Setting up conv4_2_1x1_up
I0928 12:23:00.287982  4827 net.cpp:157] Top shape: 16 1024 1 1 (16384)
I0928 12:23:00.287987  4827 net.cpp:165] Memory required for data: 3591100544
I0928 12:23:00.287993  4827 layer_factory.hpp:77] Creating layer conv4_2_prob
I0928 12:23:00.288002  4827 net.cpp:100] Creating Layer conv4_2_prob
I0928 12:23:00.288007  4827 net.cpp:434] conv4_2_prob <- conv4_2_1x1_up
I0928 12:23:00.288010  4827 net.cpp:395] conv4_2_prob -> conv4_2_1x1_up (in-place)
I0928 12:23:00.288187  4827 net.cpp:150] Setting up conv4_2_prob
I0928 12:23:00.288197  4827 net.cpp:157] Top shape: 16 1024 1 1 (16384)
I0928 12:23:00.288200  4827 net.cpp:165] Memory required for data: 3591166080
I0928 12:23:00.288204  4827 layer_factory.hpp:77] Creating layer conv4_2
I0928 12:23:00.288210  4827 net.cpp:100] Creating Layer conv4_2
I0928 12:23:00.288214  4827 net.cpp:434] conv4_2 <- conv4_2_1x1_up
I0928 12:23:00.288218  4827 net.cpp:434] conv4_2 <- conv4_2_1x1_increase_conv4_2_1x1_increase/bn/scale_0_split_1
I0928 12:23:00.288223  4827 net.cpp:434] conv4_2 <- conv4_1_conv4_1/relu_0_split_1
I0928 12:23:00.288228  4827 net.cpp:408] conv4_2 -> conv4_2
I0928 12:23:00.288290  4827 net.cpp:150] Setting up conv4_2
…
I0928 12:23:00.611896  4827 net.cpp:165] Memory required for data: 253989764
I0928 12:23:00.611903  4827 layer_factory.hpp:77] Creating layer conv4_6_1x1_reduce/bn/scale
I0928 12:23:00.611910  4827 net.cpp:100] Creating Layer conv4_6_1x1_reduce/bn/scale
I0928 12:23:00.611913  4827 net.cpp:434] conv4_6_1x1_reduce/bn/scale <- conv4_6_1x1_reduce
I0928 12:23:00.611918  4827 net.cpp:395] conv4_6_1x1_reduce/bn/scale -> conv4_6_1x1_reduce (in-place)
I0928 12:23:00.611959  4827 layer_factory.hpp:77] Creating layer conv4_6_1x1_reduce/bn/scale
I0928 12:23:00.612068  4827 net.cpp:150] Setting up conv4_6_1x1_reduce/bn/scale
I0928 12:23:00.612077  4827 net.cpp:157] Top shape: 1 256 14 14 (50176)
I0928 12:23:00.612079  4827 net.cpp:165] Memory required for data: 254190468
I0928 12:23:00.612085  4827 layer_factory.hpp:77] Creating layer conv4_6_1x1_reduce/relu
I0928 12:23:00.612090  4827 net.cpp:100] Creating Layer conv4_6_1x1_reduce/relu
I0928 12:23:00.612095  4827 net.cpp:434] conv4_6_1x1_reduce/relu <- conv4_6_1x1_reduce
I0928 12:23:00.612100  4827 net.cpp:395] conv4_6_1x1_reduce/relu -> conv4_6_1x1_reduce (in-place)
I0928 12:23:00.612329  4827 net.cpp:150] Setting up conv4_6_1x1_reduce/relu
I0928 12:23:00.612340  4827 net.cpp:157] Top shape: 1 256 14 14 (50176)
I0928 12:23:00.612344  4827 net.cpp:165] Memory required for data: 254391172
I0928 12:23:00.612347  4827 layer_factory.hpp:77] Creating layer conv4_6_3x3
I0928 12:23:00.612356  4827 net.cpp:100] Creating Layer conv4_6_3x3
I0928 12:23:00.612360  4827 net.cpp:434] conv4_6_3x3 <- conv4_6_1x1_reduce
I0928 12:23:00.612368  4827 net.cpp:408] conv4_6_3x3 -> conv4_6_3x3
I0928 12:23:00.615617  4827 net.cpp:150] Setting up conv4_6_3x3
I0928 12:23:00.615633  4827 net.cpp:157] Top shape: 1 256 14 14 (50176)
I0928 12:23:00.615638  4827 net.cpp:165] Memory required for data: 254591876
I0928 12:23:00.615643  4827 layer_factory.hpp:77] Creating layer conv4_6_3x3/bn
I0928 12:23:00.615651  4827 net.cpp:100] Creating Layer conv4_6_3x3/bn
I0928 12:23:00.615655  4827 net.cpp:434] conv4_6_3x3/bn <- conv4_6_3x3
I0928 12:23:00.615661  4827 net.cpp:395] conv4_6_3x3/bn -> conv4_6_3x3 (in-place)
I0928 12:23:00.615870  4827 net.cpp:150] Setting up conv4_6_3x3/bn
I0928 12:23:00.615880  4827 net.cpp:157] Top shape: 1 256 14 14 (50176)
I0928 12:23:00.615883  4827 net.cpp:165] Memory required for data: 254792580
I0928 12:23:00.615890  4827 layer_factory.hpp:77] Creating layer conv4_6_3x3/bn/scale
I0928 12:23:00.615896  4827 net.cpp:100] Creating Layer conv4_6_3x3/bn/scale
I0928 12:23:00.615900  4827 net.cpp:434] conv4_6_3x3/bn/scale <- conv4_6_3x3
I0928 12:23:00.615906  4827 net.cpp:395] conv4_6_3x3/bn/scale -> conv4_6_3x3 (in-place)
I0928 12:23:00.615945  4827 layer_factory.hpp:77] Creating layer conv4_6_3x3/bn/scale
I0928 12:23:00.616057  4827 net.cpp:150] Setting up conv4_6_3x3/bn/scale
I0928 12:23:00.616066  4827 net.cpp:157] Top shape: 1 256 14 14 (50176)
I0928 12:23:00.616068  4827 net.cpp:165] Memory required for data: 254993284
I0928 12:23:00.616075  4827 layer_factory.hpp:77] Creating layer conv4_6_3x3/relu
I0928 12:23:00.616081  4827 net.cpp:100] Creating Layer conv4_6_3x3/relu
I0928 12:23:00.616084  4827 net.cpp:434] conv4_6_3x3/relu <- conv4_6_3x3
I0928 12:23:00.616089  4827 net.cpp:395] conv4_6_3x3/relu -> conv4_6_3x3 (in-place)
I0928 12:23:00.616309  4827 net.cpp:150] Setting up conv4_6_3x3/relu
I0928 12:23:00.616327  4827 net.cpp:157] Top shape: 1 256 14 14 (50176)
I0928 12:23:00.616330  4827 net.cpp:165] Memory required for data: 255193988
I0928 12:23:00.616333  4827 layer_factory.hpp:77] Creating layer conv4_6_1x1_increase
I0928 12:23:00.616341  4827 net.cpp:100] Creating Layer conv4_6_1x1_increase
I0928 12:23:00.616346  4827 net.cpp:434] conv4_6_1x1_increase <- conv4_6_3x3
I0928 12:23:00.616353  4827 net.cpp:408] conv4_6_1x1_increase -> conv4_6_1x1_increase
I0928 12:23:00.618933  4827 net.cpp:150] Setting up conv4_6_1x1_increase
I0928 12:23:00.618948  4827 net.cpp:157] Top shape: 1 1024 14 14 (200704)
I0928 12:23:00.618953  4827 net.cpp:165] Memory required for data: 255996804
I0928 12:23:00.618958  4827 layer_factory.hpp:77] Creating layer conv4_6_1x1_increase/bn
I0928 12:23:00.618966  4827 net.cpp:100] Creating Layer conv4_6_1x1_increase/bn
I0928 12:23:00.618971  4827 net.cpp:434] conv4_6_1x1_increase/bn <- conv4_6_1x1_increase
I0928 12:23:00.618976  4827 net.cpp:395] conv4_6_1x1_increase/bn -> conv4_6_1x1_increase (in-place)
I0928 12:23:00.619199  4827 net.cpp:150] Setting up conv4_6_1x1_increase/bn
I0928 12:23:00.619210  4827 net.cpp:157] Top shape: 1 1024 14 14 (200704)
I0928 12:23:00.619212  4827 net.cpp:165] Memory required for data: 256799620
I0928 12:23:00.619220  4827 layer_factory.hpp:77] Creating layer conv4_6_1x1_increase/bn/scale
I0928 12:23:00.619227  4827 net.cpp:100] Creating Layer conv4_6_1x1_increase/bn/scale
I0928 12:23:00.619231  4827 net.cpp:434] conv4_6_1x1_increase/bn/scale <- conv4_6_1x1_increase
I0928 12:23:00.619235  4827 net.cpp:395] conv4_6_1x1_increase/bn/scale -> conv4_6_1x1_increase (in-place)
I0928 12:23:00.619292  4827 layer_factory.hpp:77] Creating layer conv4_6_1x1_increase/bn/scale
I0928 12:23:00.619426  4827 net.cpp:150] Setting up conv4_6_1x1_increase/bn/scale
I0928 12:23:00.619448  4827 net.cpp:157] Top shape: 1 1024 14 14 (200704)
I0928 12:23:00.619453  4827 net.cpp:165] Memory required for data: 257602436
I0928 12:23:00.619459  4827 layer_factory.hpp:77] Creating layer conv4_6_1x1_increase_conv4_6_1x1_increase/bn/scale_0_split
I0928 12:23:00.619467  4827 net.cpp:100] Creating Layer conv4_6_1x1_increase_conv4_6_1x1_increase/bn/scale_0_split
I0928 12:23:00.619472  4827 net.cpp:434] conv4_6_1x1_increase_conv4_6_1x1_increase/bn/scale_0_split <- conv4_6_1x1_increase
I0928 12:23:00.619477  4827 net.cpp:408] conv4_6_1x1_increase_conv4_6_1x1_increase/bn/scale_0_split -> conv4_6_1x1_increase_conv4_6_1x1_increase/bn/scale_0_split_0
I0928 12:23:00.619482  4827 net.cpp:408] conv4_6_1x1_increase_conv4_6_1x1_increase/bn/scale_0_split -> conv4_6_1x1_increase_conv4_6_1x1_increase/bn/scale_0_split_1
I0928 12:23:00.619527  4827 net.cpp:150] Setting up conv4_6_1x1_increase_conv4_6_1x1_increase/bn/scale_0_split
I0928 12:23:00.619535  4827 net.cpp:157] Top shape: 1 1024 14 14 (200704)
I0928 12:23:00.619539  4827 net.cpp:157] Top shape: 1 1024 14 14 (200704)
I0928 12:23:00.619541  4827 net.cpp:165] Memory required for data: 259208068
I0928 12:23:00.619544  4827 layer_factory.hpp:77] Creating layer conv4_6_global_pool
I0928 12:23:00.619550  4827 net.cpp:100] Creating Layer conv4_6_global_pool
I0928 12:23:00.619554  4827 net.cpp:434] conv4_6_global_pool <- conv4_6_1x1_increase_conv4_6_1x1_increase/bn/scale_0_split_0
I0928 12:23:00.619559  4827 net.cpp:408] conv4_6_global_pool -> conv4_6_global_pool
I0928 12:23:00.619585  4827 net.cpp:150] Setting up conv4_6_global_pool
I0928 12:23:00.619591  4827 net.cpp:157] Top shape: 1 1024 1 1 (1024)
I0928 12:23:00.619595  4827 net.cpp:165] Memory required for data: 259212164
I0928 12:23:00.619597  4827 layer_factory.hpp:77] Creating layer conv4_6_1x1_down
I0928 12:23:00.619604  4827 net.cpp:100] Creating Layer conv4_6_1x1_down
I0928 12:23:00.619608  4827 net.cpp:434] conv4_6_1x1_down <- conv4_6_global_pool
I0928 12:23:00.619613  4827 net.cpp:408] conv4_6_1x1_down -> conv4_6_1x1_down
I0928 12:23:00.620985  4827 net.cpp:150] Setting up conv4_6_1x1_down
I0928 12:23:00.620999  4827 net.cpp:157] Top shape: 1 64 1 1 (64)
I0928 12:23:00.621003  4827 net.cpp:165] Memory required for data: 259212420
I0928 12:23:00.621009  4827 layer_factory.hpp:77] Creating layer conv4_6_1x1_down/relu
I0928 12:23:00.621016  4827 net.cpp:100] Creating Layer conv4_6_1x1_down/relu
I0928 12:23:00.621023  4827 net.cpp:434] conv4_6_1x1_down/relu <- conv4_6_1x1_down
I0928 12:23:00.621029  4827 net.cpp:395] conv4_6_1x1_down/relu -> conv4_6_1x1_down (in-place)
I0928 12:23:00.621243  4827 net.cpp:150] Setting up conv4_6_1x1_down/relu
I0928 12:23:00.621253  4827 net.cpp:157] Top shape: 1 64 1 1 (64)
I0928 12:23:00.621258  4827 net.cpp:165] Memory required for data: 259212676
I0928 12:23:00.621260  4827 layer_factory.hpp:77] Creating layer conv4_6_1x1_up
I0928 12:23:00.621269  4827 net.cpp:100] Creating Layer conv4_6_1x1_up
I0928 12:23:00.621273  4827 net.cpp:434] conv4_6_1x1_up <- conv4_6_1x1_down
I0928 12:23:00.621279  4827 net.cpp:408] conv4_6_1x1_up -> conv4_6_1x1_up
I0928 12:23:00.622654  4827 net.cpp:150] Setting up conv4_6_1x1_up
I0928 12:23:00.622669  4827 net.cpp:157] Top shape: 1 1024 1 1 (1024)
I0928 12:23:00.622673  4827 net.cpp:165] Memory required for data: 259216772
I0928 12:23:00.622680  4827 layer_factory.hpp:77] Creating layer conv4_6_prob
I0928 12:23:00.622689  4827 net.cpp:100] Creating Layer conv4_6_prob
I0928 12:23:00.622694  4827 net.cpp:434] conv4_6_prob <- conv4_6_1x1_up
I0928 12:23:00.622699  4827 net.cpp:395] conv4_6_prob -> conv4_6_1x1_up (in-place)
I0928 12:23:00.623320  4827 net.cpp:150] Setting up conv4_6_prob
I0928 12:23:00.623335  4827 net.cpp:157] Top shape: 1 1024 1 1 (1024)
I0928 12:23:00.623338  4827 net.cpp:165] Memory required for data: 259220868
I0928 12:23:00.623342  4827 layer_factory.hpp:77] Creating layer conv4_6
I0928 12:23:00.623348  4827 net.cpp:100] Creating Layer conv4_6
I0928 12:23:00.623353  4827 net.cpp:434] conv4_6 <- conv4_6_1x1_up
I0928 12:23:00.623371  4827 net.cpp:434] conv4_6 <- conv4_6_1x1_increase_conv4_6_1x1_increase/bn/scale_0_split_1
I0928 12:23:00.623378  4827 net.cpp:434] conv4_6 <- conv4_5_conv4_5/relu_0_split_1
I0928 12:23:00.623385  4827 net.cpp:408] conv4_6 -> conv4_6
I0928 12:23:00.623451  4827 net.cpp:150] Setting up conv4_6
I0928 12:23:00.623461  4827 net.cpp:157] Top shape: 1 1024 14 14 (200704)
I0928 12:23:00.623463  4827 net.cpp:165] Memory required for data: 260023684
I0928 12:23:00.623467  4827 layer_factory.hpp:77] Creating layer conv4_6/relu
I0928 12:23:00.623474  4827 net.cpp:100] Creating Layer conv4_6/relu
I0928 12:23:00.623478  4827 net.cpp:434] conv4_6/relu <- conv4_6
I0928 12:23:00.623482  4827 net.cpp:395] conv4_6/relu -> conv4_6 (in-place)
I0928 12:23:00.624073  4827 net.cpp:150] Setting up conv4_6/relu
I0928 12:23:00.624088  4827 net.cpp:157] Top shape: 1 1024 14 14 (200704)
I0928 12:23:00.624091  4827 net.cpp:165] Memory required for data: 260826500
I0928 12:23:00.624095  4827 layer_factory.hpp:77] Creating layer conv4_6_conv4_6/relu_0_split
I0928 12:23:00.624104  4827 net.cpp:100] Creating Layer conv4_6_conv4_6/relu_0_split
I0928 12:23:00.624109  4827 net.cpp:434] conv4_6_conv4_6/relu_0_split <- conv4_6
I0928 12:23:00.624115  4827 net.cpp:408] conv4_6_conv4_6/relu_0_split -> conv4_6_conv4_6/relu_0_split_0
I0928 12:23:00.624124  4827 net.cpp:408] conv4_6_conv4_6/relu_0_split -> conv4_6_conv4_6/relu_0_split_1
I0928 12:23:00.624171  4827 net.cpp:150] Setting up conv4_6_conv4_6/relu_0_split
I0928 12:23:00.624181  4827 net.cpp:157] Top shape: 1 1024 14 14 (200704)
I0928 12:23:00.624184  4827 net.cpp:157] Top shape: 1 1024 14 14 (200704)
I0928 12:23:00.624186  4827 net.cpp:165] Memory required for data: 262432132
I0928 12:23:00.624189  4827 layer_factory.hpp:77] Creating layer conv5_1_1x1_reduce
I0928 12:23:00.624198  4827 net.cpp:100] Creating Layer conv5_1_1x1_reduce
I0928 12:23:00.624203  4827 net.cpp:434] conv5_1_1x1_reduce <- conv4_6_conv4_6/relu_0_split_0
I0928 12:23:00.624209  4827 net.cpp:408] conv5_1_1x1_reduce -> conv5_1_1x1_reduce
I0928 12:23:00.626976  4827 net.cpp:150] Setting up conv5_1_1x1_reduce
I0928 12:23:00.626991  4827 net.cpp:157] Top shape: 1 512 7 7 (25088)
I0928 12:23:00.626996  4827 net.cpp:165] Memory required for data: 262532484
I0928 12:23:00.627002  4827 layer_factory.hpp:77] Creating layer conv5_1_1x1_reduce/bn
I0928 12:23:00.627009  4827 net.cpp:100] Creating Layer conv5_1_1x1_reduce/bn
I0928 12:23:00.627013  4827 net.cpp:434] conv5_1_1x1_reduce/bn <- conv5_1_1x1_reduce
I0928 12:23:00.627022  4827 net.cpp:395] conv5_1_1x1_reduce/bn -> conv5_1_1x1_reduce (in-place)
I0928 12:23:00.627256  4827 net.cpp:150] Setting up conv5_1_1x1_reduce/bn
I0928 12:23:00.627266  4827 net.cpp:157] Top shape: 1 512 7 7 (25088)
I0928 12:23:00.627269  4827 net.cpp:165] Memory required for data: 262632836
I0928 12:23:00.627276  4827 layer_factory.hpp:77] Creating layer conv5_1_1x1_reduce/bn/scale
I0928 12:23:00.627286  4827 net.cpp:100] Creating Layer conv5_1_1x1_reduce/bn/scale
I0928 12:23:00.627290  4827 net.cpp:434] conv5_1_1x1_reduce/bn/scale <- conv5_1_1x1_reduce
I0928 12:23:00.627295  4827 net.cpp:395] conv5_1_1x1_reduce/bn/scale -> conv5_1_1x1_reduce (in-place)
I0928 12:23:00.627348  4827 layer_factory.hpp:77] Creating layer conv5_1_1x1_reduce/bn/scale
I0928 12:23:00.627485  4827 net.cpp:150] Setting up conv5_1_1x1_reduce/bn/scale
I0928 12:23:00.627493  4827 net.cpp:157] Top shape: 1 512 7 7 (25088)
I0928 12:23:00.627496  4827 net.cpp:165] Memory required for data: 262733188
I0928 12:23:00.627501  4827 layer_factory.hpp:77] Creating layer conv5_1_1x1_reduce/relu
I0928 12:23:00.627507  4827 net.cpp:100] Creating Layer conv5_1_1x1_reduce/relu
I0928 12:23:00.627511  4827 net.cpp:434] conv5_1_1x1_reduce/relu <- conv5_1_1x1_reduce
I0928 12:23:00.627516  4827 net.cpp:395] conv5_1_1x1_reduce/relu -> conv5_1_1x1_reduce (in-place)
I0928 12:23:00.627727  4827 net.cpp:150] Setting up conv5_1_1x1_reduce/relu
I0928 12:23:00.627739  4827 net.cpp:157] Top shape: 1 512 7 7 (25088)
I0928 12:23:00.627759  4827 net.cpp:165] Memory required for data: 262833540
I0928 12:23:00.627764  4827 layer_factory.hpp:77] Creating layer conv5_1_3x3
I0928 12:23:00.627774  4827 net.cpp:100] Creating Layer conv5_1_3x3
I0928 12:23:00.627779  4827 net.cpp:434] conv5_1_3x3 <- conv5_1_1x1_reduce
I0928 12:23:00.627792  4827 net.cpp:408] conv5_1_3x3 -> conv5_1_3x3
I0928 12:23:00.634650  4827 net.cpp:150] Setting up conv5_1_3x3
I0928 12:23:00.634665  4827 net.cpp:157] Top shape: 1 512 7 7 (25088)
I0928 12:23:00.634670  4827 net.cpp:165] Memory required for data: 262933892
I0928 12:23:00.634676  4827 layer_factory.hpp:77] Creating layer conv5_1_3x3/bn
I0928 12:23:00.634685  4827 net.cpp:100] Creating Layer conv5_1_3x3/bn
I0928 12:23:00.634690  4827 net.cpp:434] conv5_1_3x3/bn <- conv5_1_3x3
I0928 12:23:00.634696  4827 net.cpp:395] conv5_1_3x3/bn -> conv5_1_3x3 (in-place)
I0928 12:23:00.634938  4827 net.cpp:150] Setting up conv5_1_3x3/bn
I0928 12:23:00.634948  4827 net.cpp:157] Top shape: 1 512 7 7 (25088)
I0928 12:23:00.634951  4827 net.cpp:165] Memory required for data: 263034244
I0928 12:23:00.634960  4827 layer_factory.hpp:77] Creating layer conv5_1_3x3/bn/scale
I0928 12:23:00.634966  4827 net.cpp:100] Creating Layer conv5_1_3x3/bn/scale
I0928 12:23:00.634971  4827 net.cpp:434] conv5_1_3x3/bn/scale <- conv5_1_3x3
I0928 12:23:00.634976  4827 net.cpp:395] conv5_1_3x3/bn/scale -> conv5_1_3x3 (in-place)
I0928 12:23:00.635030  4827 layer_factory.hpp:77] Creating layer conv5_1_3x3/bn/scale
I0928 12:23:00.635167  4827 net.cpp:150] Setting up conv5_1_3x3/bn/scale
I0928 12:23:00.635176  4827 net.cpp:157] Top shape: 1 512 7 7 (25088)
I0928 12:23:00.635179  4827 net.cpp:165] Memory required for data: 263134596
I0928 12:23:00.635185  4827 layer_factory.hpp:77] Creating layer conv5_1_3x3/relu
I0928 12:23:00.635195  4827 net.cpp:100] Creating Layer conv5_1_3x3/relu
I0928 12:23:00.635200  4827 net.cpp:434] conv5_1_3x3/relu <- conv5_1_3x3
I0928 12:23:00.635203  4827 net.cpp:395] conv5_1_3x3/relu -> conv5_1_3x3 (in-place)
I0928 12:23:00.635427  4827 net.cpp:150] Setting up conv5_1_3x3/relu
I0928 12:23:00.635439  4827 net.cpp:157] Top shape: 1 512 7 7 (25088)
I0928 12:23:00.635442  4827 net.cpp:165] Memory required for data: 263234948
I0928 12:23:00.635447  4827 layer_factory.hpp:77] Creating layer conv5_1_1x1_increase
I0928 12:23:00.635457  4827 net.cpp:100] Creating Layer conv5_1_1x1_increase
I0928 12:23:00.635460  4827 net.cpp:434] conv5_1_1x1_increase <- conv5_1_3x3
I0928 12:23:00.635465  4827 net.cpp:408] conv5_1_1x1_increase -> conv5_1_1x1_increase
I0928 12:23:00.639425  4827 net.cpp:150] Setting up conv5_1_1x1_increase
I0928 12:23:00.639441  4827 net.cpp:157] Top shape: 1 2048 7 7 (100352)
I0928 12:23:00.639446  4827 net.cpp:165] Memory required for data: 263636356
I0928 12:23:00.639451  4827 layer_factory.hpp:77] Creating layer conv5_1_1x1_increase/bn
I0928 12:23:00.639459  4827 net.cpp:100] Creating Layer conv5_1_1x1_increase/bn
I0928 12:23:00.639466  4827 net.cpp:434] conv5_1_1x1_increase/bn <- conv5_1_1x1_increase
I0928 12:23:00.639472  4827 net.cpp:395] conv5_1_1x1_increase/bn -> conv5_1_1x1_increase (in-place)
I0928 12:23:00.639720  4827 net.cpp:150] Setting up conv5_1_1x1_increase/bn
I0928 12:23:00.639730  4827 net.cpp:157] Top shape: 1 2048 7 7 (100352)
I0928 12:23:00.639734  4827 net.cpp:165] Memory required for data: 264037764
I0928 12:23:00.639740  4827 layer_factory.hpp:77] Creating layer conv5_1_1x1_increase/bn/scale
I0928 12:23:00.639749  4827 net.cpp:100] Creating Layer conv5_1_1x1_increase/bn/scale
I0928 12:23:00.639752  4827 net.cpp:434] conv5_1_1x1_increase/bn/scale <- conv5_1_1x1_increase
I0928 12:23:00.639756  4827 net.cpp:395] conv5_1_1x1_increase/bn/scale -> conv5_1_1x1_increase (in-place)
I0928 12:23:00.639819  4827 layer_factory.hpp:77] Creating layer conv5_1_1x1_increase/bn/scale
I0928 12:23:00.639962  4827 net.cpp:150] Setting up conv5_1_1x1_increase/bn/scale
I0928 12:23:00.639972  4827 net.cpp:157] Top shape: 1 2048 7 7 (100352)
I0928 12:23:00.639976  4827 net.cpp:165] Memory required for data: 264439172
I0928 12:23:00.639995  4827 layer_factory.hpp:77] Creating layer conv5_1_1x1_increase_conv5_1_1x1_increase/bn/scale_0_split
I0928 12:23:00.640003  4827 net.cpp:100] Creating Layer conv5_1_1x1_increase_conv5_1_1x1_increase/bn/scale_0_split
I0928 12:23:00.640007  4827 net.cpp:434] conv5_1_1x1_increase_conv5_1_1x1_increase/bn/scale_0_split <- conv5_1_1x1_increase
I0928 12:23:00.640013  4827 net.cpp:408] conv5_1_1x1_increase_conv5_1_1x1_increase/bn/scale_0_split -> conv5_1_1x1_increase_conv5_1_1x1_increase/bn/scale_0_split_0
I0928 12:23:00.640022  4827 net.cpp:408] conv5_1_1x1_increase_conv5_1_1x1_increase/bn/scale_0_split -> conv5_1_1x1_increase_conv5_1_1x1_increase/bn/scale_0_split_1
I0928 12:23:00.640067  4827 net.cpp:150] Setting up conv5_1_1x1_increase_conv5_1_1x1_increase/bn/scale_0_split
I0928 12:23:00.640075  4827 net.cpp:157] Top shape: 1 2048 7 7 (100352)
I0928 12:23:00.640079  4827 net.cpp:157] Top shape: 1 2048 7 7 (100352)
I0928 12:23:00.640081  4827 net.cpp:165] Memory required for data: 265241988
I0928 12:23:00.640085  4827 layer_factory.hpp:77] Creating layer conv5_1_global_pool
I0928 12:23:00.640094  4827 net.cpp:100] Creating Layer conv5_1_global_pool
I0928 12:23:00.640099  4827 net.cpp:434] conv5_1_global_pool <- conv5_1_1x1_increase_conv5_1_1x1_increase/bn/scale_0_split_0
I0928 12:23:00.640103  4827 net.cpp:408] conv5_1_global_pool -> conv5_1_global_pool
I0928 12:23:00.640128  4827 net.cpp:150] Setting up conv5_1_global_pool
I0928 12:23:00.640136  4827 net.cpp:157] Top shape: 1 2048 1 1 (2048)
I0928 12:23:00.640138  4827 net.cpp:165] Memory required for data: 265250180
I0928 12:23:00.640141  4827 layer_factory.hpp:77] Creating layer conv5_1_1x1_down
I0928 12:23:00.640156  4827 net.cpp:100] Creating Layer conv5_1_1x1_down
I0928 12:23:00.640159  4827 net.cpp:434] conv5_1_1x1_down <- conv5_1_global_pool
I0928 12:23:00.640166  4827 net.cpp:408] conv5_1_1x1_down -> conv5_1_1x1_down
I0928 12:23:00.641715  4827 net.cpp:150] Setting up conv5_1_1x1_down
I0928 12:23:00.641729  4827 net.cpp:157] Top shape: 1 128 1 1 (128)
I0928 12:23:00.641733  4827 net.cpp:165] Memory required for data: 265250692
I0928 12:23:00.641739  4827 layer_factory.hpp:77] Creating layer conv5_1_1x1_down/relu
I0928 12:23:00.641746  4827 net.cpp:100] Creating Layer conv5_1_1x1_down/relu
I0928 12:23:00.641751  4827 net.cpp:434] conv5_1_1x1_down/relu <- conv5_1_1x1_down
I0928 12:23:00.641755  4827 net.cpp:395] conv5_1_1x1_down/relu -> conv5_1_1x1_down (in-place)
I0928 12:23:00.641981  4827 net.cpp:150] Setting up conv5_1_1x1_down/relu
I0928 12:23:00.641993  4827 net.cpp:157] Top shape: 1 128 1 1 (128)
I0928 12:23:00.641996  4827 net.cpp:165] Memory required for data: 265251204
I0928 12:23:00.642000  4827 layer_factory.hpp:77] Creating layer conv5_1_1x1_up
I0928 12:23:00.642009  4827 net.cpp:100] Creating Layer conv5_1_1x1_up
I0928 12:23:00.642014  4827 net.cpp:434] conv5_1_1x1_up <- conv5_1_1x1_down
I0928 12:23:00.642019  4827 net.cpp:408] conv5_1_1x1_up -> conv5_1_1x1_up
I0928 12:23:00.644700  4827 net.cpp:150] Setting up conv5_1_1x1_up
I0928 12:23:00.644716  4827 net.cpp:157] Top shape: 1 2048 1 1 (2048)
I0928 12:23:00.644719  4827 net.cpp:165] Memory required for data: 265259396
I0928 12:23:00.644726  4827 layer_factory.hpp:77] Creating layer conv5_1_prob
I0928 12:23:00.644735  4827 net.cpp:100] Creating Layer conv5_1_prob
I0928 12:23:00.644740  4827 net.cpp:434] conv5_1_prob <- conv5_1_1x1_up
I0928 12:23:00.644745  4827 net.cpp:395] conv5_1_prob -> conv5_1_1x1_up (in-place)
I0928 12:23:00.644971  4827 net.cpp:150] Setting up conv5_1_prob
I0928 12:23:00.644984  4827 net.cpp:157] Top shape: 1 2048 1 1 (2048)
I0928 12:23:00.644986  4827 net.cpp:165] Memory required for data: 265267588
I0928 12:23:00.644990  4827 layer_factory.hpp:77] Creating layer conv5_1_1x1_proj
I0928 12:23:00.644999  4827 net.cpp:100] Creating Layer conv5_1_1x1_proj
I0928 12:23:00.645004  4827 net.cpp:434] conv5_1_1x1_proj <- conv4_6_conv4_6/relu_0_split_1
I0928 12:23:00.645010  4827 net.cpp:408] conv5_1_1x1_proj -> conv5_1_1x1_proj
I0928 12:23:00.650964  4827 net.cpp:150] Setting up conv5_1_1x1_proj
I0928 12:23:00.650995  4827 net.cpp:157] Top shape: 1 2048 7 7 (100352)
I0928 12:23:00.651000  4827 net.cpp:165] Memory required for data: 265668996
I0928 12:23:00.651006  4827 layer_factory.hpp:77] Creating layer conv5_1_1x1_proj/bn
I0928 12:23:00.651015  4827 net.cpp:100] Creating Layer conv5_1_1x1_proj/bn
I0928 12:23:00.651021  4827 net.cpp:434] conv5_1_1x1_proj/bn <- conv5_1_1x1_proj
I0928 12:23:00.651026  4827 net.cpp:395] conv5_1_1x1_proj/bn -> conv5_1_1x1_proj (in-place)
I0928 12:23:00.651262  4827 net.cpp:150] Setting up conv5_1_1x1_proj/bn
I0928 12:23:00.651273  4827 net.cpp:157] Top shape: 1 2048 7 7 (100352)
I0928 12:23:00.651275  4827 net.cpp:165] Memory required for data: 266070404
I0928 12:23:00.651283  4827 layer_factory.hpp:77] Creating layer conv5_1_1x1_proj/bn/scale
I0928 12:23:00.651290  4827 net.cpp:100] Creating Layer conv5_1_1x1_proj/bn/scale
I0928 12:23:00.651295  4827 net.cpp:434] conv5_1_1x1_proj/bn/scale <- conv5_1_1x1_proj
I0928 12:23:00.651300  4827 net.cpp:395] conv5_1_1x1_proj/bn/scale -> conv5_1_1x1_proj (in-place)
I0928 12:23:00.651356  4827 layer_factory.hpp:77] Creating layer conv5_1_1x1_proj/bn/scale
I0928 12:23:00.651505  4827 net.cpp:150] Setting up conv5_1_1x1_proj/bn/scale
I0928 12:23:00.651515  4827 net.cpp:157] Top shape: 1 2048 7 7 (100352)
I0928 12:23:00.651517  4827 net.cpp:165] Memory required for data: 266471812
I0928 12:23:00.651522  4827 layer_factory.hpp:77] Creating layer conv5_1
I0928 12:23:00.651528  4827 net.cpp:100] Creating Layer conv5_1
I0928 12:23:00.651531  4827 net.cpp:434] conv5_1 <- conv5_1_1x1_up
I0928 12:23:00.651536  4827 net.cpp:434] conv5_1 <- conv5_1_1x1_increase_conv5_1_1x1_increase/bn/scale_0_split_1
I0928 12:23:00.651540  4827 net.cpp:434] conv5_1 <- conv5_1_1x1_proj
I0928 12:23:00.651546  4827 net.cpp:408] conv5_1 -> conv5_1
I0928 12:23:00.651603  4827 net.cpp:150] Setting up conv5_1
I0928 12:23:00.651610  4827 net.cpp:157] Top shape: 1 2048 7 7 (100352)
I0928 12:23:00.651613  4827 net.cpp:165] Memory required for data: 266873220
I0928 12:23:00.651618  4827 layer_factory.hpp:77] Creating layer conv5_1/relu
I0928 12:23:00.651623  4827 net.cpp:100] Creating Layer conv5_1/relu
I0928 12:23:00.651625  4827 net.cpp:434] conv5_1/relu <- conv5_1
I0928 12:23:00.651629  4827 net.cpp:395] conv5_1/relu -> conv5_1 (in-place)
I0928 12:23:00.652267  4827 net.cpp:150] Setting up conv5_1/relu
I0928 12:23:00.652282  4827 net.cpp:157] Top shape: 1 2048 7 7 (100352)
I0928 12:23:00.652285  4827 net.cpp:165] Memory required for data: 267274628
I0928 12:23:00.652289  4827 layer_factory.hpp:77] Creating layer conv5_1_conv5_1/relu_0_split
I0928 12:23:00.652297  4827 net.cpp:100] Creating Layer conv5_1_conv5_1/relu_0_split
I0928 12:23:00.652300  4827 net.cpp:434] conv5_1_conv5_1/relu_0_split <- conv5_1
I0928 12:23:00.652307  4827 net.cpp:408] conv5_1_conv5_1/relu_0_split -> conv5_1_conv5_1/relu_0_split_0
I0928 12:23:00.652314  4827 net.cpp:408] conv5_1_conv5_1/relu_0_split -> conv5_1_conv5_1/relu_0_split_1
I0928 12:23:00.652365  4827 net.cpp:150] Setting up conv5_1_conv5_1/relu_0_split
I0928 12:23:00.652374  4827 net.cpp:157] Top shape: 1 2048 7 7 (100352)
I0928 12:23:00.652377  4827 net.cpp:157] Top shape: 1 2048 7 7 (100352)
I0928 12:23:00.652380  4827 net.cpp:165] Memory required for data: 268077444
I0928 12:23:00.652384  4827 layer_factory.hpp:77] Creating layer conv5_2_1x1_reduce
I0928 12:23:00.652392  4827 net.cpp:100] Creating Layer conv5_2_1x1_reduce
I0928 12:23:00.652397  4827 net.cpp:434] conv5_2_1x1_reduce <- conv5_1_conv5_1/relu_0_split_0
I0928 12:23:00.652402  4827 net.cpp:408] conv5_2_1x1_reduce -> conv5_2_1x1_reduce
I0928 12:23:00.655833  4827 net.cpp:150] Setting up conv5_2_1x1_reduce
I0928 12:23:00.655848  4827 net.cpp:157] Top shape: 1 512 7 7 (25088)
I0928 12:23:00.655851  4827 net.cpp:165] Memory required for data: 268177796
I0928 12:23:00.655858  4827 layer_factory.hpp:77] Creating layer conv5_2_1x1_reduce/bn
I0928 12:23:00.655865  4827 net.cpp:100] Creating Layer conv5_2_1x1_reduce/bn
I0928 12:23:00.655871  4827 net.cpp:434] conv5_2_1x1_reduce/bn <- conv5_2_1x1_reduce
I0928 12:23:00.655890  4827 net.cpp:395] conv5_2_1x1_reduce/bn -> conv5_2_1x1_reduce (in-place)
I0928 12:23:00.656131  4827 net.cpp:150] Setting up conv5_2_1x1_reduce/bn
I0928 12:23:00.656141  4827 net.cpp:157] Top shape: 1 512 7 7 (25088)
I0928 12:23:00.656144  4827 net.cpp:165] Memory required for data: 268278148
I0928 12:23:00.656152  4827 layer_factory.hpp:77] Creating layer conv5_2_1x1_reduce/bn/scale
I0928 12:23:00.656158  4827 net.cpp:100] Creating Layer conv5_2_1x1_reduce/bn/scale
I0928 12:23:00.656162  4827 net.cpp:434] conv5_2_1x1_reduce/bn/scale <- conv5_2_1x1_reduce
I0928 12:23:00.656168  4827 net.cpp:395] conv5_2_1x1_reduce/bn/scale -> conv5_2_1x1_reduce (in-place)
I0928 12:23:00.656220  4827 layer_factory.hpp:77] Creating layer conv5_2_1x1_reduce/bn/scale
I0928 12:23:00.656364  4827 net.cpp:150] Setting up conv5_2_1x1_reduce/bn/scale
I0928 12:23:00.656375  4827 net.cpp:157] Top shape: 1 512 7 7 (25088)
I0928 12:23:00.656379  4827 net.cpp:165] Memory required for data: 268378500
I0928 12:23:00.656384  4827 layer_factory.hpp:77] Creating layer conv5_2_1x1_reduce/relu
I0928 12:23:00.656390  4827 net.cpp:100] Creating Layer conv5_2_1x1_reduce/relu
I0928 12:23:00.656394  4827 net.cpp:434] conv5_2_1x1_reduce/relu <- conv5_2_1x1_reduce
I0928 12:23:00.656399  4827 net.cpp:395] conv5_2_1x1_reduce/relu -> conv5_2_1x1_reduce (in-place)
I0928 12:23:00.657028  4827 net.cpp:150] Setting up conv5_2_1x1_reduce/relu
I0928 12:23:00.657043  4827 net.cpp:157] Top shape: 1 512 7 7 (25088)
I0928 12:23:00.657047  4827 net.cpp:165] Memory required for data: 268478852
I0928 12:23:00.657050  4827 layer_factory.hpp:77] Creating layer conv5_2_3x3
I0928 12:23:00.657060  4827 net.cpp:100] Creating Layer conv5_2_3x3
I0928 12:23:00.657065  4827 net.cpp:434] conv5_2_3x3 <- conv5_2_1x1_reduce
I0928 12:23:00.657073  4827 net.cpp:408] conv5_2_3x3 -> conv5_2_3x3
I0928 12:23:00.664039  4827 net.cpp:150] Setting up conv5_2_3x3
I0928 12:23:00.664057  4827 net.cpp:157] Top shape: 1 512 7 7 (25088)
I0928 12:23:00.664060  4827 net.cpp:165] Memory required for data: 268579204
I0928 12:23:00.664067  4827 layer_factory.hpp:77] Creating layer conv5_2_3x3/bn
I0928 12:23:00.664075  4827 net.cpp:100] Creating Layer conv5_2_3x3/bn
I0928 12:23:00.664080  4827 net.cpp:434] conv5_2_3x3/bn <- conv5_2_3x3
I0928 12:23:00.664085  4827 net.cpp:395] conv5_2_3x3/bn -> conv5_2_3x3 (in-place)
I0928 12:23:00.664331  4827 net.cpp:150] Setting up conv5_2_3x3/bn
I0928 12:23:00.664341  4827 net.cpp:157] Top shape: 1 512 7 7 (25088)
I0928 12:23:00.664345  4827 net.cpp:165] Memory required for data: 268679556
I0928 12:23:00.664351  4827 layer_factory.hpp:77] Creating layer conv5_2_3x3/bn/scale
I0928 12:23:00.664358  4827 net.cpp:100] Creating Layer conv5_2_3x3/bn/scale
I0928 12:23:00.664361  4827 net.cpp:434] conv5_2_3x3/bn/scale <- conv5_2_3x3
I0928 12:23:00.664366  4827 net.cpp:395] conv5_2_3x3/bn/scale -> conv5_2_3x3 (in-place)
I0928 12:23:00.664422  4827 layer_factory.hpp:77] Creating layer conv5_2_3x3/bn/scale
I0928 12:23:00.664564  4827 net.cpp:150] Setting up conv5_2_3x3/bn/scale
I0928 12:23:00.664574  4827 net.cpp:157] Top shape: 1 512 7 7 (25088)
I0928 12:23:00.664577  4827 net.cpp:165] Memory required for data: 268779908
I0928 12:23:00.664582  4827 layer_factory.hpp:77] Creating layer conv5_2_3x3/relu
I0928 12:23:00.664590  4827 net.cpp:100] Creating Layer conv5_2_3x3/relu
I0928 12:23:00.664593  4827 net.cpp:434] conv5_2_3x3/relu <- conv5_2_3x3
I0928 12:23:00.664599  4827 net.cpp:395] conv5_2_3x3/relu -> conv5_2_3x3 (in-place)
I0928 12:23:00.664830  4827 net.cpp:150] Setting up conv5_2_3x3/relu
I0928 12:23:00.664842  4827 net.cpp:157] Top shape: 1 512 7 7 (25088)
I0928 12:23:00.664845  4827 net.cpp:165] Memory required for data: 268880260
I0928 12:23:00.664849  4827 layer_factory.hpp:77] Creating layer conv5_2_1x1_increase
I0928 12:23:00.664858  4827 net.cpp:100] Creating Layer conv5_2_1x1_increase
I0928 12:23:00.664861  4827 net.cpp:434] conv5_2_1x1_increase <- conv5_2_3x3
I0928 12:23:00.664867  4827 net.cpp:408] conv5_2_1x1_increase -> conv5_2_1x1_increase
I0928 12:23:00.668766  4827 net.cpp:150] Setting up conv5_2_1x1_increase
I0928 12:23:00.668782  4827 net.cpp:157] Top shape: 1 2048 7 7 (100352)
I0928 12:23:00.668792  4827 net.cpp:165] Memory required for data: 269281668
I0928 12:23:00.668798  4827 layer_factory.hpp:77] Creating layer conv5_2_1x1_increase/bn
I0928 12:23:00.668807  4827 net.cpp:100] Creating Layer conv5_2_1x1_increase/bn
I0928 12:23:00.668812  4827 net.cpp:434] conv5_2_1x1_increase/bn <- conv5_2_1x1_increase
I0928 12:23:00.668818  4827 net.cpp:395] conv5_2_1x1_increase/bn -> conv5_2_1x1_increase (in-place)
I0928 12:23:00.669062  4827 net.cpp:150] Setting up conv5_2_1x1_increase/bn
I0928 12:23:00.669072  4827 net.cpp:157] Top shape: 1 2048 7 7 (100352)
I0928 12:23:00.669076  4827 net.cpp:165] Memory required for data: 269683076
I0928 12:23:00.669083  4827 layer_factory.hpp:77] Creating layer conv5_2_1x1_increase/bn/scale
I0928 12:23:00.669090  4827 net.cpp:100] Creating Layer conv5_2_1x1_increase/bn/scale
I0928 12:23:00.669093  4827 net.cpp:434] conv5_2_1x1_increase/bn/scale <- conv5_2_1x1_increase
I0928 12:23:00.669100  4827 net.cpp:395] conv5_2_1x1_increase/bn/scale -> conv5_2_1x1_increase (in-place)
I0928 12:23:00.669154  4827 layer_factory.hpp:77] Creating layer conv5_2_1x1_increase/bn/scale
I0928 12:23:00.669301  4827 net.cpp:150] Setting up conv5_2_1x1_increase/bn/scale
I0928 12:23:00.669311  4827 net.cpp:157] Top shape: 1 2048 7 7 (100352)
I0928 12:23:00.669313  4827 net.cpp:165] Memory required for data: 270084484
I0928 12:23:00.669318  4827 layer_factory.hpp:77] Creating layer conv5_2_1x1_increase_conv5_2_1x1_increase/bn/scale_0_split
I0928 12:23:00.669324  4827 net.cpp:100] Creating Layer conv5_2_1x1_increase_conv5_2_1x1_increase/bn/scale_0_split
I0928 12:23:00.669328  4827 net.cpp:434] conv5_2_1x1_increase_conv5_2_1x1_increase/bn/scale_0_split <- conv5_2_1x1_increase
I0928 12:23:00.669332  4827 net.cpp:408] conv5_2_1x1_increase_conv5_2_1x1_increase/bn/scale_0_split -> conv5_2_1x1_increase_conv5_2_1x1_increase/bn/scale_0_split_0
I0928 12:23:00.669339  4827 net.cpp:408] conv5_2_1x1_increase_conv5_2_1x1_increase/bn/scale_0_split -> conv5_2_1x1_increase_conv5_2_1x1_increase/bn/scale_0_split_1
I0928 12:23:00.669381  4827 net.cpp:150] Setting up conv5_2_1x1_increase_conv5_2_1x1_increase/bn/scale_0_split
I0928 12:23:00.669389  4827 net.cpp:157] Top shape: 1 2048 7 7 (100352)
I0928 12:23:00.669394  4827 net.cpp:157] Top shape: 1 2048 7 7 (100352)
I0928 12:23:00.669395  4827 net.cpp:165] Memory required for data: 270887300
I0928 12:23:00.669399  4827 layer_factory.hpp:77] Creating layer conv5_2_global_pool
I0928 12:23:00.669409  4827 net.cpp:100] Creating Layer conv5_2_global_pool
I0928 12:23:00.669412  4827 net.cpp:434] conv5_2_global_pool <- conv5_2_1x1_increase_conv5_2_1x1_increase/bn/scale_0_split_0
I0928 12:23:00.669417  4827 net.cpp:408] conv5_2_global_pool -> conv5_2_global_pool
I0928 12:23:00.669443  4827 net.cpp:150] Setting up conv5_2_global_pool
I0928 12:23:00.669450  4827 net.cpp:157] Top shape: 1 2048 1 1 (2048)
I0928 12:23:00.669453  4827 net.cpp:165] Memory required for data: 270895492
I0928 12:23:00.669456  4827 layer_factory.hpp:77] Creating layer conv5_2_1x1_down
I0928 12:23:00.669466  4827 net.cpp:100] Creating Layer conv5_2_1x1_down
I0928 12:23:00.669468  4827 net.cpp:434] conv5_2_1x1_down <- conv5_2_global_pool
I0928 12:23:00.669473  4827 net.cpp:408] conv5_2_1x1_down -> conv5_2_1x1_down
I0928 12:23:00.671072  4827 net.cpp:150] Setting up conv5_2_1x1_down
I0928 12:23:00.671087  4827 net.cpp:157] Top shape: 1 128 1 1 (128)
I0928 12:23:00.671092  4827 net.cpp:165] Memory required for data: 270896004
I0928 12:23:00.671098  4827 layer_factory.hpp:77] Creating layer conv5_2_1x1_down/relu
I0928 12:23:00.671104  4827 net.cpp:100] Creating Layer conv5_2_1x1_down/relu
I0928 12:23:00.671108  4827 net.cpp:434] conv5_2_1x1_down/relu <- conv5_2_1x1_down
I0928 12:23:00.671113  4827 net.cpp:395] conv5_2_1x1_down/relu -> conv5_2_1x1_down (in-place)
I0928 12:23:00.671334  4827 net.cpp:150] Setting up conv5_2_1x1_down/relu
I0928 12:23:00.671360  4827 net.cpp:157] Top shape: 1 128 1 1 (128)
I0928 12:23:00.671363  4827 net.cpp:165] Memory required for data: 270896516
I0928 12:23:00.671367  4827 layer_factory.hpp:77] Creating layer conv5_2_1x1_up
I0928 12:23:00.671376  4827 net.cpp:100] Creating Layer conv5_2_1x1_up
I0928 12:23:00.671381  4827 net.cpp:434] conv5_2_1x1_up <- conv5_2_1x1_down
I0928 12:23:00.671387  4827 net.cpp:408] conv5_2_1x1_up -> conv5_2_1x1_up
I0928 12:23:00.674558  4827 net.cpp:150] Setting up conv5_2_1x1_up
I0928 12:23:00.674574  4827 net.cpp:157] Top shape: 1 2048 1 1 (2048)
I0928 12:23:00.674578  4827 net.cpp:165] Memory required for data: 270904708
I0928 12:23:00.674585  4827 layer_factory.hpp:77] Creating layer conv5_2_prob
I0928 12:23:00.674593  4827 net.cpp:100] Creating Layer conv5_2_prob
I0928 12:23:00.674597  4827 net.cpp:434] conv5_2_prob <- conv5_2_1x1_up
I0928 12:23:00.674603  4827 net.cpp:395] conv5_2_prob -> conv5_2_1x1_up (in-place)
I0928 12:23:00.674831  4827 net.cpp:150] Setting up conv5_2_prob
I0928 12:23:00.674844  4827 net.cpp:157] Top shape: 1 2048 1 1 (2048)
I0928 12:23:00.674847  4827 net.cpp:165] Memory required for data: 270912900
I0928 12:23:00.674850  4827 layer_factory.hpp:77] Creating layer conv5_2
I0928 12:23:00.674859  4827 net.cpp:100] Creating Layer conv5_2
I0928 12:23:00.674862  4827 net.cpp:434] conv5_2 <- conv5_2_1x1_up
I0928 12:23:00.674866  4827 net.cpp:434] conv5_2 <- conv5_2_1x1_increase_conv5_2_1x1_increase/bn/scale_0_split_1
I0928 12:23:00.674870  4827 net.cpp:434] conv5_2 <- conv5_1_conv5_1/relu_0_split_1
I0928 12:23:00.674875  4827 net.cpp:408] conv5_2 -> conv5_2
I0928 12:23:00.674942  4827 net.cpp:150] Setting up conv5_2
I0928 12:23:00.674952  4827 net.cpp:157] Top shape: 1 2048 7 7 (100352)
I0928 12:23:00.674954  4827 net.cpp:165] Memory required for data: 271314308
I0928 12:23:00.674957  4827 layer_factory.hpp:77] Creating layer conv5_2/relu
I0928 12:23:00.674964  4827 net.cpp:100] Creating Layer conv5_2/relu
I0928 12:23:00.674968  4827 net.cpp:434] conv5_2/relu <- conv5_2
I0928 12:23:00.674971  4827 net.cpp:395] conv5_2/relu -> conv5_2 (in-place)
I0928 12:23:00.675190  4827 net.cpp:150] Setting up conv5_2/relu
I0928 12:23:00.675201  4827 net.cpp:157] Top shape: 1 2048 7 7 (100352)
I0928 12:23:00.675204  4827 net.cpp:165] Memory required for data: 271715716
I0928 12:23:00.675207  4827 layer_factory.hpp:77] Creating layer conv5_2_conv5_2/relu_0_split
I0928 12:23:00.675215  4827 net.cpp:100] Creating Layer conv5_2_conv5_2/relu_0_split
I0928 12:23:00.675218  4827 net.cpp:434] conv5_2_conv5_2/relu_0_split <- conv5_2
I0928 12:23:00.675225  4827 net.cpp:408] conv5_2_conv5_2/relu_0_split -> conv5_2_conv5_2/relu_0_split_0
I0928 12:23:00.675232  4827 net.cpp:408] conv5_2_conv5_2/relu_0_split -> conv5_2_conv5_2/relu_0_split_1
I0928 12:23:00.675282  4827 net.cpp:150] Setting up conv5_2_conv5_2/relu_0_split
I0928 12:23:00.675289  4827 net.cpp:157] Top shape: 1 2048 7 7 (100352)
I0928 12:23:00.675293  4827 net.cpp:157] Top shape: 1 2048 7 7 (100352)
I0928 12:23:00.675295  4827 net.cpp:165] Memory required for data: 272518532
I0928 12:23:00.675298  4827 layer_factory.hpp:77] Creating layer conv5_3_1x1_reduce
I0928 12:23:00.675308  4827 net.cpp:100] Creating Layer conv5_3_1x1_reduce
I0928 12:23:00.675313  4827 net.cpp:434] conv5_3_1x1_reduce <- conv5_2_conv5_2/relu_0_split_0
I0928 12:23:00.675319  4827 net.cpp:408] conv5_3_1x1_reduce -> conv5_3_1x1_reduce
I0928 12:23:00.679234  4827 net.cpp:150] Setting up conv5_3_1x1_reduce
I0928 12:23:00.679250  4827 net.cpp:157] Top shape: 1 512 7 7 (25088)
I0928 12:23:00.679255  4827 net.cpp:165] Memory required for data: 272618884
I0928 12:23:00.679260  4827 layer_factory.hpp:77] Creating layer conv5_3_1x1_reduce/bn
I0928 12:23:00.679268  4827 net.cpp:100] Creating Layer conv5_3_1x1_reduce/bn
I0928 12:23:00.679275  4827 net.cpp:434] conv5_3_1x1_reduce/bn <- conv5_3_1x1_reduce
I0928 12:23:00.679280  4827 net.cpp:395] conv5_3_1x1_reduce/bn -> conv5_3_1x1_reduce (in-place)
I0928 12:23:00.679519  4827 net.cpp:150] Setting up conv5_3_1x1_reduce/bn
I0928 12:23:00.679545  4827 net.cpp:157] Top shape: 1 512 7 7 (25088)
I0928 12:23:00.679550  4827 net.cpp:165] Memory required for data: 272719236
I0928 12:23:00.679558  4827 layer_factory.hpp:77] Creating layer conv5_3_1x1_reduce/bn/scale
I0928 12:23:00.679566  4827 net.cpp:100] Creating Layer conv5_3_1x1_reduce/bn/scale
I0928 12:23:00.679571  4827 net.cpp:434] conv5_3_1x1_reduce/bn/scale <- conv5_3_1x1_reduce
I0928 12:23:00.679576  4827 net.cpp:395] conv5_3_1x1_reduce/bn/scale -> conv5_3_1x1_reduce (in-place)
I0928 12:23:00.679636  4827 layer_factory.hpp:77] Creating layer conv5_3_1x1_reduce/bn/scale
I0928 12:23:00.679781  4827 net.cpp:150] Setting up conv5_3_1x1_reduce/bn/scale
I0928 12:23:00.679796  4827 net.cpp:157] Top shape: 1 512 7 7 (25088)
I0928 12:23:00.679800  4827 net.cpp:165] Memory required for data: 272819588
I0928 12:23:00.679805  4827 layer_factory.hpp:77] Creating layer conv5_3_1x1_reduce/relu
I0928 12:23:00.679811  4827 net.cpp:100] Creating Layer conv5_3_1x1_reduce/relu
I0928 12:23:00.679814  4827 net.cpp:434] conv5_3_1x1_reduce/relu <- conv5_3_1x1_reduce
I0928 12:23:00.679821  4827 net.cpp:395] conv5_3_1x1_reduce/relu -> conv5_3_1x1_reduce (in-place)
I0928 12:23:00.680465  4827 net.cpp:150] Setting up conv5_3_1x1_reduce/relu
I0928 12:23:00.680480  4827 net.cpp:157] Top shape: 1 512 7 7 (25088)
I0928 12:23:00.680483  4827 net.cpp:165] Memory required for data: 272919940
I0928 12:23:00.680487  4827 layer_factory.hpp:77] Creating layer conv5_3_3x3
I0928 12:23:00.680497  4827 net.cpp:100] Creating Layer conv5_3_3x3
I0928 12:23:00.680501  4827 net.cpp:434] conv5_3_3x3 <- conv5_3_1x1_reduce
I0928 12:23:00.680508  4827 net.cpp:408] conv5_3_3x3 -> conv5_3_3x3
I0928 12:23:00.687017  4827 net.cpp:150] Setting up conv5_3_3x3
I0928 12:23:00.687033  4827 net.cpp:157] Top shape: 1 512 7 7 (25088)
I0928 12:23:00.687037  4827 net.cpp:165] Memory required for data: 273020292
I0928 12:23:00.687043  4827 layer_factory.hpp:77] Creating layer conv5_3_3x3/bn
I0928 12:23:00.687052  4827 net.cpp:100] Creating Layer conv5_3_3x3/bn
I0928 12:23:00.687057  4827 net.cpp:434] conv5_3_3x3/bn <- conv5_3_3x3
I0928 12:23:00.687063  4827 net.cpp:395] conv5_3_3x3/bn -> conv5_3_3x3 (in-place)
I0928 12:23:00.687309  4827 net.cpp:150] Setting up conv5_3_3x3/bn
I0928 12:23:00.687319  4827 net.cpp:157] Top shape: 1 512 7 7 (25088)
I0928 12:23:00.687321  4827 net.cpp:165] Memory required for data: 273120644
I0928 12:23:00.687330  4827 layer_factory.hpp:77] Creating layer conv5_3_3x3/bn/scale
I0928 12:23:00.687337  4827 net.cpp:100] Creating Layer conv5_3_3x3/bn/scale
I0928 12:23:00.687340  4827 net.cpp:434] conv5_3_3x3/bn/scale <- conv5_3_3x3
I0928 12:23:00.687345  4827 net.cpp:395] conv5_3_3x3/bn/scale -> conv5_3_3x3 (in-place)
I0928 12:23:00.687402  4827 layer_factory.hpp:77] Creating layer conv5_3_3x3/bn/scale
I0928 12:23:00.687552  4827 net.cpp:150] Setting up conv5_3_3x3/bn/scale
I0928 12:23:00.687562  4827 net.cpp:157] Top shape: 1 512 7 7 (25088)
I0928 12:23:00.687566  4827 net.cpp:165] Memory required for data: 273220996
I0928 12:23:00.687571  4827 layer_factory.hpp:77] Creating layer conv5_3_3x3/relu
I0928 12:23:00.687577  4827 net.cpp:100] Creating Layer conv5_3_3x3/relu
I0928 12:23:00.687582  4827 net.cpp:434] conv5_3_3x3/relu <- conv5_3_3x3
I0928 12:23:00.687585  4827 net.cpp:395] conv5_3_3x3/relu -> conv5_3_3x3 (in-place)
I0928 12:23:00.688221  4827 net.cpp:150] Setting up conv5_3_3x3/relu
I0928 12:23:00.688236  4827 net.cpp:157] Top shape: 1 512 7 7 (25088)
I0928 12:23:00.688241  4827 net.cpp:165] Memory required for data: 273321348
I0928 12:23:00.688244  4827 layer_factory.hpp:77] Creating layer conv5_3_1x1_increase
I0928 12:23:00.688252  4827 net.cpp:100] Creating Layer conv5_3_1x1_increase
I0928 12:23:00.688256  4827 net.cpp:434] conv5_3_1x1_increase <- conv5_3_3x3
I0928 12:23:00.688264  4827 net.cpp:408] conv5_3_1x1_increase -> conv5_3_1x1_increase
I0928 12:23:00.692159  4827 net.cpp:150] Setting up conv5_3_1x1_increase
I0928 12:23:00.692175  4827 net.cpp:157] Top shape: 1 2048 7 7 (100352)
I0928 12:23:00.692179  4827 net.cpp:165] Memory required for data: 273722756
I0928 12:23:00.692200  4827 layer_factory.hpp:77] Creating layer conv5_3_1x1_increase/bn
I0928 12:23:00.692211  4827 net.cpp:100] Creating Layer conv5_3_1x1_increase/bn
I0928 12:23:00.692216  4827 net.cpp:434] conv5_3_1x1_increase/bn <- conv5_3_1x1_increase
I0928 12:23:00.692221  4827 net.cpp:395] conv5_3_1x1_increase/bn -> conv5_3_1x1_increase (in-place)
I0928 12:23:00.692474  4827 net.cpp:150] Setting up conv5_3_1x1_increase/bn
I0928 12:23:00.692484  4827 net.cpp:157] Top shape: 1 2048 7 7 (100352)
I0928 12:23:00.692487  4827 net.cpp:165] Memory required for data: 274124164
I0928 12:23:00.692497  4827 layer_factory.hpp:77] Creating layer conv5_3_1x1_increase/bn/scale
I0928 12:23:00.692503  4827 net.cpp:100] Creating Layer conv5_3_1x1_increase/bn/scale
I0928 12:23:00.692507  4827 net.cpp:434] conv5_3_1x1_increase/bn/scale <- conv5_3_1x1_increase
I0928 12:23:00.692512  4827 net.cpp:395] conv5_3_1x1_increase/bn/scale -> conv5_3_1x1_increase (in-place)
I0928 12:23:00.692570  4827 layer_factory.hpp:77] Creating layer conv5_3_1x1_increase/bn/scale
I0928 12:23:00.692721  4827 net.cpp:150] Setting up conv5_3_1x1_increase/bn/scale
I0928 12:23:00.692730  4827 net.cpp:157] Top shape: 1 2048 7 7 (100352)
I0928 12:23:00.692734  4827 net.cpp:165] Memory required for data: 274525572
I0928 12:23:00.692739  4827 layer_factory.hpp:77] Creating layer conv5_3_1x1_increase_conv5_3_1x1_increase/bn/scale_0_split
I0928 12:23:00.692746  4827 net.cpp:100] Creating Layer conv5_3_1x1_increase_conv5_3_1x1_increase/bn/scale_0_split
I0928 12:23:00.692750  4827 net.cpp:434] conv5_3_1x1_increase_conv5_3_1x1_increase/bn/scale_0_split <- conv5_3_1x1_increase
I0928 12:23:00.692755  4827 net.cpp:408] conv5_3_1x1_increase_conv5_3_1x1_increase/bn/scale_0_split -> conv5_3_1x1_increase_conv5_3_1x1_increase/bn/scale_0_split_0
I0928 12:23:00.692762  4827 net.cpp:408] conv5_3_1x1_increase_conv5_3_1x1_increase/bn/scale_0_split -> conv5_3_1x1_increase_conv5_3_1x1_increase/bn/scale_0_split_1
I0928 12:23:00.692818  4827 net.cpp:150] Setting up conv5_3_1x1_increase_conv5_3_1x1_increase/bn/scale_0_split
I0928 12:23:00.692827  4827 net.cpp:157] Top shape: 1 2048 7 7 (100352)
I0928 12:23:00.692831  4827 net.cpp:157] Top shape: 1 2048 7 7 (100352)
I0928 12:23:00.692834  4827 net.cpp:165] Memory required for data: 275328388
I0928 12:23:00.692837  4827 layer_factory.hpp:77] Creating layer conv5_3_global_pool
I0928 12:23:00.692843  4827 net.cpp:100] Creating Layer conv5_3_global_pool
I0928 12:23:00.692847  4827 net.cpp:434] conv5_3_global_pool <- conv5_3_1x1_increase_conv5_3_1x1_increase/bn/scale_0_split_0
I0928 12:23:00.692852  4827 net.cpp:408] conv5_3_global_pool -> conv5_3_global_pool
I0928 12:23:00.692881  4827 net.cpp:150] Setting up conv5_3_global_pool
I0928 12:23:00.692889  4827 net.cpp:157] Top shape: 1 2048 1 1 (2048)
I0928 12:23:00.692893  4827 net.cpp:165] Memory required for data: 275336580
I0928 12:23:00.692895  4827 layer_factory.hpp:77] Creating layer conv5_3_1x1_down
I0928 12:23:00.692903  4827 net.cpp:100] Creating Layer conv5_3_1x1_down
I0928 12:23:00.692905  4827 net.cpp:434] conv5_3_1x1_down <- conv5_3_global_pool
I0928 12:23:00.692910  4827 net.cpp:408] conv5_3_1x1_down -> conv5_3_1x1_down
I0928 12:23:00.694511  4827 net.cpp:150] Setting up conv5_3_1x1_down
I0928 12:23:00.694526  4827 net.cpp:157] Top shape: 1 128 1 1 (128)
I0928 12:23:00.694531  4827 net.cpp:165] Memory required for data: 275337092
I0928 12:23:00.694537  4827 layer_factory.hpp:77] Creating layer conv5_3_1x1_down/relu
I0928 12:23:00.694545  4827 net.cpp:100] Creating Layer conv5_3_1x1_down/relu
I0928 12:23:00.694551  4827 net.cpp:434] conv5_3_1x1_down/relu <- conv5_3_1x1_down
I0928 12:23:00.694556  4827 net.cpp:395] conv5_3_1x1_down/relu -> conv5_3_1x1_down (in-place)
I0928 12:23:00.694777  4827 net.cpp:150] Setting up conv5_3_1x1_down/relu
I0928 12:23:00.694794  4827 net.cpp:157] Top shape: 1 128 1 1 (128)
I0928 12:23:00.694798  4827 net.cpp:165] Memory required for data: 275337604
I0928 12:23:00.694802  4827 layer_factory.hpp:77] Creating layer conv5_3_1x1_up
I0928 12:23:00.694826  4827 net.cpp:100] Creating Layer conv5_3_1x1_up
I0928 12:23:00.694833  4827 net.cpp:434] conv5_3_1x1_up <- conv5_3_1x1_down
I0928 12:23:00.694839  4827 net.cpp:408] conv5_3_1x1_up -> conv5_3_1x1_up
I0928 12:23:00.697624  4827 net.cpp:150] Setting up conv5_3_1x1_up
I0928 12:23:00.697640  4827 net.cpp:157] Top shape: 1 2048 1 1 (2048)
I0928 12:23:00.697644  4827 net.cpp:165] Memory required for data: 275345796
I0928 12:23:00.697651  4827 layer_factory.hpp:77] Creating layer conv5_3_prob
I0928 12:23:00.697657  4827 net.cpp:100] Creating Layer conv5_3_prob
I0928 12:23:00.697661  4827 net.cpp:434] conv5_3_prob <- conv5_3_1x1_up
I0928 12:23:00.697669  4827 net.cpp:395] conv5_3_prob -> conv5_3_1x1_up (in-place)
I0928 12:23:00.697904  4827 net.cpp:150] Setting up conv5_3_prob
I0928 12:23:00.697916  4827 net.cpp:157] Top shape: 1 2048 1 1 (2048)
I0928 12:23:00.697921  4827 net.cpp:165] Memory required for data: 275353988
I0928 12:23:00.697923  4827 layer_factory.hpp:77] Creating layer conv5_3
I0928 12:23:00.697929  4827 net.cpp:100] Creating Layer conv5_3
I0928 12:23:00.697933  4827 net.cpp:434] conv5_3 <- conv5_3_1x1_up
I0928 12:23:00.697937  4827 net.cpp:434] conv5_3 <- conv5_3_1x1_increase_conv5_3_1x1_increase/bn/scale_0_split_1
I0928 12:23:00.697942  4827 net.cpp:434] conv5_3 <- conv5_2_conv5_2/relu_0_split_1
I0928 12:23:00.697947  4827 net.cpp:408] conv5_3 -> conv5_3
I0928 12:23:00.698015  4827 net.cpp:150] Setting up conv5_3
I0928 12:23:00.698024  4827 net.cpp:157] Top shape: 1 2048 7 7 (100352)
I0928 12:23:00.698026  4827 net.cpp:165] Memory required for data: 275755396
I0928 12:23:00.698030  4827 layer_factory.hpp:77] Creating layer conv5_3/relu
I0928 12:23:00.698037  4827 net.cpp:100] Creating Layer conv5_3/relu
I0928 12:23:00.698040  4827 net.cpp:434] conv5_3/relu <- conv5_3
I0928 12:23:00.698045  4827 net.cpp:395] conv5_3/relu -> conv5_3 (in-place)
I0928 12:23:00.698254  4827 net.cpp:150] Setting up conv5_3/relu
I0928 12:23:00.698266  4827 net.cpp:157] Top shape: 1 2048 7 7 (100352)
I0928 12:23:00.698268  4827 net.cpp:165] Memory required for data: 276156804
I0928 12:23:00.698271  4827 layer_factory.hpp:77] Creating layer pool5/7x7_s1
I0928 12:23:00.698279  4827 net.cpp:100] Creating Layer pool5/7x7_s1
I0928 12:23:00.698284  4827 net.cpp:434] pool5/7x7_s1 <- conv5_3
I0928 12:23:00.698290  4827 net.cpp:408] pool5/7x7_s1 -> pool5/7x7_s1
I0928 12:23:00.699368  4827 net.cpp:150] Setting up pool5/7x7_s1
I0928 12:23:00.699381  4827 net.cpp:157] Top shape: 1 2048 1 1 (2048)
I0928 12:23:00.699385  4827 net.cpp:165] Memory required for data: 276164996
I0928 12:23:00.699389  4827 layer_factory.hpp:77] Creating layer bottleneck
I0928 12:23:00.699400  4827 net.cpp:100] Creating Layer bottleneck
I0928 12:23:00.699405  4827 net.cpp:434] bottleneck <- pool5/7x7_s1
I0928 12:23:00.699414  4827 net.cpp:408] bottleneck -> bottleneck
I0928 12:23:00.708230  4827 net.cpp:150] Setting up bottleneck
I0928 12:23:00.708245  4827 net.cpp:157] Top shape: 1 256 (256)
I0928 12:23:00.708248  4827 net.cpp:165] Memory required for data: 276166020
I0928 12:23:00.708254  4827 layer_factory.hpp:77] Creating layer fc8_1
I0928 12:23:00.708264  4827 net.cpp:100] Creating Layer fc8_1
I0928 12:23:00.708269  4827 net.cpp:434] fc8_1 <- bottleneck
I0928 12:23:00.708278  4827 net.cpp:408] fc8_1 -> fc8
I0928 12:23:00.708528  4827 net.cpp:150] Setting up fc8_1
I0928 12:23:00.708537  4827 net.cpp:157] Top shape: 1 31 (31)
I0928 12:23:00.708539  4827 net.cpp:165] Memory required for data: 276166144
I0928 12:23:00.708545  4827 layer_factory.hpp:77] Creating layer accuracy
I0928 12:23:00.708555  4827 net.cpp:100] Creating Layer accuracy
I0928 12:23:00.708560  4827 net.cpp:434] accuracy <- fc8
I0928 12:23:00.708564  4827 net.cpp:434] accuracy <- label
I0928 12:23:00.708570  4827 net.cpp:408] accuracy -> accuracy
…
