…
    mean_value: 123
  }
  image_data_param {
    source: "./data/VisDA2017/train.txt"
    batch_size: 4
    shuffle: true
    new_height: 224
    new_width: 224
  }
}
layer {
  name: "target_data"
  type: "ImageData"
  top: "target_data"
  top: "target_label"
  include {
    phase: TRAIN
  }
  transform_param {
    mirror: true
    crop_size: 224
    mean_value: 104
    mean_value: 117
    mean_value: 123
  }
  image_data_param {
    source: "./data/VisDA2017/test_online.txt"
    batch_size: 4
    shuffle: true
    new_height: 224
    new_width: 224
  }
}
layer {
  name: "target_label_silence"
  type: "Silence"
  bottom: "target_label"
  include {
    phase: TRAIN
  }
}
layer {
  name: "data"
  type: "Concat"
  bottom: "source_data"
  bottom: "target_data"
  top: "data"
  include {
    phase: TRAIN
  }
  concat_param {
    axis: 0
  }
}
layer {
  name: "conv1/7x7_s2"
  type: "Convolution"
  bottom: "data"
  top: "conv1/7x7_s2"
  param {
    lr_mult: 0
  }
  convolution_param {
    num_output: 64
    bias_term: false
    pad: 3
    kernel_size: 7
    stride: 2
  }
}
layer {
  name: "conv1/7x7_s2/bn"
  type: "BatchNorm"
  bottom: "conv1/7x7_s2"
  top: "conv1/7x7_s2"
  batch_norm_param {
    use_global_stats: true
  }
}
layer {
  name: "conv1/7x7_s2/bn/scale"
  type: "Scale"
  bottom: "conv1/7x7_s2"
  top: "conv1/7x7_s2"
  scale_param {
    bias_term: true
  }
}
layer {
  name: "conv1/relu_7x7_s2"
  type: "ReLU"
  bottom: "conv1/7x7_s2"
  top: "conv1/7x7_s2"
}
layer {
  name: "pool1/3x3_s2"
  type: "Pooling"
  bottom: "conv1/7x7_s2"
  top: "pool1/3x3_s2"
  pooling_param {
    pool: MAX
    kernel_size: 3
    stride: 2
  }
}
layer {
  name: "conv2_1_1x1_reduce"
  type: "Convolution"
  bottom: "pool1/3x3_s2"
  top: "conv2_1_1x1_reduce"
  param {
    lr_mult: 0
  }
  convolution_param {
    num_output: 128
    bias_term: false
    kernel_size: 1
    stride: 1
  }
}
layer {
  name: "conv2_1_1x1_reduce/bn"
  type: "BatchNorm"
  bottom: "conv2_1_1x1_reduce"
  top: "conv2_1_1x1_reduce"
  batch_norm_param {
    use_global_stats: true
  }
}
layer {
  name: "conv2_1_1x1_reduce/bn/scale"
  type: "Scale"
  bottom: "conv2_1_1x1_reduce"
  top: "conv2_1_1x1_reduce"
  scale_param {
    bias_term: true
  }
}
layer {
  name: "conv2_1_1x1_reduce/relu"
  type: "ReLU"
  bottom: "conv2_1_1x1_reduce"
  top: "conv2_1_1x1_reduce"
}
layer {
  name: "conv2_1_3x3"
  type: "Convolution"
  bottom: "conv2_1_1x1_reduce"
  top: "conv2_1_3x3"
  param {
    lr_mult: 0
  }
  convolution_param {
    num_output: 128
    bias_term: false
    pad: 1
    kernel_size: 3
    group: 32
    stride: 1
  }
}
layer {
  name: "conv2_1_3x3/bn"
  type: "BatchNorm"
  bottom: "conv2_1_3x3"
  top: "conv2_1_3x3"
  batch_norm_param {
    use_global_stats: true
  }
}
layer {
  name: "conv2_1_3x3/bn/scale"
  type: "Scale"
  bottom: "conv2_1_3x3"
  top: "conv2_1_3x3"
  scale_param {
    bias_term: true
  }
}
layer {
  name: "conv2_1_3x3/relu"
  type: "ReLU"
  bottom: "conv2_1_3x3"
  top: "conv2_1_3x3"
}
layer {
  name: "conv2_1_1x1_increase"
  type: "Convolution"
  bottom: "conv2_1_3x3"
  top: "conv2_1_1x1_increase"
  param {
    lr_mult: 0
  }
  convolution_param {
    num_output: 256
    bias_term: false
    kernel_size: 1
    stride: 1
  }
}
layer {
  name: "conv2_1_1x1_increase/bn"
  type: "BatchNorm"
  bottom: "conv2_1_1x1_increase"
  top: "conv2_1_1x1_increase"
  batch_norm_param {
    use_global_stats: true
  }
}
layer {
  name: "conv2_1_1x1_increase/bn/scale"
  type: "Scale"
  bottom: "conv2_1_1x1_increase"
  top: "conv2_1_1x1_increase"
  scale_param {
    bias_term: true
  }
}
layer {
  name: "conv2_1_global_pool"
  type: "Pooling"
  bottom: "conv2_1_1x1_increase"
  top: "conv2_1_global_pool"
  pooling_param {
    pool: AVE
    engine: CAFFE
    global_pooling: true
  }
}
layer {
  name: "conv2_1_1x1_down"
  type: "Convolution"
  bottom: "conv2_1_global_pool"
  top: "conv2_1_1x1_down"
  param {
    lr_mult: 0
  }
  convolution_param {
    num_output: 16
    kernel_size: 1
    stride: 1
  }
}
layer {
  name: "conv2_1_1x1_down/relu"
  type: "ReLU"
  bottom: "conv2_1_1x1_down"
  top: "conv2_1_1x1_down"
}
layer {
  name: "conv2_1_1x1_up"
  type: "Convolution"
  bottom: "conv2_1_1x1_down"
  top: "conv2_1_1x1_up"
  param {
    lr_mult: 0
  }
  convolution_param {
    num_output: 256
    kernel_size: 1
    stride: 1
  }
}
layer {
  name: "conv2_1_prob"
  type: "Sigmoid"
  bottom: "conv2_1_1x1_up"
  top: "conv2_1_1x1_up"
}
layer {
  name: "conv2_1_1x1_proj"
  type: "Convolution"
  bottom: "pool1/3x3_s2"
  top: "conv2_1_1x1_proj"
  param {
    lr_mult: 0
  }
  convolution_param {
    num_output: 256
    bias_term: false
    kernel_size: 1
    stride: 1
  }
}
layer {
  name: "conv2_1_1x1_proj/bn"
  type: "BatchNorm"
  bottom: "conv2_1_1x1_proj"
  top: "conv2_1_1x1_proj"
  batch_norm_param {
    use_global_stats: true
  }
}
layer {
  name: "conv2_1_1x1_proj/bn/scale"
  type: "Scale"
  bottom: "conv2_1_1x1_proj"
  top: "conv2_1_1x1_proj"
  scale_param {
    bias_term: true
  }
}
layer {
  name: "conv2_1"
  type: "Axpy"
  bottom: "conv2_1_1x1_up"
  bottom: "conv2_1_1x1_increase"
  bottom: "conv2_1_1x1_proj"
  top: "conv2_1"
}
layer {
  name: "conv2_1/relu"
  type: "ReLU"
  bottom: "conv2_1"
  top: "conv2_1"
}
layer {
  name: "conv2_2_1x1_reduce"
  type: "Convolution"
  bottom: "conv2_1"
  top: "conv2_2_1x1_reduce"
  param {
    lr_mult: 0
  }
  convolution_param {
    num_output: 128
    bias_term: false
    kernel_size: 1
    stride: 1
  }
}
layer {
  name: "conv2_2_1x1_reduce/bn"
  type: "BatchNorm"
  bottom: "conv2_2_1x1_reduce"
  top: "conv2_2_1x1_reduce"
  batch_norm_param {
    use_global_stats: true
  }
}
layer {
  name: "conv2_2_1x1_reduce/bn/scale"
  type: "Scale"
  bottom: "conv2_2_1x1_reduce"
  top: "conv2_2_1x1_reduce"
  scale_param {
    bias_term: true
  }
}
layer {
  name: "conv2_2_1x1_reduce/relu"
  type: "ReLU"
  bottom: "conv2_2_1x1_reduce"
  top: "conv2_2_1x1_reduce"
}
layer {
  name: "conv2_2_3x3"
  type: "Convolution"
  bottom: "conv2_2_1x1_reduce"
  top: "conv2_2_3x3"
  param {
    lr_mult: 0
  }
  convolution_param {
    num_output: 128
    bias_term: false
    pad: 1
    kernel_size: 3
    group: 32
    stride: 1
  }
}
layer {
  name: "conv2_2_3x3/bn"
  type: "BatchNorm"
  bottom: "conv2_2_3x3"
  top: "conv2_2_3x3"
  batch_norm_param {
    use_global_stats: true
  }
}
layer {
  name: "conv2_2_3x3/bn/scale"
  type: "Scale"
  bottom: "conv2_2_3x3"
  top: "conv2_2_3x3"
  scale_param {
    bias_term: true
  }
}
layer {
  name: "conv2_2_3x3/relu"
  type: "ReLU"
  bottom: "conv2_2_3x3"
  top: "conv2_2_3x3"
}
layer {
  name: "conv2_2_1x1_increase"
  type: "Convolution"
  bottom: "conv2_2_3x3"
  top: "conv2_2_1x1_increase"
  param {
    lr_mult: 0
  }
  convolution_param {
    num_output: 256
    bias_term: false
    kernel_size: 1
    stride: 1
  }
}
layer {
  name: "conv2_2_1x1_increase/bn"
  type: "BatchNorm"
  bottom: "conv2_2_1x1_increase"
  top: "conv2_2_1x1_increase"
  batch_norm_param {
    use_global_stats: true
  }
}
layer {
  name: "conv2_2_1x1_increase/bn/scale"
  type: "Scale"
  bottom: "conv2_2_1x1_increase"
  top: "conv2_2_1x1_increase"
  scale_param {
    bias_term: true
  }
}
layer {
  name: "conv2_2_global_pool"
  type: "Pooling"
  bottom: "conv2_2_1x1_increase"
  top: "conv2_2_global_pool"
  pooling_param {
    pool: AVE
    engine: CAFFE
    global_pooling: true
  }
}
layer {
  name: "conv2_2_1x1_down"
  type: "Convolution"
  bottom: "conv2_2_global_pool"
  top: "conv2_2_1x1_down"
  param {
    lr_mult: 0
  }
  convolution_param {
    num_output: 16
    kernel_size: 1
    stride: 1
  }
}
layer {
  name: "conv2_2_1x1_down/relu"
  type: "ReLU"
  bottom: "conv2_2_1x1_down"
  top: "conv2_2_1x1_down"
}
layer {
  name: "conv2_2_1x1_up"
  type: "Convolution"
  bottom: "conv2_2_1x1_down"
  top: "conv2_2_1x1_up"
  param {
    lr_mult: 0
  }
  convolution_param {
    num_output: 256
    kernel_size: 1
    stride: 1
  }
}
layer {
  name: "conv2_2_prob"
  type: "Sigmoid"
  bottom: "conv2_2_1x1_up"
  top: "conv2_2_1x1_up"
}
layer {
  name: "conv2_2"
  type: "Axpy"
  bottom: "conv2_2_1x1_up"
  bottom: "conv2_2_1x1_increase"
  bottom: "conv2_1"
  top: "conv2_2"
}
layer {
  name: "conv2_2/relu"
  type: "ReLU"
  bottom: "conv2_2"
  top: "conv2_2"
}
layer {
  name: "conv2_3_1x1_reduce"
  type: "Convolution"
  bottom: "conv2_2"
  top: "conv2_3_1x1_reduce"
  param {
    lr_mult: 0
  }
  convolution_param {
    num_output: 128
    bias_term: false
    kernel_size: 1
    stride: 1
  }
}
layer {
  name: "conv2_3_1x1_reduce/bn"
  type: "BatchNorm"
  bottom: "conv2_3_1x1_reduce"
  top: "conv2_3_1x1_reduce"
  batch_norm_param {
    use_global_stats: true
  }
}
layer {
  name: "conv2_3_1x1_reduce/bn/scale"
  type: "Scale"
  bottom: "conv2_3_1x1_reduce"
  top: "conv2_3_1x1_reduce"
  scale_param {
    bias_term: true
  }
}
layer {
  name: "conv2_3_1x1_reduce/relu"
  type: "ReLU"
  bottom: "conv2_3_1x1_reduce"
  top: "conv2_3_1x1_reduce"
}
layer {
  name: "conv2_3_3x3"
  type: "Convolution"
  bottom: "conv2_3_1x1_reduce"
  top: "conv2_3_3x3"
  param {
    lr_mult: 0
  }
  convolution_param {
    num_output: 128
    bias_term: false
    pad: 1
    kernel_size: 3
    group: 32
    stride: 1
  }
}
layer {
  name: "conv2_3_3x3/bn"
  type: "BatchNorm"
  bottom: "conv2_3_3x3"
  top: "conv2_3_3x3"
  batch_norm_param {
    use_global_stats: true
  }
}
layer {
  name: "conv2_3_3x3/bn/scale"
  type: "Scale"
  bottom: "conv2_3_3x3"
  top: "conv2_3_3x3"
  scale_param {
    bias_term: true
  }
}
layer {
  name: "conv2_3_3x3/relu"
  type: "ReLU"
  bottom: "conv2_3_3x3"
  top: "conv2_3_3x3"
}
layer {
  name: "conv2_3_1x1_increase"
  type: "Convolution"
  bottom: "conv2_3_3x3"
  top: "conv2_3_1x1_increase"
  param {
    lr_mult: 0
  }
  convolution_param {
    num_output: 256
    bias_term: false
    kernel_size: 1
    stride: 1
  }
}
layer {
  name: "conv2_3_1x1_increase/bn"
  type: "BatchNorm"
  bottom: "conv2_3_1x1_increase"
  top: "conv2_3_1x1_increase"
  batch_norm_param {
    use_global_stats: true
  }
}
layer {
  name: "conv2_3_1x1_increase/bn/scale"
  type: "Scale"
  bottom: "conv2_3_1x1_increase"
  top: "conv2_3_1x1_increase"
  scale_param {
    bias_term: true
  }
}
layer {
  name: "conv2_3_global_pool"
  type: "Pooling"
  bottom: "conv2_3_1x1_increase"
  top: "conv2_3_global_pool"
  pooling_param {
    pool: AVE
    engine: CAFFE
    global_pooling: true
  }
}
layer {
  name: "conv2_3_1x1_down"
  type: "Convolution"
  bottom: "conv2_3_global_pool"
  top: "conv2_3_1x1_down"
  param {
    lr_mult: 0
  }
  convolution_param {
    num_output: 16
    kernel_size: 1
    stride: 1
  }
}
layer {
  name: "conv2_3_1x1_down/relu"
  type: "ReLU"
  bottom: "conv2_3_1x1_down"
  top: "conv2_3_1x1_down"
}
layer {
  name: "conv2_3_1x1_up"
  type: "Convolution"
  bottom: "conv2_3_1x1_down"
  top: "conv2_3_1x1_up"
  param {
    lr_mult: 0
  }
  convolution_param {
    num_output: 256
    kernel_size: 1
    stride: 1
  }
}
layer {
  name: "conv2_3_prob"
  type: "Sigmoid"
  bottom: "conv2_3_1x1_up"
  top: "conv2_3_1x1_up"
}
layer {
  name: "conv2_3"
  type: "Axpy"
  bottom: "conv2_3_1x1_up"
  bottom: "conv2_3_1x1_increase"
  bottom: "conv2_2"
  top: "conv2_3"
}
layer {
  name: "conv2_3/relu"
  type: "ReLU"
  bottom: "conv2_3"
  top: "conv2_3"
}
layer {
  name: "conv3_1_1x1_reduce"
  type: "Convolution"
  bottom: "conv2_3"
  top: "conv3_1_1x1_reduce"
  param {
    lr_mult: 0
  }
  convolution_param {
    num_output: 256
    bias_term: false
    kernel_size: 1
    stride: 1
  }
}
layer {
  name: "conv3_1_1x1_reduce/bn"
  type: "BatchNorm"
  bottom: "conv3_1_1x1_reduce"
  top: "conv3_1_1x1_reduce"
  batch_norm_param {
    use_global_stats: true
  }
}
layer {
  name: "conv3_1_1x1_reduce/bn/scale"
  type: "Scale"
  bottom: "conv3_1_1x1_reduce"
  top: "conv3_1_1x1_reduce"
  scale_param {
    bias_term: true
  }
}
layer {
  name: "conv3_1_1x1_reduce/relu"
  type: "ReLU"
  bottom: "conv3_1_1x1_reduce"
  top: "conv3_1_1x1_reduce"
}
layer {
  name: "conv3_1_3x3"
  type: "Convolution"
  bottom: "conv3_1_1x1_reduce"
  top: "conv3_1_3x3"
  param {
    lr_mult: 0
  }
  convolution_param {
    num_output: 256
    bias_term: false
    pad: 1
    kernel_size: 3
    group: 32
    stride: 2
  }
}
layer {
  name: "conv3_1_3x3/bn"
  type: "BatchNorm"
  bottom: "conv3_1_3x3"
  top: "conv3_1_3x3"
  batch_norm_param {
    use_global_stats: true
  }
}
layer {
  name: "conv3_1_3x3/bn/scale"
  type: "Scale"
  bottom: "conv3_1_3x3"
  top: "conv3_1_3x3"
  scale_param {
    bias_term: true
  }
}
layer {
  name: "conv3_1_3x3/relu"
  type: "ReLU"
  bottom: "conv3_1_3x3"
  top: "conv3_1_3x3"
}
layer {
  name: "conv3_1_1x1_increase"
  type: "Convolution"
  bottom: "conv3_1_3x3"
  top: "conv3_1_1x1_increase"
  param {
    lr_mult: 0
  }
  convolution_param {
    num_output: 512
    bias_term: false
    kernel_size: 1
    stride: 1
  }
}
layer {
  name: "conv3_1_1x1_increase/bn"
  type: "BatchNorm"
  bottom: "conv3_1_1x1_increase"
  top: "conv3_1_1x1_increase"
  batch_norm_param {
    use_global_stats: true
  }
}
layer {
  name: "conv3_1_1x1_increase/bn/scale"
  type: "Scale"
  bottom: "conv3_1_1x1_increase"
  top: "conv3_1_1x1_increase"
  scale_param {
    bias_term: true
  }
}
layer {
  name: "conv3_1_global_pool"
  type: "Pooling"
  bottom: "conv3_1_1x1_increase"
  top: "conv3_1_global_pool"
  pooling_param {
    pool: AVE
    engine: CAFFE
    global_pooling: true
  }
}
layer {
  name: "conv3_1_1x1_down"
  type: "Convolution"
  bottom: "conv3_1_global_pool"
  top: "conv3_1_1x1_down"
  param {
    lr_mult: 0
  }
  convolution_param {
    num_output: 32
    kernel_size: 1
    stride: 1
  }
}
layer {
  name: "conv3_1_1x1_down/relu"
  type: "ReLU"
  bottom: "conv3_1_1x1_down"
  top: "conv3_1_1x1_down"
}
layer {
  name: "conv3_1_1x1_up"
  type: "Convolution"
  bottom: "conv3_1_1x1_down"
  top: "conv3_1_1x1_up"
  param {
    lr_mult: 0
  }
  convolution_param {
    num_output: 512
    kernel_size: 1
    stride: 1
  }
}
layer {
  name: "conv3_1_prob"
  type: "Sigmoid"
  bottom: "conv3_1_1x1_up"
  top: "conv3_1_1x1_up"
}
layer {
  name: "conv3_1_1x1_proj"
  type: "Convolution"
  bottom: "conv2_3"
  top: "conv3_1_1x1_proj"
  param {
    lr_mult: 0
  }
  convolution_param {
    num_output: 512
    bias_term: false
    kernel_size: 1
    stride: 2
  }
}
layer {
  name: "conv3_1_1x1_proj/bn"
  type: "BatchNorm"
  bottom: "conv3_1_1x1_proj"
  top: "conv3_1_1x1_proj"
  batch_norm_param {
    use_global_stats: true
  }
}
layer {
  name: "conv3_1_1x1_proj/bn/scale"
  type: "Scale"
  bottom: "conv3_1_1x1_proj"
  top: "conv3_1_1x1_proj"
  scale_param {
    bias_term: true
  }
}
layer {
  name: "conv3_1"
  type: "Axpy"
  bottom: "conv3_1_1x1_up"
  bottom: "conv3_1_1x1_increase"
  bottom: "conv3_1_1x1_proj"
  top: "conv3_1"
}
layer {
  name: "conv3_1/relu"
  type: "ReLU"
  bottom: "conv3_1"
  top: "conv3_1"
}
layer {
  name: "conv3_2_1x1_reduce"
  type: "Convolution"
  bottom: "conv3_1"
  top: "conv3_2_1x1_reduce"
  param {
    lr_mult: 0
  }
  convolution_param {
    num_output: 256
    bias_term: false
    kernel_size: 1
    stride: 1
  }
}
layer {
  name: "conv3_2_1x1_reduce/bn"
  type: "BatchNorm"
  bottom: "conv3_2_1x1_reduce"
  top: "conv3_2_1x1_reduce"
  batch_norm_param {
    use_global_stats: true
  }
}
layer {
  name: "conv3_2_1x1_reduce/bn/scale"
  type: "Scale"
  bottom: "conv3_2_1x1_reduce"
  top: "conv3_2_1x1_reduce"
  scale_param {
    bias_term: true
  }
}
layer {
  name: "conv3_2_1x1_reduce/relu"
  type: "ReLU"
  bottom: "conv3_2_1x1_reduce"
  top: "conv3_2_1x1_reduce"
}
layer {
  name: "conv3_2_3x3"
  type: "Convolution"
  bottom: "conv3_2_1x1_reduce"
  top: "conv3_2_3x3"
  param {
    lr_mult: 0
  }
  convolution_param {
    num_output: 256
    bias_term: false
    pad: 1
    kernel_size: 3
    group: 32
    stride: 1
  }
}
layer {
  name: "conv3_2_3x3/bn"
  type: "BatchNorm"
  bottom: "conv3_2_3x3"
  top: "conv3_2_3x3"
  batch_norm_param {
    use_global_stats: true
  }
}
layer {
  name: "conv3_2_3x3/bn/scale"
  type: "Scale"
  bottom: "conv3_2_3x3"
  top: "conv3_2_3x3"
  scale_param {
    bias_term: true
  }
}
layer {
  name: "conv3_2_3x3/relu"
  type: "ReLU"
  bottom: "conv3_2_3x3"
  top: "conv3_2_3x3"
}
layer {
  name: "conv3_2_1x1_increase"
  type: "Convolution"
  bottom: "conv3_2_3x3"
  top: "conv3_2_1x1_increase"
  param {
    lr_mult: 0
  }
  convolution_param {
    num_output: 512
    bias_term: false
    kernel_size: 1
    stride: 1
  }
}
layer {
  name: "conv3_2_1x1_increase/bn"
  type: "BatchNorm"
  bottom: "conv3_2_1x1_increase"
  top: "conv3_2_1x1_increase"
  batch_norm_param {
    use_global_stats: true
  }
}
layer {
  name: "conv3_2_1x1_increase/bn/scale"
  type: "Scale"
  bottom: "conv3_2_1x1_increase"
  top: "conv3_2_1x1_increase"
  scale_param {
    bias_term: true
  }
}
layer {
  name: "conv3_2_global_pool"
  type: "Pooling"
  bottom: "conv3_2_1x1_increase"
  top: "conv3_2_global_pool"
  pooling_param {
    pool: AVE
    engine: CAFFE
    global_pooling: true
  }
}
layer {
  name: "conv3_2_1x1_down"
  type: "Convolution"
  bottom: "conv3_2_global_pool"
  top: "conv3_2_1x1_down"
  param {
    lr_mult: 0
  }
  convolution_param {
    num_output: 32
    kernel_size: 1
    stride: 1
  }
}
layer {
  name: "conv3_2_1x1_down/relu"
  type: "ReLU"
  bottom: "conv3_2_1x1_down"
  top: "conv3_2_1x1_down"
}
layer {
  name: "conv3_2_1x1_up"
  type: "Convolution"
  bottom: "conv3_2_1x1_down"
  top: "conv3_2_1x1_up"
  param {
    lr_mult: 0
  }
  convolution_param {
    num_output: 512
    kernel_size: 1
    stride: 1
  }
}
layer {
  name: "conv3_2_prob"
  type: "Sigmoid"
  bottom: "conv3_2_1x1_up"
  top: "conv3_2_1x1_up"
}
layer {
  name: "conv3_2"
  type: "Axpy"
  bottom: "conv3_2_1x1_up"
  bottom: "conv3_2_1x1_increase"
  bottom: "conv3_1"
  top: "conv3_2"
}
layer {
  name: "conv3_2/relu"
  type: "ReLU"
  bottom: "conv3_2"
  top: "conv3_2"
}
layer {
  name: "conv3_3_1x1_reduce"
  type: "Convolution"
  bottom: "conv3_2"
  top: "conv3_3_1x1_reduce"
  param {
    lr_mult: 0
  }
  convolution_param {
    num_output: 256
    bias_term: false
    kernel_size: 1
    stride: 1
  }
}
layer {
  name: "conv3_3_1x1_reduce/bn"
  type: "BatchNorm"
  bottom: "conv3_3_1x1_reduce"
  top: "conv3_3_1x1_reduce"
  batch_norm_param {
    use_global_stats: true
  }
}
layer {
  name: "conv3_3_1x1_reduce/bn/scale"
  type: "Scale"
  bottom: "conv3_3_1x1_reduce"
  top: "conv3_3_1x1_reduce"
  scale_param {
    bias_term: true
  }
}
layer {
  name: "conv3_3_1x1_reduce/relu"
  type: "ReLU"
  bottom: "conv3_3_1x1_reduce"
  top: "conv3_3_1x1_reduce"
}
layer {
  name: "conv3_3_3x3"
  type: "Convolution"
  bottom: "conv3_3_1x1_reduce"
  top: "conv3_3_3x3"
  param {
    lr_mult: 0
  }
  convolution_param {
    num_output: 256
    bias_term: false
    pad: 1
    kernel_size: 3
    group: 32
    stride: 1
  }
}
layer {
  name: "conv3_3_3x3/bn"
  type: "BatchNorm"
  bottom: "conv3_3_3x3"
  top: "conv3_3_3x3"
  batch_norm_param {
    use_global_stats: true
  }
}
layer {
  name: "conv3_3_3x3/bn/scale"
  type: "Scale"
  bottom: "conv3_3_3x3"
  top: "conv3_3_3x3"
  scale_param {
    bias_term: true
  }
}
layer {
  name: "conv3_3_3x3/relu"
  type: "ReLU"
  bottom: "conv3_3_3x3"
  top: "conv3_3_3x3"
}
layer {
  name: "conv3_3_1x1_increase"
  type: "Convolution"
  bottom: "conv3_3_3x3"
  top: "conv3_3_1x1_increase"
  param {
    lr_mult: 0
  }
  convolution_param {
    num_output: 512
    bias_term: false
    kernel_size: 1
    stride: 1
  }
}
layer {
  name: "conv3_3_1x1_increase/bn"
  type: "BatchNorm"
  bottom: "conv3_3_1x1_increase"
  top: "conv3_3_1x1_increase"
  batch_norm_param {
    use_global_stats: true
  }
}
layer {
  name: "conv3_3_1x1_increase/bn/scale"
  type: "Scale"
  bottom: "conv3_3_1x1_increase"
  top: "conv3_3_1x1_increase"
  scale_param {
    bias_term: true
  }
}
layer {
  name: "conv3_3_global_pool"
  type: "Pooling"
  bottom: "conv3_3_1x1_increase"
  top: "conv3_3_global_pool"
  pooling_param {
    pool: AVE
    engine: CAFFE
    global_pooling: true
  }
}
layer {
  name: "conv3_3_1x1_down"
  type: "Convolution"
  bottom: "conv3_3_global_pool"
  top: "conv3_3_1x1_down"
  param {
    lr_mult: 0
  }
  convolution_param {
    num_output: 32
    kernel_size: 1
    stride: 1
  }
}
layer {
  name: "conv3_3_1x1_down/relu"
  type: "ReLU"
  bottom: "conv3_3_1x1_down"
  top: "conv3_3_1x1_down"
}
layer {
  name: "conv3_3_1x1_up"
  type: "Convolution"
  bottom: "conv3_3_1x1_down"
  top: "conv3_3_1x1_up"
  param {
    lr_mult: 0
  }
  convolution_param {
    num_output: 512
    kernel_size: 1
    stride: 1
  }
}
layer {
  name: "conv3_3_prob"
  type: "Sigmoid"
  bottom: "conv3_3_1x1_up"
  top: "conv3_3_1x1_up"
}
layer {
  name: "conv3_3"
  type: "Axpy"
  bottom: "conv3_3_1x1_up"
  bottom: "conv3_3_1x1_increase"
  bottom: "conv3_2"
  top: "conv3_3"
}
layer {
  name: "conv3_3/relu"
  type: "ReLU"
  bottom: "conv3_3"
  top: "conv3_3"
}
layer {
  name: "conv3_4_1x1_reduce"
  type: "Convolution"
  bottom: "conv3_3"
  top: "conv3_4_1x1_reduce"
  param {
    lr_mult: 0
  }
  convolution_param {
    num_output: 256
    bias_term: false
    kernel_size: 1
    stride: 1
  }
}
layer {
  name: "conv3_4_1x1_reduce/bn"
  type: "BatchNorm"
  bottom: "conv3_4_1x1_reduce"
  top: "conv3_4_1x1_reduce"
  batch_norm_param {
    use_global_stats: true
  }
}
layer {
  name: "conv3_4_1x1_reduce/bn/scale"
  type: "Scale"
  bottom: "conv3_4_1x1_reduce"
  top: "conv3_4_1x1_reduce"
  scale_param {
    bias_term: true
  }
}
layer {
  name: "conv3_4_1x1_reduce/relu"
  type: "ReLU"
  bottom: "conv3_4_1x1_reduce"
  top: "conv3_4_1x1_reduce"
}
layer {
  name: "conv3_4_3x3"
  type: "Convolution"
  bottom: "conv3_4_1x1_reduce"
  top: "conv3_4_3x3"
  param {
    lr_mult: 0
  }
  convolution_param {
    num_output: 256
    bias_term: false
    pad: 1
    kernel_size: 3
    group: 32
    stride: 1
  }
}
layer {
  name: "conv3_4_3x3/bn"
  type: "BatchNorm"
  bottom: "conv3_4_3x3"
  top: "conv3_4_3x3"
  batch_norm_param {
    use_global_stats: true
  }
}
layer {
  name: "conv3_4_3x3/bn/scale"
  type: "Scale"
  bottom: "conv3_4_3x3"
  top: "conv3_4_3x3"
  scale_param {
    bias_term: true
  }
}
layer {
  name: "conv3_4_3x3/relu"
  type: "ReLU"
  bottom: "conv3_4_3x3"
  top: "conv3_4_3x3"
}
layer {
  name: "conv3_4_1x1_increase"
  type: "Convolution"
  bottom: "conv3_4_3x3"
  top: "conv3_4_1x1_increase"
  param {
    lr_mult: 0
  }
  convolution_param {
    num_output: 512
    bias_term: false
    kernel_size: 1
    stride: 1
  }
}
layer {
  name: "conv3_4_1x1_increase/bn"
  type: "BatchNorm"
  bottom: "conv3_4_1x1_increase"
  top: "conv3_4_1x1_increase"
  batch_norm_param {
    use_global_stats: true
  }
}
layer {
  name: "conv3_4_1x1_increase/bn/scale"
  type: "Scale"
  bottom: "conv3_4_1x1_increase"
  top: "conv3_4_1x1_increase"
  scale_param {
    bias_term: true
  }
}
layer {
  name: "conv3_4_global_pool"
  type: "Pooling"
  bottom: "conv3_4_1x1_increase"
  top: "conv3_4_global_pool"
  pooling_param {
    pool: AVE
    engine: CAFFE
    global_pooling: true
  }
}
layer {
  name: "conv3_4_1x1_down"
  type: "Convolution"
  bottom: "conv3_4_global_pool"
  top: "conv3_4_1x1_down"
  param {
    lr_mult: 0
  }
  convolution_param {
    num_output: 32
    kernel_size: 1
    stride: 1
  }
}
layer {
  name: "conv3_4_1x1_down/relu"
  type: "ReLU"
  bottom: "conv3_4_1x1_down"
  top: "conv3_4_1x1_down"
}
layer {
  name: "conv3_4_1x1_up"
  type: "Convolution"
  bottom: "conv3_4_1x1_down"
  top: "conv3_4_1x1_up"
  param {
    lr_mult: 0
  }
  convolution_param {
    num_output: 512
    kernel_size: 1
    stride: 1
  }
}
layer {
  name: "conv3_4_prob"
  type: "Sigmoid"
  bottom: "conv3_4_1x1_up"
  top: "conv3_4_1x1_up"
}
layer {
  name: "conv3_4"
  type: "Axpy"
  bottom: "conv3_4_1x1_up"
  bottom: "conv3_4_1x1_increase"
  bottom: "conv3_3"
  top: "conv3_4"
}
layer {
  name: "conv3_4/relu"
  type: "ReLU"
  bottom: "conv3_4"
  top: "conv3_4"
}
layer {
  name: "conv4_1_1x1_reduce"
  type: "Convolution"
  bottom: "conv3_4"
  top: "conv4_1_1x1_reduce"
  param {
    lr_mult: 0
  }
  convolution_param {
    num_output: 512
    bias_term: false
    kernel_size: 1
    stride: 1
  }
}
layer {
  name: "conv4_1_1x1_reduce/bn"
  type: "BatchNorm"
  bottom: "conv4_1_1x1_reduce"
  top: "conv4_1_1x1_reduce"
  batch_norm_param {
    use_global_stats: true
  }
}
layer {
  name: "conv4_1_1x1_reduce/bn/scale"
  type: "Scale"
  bottom: "conv4_1_1x1_reduce"
  top: "conv4_1_1x1_reduce"
  scale_param {
    bias_term: true
  }
}
layer {
  name: "conv4_1_1x1_reduce/relu"
  type: "ReLU"
  bottom: "conv4_1_1x1_reduce"
  top: "conv4_1_1x1_reduce"
}
layer {
  name: "conv4_1_3x3"
  type: "Convolution"
  bottom: "conv4_1_1x1_reduce"
  top: "conv4_1_3x3"
  param {
    lr_mult: 0
  }
  convolution_param {
    num_output: 512
    bias_term: false
    pad: 1
    kernel_size: 3
    group: 32
    stride: 2
  }
}
layer {
  name: "conv4_1_3x3/bn"
  type: "BatchNorm"
  bottom: "conv4_1_3x3"
  top: "conv4_1_3x3"
  batch_norm_param {
    use_global_stats: true
  }
}
layer {
  name: "conv4_1_3x3/bn/scale"
  type: "Scale"
  bottom: "conv4_1_3x3"
  top: "conv4_1_3x3"
  scale_param {
    bias_term: true
  }
}
layer {
  name: "conv4_1_3x3/relu"
  type: "ReLU"
  bottom: "conv4_1_3x3"
  top: "conv4_1_3x3"
}
layer {
  name: "conv4_1_1x1_increase"
  type: "Convolution"
  bottom: "conv4_1_3x3"
  top: "conv4_1_1x1_increase"
  param {
    lr_mult: 0
  }
  convolution_param {
    num_output: 1024
    bias_term: false
    kernel_size: 1
    stride: 1
  }
}
layer {
  name: "conv4_1_1x1_increase/bn"
  type: "BatchNorm"
  bottom: "conv4_1_1x1_increase"
  top: "conv4_1_1x1_increase"
  batch_norm_param {
    use_global_stats: true
  }
}
layer {
  name: "conv4_1_1x1_increase/bn/scale"
  type: "Scale"
  bottom: "conv4_1_1x1_increase"
  top: "conv4_1_1x1_increase"
  scale_param {
    bias_term: true
  }
}
layer {
  name: "conv4_1_global_pool"
  type: "Pooling"
  bottom: "conv4_1_1x1_increase"
  top: "conv4_1_global_pool"
  pooling_param {
    pool: AVE
    engine: CAFFE
    global_pooling: true
  }
}
layer {
  name: "conv4_1_1x1_down"
  type: "Convolution"
  bottom: "conv4_1_global_pool"
  top: "conv4_1_1x1_down"
  param {
    lr_mult: 0
  }
  convolution_param {
    num_output: 64
    kernel_size: 1
    stride: 1
  }
}
layer {
  name: "conv4_1_1x1_down/relu"
  type: "ReLU"
  bottom: "conv4_1_1x1_down"
  top: "conv4_1_1x1_down"
}
layer {
  name: "conv4_1_1x1_up"
  type: "Convolution"
  bottom: "conv4_1_1x1_down"
  top: "conv4_1_1x1_up"
  param {
    lr_mult: 0
  }
  convolution_param {
    num_output: 1024
    kernel_size: 1
    stride: 1
  }
}
layer {
  name: "conv4_1_prob"
  type: "Sigmoid"
  bottom: "conv4_1_1x1_up"
  top: "conv4_1_1x1_up"
}
layer {
  name: "conv4_1_1x1_proj"
  type: "Convolution"
  bottom: "conv3_4"
  top: "conv4_1_1x1_proj"
  param {
    lr_mult: 0
  }
  convolution_param {
    num_output: 1024
    bias_term: false
    kernel_size: 1
    stride: 2
  }
}
layer {
  name: "conv4_1_1x1_proj/bn"
  type: "BatchNorm"
  bottom: "conv4_1_1x1_proj"
  top: "conv4_1_1x1_proj"
  batch_norm_param {
    use_global_stats: true
  }
}
layer {
  name: "conv4_1_1x1_proj/bn/scale"
  type: "Scale"
  bottom: "conv4_1_1x1_proj"
  top: "conv4_1_1x1_proj"
  scale_param {
    bias_term: true
  }
}
layer {
  name: "conv4_1"
  type: "Axpy"
  bottom: "conv4_1_1x1_up"
  bottom: "conv4_1_1x1_increase"
  bottom: "conv4_1_1x1_proj"
  top: "conv4_1"
}
layer {
  name: "conv4_1/relu"
  type: "ReLU"
  bottom: "conv4_1"
  top: "conv4_1"
}
layer {
  name: "conv4_2_1x1_reduce"
  type: "Convolution"
  bottom: "conv4_1"
  top: "conv4_2_1x1_reduce"
  param {
    lr_mult: 0
  }
  convolution_param {
    num_output: 512
    bias_term: false
    kernel_size: 1
    stride: 1
  }
}
layer {
  name: "conv4_2_1x1_reduce/bn"
  type: "BatchNorm"
  bottom: "conv4_2_1x1_reduce"
  top: "conv4_2_1x1_reduce"
  batch_norm_param {
    use_global_stats: true
  }
}
layer {
  name: "conv4_2_1x1_reduce/bn/scale"
  type: "Scale"
  bottom: "conv4_2_1x1_reduce"
  top: "conv4_2_1x1_reduce"
  scale_param {
    bias_term: true
  }
}
layer {
  name: "conv4_2_1x1_reduce/relu"
  type: "ReLU"
  bottom: "conv4_2_1x1_reduce"
  top: "conv4_2_1x1_reduce"
}
layer {
  name: "conv4_2_3x3"
  type: "Convolution"
  bottom: "conv4_2_1x1_reduce"
  top: "conv4_2_3x3"
  param {
    lr_mult: 0
  }
  convolution_param {
    num_output: 512
    bias_term: false
    pad: 1
    kernel_size: 3
    group: 32
    stride: 1
  }
}
layer {
  name: "conv4_2_3x3/bn"
  type: "BatchNorm"
  bottom: "conv4_2_3x3"
  top: "conv4_2_3x3"
  batch_norm_param {
    use_global_stats: true
  }
}
layer {
  name: "conv4_2_3x3/bn/scale"
  type: "Scale"
  bottom: "conv4_2_3x3"
  top: "conv4_2_3x3"
  scale_param {
    bias_term: true
  }
}
layer {
  name: "conv4_2_3x3/relu"
  type: "ReLU"
  bottom: "conv4_2_3x3"
  top: "conv4_2_3x3"
}
layer {
  name: "conv4_2_1x1_increase"
  type: "Convolution"
  bottom: "conv4_2_3x3"
  top: "conv4_2_1x1_increase"
  param {
    lr_mult: 0
  }
  convolution_param {
    num_output: 1024
    bias_term: false
    kernel_size: 1
    stride: 1
  }
}
layer {
  name: "conv4_2_1x1_increase/bn"
  type: "BatchNorm"
  bottom: "conv4_2_1x1_increase"
  top: "conv4_2_1x1_increase"
  batch_norm_param {
    use_global_stats: true
  }
}
layer {
  name: "conv4_2_1x1_increase/bn/scale"
  type: "Scale"
  bottom: "conv4_2_1x1_increase"
  top: "conv4_2_1x1_increase"
  scale_param {
    bias_term: true
  }
}
layer {
  name: "conv4_2_global_pool"
  type: "Pooling"
  bottom: "conv4_2_1x1_increase"
  top: "conv4_2_global_pool"
  pooling_param {
    pool: AVE
    engine: CAFFE
    global_pooli
I0929 13:47:19.575243 36229 layer_factory.hpp:77] Creating layer source_data
I0929 13:47:19.575289 36229 net.cpp:100] Creating Layer source_data
I0929 13:47:19.575299 36229 net.cpp:408] source_data -> source_data
I0929 13:47:19.575328 36229 net.cpp:408] source_data -> source_label
I0929 13:47:19.575726 36229 image_data_layer.cpp:38] Opening file ./data/VisDA2017/train.txt
I0929 13:47:19.635593 36229 image_data_layer.cpp:53] Shuffling data
I0929 13:47:19.650568 36229 image_data_layer.cpp:58] A total of 152397 images.
I0929 13:47:19.684854 36229 image_data_layer.cpp:85] output data size: 4,3,224,224
I0929 13:47:19.690690 36229 net.cpp:150] Setting up source_data
I0929 13:47:19.690726 36229 net.cpp:157] Top shape: 4 3 224 224 (602112)
I0929 13:47:19.690732 36229 net.cpp:157] Top shape: 4 (4)
I0929 13:47:19.690735 36229 net.cpp:165] Memory required for data: 2408464
I0929 13:47:19.690743 36229 layer_factory.hpp:77] Creating layer source_label_source_data_1_split
I0929 13:47:19.690757 36229 net.cpp:100] Creating Layer source_label_source_data_1_split
I0929 13:47:19.690762 36229 net.cpp:434] source_label_source_data_1_split <- source_label
I0929 13:47:19.690781 36229 net.cpp:408] source_label_source_data_1_split -> source_label_source_data_1_split_0
I0929 13:47:19.690798 36229 net.cpp:408] source_label_source_data_1_split -> source_label_source_data_1_split_1
I0929 13:47:19.690872 36229 net.cpp:150] Setting up source_label_source_data_1_split
I0929 13:47:19.690881 36229 net.cpp:157] Top shape: 4 (4)
I0929 13:47:19.690884 36229 net.cpp:157] Top shape: 4 (4)
I0929 13:47:19.690887 36229 net.cpp:165] Memory required for data: 2408496
I0929 13:47:19.690917 36229 layer_factory.hpp:77] Creating layer target_data
I0929 13:47:19.690934 36229 net.cpp:100] Creating Layer target_data
I0929 13:47:19.690939 36229 net.cpp:408] target_data -> target_data
I0929 13:47:19.690948 36229 net.cpp:408] target_data -> target_label
I0929 13:47:19.690958 36229 image_data_layer.cpp:38] Opening file ./data/VisDA2017/test_online.txt
I0929 13:47:19.713569 36229 image_data_layer.cpp:53] Shuffling data
I0929 13:47:19.718700 36229 image_data_layer.cpp:58] A total of 72372 images.
I0929 13:47:19.721074 36229 image_data_layer.cpp:85] output data size: 4,3,224,224
I0929 13:47:19.726780 36229 net.cpp:150] Setting up target_data
I0929 13:47:19.726801 36229 net.cpp:157] Top shape: 4 3 224 224 (602112)
I0929 13:47:19.726806 36229 net.cpp:157] Top shape: 4 (4)
I0929 13:47:19.726809 36229 net.cpp:165] Memory required for data: 4816960
I0929 13:47:19.726814 36229 layer_factory.hpp:77] Creating layer target_label_silence
I0929 13:47:19.726826 36229 net.cpp:100] Creating Layer target_label_silence
I0929 13:47:19.726831 36229 net.cpp:434] target_label_silence <- target_label
I0929 13:47:19.726840 36229 net.cpp:150] Setting up target_label_silence
I0929 13:47:19.726841 36229 net.cpp:165] Memory required for data: 4816960
I0929 13:47:19.726845 36229 layer_factory.hpp:77] Creating layer data
I0929 13:47:19.726855 36229 net.cpp:100] Creating Layer data
I0929 13:47:19.726858 36229 net.cpp:434] data <- source_data
I0929 13:47:19.726862 36229 net.cpp:434] data <- target_data
I0929 13:47:19.726868 36229 net.cpp:408] data -> data
I0929 13:47:19.726909 36229 net.cpp:150] Setting up data
I0929 13:47:19.726917 36229 net.cpp:157] Top shape: 8 3 224 224 (1204224)
I0929 13:47:19.726919 36229 net.cpp:165] Memory required for data: 9633856
I0929 13:47:19.726922 36229 layer_factory.hpp:77] Creating layer conv1/7x7_s2
I0929 13:47:19.726938 36229 net.cpp:100] Creating Layer conv1/7x7_s2
I0929 13:47:19.726941 36229 net.cpp:434] conv1/7x7_s2 <- data
I0929 13:47:19.726946 36229 net.cpp:408] conv1/7x7_s2 -> conv1/7x7_s2
I0929 13:47:19.981478 36229 net.cpp:150] Setting up conv1/7x7_s2
I0929 13:47:19.981508 36229 net.cpp:157] Top shape: 8 64 112 112 (6422528)
I0929 13:47:19.981513 36229 net.cpp:165] Memory required for data: 35323968
I0929 13:47:19.981529 36229 layer_factory.hpp:77] Creating layer conv1/7x7_s2/bn
I0929 13:47:19.981545 36229 net.cpp:100] Creating Layer conv1/7x7_s2/bn
I0929 13:47:19.981550 36229 net.cpp:434] conv1/7x7_s2/bn <- conv1/7x7_s2
I0929 13:47:19.981556 36229 net.cpp:395] conv1/7x7_s2/bn -> conv1/7x7_s2 (in-place)
I0929 13:47:19.981750 36229 net.cpp:150] Setting up conv1/7x7_s2/bn
I0929 13:47:19.981757 36229 net.cpp:157] Top shape: 8 64 112 112 (6422528)
I0929 13:47:19.981761 36229 net.cpp:165] Memory required for data: 61014080
I0929 13:47:19.981772 36229 layer_factory.hpp:77] Creating layer conv1/7x7_s2/bn/scale
I0929 13:47:19.981782 36229 net.cpp:100] Creating Layer conv1/7x7_s2/bn/scale
I0929 13:47:19.981792 36229 net.cpp:434] conv1/7x7_s2/bn/scale <- conv1/7x7_s2
I0929 13:47:19.981797 36229 net.cpp:395] conv1/7x7_s2/bn/scale -> conv1/7x7_s2 (in-place)
I0929 13:47:19.981844 36229 layer_factory.hpp:77] Creating layer conv1/7x7_s2/bn/scale
I0929 13:47:19.981971 36229 net.cpp:150] Setting up conv1/7x7_s2/bn/scale
I0929 13:47:19.981978 36229 net.cpp:157] Top shape: 8 64 112 112 (6422528)
I0929 13:47:19.981982 36229 net.cpp:165] Memory required for data: 86704192
I0929 13:47:19.981989 36229 layer_factory.hpp:77] Creating layer conv1/relu_7x7_s2
I0929 13:47:19.982000 36229 net.cpp:100] Creating Layer conv1/relu_7x7_s2
I0929 13:47:19.982005 36229 net.cpp:434] conv1/relu_7x7_s2 <- conv1/7x7_s2
I0929 13:47:19.982009 36229 net.cpp:395] conv1/relu_7x7_s2 -> conv1/7x7_s2 (in-place)
I0929 13:47:19.982177 36229 net.cpp:150] Setting up conv1/relu_7x7_s2
I0929 13:47:19.982187 36229 net.cpp:157] Top shape: 8 64 112 112 (6422528)
I0929 13:47:19.982192 36229 net.cpp:165] Memory required for data: 112394304
I0929 13:47:19.982195 36229 layer_factory.hpp:77] Creating layer pool1/3x3_s2
I0929 13:47:19.982230 36229 net.cpp:100] Creating Layer pool1/3x3_s2
I0929 13:47:19.982235 36229 net.cpp:434] pool1/3x3_s2 <- conv1/7x7_s2
I0929 13:47:19.982240 36229 net.cpp:408] pool1/3x3_s2 -> pool1/3x3_s2
I0929 13:47:19.982326 36229 net.cpp:150] Setting up pool1/3x3_s2
I0929 13:47:19.982334 36229 net.cpp:157] Top shape: 8 64 56 56 (1605632)
I0929 13:47:19.982339 36229 net.cpp:165] Memory required for data: 118816832
I0929 13:47:19.982342 36229 layer_factory.hpp:77] Creating layer pool1/3x3_s2_pool1/3x3_s2_0_split
I0929 13:47:19.982349 36229 net.cpp:100] Creating Layer pool1/3x3_s2_pool1/3x3_s2_0_split
I0929 13:47:19.982353 36229 net.cpp:434] pool1/3x3_s2_pool1/3x3_s2_0_split <- pool1/3x3_s2
I0929 13:47:19.982358 36229 net.cpp:408] pool1/3x3_s2_pool1/3x3_s2_0_split -> pool1/3x3_s2_pool1/3x3_s2_0_split_0
I0929 13:47:19.982364 36229 net.cpp:408] pool1/3x3_s2_pool1/3x3_s2_0_split -> pool1/3x3_s2_pool1/3x3_s2_0_split_1
I0929 13:47:19.982394 36229 net.cpp:150] Setting up pool1/3x3_s2_pool1/3x3_s2_0_split
I0929 13:47:19.982400 36229 net.cpp:157] Top shape: 8 64 56 56 (1605632)
I0929 13:47:19.982403 36229 net.cpp:157] Top shape: 8 64 56 56 (1605632)
I0929 13:47:19.982409 36229 net.cpp:165] Memory required for data: 131661888
I0929 13:47:19.982410 36229 layer_factory.hpp:77] Creating layer conv2_1_1x1_reduce
I0929 13:47:19.982420 36229 net.cpp:100] Creating Layer conv2_1_1x1_reduce
I0929 13:47:19.982424 36229 net.cpp:434] conv2_1_1x1_reduce <- pool1/3x3_s2_pool1/3x3_s2_0_split_0
I0929 13:47:19.982429 36229 net.cpp:408] conv2_1_1x1_reduce -> conv2_1_1x1_reduce
I0929 13:47:19.983418 36229 net.cpp:150] Setting up conv2_1_1x1_reduce
I0929 13:47:19.983434 36229 net.cpp:157] Top shape: 8 128 56 56 (3211264)
I0929 13:47:19.983438 36229 net.cpp:165] Memory required for data: 144506944
I0929 13:47:19.983444 36229 layer_factory.hpp:77] Creating layer conv2_1_1x1_reduce/bn
I0929 13:47:19.983454 36229 net.cpp:100] Creating Layer conv2_1_1x1_reduce/bn
I0929 13:47:19.983459 36229 net.cpp:434] conv2_1_1x1_reduce/bn <- conv2_1_1x1_reduce
I0929 13:47:19.983464 36229 net.cpp:395] conv2_1_1x1_reduce/bn -> conv2_1_1x1_reduce (in-place)
I0929 13:47:19.984690 36229 net.cpp:150] Setting up conv2_1_1x1_reduce/bn
I0929 13:47:19.984704 36229 net.cpp:157] Top shape: 8 128 56 56 (3211264)
I0929 13:47:19.984709 36229 net.cpp:165] Memory required for data: 157352000
I0929 13:47:19.984721 36229 layer_factory.hpp:77] Creating layer conv2_1_1x1_reduce/bn/scale
I0929 13:47:19.984730 36229 net.cpp:100] Creating Layer conv2_1_1x1_reduce/bn/scale
I0929 13:47:19.984733 36229 net.cpp:434] conv2_1_1x1_reduce/bn/scale <- conv2_1_1x1_reduce
I0929 13:47:19.984737 36229 net.cpp:395] conv2_1_1x1_reduce/bn/scale -> conv2_1_1x1_reduce (in-place)
I0929 13:47:19.984777 36229 layer_factory.hpp:77] Creating layer conv2_1_1x1_reduce/bn/scale
I0929 13:47:19.984887 36229 net.cpp:150] Setting up conv2_1_1x1_reduce/bn/scale
I0929 13:47:19.984895 36229 net.cpp:157] Top shape: 8 128 56 56 (3211264)
I0929 13:47:19.984899 36229 net.cpp:165] Memory required for data: 170197056
I0929 13:47:19.984905 36229 layer_factory.hpp:77] Creating layer conv2_1_1x1_reduce/relu
I0929 13:47:19.984912 36229 net.cpp:100] Creating Layer conv2_1_1x1_reduce/relu
I0929 13:47:19.984915 36229 net.cpp:434] conv2_1_1x1_reduce/relu <- conv2_1_1x1_reduce
I0929 13:47:19.984920 36229 net.cpp:395] conv2_1_1x1_reduce/relu -> conv2_1_1x1_reduce (in-place)
I0929 13:47:19.985370 36229 net.cpp:150] Setting up conv2_1_1x1_reduce/relu
I0929 13:47:19.985383 36229 net.cpp:157] Top shape: 8 128 56 56 (3211264)
I0929 13:47:19.985388 36229 net.cpp:165] Memory required for data: 183042112
I0929 13:47:19.985391 36229 layer_factory.hpp:77] Creating layer conv2_1_3x3
I0929 13:47:19.985401 36229 net.cpp:100] Creating Layer conv2_1_3x3
I0929 13:47:19.985406 36229 net.cpp:434] conv2_1_3x3 <- conv2_1_1x1_reduce
I0929 13:47:19.985425 36229 net.cpp:408] conv2_1_3x3 -> conv2_1_3x3
I0929 13:47:20.008159 36229 net.cpp:150] Setting up conv2_1_3x3
I0929 13:47:20.008174 36229 net.cpp:157] Top shape: 8 128 56 56 (3211264)
I0929 13:47:20.008178 36229 net.cpp:165] Memory required for data: 195887168
I0929 13:47:20.008198 36229 layer_factory.hpp:77] Creating layer conv2_1_3x3/bn
I0929 13:47:20.008208 36229 net.cpp:100] Creating Layer conv2_1_3x3/bn
I0929 13:47:20.008213 36229 net.cpp:434] conv2_1_3x3/bn <- conv2_1_3x3
I0929 13:47:20.008219 36229 net.cpp:395] conv2_1_3x3/bn -> conv2_1_3x3 (in-place)
I0929 13:47:20.008406 36229 net.cpp:150] Setting up conv2_1_3x3/bn
I0929 13:47:20.008414 36229 net.cpp:157] Top shape: 8 128 56 56 (3211264)
I0929 13:47:20.008417 36229 net.cpp:165] Memory required for data: 208732224
I0929 13:47:20.008424 36229 layer_factory.hpp:77] Creating layer conv2_1_3x3/bn/scale
I0929 13:47:20.008432 36229 net.cpp:100] Creating Layer conv2_1_3x3/bn/scale
I0929 13:47:20.008435 36229 net.cpp:434] conv2_1_3x3/bn/scale <- conv2_1_3x3
I0929 13:47:20.008440 36229 net.cpp:395] conv2_1_3x3/bn/scale -> conv2_1_3x3 (in-place)
I0929 13:47:20.008479 36229 layer_factory.hpp:77] Creating layer conv2_1_3x3/bn/scale
I0929 13:47:20.008589 36229 net.cpp:150] Setting up conv2_1_3x3/bn/scale
I0929 13:47:20.008595 36229 net.cpp:157] Top shape: 8 128 56 56 (3211264)
I0929 13:47:20.008599 36229 net.cpp:165] Memory required for data: 221577280
I0929 13:47:20.008610 36229 layer_factory.hpp:77] Creating layer conv2_1_3x3/relu
I0929 13:47:20.008616 36229 net.cpp:100] Creating Layer conv2_1_3x3/relu
I0929 13:47:20.008620 36229 net.cpp:434] conv2_1_3x3/relu <- conv2_1_3x3
I0929 13:47:20.008625 36229 net.cpp:395] conv2_1_3x3/relu -> conv2_1_3x3 (in-place)
I0929 13:47:20.009091 36229 net.cpp:150] Setting up conv2_1_3x3/relu
I0929 13:47:20.009105 36229 net.cpp:157] Top shape: 8 128 56 56 (3211264)
I0929 13:47:20.009109 36229 net.cpp:165] Memory required for data: 234422336
I0929 13:47:20.009114 36229 layer_factory.hpp:77] Creating layer conv2_1_1x1_increase
I0929 13:47:20.009124 36229 net.cpp:100] Creating Layer conv2_1_1x1_increase
I0929 13:47:20.009130 36229 net.cpp:434] conv2_1_1x1_increase <- conv2_1_3x3
I0929 13:47:20.009135 36229 net.cpp:408] conv2_1_1x1_increase -> conv2_1_1x1_increase
I0929 13:47:20.011167 36229 net.cpp:150] Setting up conv2_1_1x1_increase
I0929 13:47:20.011183 36229 net.cpp:157] Top shape: 8 256 56 56 (6422528)
I0929 13:47:20.011188 36229 net.cpp:165] Memory required for data: 260112448
I0929 13:47:20.011193 36229 layer_factory.hpp:77] Creating layer conv2_1_1x1_increase/bn
I0929 13:47:20.011200 36229 net.cpp:100] Creating Layer conv2_1_1x1_increase/bn
I0929 13:47:20.011204 36229 net.cpp:434] conv2_1_1x1_increase/bn <- conv2_1_1x1_increase
I0929 13:47:20.011209 36229 net.cpp:395] conv2_1_1x1_increase/bn -> conv2_1_1x1_increase (in-place)
I0929 13:47:20.011399 36229 net.cpp:150] Setting up conv2_1_1x1_increase/bn
I0929 13:47:20.011407 36229 net.cpp:157] Top shape: 8 256 56 56 (6422528)
I0929 13:47:20.011411 36229 net.cpp:165] Memory required for data: 285802560
I0929 13:47:20.011418 36229 layer_factory.hpp:77] Creating layer conv2_1_1x1_increase/bn/scale
I0929 13:47:20.011425 36229 net.cpp:100] Creating Layer conv2_1_1x1_increase/bn/scale
I0929 13:47:20.011430 36229 net.cpp:434] conv2_1_1x1_increase/bn/scale <- conv2_1_1x1_increase
I0929 13:47:20.011433 36229 net.cpp:395] conv2_1_1x1_increase/bn/scale -> conv2_1_1x1_increase (in-place)
I0929 13:47:20.011473 36229 layer_factory.hpp:77] Creating layer conv2_1_1x1_increase/bn/scale
I0929 13:47:20.011582 36229 net.cpp:150] Setting up conv2_1_1x1_increase/bn/scale
I0929 13:47:20.011590 36229 net.cpp:157] Top shape: 8 256 56 56 (6422528)
I0929 13:47:20.011593 36229 net.cpp:165] Memory required for data: 311492672
I0929 13:47:20.011598 36229 layer_factory.hpp:77] Creating layer conv2_1_1x1_increase_conv2_1_1x1_increase/bn/scale_0_split
I0929 13:47:20.011605 36229 net.cpp:100] Creating Layer conv2_1_1x1_increase_conv2_1_1x1_increase/bn/scale_0_split
I0929 13:47:20.011607 36229 net.cpp:434] conv2_1_1x1_increase_conv2_1_1x1_increase/bn/scale_0_split <- conv2_1_1x1_increase
I0929 13:47:20.011615 36229 net.cpp:408] conv2_1_1x1_increase_conv2_1_1x1_increase/bn/scale_0_split -> conv2_1_1x1_increase_conv2_1_1x1_increase/bn/scale_0_split_0
I0929 13:47:20.011633 36229 net.cpp:408] conv2_1_1x1_increase_conv2_1_1x1_increase/bn/scale_0_split -> conv2_1_1x1_increase_conv2_1_1x1_increase/bn/scale_0_split_1
I0929 13:47:20.011672 36229 net.cpp:150] Setting up conv2_1_1x1_increase_conv2_1_1x1_increase/bn/scale_0_split
I0929 13:47:20.011680 36229 net.cpp:157] Top shape: 8 256 56 56 (6422528)
I0929 13:47:20.011685 36229 net.cpp:157] Top shape: 8 256 56 56 (6422528)
I0929 13:47:20.011687 36229 net.cpp:165] Memory required for data: 362872896
I0929 13:47:20.011692 36229 layer_factory.hpp:77] Creating layer conv2_1_global_pool
I0929 13:47:20.011699 36229 net.cpp:100] Creating Layer conv2_1_global_pool
I0929 13:47:20.011703 36229 net.cpp:434] conv2_1_global_pool <- conv2_1_1x1_increase_conv2_1_1x1_increase/bn/scale_0_split_0
I0929 13:47:20.011708 36229 net.cpp:408] conv2_1_global_pool -> conv2_1_global_pool
I0929 13:47:20.011735 36229 net.cpp:150] Setting up conv2_1_global_pool
I0929 13:47:20.011741 36229 net.cpp:157] Top shape: 8 256 1 1 (2048)
I0929 13:47:20.011744 36229 net.cpp:165] Memory required for data: 362881088
I0929 13:47:20.011747 36229 layer_factory.hpp:77] Creating layer conv2_1_1x1_down
I0929 13:47:20.011756 36229 net.cpp:100] Creating Layer conv2_1_1x1_down
I0929 13:47:20.011759 36229 net.cpp:434] conv2_1_1x1_down <- conv2_1_global_pool
I0929 13:47:20.011766 36229 net.cpp:408] conv2_1_1x1_down -> conv2_1_1x1_down
I0929 13:47:20.012833 36229 net.cpp:150] Setting up conv2_1_1x1_down
I0929 13:47:20.012847 36229 net.cpp:157] Top shape: 8 16 1 1 (128)
I0929 13:47:20.012851 36229 net.cpp:165] Memory required for data: 362881600
I0929 13:47:20.012872 36229 layer_factory.hpp:77] Creating layer conv2_1_1x1_down/relu
I0929 13:47:20.012881 36229 net.cpp:100] Creating Layer conv2_1_1x1_down/relu
I0929 13:47:20.012886 36229 net.cpp:434] conv2_1_1x1_down/relu <- conv2_1_1x1_down
I0929 13:47:20.012892 36229 net.cpp:395] conv2_1_1x1_down/relu -> conv2_1_1x1_down (in-place)
I0929 13:47:20.013341 36229 net.cpp:150] Setting up conv2_1_1x1_down/relu
I0929 13:47:20.013355 36229 net.cpp:157] Top shape: 8 16 1 1 (128)
I0929 13:47:20.013357 36229 net.cpp:165] Memory required for data: 362882112
I0929 13:47:20.013360 36229 layer_factory.hpp:77] Creating layer conv2_1_1x1_up
I0929 13:47:20.013370 36229 net.cpp:100] Creating Layer conv2_1_1x1_up
I0929 13:47:20.013375 36229 net.cpp:434] conv2_1_1x1_up <- conv2_1_1x1_down
I0929 13:47:20.013381 36229 net.cpp:408] conv2_1_1x1_up -> conv2_1_1x1_up
I0929 13:47:20.014483 36229 net.cpp:150] Setting up conv2_1_1x1_up
I0929 13:47:20.014497 36229 net.cpp:157] Top shape: 8 256 1 1 (2048)
I0929 13:47:20.014500 36229 net.cpp:165] Memory required for data: 362890304
I0929 13:47:20.014508 36229 layer_factory.hpp:77] Creating layer conv2_1_prob
I0929 13:47:20.014516 36229 net.cpp:100] Creating Layer conv2_1_prob
I0929 13:47:20.014521 36229 net.cpp:434] conv2_1_prob <- conv2_1_1x1_up
I0929 13:47:20.014526 36229 net.cpp:395] conv2_1_prob -> conv2_1_1x1_up (in-place)
I0929 13:47:20.014699 36229 net.cpp:150] Setting up conv2_1_prob
I0929 13:47:20.014710 36229 net.cpp:157] Top shape: 8 256 1 1 (2048)
I0929 13:47:20.014714 36229 net.cpp:165] Memory required for data: 362898496
I0929 13:47:20.014716 36229 layer_factory.hpp:77] Creating layer conv2_1_1x1_proj
I0929 13:47:20.014724 36229 net.cpp:100] Creating Layer conv2_1_1x1_proj
I0929 13:47:20.014727 36229 net.cpp:434] conv2_1_1x1_proj <- pool1/3x3_s2_pool1/3x3_s2_0_split_1
I0929 13:47:20.014737 36229 net.cpp:408] conv2_1_1x1_proj -> conv2_1_1x1_proj
I0929 13:47:20.015771 36229 net.cpp:150] Setting up conv2_1_1x1_proj
I0929 13:47:20.015789 36229 net.cpp:157] Top shape: 8 256 56 56 (6422528)
I0929 13:47:20.015794 36229 net.cpp:165] Memory required for data: 388588608
I0929 13:47:20.015800 36229 layer_factory.hpp:77] Creating layer conv2_1_1x1_proj/bn
I0929 13:47:20.015806 36229 net.cpp:100] Creating Layer conv2_1_1x1_proj/bn
I0929 13:47:20.015810 36229 net.cpp:434] conv2_1_1x1_proj/bn <- conv2_1_1x1_proj
I0929 13:47:20.015817 36229 net.cpp:395] conv2_1_1x1_proj/bn -> conv2_1_1x1_proj (in-place)
I0929 13:47:20.016017 36229 net.cpp:150] Setting up conv2_1_1x1_proj/bn
I0929 13:47:20.016026 36229 net.cpp:157] Top shape: 8 256 56 56 (6422528)
I0929 13:47:20.016028 36229 net.cpp:165] Memory required for data: 414278720
I0929 13:47:20.016036 36229 layer_factory.hpp:77] Creating layer conv2_1_1x1_proj/bn/scale
I0929 13:47:20.016041 36229 net.cpp:100] Creating Layer conv2_1_1x1_proj/bn/scale
I0929 13:47:20.016044 36229 net.cpp:434] conv2_1_1x1_proj/bn/scale <- conv2_1_1x1_proj
I0929 13:47:20.016048 36229 net.cpp:395] conv2_1_1x1_proj/bn/scale -> conv2_1_1x1_proj (in-place)
I0929 13:47:20.016088 36229 layer_factory.hpp:77] Creating layer conv2_1_1x1_proj/bn/scale
I0929 13:47:20.016201 36229 net.cpp:150] Setting up conv2_1_1x1_proj/bn/scale
I0929 13:47:20.016207 36229 net.cpp:157] Top shape: 8 256 56 56 (6422528)
I0929 13:47:20.016211 36229 net.cpp:165] Memory required for data: 439968832
I0929 13:47:20.016222 36229 layer_factory.hpp:77] Creating layer conv2_1
I0929 13:47:20.016230 36229 net.cpp:100] Creating Layer conv2_1
I0929 13:47:20.016233 36229 net.cpp:434] conv2_1 <- conv2_1_1x1_up
I0929 13:47:20.016237 36229 net.cpp:434] conv2_1 <- conv2_1_1x1_increase_conv2_1_1x1_increase/bn/scale_0_split_1
I0929 13:47:20.016240 36229 net.cpp:434] conv2_1 <- conv2_1_1x1_proj
I0929 13:47:20.016247 36229 net.cpp:408] conv2_1 -> conv2_1
I0929 13:47:20.016304 36229 net.cpp:150] Setting up conv2_1
I0929 13:47:20.016309 36229 net.cpp:157] Top shape: 8 256 56 56 (6422528)
I0929 13:47:20.016312 36229 net.cpp:165] Memory required for data: 465658944
I0929 13:47:20.016315 36229 layer_factory.hpp:77] Creating layer conv2_1/relu
I0929 13:47:20.016322 36229 net.cpp:100] Creating Layer conv2_1/relu
I0929 13:47:20.016325 36229 net.cpp:434] conv2_1/relu <- conv2_1
I0929 13:47:20.016330 36229 net.cpp:395] conv2_1/relu -> conv2_1 (in-place)
I0929 13:47:20.016801 36229 net.cpp:150] Setting up conv2_1/relu
I0929 13:47:20.016814 36229 net.cpp:157] Top shape: 8 256 56 56 (6422528)
I0929 13:47:20.016819 36229 net.cpp:165] Memory required for data: 491349056
I0929 13:47:20.016822 36229 layer_factory.hpp:77] Creating layer conv2_1_conv2_1/relu_0_split
I0929 13:47:20.016827 36229 net.cpp:100] Creating Layer conv2_1_conv2_1/relu_0_split
I0929 13:47:20.016831 36229 net.cpp:434] conv2_1_conv2_1/relu_0_split <- conv2_1
I0929 13:47:20.016837 36229 net.cpp:408] conv2_1_conv2_1/relu_0_split -> conv2_1_conv2_1/relu_0_split_0
I0929 13:47:20.016844 36229 net.cpp:408] conv2_1_conv2_1/relu_0_split -> conv2_1_conv2_1/relu_0_split_1
I0929 13:47:20.016891 36229 net.cpp:150] Setting up conv2_1_conv2_1/relu_0_split
I0929 13:47:20.016899 36229 net.cpp:157] Top shape: 8 256 56 56 (6422528)
I0929 13:47:20.016903 36229 net.cpp:157] Top shape: 8 256 56 56 (6422528)
I0929 13:47:20.016906 36229 net.cpp:165] Memory required for data: 542729280
I0929 13:47:20.016909 36229 layer_factory.hpp:77] Creating layer conv2_2_1x1_reduce
I0929 13:47:20.016916 36229 net.cpp:100] Creating Layer conv2_2_1x1_reduce
I0929 13:47:20.016919 36229 net.cpp:434] conv2_2_1x1_reduce <- conv2_1_conv2_1/relu_0_split_0
I0929 13:47:20.016926 36229 net.cpp:408] conv2_2_1x1_reduce -> conv2_2_1x1_reduce
I0929 13:47:20.017982 36229 net.cpp:150] Setting up conv2_2_1x1_reduce
I0929 13:47:20.017994 36229 net.cpp:157] Top shape: 8 128 56 56 (3211264)
I0929 13:47:20.017998 36229 net.cpp:165] Memory required for data: 555574336
I0929 13:47:20.018003 36229 layer_factory.hpp:77] Creating layer conv2_2_1x1_reduce/bn
I0929 13:47:20.018013 36229 net.cpp:100] Creating Layer conv2_2_1x1_reduce/bn
I0929 13:47:20.018015 36229 net.cpp:434] conv2_2_1x1_reduce/bn <- conv2_2_1x1_reduce
I0929 13:47:20.018020 36229 net.cpp:395] conv2_2_1x1_reduce/bn -> conv2_2_1x1_reduce (in-place)
I0929 13:47:20.018213 36229 net.cpp:150] Setting up conv2_2_1x1_reduce/bn
I0929 13:47:20.018219 36229 net.cpp:157] Top shape: 8 128 56 56 (3211264)
I0929 13:47:20.018223 36229 net.cpp:165] Memory required for data: 568419392
I0929 13:47:20.018229 36229 layer_factory.hpp:77] Creating layer conv2_2_1x1_reduce/bn/scale
I0929 13:47:20.018235 36229 net.cpp:100] Creating Layer conv2_2_1x1_reduce/bn/scale
I0929 13:47:20.018250 36229 net.cpp:434] conv2_2_1x1_reduce/bn/scale <- conv2_2_1x1_reduce
I0929 13:47:20.018260 36229 net.cpp:395] conv2_2_1x1_reduce/bn/scale -> conv2_2_1x1_reduce (in-place)
I0929 13:47:20.018299 36229 layer_factory.hpp:77] Creating layer conv2_2_1x1_reduce/bn/scale
I0929 13:47:20.018409 36229 net.cpp:150] Setting up conv2_2_1x1_reduce/bn/scale
I0929 13:47:20.018415 36229 net.cpp:157] Top shape: 8 128 56 56 (3211264)
I0929 13:47:20.018419 36229 net.cpp:165] Memory required for data: 581264448
I0929 13:47:20.018424 36229 layer_factory.hpp:77] Creating layer conv2_2_1x1_reduce/relu
I0929 13:47:20.018430 36229 net.cpp:100] Creating Layer conv2_2_1x1_reduce/relu
I0929 13:47:20.018435 36229 net.cpp:434] conv2_2_1x1_reduce/relu <- conv2_2_1x1_reduce
I0929 13:47:20.018438 36229 net.cpp:395] conv2_2_1x1_reduce/relu -> conv2_2_1x1_reduce (in-place)
I0929 13:47:20.018610 36229 net.cpp:150] Setting up conv2_2_1x1_reduce/relu
I0929 13:47:20.018620 36229 net.cpp:157] Top shape: 8 128 56 56 (3211264)
I0929 13:47:20.018622 36229 net.cpp:165] Memory required for data: 594109504
I0929 13:47:20.018625 36229 layer_factory.hpp:77] Creating layer conv2_2_3x3
I0929 13:47:20.018635 36229 net.cpp:100] Creating Layer conv2_2_3x3
I0929 13:47:20.018637 36229 net.cpp:434] conv2_2_3x3 <- conv2_2_1x1_reduce
I0929 13:47:20.018656 36229 net.cpp:408] conv2_2_3x3 -> conv2_2_3x3
I0929 13:47:20.042304 36229 net.cpp:150] Setting up conv2_2_3x3
I0929 13:47:20.042318 36229 net.cpp:157] Top shape: 8 128 56 56 (3211264)
I0929 13:47:20.042322 36229 net.cpp:165] Memory required for data: 606954560
I0929 13:47:20.042327 36229 layer_factory.hpp:77] Creating layer conv2_2_3x3/bn
I0929 13:47:20.042335 36229 net.cpp:100] Creating Layer conv2_2_3x3/bn
I0929 13:47:20.042337 36229 net.cpp:434] conv2_2_3x3/bn <- conv2_2_3x3
I0929 13:47:20.042345 36229 net.cpp:395] conv2_2_3x3/bn -> conv2_2_3x3 (in-place)
I0929 13:47:20.042548 36229 net.cpp:150] Setting up conv2_2_3x3/bn
I0929 13:47:20.042557 36229 net.cpp:157] Top shape: 8 128 56 56 (3211264)
I0929 13:47:20.042559 36229 net.cpp:165] Memory required for data: 619799616
I0929 13:47:20.042567 36229 layer_factory.hpp:77] Creating layer conv2_2_3x3/bn/scale
I0929 13:47:20.042572 36229 net.cpp:100] Creating Layer conv2_2_3x3/bn/scale
I0929 13:47:20.042574 36229 net.cpp:434] conv2_2_3x3/bn/scale <- conv2_2_3x3
I0929 13:47:20.042578 36229 net.cpp:395] conv2_2_3x3/bn/scale -> conv2_2_3x3 (in-place)
I0929 13:47:20.042623 36229 layer_factory.hpp:77] Creating layer conv2_2_3x3/bn/scale
I0929 13:47:20.042745 36229 net.cpp:150] Setting up conv2_2_3x3/bn/scale
I0929 13:47:20.042752 36229 net.cpp:157] Top shape: 8 128 56 56 (3211264)
I0929 13:47:20.042755 36229 net.cpp:165] Memory required for data: 632644672
I0929 13:47:20.042760 36229 layer_factory.hpp:77] Creating layer conv2_2_3x3/relu
I0929 13:47:20.042765 36229 net.cpp:100] Creating Layer conv2_2_3x3/relu
I0929 13:47:20.042768 36229 net.cpp:434] conv2_2_3x3/relu <- conv2_2_3x3
I0929 13:47:20.042773 36229 net.cpp:395] conv2_2_3x3/relu -> conv2_2_3x3 (in-place)
I0929 13:47:20.042953 36229 net.cpp:150] Setting up conv2_2_3x3/relu
I0929 13:47:20.042975 36229 net.cpp:157] Top shape: 8 128 56 56 (3211264)
I0929 13:47:20.042979 36229 net.cpp:165] Memory required for data: 645489728
I0929 13:47:20.042984 36229 layer_factory.hpp:77] Creating layer conv2_2_1x1_increase
I0929 13:47:20.042994 36229 net.cpp:100] Creating Layer conv2_2_1x1_increase
I0929 13:47:20.042999 36229 net.cpp:434] conv2_2_1x1_increase <- conv2_2_3x3
I0929 13:47:20.043005 36229 net.cpp:408] conv2_2_1x1_increase -> conv2_2_1x1_increase
I0929 13:47:20.044073 36229 net.cpp:150] Setting up conv2_2_1x1_increase
I0929 13:47:20.044087 36229 net.cpp:157] Top shape: 8 256 56 56 (6422528)
I0929 13:47:20.044091 36229 net.cpp:165] Memory required for data: 671179840
I0929 13:47:20.044096 36229 layer_factory.hpp:77] Creating layer conv2_2_1x1_increase/bn
I0929 13:47:20.044102 36229 net.cpp:100] Creating Layer conv2_2_1x1_increase/bn
I0929 13:47:20.044106 36229 net.cpp:434] conv2_2_1x1_increase/bn <- conv2_2_1x1_increase
I0929 13:47:20.044126 36229 net.cpp:395] conv2_2_1x1_increase/bn -> conv2_2_1x1_increase (in-place)
I0929 13:47:20.044333 36229 net.cpp:150] Setting up conv2_2_1x1_increase/bn
I0929 13:47:20.044342 36229 net.cpp:157] Top shape: 8 256 56 56 (6422528)
I0929 13:47:20.044344 36229 net.cpp:165] Memory required for data: 696869952
I0929 13:47:20.044351 36229 layer_factory.hpp:77] Creating layer conv2_2_1x1_increase/bn/scale
I0929 13:47:20.044356 36229 net.cpp:100] Creating Layer conv2_2_1x1_increase/bn/scale
I0929 13:47:20.044359 36229 net.cpp:434] conv2_2_1x1_increase/bn/scale <- conv2_2_1x1_increase
I0929 13:47:20.044364 36229 net.cpp:395] conv2_2_1x1_increase/bn/scale -> conv2_2_1x1_increase (in-place)
I0929 13:47:20.044405 36229 layer_factory.hpp:77] Creating layer conv2_2_1x1_increase/bn/scale
I0929 13:47:20.044528 36229 net.cpp:150] Setting up conv2_2_1x1_increase/bn/scale
I0929 13:47:20.044534 36229 net.cpp:157] Top shape: 8 256 56 56 (6422528)
I0929 13:47:20.044538 36229 net.cpp:165] Memory required for data: 722560064
I0929 13:47:20.044543 36229 layer_factory.hpp:77] Creating layer conv2_2_1x1_increase_conv2_2_1x1_increase/bn/scale_0_split
I0929 13:47:20.044548 36229 net.cpp:100] Creating Layer conv2_2_1x1_increase_conv2_2_1x1_increase/bn/scale_0_split
I0929 13:47:20.044556 36229 net.cpp:434] conv2_2_1x1_increase_conv2_2_1x1_increase/bn/scale_0_split <- conv2_2_1x1_increase
I0929 13:47:20.044561 36229 net.cpp:408] conv2_2_1x1_increase_conv2_2_1x1_increase/bn/scale_0_split -> conv2_2_1x1_increase_conv2_2_1x1_increase/bn/scale_0_split_0
I0929 13:47:20.044567 36229 net.cpp:408] conv2_2_1x1_increase_conv2_2_1x1_increase/bn/scale_0_split -> conv2_2_1x1_increase_conv2_2_1x1_increase/bn/scale_0_split_1
I0929 13:47:20.044607 36229 net.cpp:150] Setting up conv2_2_1x1_increase_conv2_2_1x1_increase/bn/scale_0_split
I0929 13:47:20.044613 36229 net.cpp:157] Top shape: 8 256 56 56 (6422528)
I0929 13:47:20.044617 36229 net.cpp:157] Top shape: 8 256 56 56 (6422528)
I0929 13:47:20.044620 36229 net.cpp:165] Memory required for data: 773940288
I0929 13:47:20.044622 36229 layer_factory.hpp:77] Creating layer conv2_2_global_pool
I0929 13:47:20.044628 36229 net.cpp:100] Creating Layer conv2_2_global_pool
I0929 13:47:20.044631 36229 net.cpp:434] conv2_2_global_pool <- conv2_2_1x1_increase_conv2_2_1x1_increase/bn/scale_0_split_0
I0929 13:47:20.044637 36229 net.cpp:408] conv2_2_global_pool -> conv2_2_global_pool
I0929 13:47:20.044661 36229 net.cpp:150] Setting up conv2_2_global_pool
I0929 13:47:20.044667 36229 net.cpp:157] Top shape: 8 256 1 1 (2048)
I0929 13:47:20.044669 36229 net.cpp:165] Memory required for data: 773948480
I0929 13:47:20.044672 36229 layer_factory.hpp:77] Creating layer conv2_2_1x1_down
I0929 13:47:20.044679 36229 net.cpp:100] Creating Layer conv2_2_1x1_down
I0929 13:47:20.044682 36229 net.cpp:434] conv2_2_1x1_down <- conv2_2_global_pool
I0929 13:47:20.044688 36229 net.cpp:408] conv2_2_1x1_down -> conv2_2_1x1_down
I0929 13:47:20.045830 36229 net.cpp:150] Setting up conv2_2_1x1_down
I0929 13:47:20.045857 36229 net.cpp:157] Top shape: 8 16 1 1 (128)
I0929 13:47:20.045861 36229 net.cpp:165] Memory required for data: 773948992
I0929 13:47:20.045867 36229 layer_factory.hpp:77] Creating layer conv2_2_1x1_down/relu
I0929 13:47:20.045873 36229 net.cpp:100] Creating Layer conv2_2_1x1_down/relu
I0929 13:47:20.045877 36229 net.cpp:434] conv2_2_1x1_down/relu <- conv2_2_1x1_down
I0929 13:47:20.045884 36229 net.cpp:395] conv2_2_1x1_down/relu -> conv2_2_1x1_down (in-place)
I0929 13:47:20.046135 36229 net.cpp:150] Setting up conv2_2_1x1_down/relu
I0929 13:47:20.046145 36229 net.cpp:157] Top shape: 8 16 1 1 (128)
I0929 13:47:20.046149 36229 net.cpp:165] Memory required for data: 773949504
I0929 13:47:20.046152 36229 layer_factory.hpp:77] Creating layer conv2_2_1x1_up
I0929 13:47:20.046160 36229 net.cpp:100] Creating Layer conv2_2_1x1_up
I0929 13:47:20.046164 36229 net.cpp:434] conv2_2_1x1_up <- conv2_2_1x1_down
I0929 13:47:20.046169 36229 net.cpp:408] conv2_2_1x1_up -> conv2_2_1x1_up
I0929 13:47:20.047266 36229 net.cpp:150] Setting up conv2_2_1x1_up
I0929 13:47:20.047279 36229 net.cpp:157] Top shape: 8 256 1 1 (2048)
I0929 13:47:20.047283 36229 net.cpp:165] Memory required for data: 773957696
I0929 13:47:20.047289 36229 layer_factory.hpp:77] Creating layer conv2_2_prob
I0929 13:47:20.047296 36229 net.cpp:100] Creating Layer conv2_2_prob
I0929 13:47:20.047299 36229 net.cpp:434] conv2_2_prob <- conv2_2_1x1_up
I0929 13:47:20.047307 36229 net.cpp:395] conv2_2_prob -> conv2_2_1x1_up (in-place)
I0929 13:47:20.047479 36229 net.cpp:150] Setting up conv2_2_prob
I0929 13:47:20.047488 36229 net.cpp:157] Top shape: 8 256 1 1 (2048)
I0929 13:47:20.047492 36229 net.cpp:165] Memory required for data: 773965888
I0929 13:47:20.047494 36229 layer_factory.hpp:77] Creating layer conv2_2
I0929 13:47:20.047502 36229 net.cpp:100] Creating Layer conv2_2
I0929 13:47:20.047504 36229 net.cpp:434] conv2_2 <- conv2_2_1x1_up
I0929 13:47:20.047509 36229 net.cpp:434] conv2_2 <- conv2_2_1x1_increase_conv2_2_1x1_increase/bn/scale_0_split_1
I0929 13:47:20.047513 36229 net.cpp:434] conv2_2 <- conv2_1_conv2_1/relu_0_split_1
I0929 13:47:20.047516 36229 net.cpp:408] conv2_2 -> conv2_2
I0929 13:47:20.047577 36229 net.cpp:150] Setting up conv2_2
I0929 13:47:20.047583 36229 net.cpp:157] Top shape: 8 256 56 56 (6422528)
I0929 13:47:20.047586 36229 net.cpp:165] Memory required for data: 799656000
I0929 13:47:20.047590 36229 layer_factory.hpp:77] Creating layer conv2_2/relu
I0929 13:47:20.047596 36229 net.cpp:100] Creating Layer conv2_2/relu
I0929 13:47:20.047598 36229 net.cpp:434] conv2_2/relu <- conv2_2
I0929 13:47:20.047602 36229 net.cpp:395] conv2_2/relu -> conv2_2 (in-place)
I0929 13:47:20.048069 36229 net.cpp:150] Setting up conv2_2/relu
I0929 13:47:20.048082 36229 net.cpp:157] Top shape: 8 256 56 56 (6422528)
I0929 13:47:20.048086 36229 net.cpp:165] Memory required for data: 825346112
I0929 13:47:20.048089 36229 layer_factory.hpp:77] Creating layer conv2_2_conv2_2/relu_0_split
I0929 13:47:20.048097 36229 net.cpp:100] Creating Layer conv2_2_conv2_2/relu_0_split
I0929 13:47:20.048100 36229 net.cpp:434] conv2_2_conv2_2/relu_0_split <- conv2_2
I0929 13:47:20.048105 36229 net.cpp:408] conv2_2_conv2_2/relu_0_split -> conv2_2_conv2_2/relu_0_split_0
I0929 13:47:20.048115 36229 net.cpp:408] conv2_2_conv2_2/relu_0_split -> conv2_2_conv2_2/relu_0_split_1
I0929 13:47:20.048164 36229 net.cpp:150] Setting up conv2_2_conv2_2/relu_0_split
I0929 13:47:20.048183 36229 net.cpp:157] Top shape: 8 256 56 56 (6422528)
I0929 13:47:20.048189 36229 net.cpp:157] Top shape: 8 256 56 56 (6422528)
I0929 13:47:20.048192 36229 net.cpp:165] Memory required for data: 876726336
I0929 13:47:20.048194 36229 layer_factory.hpp:77] Creating layer conv2_3_1x1_reduce
I0929 13:47:20.048202 36229 net.cpp:100] Creating Layer conv2_3_1x1_reduce
I0929 13:47:20.048205 36229 net.cpp:434] conv2_3_1x1_reduce <- conv2_2_conv2_2/relu_0_split_0
I0929 13:47:20.048213 36229 net.cpp:408] conv2_3_1x1_reduce -> conv2_3_1x1_reduce
I0929 13:47:20.049286 36229 net.cpp:150] Setting up conv2_3_1x1_reduce
I0929 13:47:20.049300 36229 net.cpp:157] Top shape: 8 128 56 56 (3211264)
I0929 13:47:20.049304 36229 net.cpp:165] Memory required for data: 889571392
I0929 13:47:20.049309 36229 layer_factory.hpp:77] Creating layer conv2_3_1x1_reduce/bn
I0929 13:47:20.049316 36229 net.cpp:100] Creating Layer conv2_3_1x1_reduce/bn
I0929 13:47:20.049319 36229 net.cpp:434] conv2_3_1x1_reduce/bn <- conv2_3_1x1_reduce
I0929 13:47:20.049325 36229 net.cpp:395] conv2_3_1x1_reduce/bn -> conv2_3_1x1_reduce (in-place)
I0929 13:47:20.049531 36229 net.cpp:150] Setting up conv2_3_1x1_reduce/bn
I0929 13:47:20.049540 36229 net.cpp:157] Top shape: 8 128 56 56 (3211264)
I0929 13:47:20.049542 36229 net.cpp:165] Memory required for data: 902416448
I0929 13:47:20.049548 36229 layer_factory.hpp:77] Creating layer conv2_3_1x1_reduce/bn/scale
I0929 13:47:20.049554 36229 net.cpp:100] Creating Layer conv2_3_1x1_reduce/bn/scale
I0929 13:47:20.049557 36229 net.cpp:434] conv2_3_1x1_reduce/bn/scale <- conv2_3_1x1_reduce
I0929 13:47:20.049577 36229 net.cpp:395] conv2_3_1x1_reduce/bn/scale -> conv2_3_1x1_reduce (in-place)
I0929 13:47:20.049626 36229 layer_factory.hpp:77] Creating layer conv2_3_1x1_reduce/bn/scale
I0929 13:47:20.049747 36229 net.cpp:150] Setting up conv2_3_1x1_reduce/bn/scale
I0929 13:47:20.049756 36229 net.cpp:157] Top shape: 8 128 56 56 (3211264)
I0929 13:47:20.049757 36229 net.cpp:165] Memory required for data: 915261504
I0929 13:47:20.049763 36229 layer_factory.hpp:77] Creating layer conv2_3_1x1_reduce/relu
I0929 13:47:20.049770 36229 net.cpp:100] Creating Layer conv2_3_1x1_reduce/relu
I0929 13:47:20.049773 36229 net.cpp:434] conv2_3_1x1_reduce/relu <- conv2_3_1x1_reduce
I0929 13:47:20.049777 36229 net.cpp:395] conv2_3_1x1_reduce/relu -> conv2_3_1x1_reduce (in-place)
I0929 13:47:20.049978 36229 net.cpp:150] Setting up conv2_3_1x1_reduce/relu
I0929 13:47:20.049990 36229 net.cpp:157] Top shape: 8 128 56 56 (3211264)
I0929 13:47:20.049993 36229 net.cpp:165] Memory required for data: 928106560
I0929 13:47:20.049998 36229 layer_factory.hpp:77] Creating layer conv2_3_3x3
I0929 13:47:20.050005 36229 net.cpp:100] Creating Layer conv2_3_3x3
I0929 13:47:20.050009 36229 net.cpp:434] conv2_3_3x3 <- conv2_3_1x1_reduce
I0929 13:47:20.050015 36229 net.cpp:408] conv2_3_3x3 -> conv2_3_3x3
I0929 13:47:20.074426 36229 net.cpp:150] Setting up conv2_3_3x3
I0929 13:47:20.074440 36229 net.cpp:157] Top shape: 8 128 56 56 (3211264)
I0929 13:47:20.074445 36229 net.cpp:165] Memory required for data: 940951616
I0929 13:47:20.074450 36229 layer_factory.hpp:77] Creating layer conv2_3_3x3/bn
I0929 13:47:20.074458 36229 net.cpp:100] Creating Layer conv2_3_3x3/bn
I0929 13:47:20.074462 36229 net.cpp:434] conv2_3_3x3/bn <- conv2_3_3x3
I0929 13:47:20.074466 36229 net.cpp:395] conv2_3_3x3/bn -> conv2_3_3x3 (in-place)
I0929 13:47:20.074689 36229 net.cpp:150] Setting up conv2_3_3x3/bn
I0929 13:47:20.074698 36229 net.cpp:157] Top shape: 8 128 56 56 (3211264)
I0929 13:47:20.074702 36229 net.cpp:165] Memory required for data: 953796672
I0929 13:47:20.074715 36229 layer_factory.hpp:77] Creating layer conv2_3_3x3/bn/scale
I0929 13:47:20.074723 36229 net.cpp:100] Creating Layer conv2_3_3x3/bn/scale
I0929 13:47:20.074728 36229 net.cpp:434] conv2_3_3x3/bn/scale <- conv2_3_3x3
I0929 13:47:20.074733 36229 net.cpp:395] conv2_3_3x3/bn/scale -> conv2_3_3x3 (in-place)
I0929 13:47:20.074780 36229 layer_factory.hpp:77] Creating layer conv2_3_3x3/bn/scale
I0929 13:47:20.074918 36229 net.cpp:150] Setting up conv2_3_3x3/bn/scale
I0929 13:47:20.074925 36229 net.cpp:157] Top shape: 8 128 56 56 (3211264)
I0929 13:47:20.074928 36229 net.cpp:165] Memory required for data: 966641728
I0929 13:47:20.074934 36229 layer_factory.hpp:77] Creating layer conv2_3_3x3/relu
I0929 13:47:20.074941 36229 net.cpp:100] Creating Layer conv2_3_3x3/relu
I0929 13:47:20.074944 36229 net.cpp:434] conv2_3_3x3/relu <- conv2_3_3x3
I0929 13:47:20.074949 36229 net.cpp:395] conv2_3_3x3/relu -> conv2_3_3x3 (in-place)
I0929 13:47:20.075141 36229 net.cpp:150] Setting up conv2_3_3x3/relu
I0929 13:47:20.075152 36229 net.cpp:157] Top shape: 8 128 56 56 (3211264)
I0929 13:47:20.075155 36229 net.cpp:165] Memory required for data: 979486784
I0929 13:47:20.075160 36229 layer_factory.hpp:77] Creating layer conv2_3_1x1_increase
I0929 13:47:20.075167 36229 net.cpp:100] Creating Layer conv2_3_1x1_increase
I0929 13:47:20.075170 36229 net.cpp:434] conv2_3_1x1_increase <- conv2_3_3x3
I0929 13:47:20.075176 36229 net.cpp:408] conv2_3_1x1_increase -> conv2_3_1x1_increase
I0929 13:47:20.076299 36229 net.cpp:150] Setting up conv2_3_1x1_increase
I0929 13:47:20.076313 36229 net.cpp:157] Top shape: 8 256 56 56 (6422528)
I0929 13:47:20.076316 36229 net.cpp:165] Memory required for data: 1005176896
I0929 13:47:20.076323 36229 layer_factory.hpp:77] Creating layer conv2_3_1x1_increase/bn
I0929 13:47:20.076330 36229 net.cpp:100] Creating Layer conv2_3_1x1_increase/bn
I0929 13:47:20.076334 36229 net.cpp:434] conv2_3_1x1_increase/bn <- conv2_3_1x1_increase
I0929 13:47:20.076339 36229 net.cpp:395] conv2_3_1x1_increase/bn -> conv2_3_1x1_increase (in-place)
I0929 13:47:20.076573 36229 net.cpp:150] Setting up conv2_3_1x1_increase/bn
I0929 13:47:20.076582 36229 net.cpp:157] Top shape: 8 256 56 56 (6422528)
I0929 13:47:20.076586 36229 net.cpp:165] Memory required for data: 1030867008
I0929 13:47:20.076592 36229 layer_factory.hpp:77] Creating layer conv2_3_1x1_increase/bn/scale
I0929 13:47:20.076606 36229 net.cpp:100] Creating Layer conv2_3_1x1_increase/bn/scale
I0929 13:47:20.076609 36229 net.cpp:434] conv2_3_1x1_increase/bn/scale <- conv2_3_1x1_increase
I0929 13:47:20.076614 36229 net.cpp:395] conv2_3_1x1_increase/bn/scale -> conv2_3_1x1_increase (in-place)
I0929 13:47:20.076661 36229 layer_factory.hpp:77] Creating layer conv2_3_1x1_increase/bn/scale
I0929 13:47:20.076797 36229 net.cpp:150] Setting up conv2_3_1x1_increase/bn/scale
I0929 13:47:20.076805 36229 net.cpp:157] Top shape: 8 256 56 56 (6422528)
I0929 13:47:20.076808 36229 net.cpp:165] Memory required for data: 1056557120
I0929 13:47:20.076814 36229 layer_factory.hpp:77] Creating layer conv2_3_1x1_increase_conv2_3_1x1_increase/bn/scale_0_split
I0929 13:47:20.076819 36229 net.cpp:100] Creating Layer conv2_3_1x1_increase_conv2_3_1x1_increase/bn/scale_0_split
I0929 13:47:20.076822 36229 net.cpp:434] conv2_3_1x1_increase_conv2_3_1x1_increase/bn/scale_0_split <- conv2_3_1x1_increase
I0929 13:47:20.076828 36229 net.cpp:408] conv2_3_1x1_increase_conv2_3_1x1_increase/bn/scale_0_split -> conv2_3_1x1_increase_conv2_3_1x1_increase/bn/scale_0_split_0
I0929 13:47:20.076834 36229 net.cpp:408] conv2_3_1x1_increase_conv2_3_1x1_increase/bn/scale_0_split -> conv2_3_1x1_increase_conv2_3_1x1_increase/bn/scale_0_split_1
I0929 13:47:20.076880 36229 net.cpp:150] Setting up conv2_3_1x1_increase_conv2_3_1x1_increase/bn/scale_0_split
I0929 13:47:20.076887 36229 net.cpp:157] Top shape: 8 256 56 56 (6422528)
I0929 13:47:20.076890 36229 net.cpp:157] Top shape: 8 256 56 56 (6422528)
I0929 13:47:20.076894 36229 net.cpp:165] Memory required for data: 1107937344
I0929 13:47:20.076896 36229 layer_factory.hpp:77] Creating layer conv2_3_global_pool
I0929 13:47:20.076901 36229 net.cpp:100] Creating Layer conv2_3_global_pool
I0929 13:47:20.076905 36229 net.cpp:434] conv2_3_global_pool <- conv2_3_1x1_increase_conv2_3_1x1_increase/bn/scale_0_split_0
I0929 13:47:20.076910 36229 net.cpp:408] conv2_3_global_pool -> conv2_3_global_pool
I0929 13:47:20.076934 36229 net.cpp:150] Setting up conv2_3_global_pool
I0929 13:47:20.076941 36229 net.cpp:157] Top shape: 8 256 1 1 (2048)
I0929 13:47:20.076956 36229 net.cpp:165] Memory required for data: 1107945536
I0929 13:47:20.076959 36229 layer_factory.hpp:77] Creating layer conv2_3_1x1_down
I0929 13:47:20.076969 36229 net.cpp:100] Creating Layer conv2_3_1x1_down
I0929 13:47:20.076973 36229 net.cpp:434] conv2_3_1x1_down <- conv2_3_global_pool
I0929 13:47:20.076978 36229 net.cpp:408] conv2_3_1x1_down -> conv2_3_1x1_down
I0929 13:47:20.078140 36229 net.cpp:150] Setting up conv2_3_1x1_down
I0929 13:47:20.078153 36229 net.cpp:157] Top shape: 8 16 1 1 (128)
I0929 13:47:20.078156 36229 net.cpp:165] Memory required for data: 1107946048
I0929 13:47:20.078163 36229 layer_factory.hpp:77] Creating layer conv2_3_1x1_down/relu
I0929 13:47:20.078172 36229 net.cpp:100] Creating Layer conv2_3_1x1_down/relu
I0929 13:47:20.078177 36229 net.cpp:434] conv2_3_1x1_down/relu <- conv2_3_1x1_down
I0929 13:47:20.078182 36229 net.cpp:395] conv2_3_1x1_down/relu -> conv2_3_1x1_down (in-place)
I0929 13:47:20.078361 36229 net.cpp:150] Setting up conv2_3_1x1_down/relu
I0929 13:47:20.078372 36229 net.cpp:157] Top shape: 8 16 1 1 (128)
I0929 13:47:20.078375 36229 net.cpp:165] Memory required for data: 1107946560
I0929 13:47:20.078378 36229 layer_factory.hpp:77] Creating layer conv2_3_1x1_up
I0929 13:47:20.078387 36229 net.cpp:100] Creating Layer conv2_3_1x1_up
I0929 13:47:20.078389 36229 net.cpp:434] conv2_3_1x1_up <- conv2_3_1x1_down
I0929 13:47:20.078395 36229 net.cpp:408] conv2_3_1x1_up -> conv2_3_1x1_up
I0929 13:47:20.079545 36229 net.cpp:150] Setting up conv2_3_1x1_up
I0929 13:47:20.079558 36229 net.cpp:157] Top shape: 8 256 1 1 (2048)
I0929 13:47:20.079574 36229 net.cpp:165] Memory required for data: 1107954752
I0929 13:47:20.079581 36229 layer_factory.hpp:77] Creating layer conv2_3_prob
I0929 13:47:20.079589 36229 net.cpp:100] Creating Layer conv2_3_prob
I0929 13:47:20.079593 36229 net.cpp:434] conv2_3_prob <- conv2_3_1x1_up
I0929 13:47:20.079598 36229 net.cpp:395] conv2_3_prob -> conv2_3_1x1_up (in-place)
I0929 13:47:20.079780 36229 net.cpp:150] Setting up conv2_3_prob
I0929 13:47:20.079798 36229 net.cpp:157] Top shape: 8 256 1 1 (2048)
I0929 13:47:20.079802 36229 net.cpp:165] Memory required for data: 1107962944
I0929 13:47:20.079805 36229 layer_factory.hpp:77] Creating layer conv2_3
I0929 13:47:20.079812 36229 net.cpp:100] Creating Layer conv2_3
I0929 13:47:20.079814 36229 net.cpp:434] conv2_3 <- conv2_3_1x1_up
I0929 13:47:20.079818 36229 net.cpp:434] conv2_3 <- conv2_3_1x1_increase_conv2_3_1x1_increase/bn/scale_0_split_1
I0929 13:47:20.079821 36229 net.cpp:434] conv2_3 <- conv2_2_conv2_2/relu_0_split_1
I0929 13:47:20.079826 36229 net.cpp:408] conv2_3 -> conv2_3
I0929 13:47:20.079891 36229 net.cpp:150] Setting up conv2_3
I0929 13:47:20.079900 36229 net.cpp:157] Top shape: 8 256 56 56 (6422528)
I0929 13:47:20.079901 36229 net.cpp:165] Memory required for data: 1133653056
I0929 13:47:20.079905 36229 layer_factory.hpp:77] Creating layer conv2_3/relu
I0929 13:47:20.079911 36229 net.cpp:100] Creating Layer conv2_3/relu
I0929 13:47:20.079915 36229 net.cpp:434] conv2_3/relu <- conv2_3
I0929 13:47:20.079918 36229 net.cpp:395] conv2_3/relu -> conv2_3 (in-place)
I0929 13:47:20.080106 36229 net.cpp:150] Setting up conv2_3/relu
I0929 13:47:20.080117 36229 net.cpp:157] Top shape: 8 256 56 56 (6422528)
I0929 13:47:20.080121 36229 net.cpp:165] Memory required for data: 1159343168
I0929 13:47:20.080123 36229 layer_factory.hpp:77] Creating layer conv2_3_conv2_3/relu_0_split
I0929 13:47:20.080130 36229 net.cpp:100] Creating Layer conv2_3_conv2_3/relu_0_split
I0929 13:47:20.080133 36229 net.cpp:434] conv2_3_conv2_3/relu_0_split <- conv2_3
I0929 13:47:20.080138 36229 net.cpp:408] conv2_3_conv2_3/relu_0_split -> conv2_3_conv2_3/relu_0_split_0
I0929 13:47:20.080147 36229 net.cpp:408] conv2_3_conv2_3/relu_0_split -> conv2_3_conv2_3/relu_0_split_1
I0929 13:47:20.080194 36229 net.cpp:150] Setting up conv2_3_conv2_3/relu_0_split
I0929 13:47:20.080201 36229 net.cpp:157] Top shape: 8 256 56 56 (6422528)
I0929 13:47:20.080205 36229 net.cpp:157] Top shape: 8 256 56 56 (6422528)
I0929 13:47:20.080207 36229 net.cpp:165] Memory required for data: 1210723392
I0929 13:47:20.080210 36229 layer_factory.hpp:77] Creating layer conv3_1_1x1_reduce
I0929 13:47:20.080219 36229 net.cpp:100] Creating Layer conv3_1_1x1_reduce
I0929 13:47:20.080224 36229 net.cpp:434] conv3_1_1x1_reduce <- conv2_3_conv2_3/relu_0_split_0
I0929 13:47:20.080229 36229 net.cpp:408] conv3_1_1x1_reduce -> conv3_1_1x1_reduce
I0929 13:47:20.081341 36229 net.cpp:150] Setting up conv3_1_1x1_reduce
I0929 13:47:20.081356 36229 net.cpp:157] Top shape: 8 256 56 56 (6422528)
I0929 13:47:20.081359 36229 net.cpp:165] Memory required for data: 1236413504
I0929 13:47:20.081364 36229 layer_factory.hpp:77] Creating layer conv3_1_1x1_reduce/bn
I0929 13:47:20.081372 36229 net.cpp:100] Creating Layer conv3_1_1x1_reduce/bn
I0929 13:47:20.081374 36229 net.cpp:434] conv3_1_1x1_reduce/bn <- conv3_1_1x1_reduce
I0929 13:47:20.081382 36229 net.cpp:395] conv3_1_1x1_reduce/bn -> conv3_1_1x1_reduce (in-place)
I0929 13:47:20.081607 36229 net.cpp:150] Setting up conv3_1_1x1_reduce/bn
I0929 13:47:20.081615 36229 net.cpp:157] Top shape: 8 256 56 56 (6422528)
I0929 13:47:20.081619 36229 net.cpp:165] Memory required for data: 1262103616
I0929 13:47:20.081625 36229 layer_factory.hpp:77] Creating layer conv3_1_1x1_reduce/bn/scale
I0929 13:47:20.081630 36229 net.cpp:100] Creating Layer conv3_1_1x1_reduce/bn/scale
I0929 13:47:20.081634 36229 net.cpp:434] conv3_1_1x1_reduce/bn/scale <- conv3_1_1x1_reduce
I0929 13:47:20.081637 36229 net.cpp:395] conv3_1_1x1_reduce/bn/scale -> conv3_1_1x1_reduce (in-place)
I0929 13:47:20.081683 36229 layer_factory.hpp:77] Creating layer conv3_1_1x1_reduce/bn/scale
I0929 13:47:20.081842 36229 net.cpp:150] Setting up conv3_1_1x1_reduce/bn/scale
I0929 13:47:20.081851 36229 net.cpp:157] Top shape: 8 256 56 56 (6422528)
I0929 13:47:20.081856 36229 net.cpp:165] Memory required for data: 1287793728
I0929 13:47:20.081861 36229 layer_factory.hpp:77] Creating layer conv3_1_1x1_reduce/relu
I0929 13:47:20.081867 36229 net.cpp:100] Creating Layer conv3_1_1x1_reduce/relu
I0929 13:47:20.081871 36229 net.cpp:434] conv3_1_1x1_reduce/relu <- conv3_1_1x1_reduce
I0929 13:47:20.081876 36229 net.cpp:395] conv3_1_1x1_reduce/relu -> conv3_1_1x1_reduce (in-place)
I0929 13:47:20.082358 36229 net.cpp:150] Setting up conv3_1_1x1_reduce/relu
I0929 13:47:20.082371 36229 net.cpp:157] Top shape: 8 256 56 56 (6422528)
I0929 13:47:20.082376 36229 net.cpp:165] Memory required for data: 1313483840
I0929 13:47:20.082378 36229 layer_factory.hpp:77] Creating layer conv3_1_3x3
I0929 13:47:20.082391 36229 net.cpp:100] Creating Layer conv3_1_3x3
I0929 13:47:20.082394 36229 net.cpp:434] conv3_1_3x3 <- conv3_1_1x1_reduce
I0929 13:47:20.082401 36229 net.cpp:408] conv3_1_3x3 -> conv3_1_3x3
I0929 13:47:20.107230 36229 net.cpp:150] Setting up conv3_1_3x3
I0929 13:47:20.107245 36229 net.cpp:157] Top shape: 8 256 28 28 (1605632)
I0929 13:47:20.107249 36229 net.cpp:165] Memory required for data: 1319906368
I0929 13:47:20.107254 36229 layer_factory.hpp:77] Creating layer conv3_1_3x3/bn
I0929 13:47:20.107261 36229 net.cpp:100] Creating Layer conv3_1_3x3/bn
I0929 13:47:20.107265 36229 net.cpp:434] conv3_1_3x3/bn <- conv3_1_3x3
I0929 13:47:20.107271 36229 net.cpp:395] conv3_1_3x3/bn -> conv3_1_3x3 (in-place)
I0929 13:47:20.108551 36229 net.cpp:150] Setting up conv3_1_3x3/bn
I0929 13:47:20.108563 36229 net.cpp:157] Top shape: 8 256 28 28 (1605632)
I0929 13:47:20.108567 36229 net.cpp:165] Memory required for data: 1326328896
I0929 13:47:20.108574 36229 layer_factory.hpp:77] Creating layer conv3_1_3x3/bn/scale
I0929 13:47:20.108582 36229 net.cpp:100] Creating Layer conv3_1_3x3/bn/scale
I0929 13:47:20.108584 36229 net.cpp:434] conv3_1_3x3/bn/scale <- conv3_1_3x3
I0929 13:47:20.108589 36229 net.cpp:395] conv3_1_3x3/bn/scale -> conv3_1_3x3 (in-place)
I0929 13:47:20.108644 36229 layer_factory.hpp:77] Creating layer conv3_1_3x3/bn/scale
I0929 13:47:20.108775 36229 net.cpp:150] Setting up conv3_1_3x3/bn/scale
I0929 13:47:20.108783 36229 net.cpp:157] Top shape: 8 256 28 28 (1605632)
I0929 13:47:20.108791 36229 net.cpp:165] Memory required for data: 1332751424
I0929 13:47:20.108798 36229 layer_factory.hpp:77] Creating layer conv3_1_3x3/relu
I0929 13:47:20.108804 36229 net.cpp:100] Creating Layer conv3_1_3x3/relu
I0929 13:47:20.108808 36229 net.cpp:434] conv3_1_3x3/relu <- conv3_1_3x3
I0929 13:47:20.108813 36229 net.cpp:395] conv3_1_3x3/relu -> conv3_1_3x3 (in-place)
I0929 13:47:20.109302 36229 net.cpp:150] Setting up conv3_1_3x3/relu
I0929 13:47:20.109314 36229 net.cpp:157] Top shape: 8 256 28 28 (1605632)
I0929 13:47:20.109318 36229 net.cpp:165] Memory required for data: 1339173952
I0929 13:47:20.109321 36229 layer_factory.hpp:77] Creating layer conv3_1_1x1_increase
I0929 13:47:20.109331 36229 net.cpp:100] Creating Layer conv3_1_1x1_increase
I0929 13:47:20.109336 36229 net.cpp:434] conv3_1_1x1_increase <- conv3_1_3x3
I0929 13:47:20.109341 36229 net.cpp:408] conv3_1_1x1_increase -> conv3_1_1x1_increase
I0929 13:47:20.111572 36229 net.cpp:150] Setting up conv3_1_1x1_increase
I0929 13:47:20.111585 36229 net.cpp:157] Top shape: 8 512 28 28 (3211264)
I0929 13:47:20.111589 36229 net.cpp:165] Memory required for data: 1352019008
I0929 13:47:20.111594 36229 layer_factory.hpp:77] Creating layer conv3_1_1x1_increase/bn
I0929 13:47:20.111600 36229 net.cpp:100] Creating Layer conv3_1_1x1_increase/bn
I0929 13:47:20.111604 36229 net.cpp:434] conv3_1_1x1_increase/bn <- conv3_1_1x1_increase
I0929 13:47:20.111610 36229 net.cpp:395] conv3_1_1x1_increase/bn -> conv3_1_1x1_increase (in-place)
I0929 13:47:20.111848 36229 net.cpp:150] Setting up conv3_1_1x1_increase/bn
I0929 13:47:20.111856 36229 net.cpp:157] Top shape: 8 512 28 28 (3211264)
I0929 13:47:20.111872 36229 net.cpp:165] Memory required for data: 1364864064
I0929 13:47:20.111881 36229 layer_factory.hpp:77] Creating layer conv3_1_1x1_increase/bn/scale
I0929 13:47:20.111887 36229 net.cpp:100] Creating Layer conv3_1_1x1_increase/bn/scale
I0929 13:47:20.111891 36229 net.cpp:434] conv3_1_1x1_increase/bn/scale <- conv3_1_1x1_increase
I0929 13:47:20.111896 36229 net.cpp:395] conv3_1_1x1_increase/bn/scale -> conv3_1_1x1_increase (in-place)
I0929 13:47:20.111945 36229 layer_factory.hpp:77] Creating layer conv3_1_1x1_increase/bn/scale
I0929 13:47:20.112071 36229 net.cpp:150] Setting up conv3_1_1x1_increase/bn/scale
I0929 13:47:20.112078 36229 net.cpp:157] Top shape: 8 512 28 28 (3211264)
I0929 13:47:20.112082 36229 net.cpp:165] Memory required for data: 1377709120
I0929 13:47:20.112087 36229 layer_factory.hpp:77] Creating layer conv3_1_1x1_increase_conv3_1_1x1_increase/bn/scale_0_split
I0929 13:47:20.112092 36229 net.cpp:100] Creating Layer conv3_1_1x1_increase_conv3_1_1x1_increase/bn/scale_0_split
I0929 13:47:20.112094 36229 net.cpp:434] conv3_1_1x1_increase_conv3_1_1x1_increase/bn/scale_0_split <- conv3_1_1x1_increase
I0929 13:47:20.112100 36229 net.cpp:408] conv3_1_1x1_increase_conv3_1_1x1_increase/bn/scale_0_split -> conv3_1_1x1_increase_conv3_1_1x1_increase/bn/scale_0_split_0
I0929 13:47:20.112107 36229 net.cpp:408] conv3_1_1x1_increase_conv3_1_1x1_increase/bn/scale_0_split -> conv3_1_1x1_increase_conv3_1_1x1_increase/bn/scale_0_split_1
I0929 13:47:20.112154 36229 net.cpp:150] Setting up conv3_1_1x1_increase_conv3_1_1x1_increase/bn/scale_0_split
I0929 13:47:20.112161 36229 net.cpp:157] Top shape: 8 512 28 28 (3211264)
I0929 13:47:20.112165 36229 net.cpp:157] Top shape: 8 512 28 28 (3211264)
I0929 13:47:20.112167 36229 net.cpp:165] Memory required for data: 1403399232
I0929 13:47:20.112170 36229 layer_factory.hpp:77] Creating layer conv3_1_global_pool
I0929 13:47:20.112176 36229 net.cpp:100] Creating Layer conv3_1_global_pool
I0929 13:47:20.112179 36229 net.cpp:434] conv3_1_global_pool <- conv3_1_1x1_increase_conv3_1_1x1_increase/bn/scale_0_split_0
I0929 13:47:20.112185 36229 net.cpp:408] conv3_1_global_pool -> conv3_1_global_pool
I0929 13:47:20.112215 36229 net.cpp:150] Setting up conv3_1_global_pool
I0929 13:47:20.112221 36229 net.cpp:157] Top shape: 8 512 1 1 (4096)
I0929 13:47:20.112222 36229 net.cpp:165] Memory required for data: 1403415616
I0929 13:47:20.112226 36229 layer_factory.hpp:77] Creating layer conv3_1_1x1_down
I0929 13:47:20.112233 36229 net.cpp:100] Creating Layer conv3_1_1x1_down
I0929 13:47:20.112236 36229 net.cpp:434] conv3_1_1x1_down <- conv3_1_global_pool
I0929 13:47:20.112242 36229 net.cpp:408] conv3_1_1x1_down -> conv3_1_1x1_down
I0929 13:47:20.113463 36229 net.cpp:150] Setting up conv3_1_1x1_down
I0929 13:47:20.113479 36229 net.cpp:157] Top shape: 8 32 1 1 (256)
I0929 13:47:20.113484 36229 net.cpp:165] Memory required for data: 1403416640
I0929 13:47:20.113490 36229 layer_factory.hpp:77] Creating layer conv3_1_1x1_down/relu
I0929 13:47:20.113497 36229 net.cpp:100] Creating Layer conv3_1_1x1_down/relu
I0929 13:47:20.113502 36229 net.cpp:434] conv3_1_1x1_down/relu <- conv3_1_1x1_down
I0929 13:47:20.113507 36229 net.cpp:395] conv3_1_1x1_down/relu -> conv3_1_1x1_down (in-place)
I0929 13:47:20.113696 36229 net.cpp:150] Setting up conv3_1_1x1_down/relu
I0929 13:47:20.113705 36229 net.cpp:157] Top shape: 8 32 1 1 (256)
I0929 13:47:20.113708 36229 net.cpp:165] Memory required for data: 1403417664
I0929 13:47:20.113711 36229 layer_factory.hpp:77] Creating layer conv3_1_1x1_up
I0929 13:47:20.113720 36229 net.cpp:100] Creating Layer conv3_1_1x1_up
I0929 13:47:20.113724 36229 net.cpp:434] conv3_1_1x1_up <- conv3_1_1x1_down
I0929 13:47:20.113729 36229 net.cpp:408] conv3_1_1x1_up -> conv3_1_1x1_up
I0929 13:47:20.115092 36229 net.cpp:150] Setting up conv3_1_1x1_up
I0929 13:47:20.115106 36229 net.cpp:157] Top shape: 8 512 1 1 (4096)
I0929 13:47:20.115109 36229 net.cpp:165] Memory required for data: 1403434048
I0929 13:47:20.115116 36229 layer_factory.hpp:77] Creating layer conv3_1_prob
I0929 13:47:20.115137 36229 net.cpp:100] Creating Layer conv3_1_prob
I0929 13:47:20.115144 36229 net.cpp:434] conv3_1_prob <- conv3_1_1x1_up
I0929 13:47:20.115149 36229 net.cpp:395] conv3_1_prob -> conv3_1_1x1_up (in-place)
I0929 13:47:20.115322 36229 net.cpp:150] Setting up conv3_1_prob
I0929 13:47:20.115331 36229 net.cpp:157] Top shape: 8 512 1 1 (4096)
I0929 13:47:20.115335 36229 net.cpp:165] Memory required for data: 1403450432
I0929 13:47:20.115339 36229 layer_factory.hpp:77] Creating layer conv3_1_1x1_proj
I0929 13:47:20.115346 36229 net.cpp:100] Creating Layer conv3_1_1x1_proj
I0929 13:47:20.115350 36229 net.cpp:434] conv3_1_1x1_proj <- conv2_3_conv2_3/relu_0_split_1
I0929 13:47:20.115355 36229 net.cpp:408] conv3_1_1x1_proj -> conv3_1_1x1_proj
I0929 13:47:20.116549 36229 net.cpp:150] Setting up conv3_1_1x1_proj
I0929 13:47:20.116564 36229 net.cpp:157] Top shape: 8 512 28 28 (3211264)
I0929 13:47:20.116567 36229 net.cpp:165] Memory required for data: 1416295488
I0929 13:47:20.116572 36229 layer_factory.hpp:77] Creating layer conv3_1_1x1_proj/bn
I0929 13:47:20.116580 36229 net.cpp:100] Creating Layer conv3_1_1x1_proj/bn
I0929 13:47:20.116585 36229 net.cpp:434] conv3_1_1x1_proj/bn <- conv3_1_1x1_proj
I0929 13:47:20.116590 36229 net.cpp:395] conv3_1_1x1_proj/bn -> conv3_1_1x1_proj (in-place)
I0929 13:47:20.116830 36229 net.cpp:150] Setting up conv3_1_1x1_proj/bn
I0929 13:47:20.116839 36229 net.cpp:157] Top shape: 8 512 28 28 (3211264)
I0929 13:47:20.116842 36229 net.cpp:165] Memory required for data: 1429140544
I0929 13:47:20.116850 36229 layer_factory.hpp:77] Creating layer conv3_1_1x1_proj/bn/scale
I0929 13:47:20.116858 36229 net.cpp:100] Creating Layer conv3_1_1x1_proj/bn/scale
I0929 13:47:20.116860 36229 net.cpp:434] conv3_1_1x1_proj/bn/scale <- conv3_1_1x1_proj
I0929 13:47:20.116865 36229 net.cpp:395] conv3_1_1x1_proj/bn/scale -> conv3_1_1x1_proj (in-place)
I0929 13:47:20.116914 36229 layer_factory.hpp:77] Creating layer conv3_1_1x1_proj/bn/scale
I0929 13:47:20.117043 36229 net.cpp:150] Setting up conv3_1_1x1_proj/bn/scale
I0929 13:47:20.117050 36229 net.cpp:157] Top shape: 8 512 28 28 (3211264)
I0929 13:47:20.117053 36229 net.cpp:165] Memory required for data: 1441985600
I0929 13:47:20.117058 36229 layer_factory.hpp:77] Creating layer conv3_1
I0929 13:47:20.117063 36229 net.cpp:100] Creating Layer conv3_1
I0929 13:47:20.117066 36229 net.cpp:434] conv3_1 <- conv3_1_1x1_up
I0929 13:47:20.117070 36229 net.cpp:434] conv3_1 <- conv3_1_1x1_increase_conv3_1_1x1_increase/bn/scale_0_split_1
I0929 13:47:20.117074 36229 net.cpp:434] conv3_1 <- conv3_1_1x1_proj
I0929 13:47:20.117079 36229 net.cpp:408] conv3_1 -> conv3_1
I0929 13:47:20.117138 36229 net.cpp:150] Setting up conv3_1
I0929 13:47:20.117144 36229 net.cpp:157] Top shape: 8 512 28 28 (3211264)
I0929 13:47:20.117147 36229 net.cpp:165] Memory required for data: 1454830656
I0929 13:47:20.117151 36229 layer_factory.hpp:77] Creating layer conv3_1/relu
I0929 13:47:20.117156 36229 net.cpp:100] Creating Layer conv3_1/relu
I0929 13:47:20.117158 36229 net.cpp:434] conv3_1/relu <- conv3_1
I0929 13:47:20.117162 36229 net.cpp:395] conv3_1/relu -> conv3_1 (in-place)
I0929 13:47:20.117362 36229 net.cpp:150] Setting up conv3_1/relu
I0929 13:47:20.117372 36229 net.cpp:157] Top shape: 8 512 28 28 (3211264)
I0929 13:47:20.117374 36229 net.cpp:165] Memory required for data: 1467675712
I0929 13:47:20.117378 36229 layer_factory.hpp:77] Creating layer conv3_1_conv3_1/relu_0_split
I0929 13:47:20.117384 36229 net.cpp:100] Creating Layer conv3_1_conv3_1/relu_0_split
I0929 13:47:20.117388 36229 net.cpp:434] conv3_1_conv3_1/relu_0_split <- conv3_1
I0929 13:47:20.117393 36229 net.cpp:408] conv3_1_conv3_1/relu_0_split -> conv3_1_conv3_1/relu_0_split_0
I0929 13:47:20.117398 36229 net.cpp:408] conv3_1_conv3_1/relu_0_split -> conv3_1_conv3_1/relu_0_split_1
I0929 13:47:20.117450 36229 net.cpp:150] Setting up conv3_1_conv3_1/relu_0_split
I0929 13:47:20.117457 36229 net.cpp:157] Top shape: 8 512 28 28 (3211264)
I0929 13:47:20.117460 36229 net.cpp:157] Top shape: 8 512 28 28 (3211264)
I0929 13:47:20.117463 36229 net.cpp:165] Memory required for data: 1493365824
I0929 13:47:20.117477 36229 layer_factory.hpp:77] Creating layer conv3_2_1x1_reduce
I0929 13:47:20.117488 36229 net.cpp:100] Creating Layer conv3_2_1x1_reduce
I0929 13:47:20.117492 36229 net.cpp:434] conv3_2_1x1_reduce <- conv3_1_conv3_1/relu_0_split_0
I0929 13:47:20.117509 36229 net.cpp:408] conv3_2_1x1_reduce -> conv3_2_1x1_reduce
I0929 13:47:20.118705 36229 net.cpp:150] Setting up conv3_2_1x1_reduce
I0929 13:47:20.118721 36229 net.cpp:157] Top shape: 8 256 28 28 (1605632)
I0929 13:47:20.118723 36229 net.cpp:165] Memory required for data: 1499788352
I0929 13:47:20.118729 36229 layer_factory.hpp:77] Creating layer conv3_2_1x1_reduce/bn
I0929 13:47:20.118737 36229 net.cpp:100] Creating Layer conv3_2_1x1_reduce/bn
I0929 13:47:20.118741 36229 net.cpp:434] conv3_2_1x1_reduce/bn <- conv3_2_1x1_reduce
I0929 13:47:20.118746 36229 net.cpp:395] conv3_2_1x1_reduce/bn -> conv3_2_1x1_reduce (in-place)
I0929 13:47:20.118994 36229 net.cpp:150] Setting up conv3_2_1x1_reduce/bn
I0929 13:47:20.119002 36229 net.cpp:157] Top shape: 8 256 28 28 (1605632)
I0929 13:47:20.119005 36229 net.cpp:165] Memory required for data: 1506210880
I0929 13:47:20.119012 36229 layer_factory.hpp:77] Creating layer conv3_2_1x1_reduce/bn/scale
I0929 13:47:20.119019 36229 net.cpp:100] Creating Layer conv3_2_1x1_reduce/bn/scale
I0929 13:47:20.119024 36229 net.cpp:434] conv3_2_1x1_reduce/bn/scale <- conv3_2_1x1_reduce
I0929 13:47:20.119027 36229 net.cpp:395] conv3_2_1x1_reduce/bn/scale -> conv3_2_1x1_reduce (in-place)
I0929 13:47:20.119077 36229 layer_factory.hpp:77] Creating layer conv3_2_1x1_reduce/bn/scale
I0929 13:47:20.119230 36229 net.cpp:150] Setting up conv3_2_1x1_reduce/bn/scale
I0929 13:47:20.119238 36229 net.cpp:157] Top shape: 8 256 28 28 (1605632)
I0929 13:47:20.119241 36229 net.cpp:165] Memory required for data: 1512633408
I0929 13:47:20.119247 36229 layer_factory.hpp:77] Creating layer conv3_2_1x1_reduce/relu
I0929 13:47:20.119253 36229 net.cpp:100] Creating Layer conv3_2_1x1_reduce/relu
I0929 13:47:20.119256 36229 net.cpp:434] conv3_2_1x1_reduce/relu <- conv3_2_1x1_reduce
I0929 13:47:20.119261 36229 net.cpp:395] conv3_2_1x1_reduce/relu -> conv3_2_1x1_reduce (in-place)
I0929 13:47:20.119452 36229 net.cpp:150] Setting up conv3_2_1x1_reduce/relu
I0929 13:47:20.119462 36229 net.cpp:157] Top shape: 8 256 28 28 (1605632)
I0929 13:47:20.119465 36229 net.cpp:165] Memory required for data: 1519055936
I0929 13:47:20.119468 36229 layer_factory.hpp:77] Creating layer conv3_2_3x3
I0929 13:47:20.119477 36229 net.cpp:100] Creating Layer conv3_2_3x3
I0929 13:47:20.119482 36229 net.cpp:434] conv3_2_3x3 <- conv3_2_1x1_reduce
I0929 13:47:20.119488 36229 net.cpp:408] conv3_2_3x3 -> conv3_2_3x3
I0929 13:47:20.145493 36229 net.cpp:150] Setting up conv3_2_3x3
I0929 13:47:20.145508 36229 net.cpp:157] Top shape: 8 256 28 28 (1605632)
I0929 13:47:20.145511 36229 net.cpp:165] Memory required for data: 1525478464
I0929 13:47:20.145516 36229 layer_factory.hpp:77] Creating layer conv3_2_3x3/bn
I0929 13:47:20.145524 36229 net.cpp:100] Creating Layer conv3_2_3x3/bn
I0929 13:47:20.145529 36229 net.cpp:434] conv3_2_3x3/bn <- conv3_2_3x3
I0929 13:47:20.145534 36229 net.cpp:395] conv3_2_3x3/bn -> conv3_2_3x3 (in-place)
I0929 13:47:20.145793 36229 net.cpp:150] Setting up conv3_2_3x3/bn
I0929 13:47:20.145802 36229 net.cpp:157] Top shape: 8 256 28 28 (1605632)
I0929 13:47:20.145805 36229 net.cpp:165] Memory required for data: 1531900992
I0929 13:47:20.145813 36229 layer_factory.hpp:77] Creating layer conv3_2_3x3/bn/scale
I0929 13:47:20.145820 36229 net.cpp:100] Creating Layer conv3_2_3x3/bn/scale
I0929 13:47:20.145823 36229 net.cpp:434] conv3_2_3x3/bn/scale <- conv3_2_3x3
I0929 13:47:20.145828 36229 net.cpp:395] conv3_2_3x3/bn/scale -> conv3_2_3x3 (in-place)
I0929 13:47:20.145881 36229 layer_factory.hpp:77] Creating layer conv3_2_3x3/bn/scale
I0929 13:47:20.146023 36229 net.cpp:150] Setting up conv3_2_3x3/bn/scale
I0929 13:47:20.146029 36229 net.cpp:157] Top shape: 8 256 28 28 (1605632)
I0929 13:47:20.146033 36229 net.cpp:165] Memory required for data: 1538323520
I0929 13:47:20.146049 36229 layer_factory.hpp:77] Creating layer conv3_2_3x3/relu
I0929 13:47:20.146056 36229 net.cpp:100] Creating Layer conv3_2_3x3/relu
I0929 13:47:20.146059 36229 net.cpp:434] conv3_2_3x3/relu <- conv3_2_3x3
I0929 13:47:20.146065 36229 net.cpp:395] conv3_2_3x3/relu -> conv3_2_3x3 (in-place)
I0929 13:47:20.146275 36229 net.cpp:150] Setting up conv3_2_3x3/relu
I0929 13:47:20.146284 36229 net.cpp:157] Top shape: 8 256 28 28 (1605632)
I0929 13:47:20.146287 36229 net.cpp:165] Memory required for data: 1544746048
I0929 13:47:20.146291 36229 layer_factory.hpp:77] Creating layer conv3_2_1x1_increase
I0929 13:47:20.146301 36229 net.cpp:100] Creating Layer conv3_2_1x1_increase
I0929 13:47:20.146303 36229 net.cpp:434] conv3_2_1x1_increase <- conv3_2_3x3
I0929 13:47:20.146311 36229 net.cpp:408] conv3_2_1x1_increase -> conv3_2_1x1_increase
I0929 13:47:20.147554 36229 net.cpp:150] Setting up conv3_2_1x1_increase
I0929 13:47:20.147569 36229 net.cpp:157] Top shape: 8 512 28 28 (3211264)
I0929 13:47:20.147574 36229 net.cpp:165] Memory required for data: 1557591104
I0929 13:47:20.147579 36229 layer_factory.hpp:77] Creating layer conv3_2_1x1_increase/bn
I0929 13:47:20.147585 36229 net.cpp:100] Creating Layer conv3_2_1x1_increase/bn
I0929 13:47:20.147593 36229 net.cpp:434] conv3_2_1x1_increase/bn <- conv3_2_1x1_increase
I0929 13:47:20.147598 36229 net.cpp:395] conv3_2_1x1_increase/bn -> conv3_2_1x1_increase (in-place)
I0929 13:47:20.147856 36229 net.cpp:150] Setting up conv3_2_1x1_increase/bn
I0929 13:47:20.147864 36229 net.cpp:157] Top shape: 8 512 28 28 (3211264)
I0929 13:47:20.147867 36229 net.cpp:165] Memory required for data: 1570436160
I0929 13:47:20.147874 36229 layer_factory.hpp:77] Creating layer conv3_2_1x1_increase/bn/scale
I0929 13:47:20.147881 36229 net.cpp:100] Creating Layer conv3_2_1x1_increase/bn/scale
I0929 13:47:20.147884 36229 net.cpp:434] conv3_2_1x1_increase/bn/scale <- conv3_2_1x1_increase
I0929 13:47:20.147889 36229 net.cpp:395] conv3_2_1x1_increase/bn/scale -> conv3_2_1x1_increase (in-place)
I0929 13:47:20.147940 36229 layer_factory.hpp:77] Creating layer conv3_2_1x1_increase/bn/scale
I0929 13:47:20.148078 36229 net.cpp:150] Setting up conv3_2_1x1_increase/bn/scale
I0929 13:47:20.148087 36229 net.cpp:157] Top shape: 8 512 28 28 (3211264)
I0929 13:47:20.148088 36229 net.cpp:165] Memory required for data: 1583281216
I0929 13:47:20.148094 36229 layer_factory.hpp:77] Creating layer conv3_2_1x1_increase_conv3_2_1x1_increase/bn/scale_0_split
I0929 13:47:20.148099 36229 net.cpp:100] Creating Layer conv3_2_1x1_increase_conv3_2_1x1_increase/bn/scale_0_split
I0929 13:47:20.148102 36229 net.cpp:434] conv3_2_1x1_increase_conv3_2_1x1_increase/bn/scale_0_split <- conv3_2_1x1_increase
I0929 13:47:20.148109 36229 net.cpp:408] conv3_2_1x1_increase_conv3_2_1x1_increase/bn/scale_0_split -> conv3_2_1x1_increase_conv3_2_1x1_increase/bn/scale_0_split_0
I0929 13:47:20.148114 36229 net.cpp:408] conv3_2_1x1_increase_conv3_2_1x1_increase/bn/scale_0_split -> conv3_2_1x1_increase_conv3_2_1x1_increase/bn/scale_0_split_1
I0929 13:47:20.148164 36229 net.cpp:150] Setting up conv3_2_1x1_increase_conv3_2_1x1_increase/bn/scale_0_split
I0929 13:47:20.148170 36229 net.cpp:157] Top shape: 8 512 28 28 (3211264)
I0929 13:47:20.148175 36229 net.cpp:157] Top shape: 8 512 28 28 (3211264)
I0929 13:47:20.148176 36229 net.cpp:165] Memory required for data: 1608971328
I0929 13:47:20.148180 36229 layer_factory.hpp:77] Creating layer conv3_2_global_pool
I0929 13:47:20.148186 36229 net.cpp:100] Creating Layer conv3_2_global_pool
I0929 13:47:20.148191 36229 net.cpp:434] conv3_2_global_pool <- conv3_2_1x1_increase_conv3_2_1x1_increase/bn/scale_0_split_0
I0929 13:47:20.148195 36229 net.cpp:408] conv3_2_global_pool -> conv3_2_global_pool
I0929 13:47:20.148226 36229 net.cpp:150] Setting up conv3_2_global_pool
I0929 13:47:20.148232 36229 net.cpp:157] Top shape: 8 512 1 1 (4096)
I0929 13:47:20.148234 36229 net.cpp:165] Memory required for data: 1608987712
I0929 13:47:20.148237 36229 layer_factory.hpp:77] Creating layer conv3_2_1x1_down
I0929 13:47:20.148270 36229 net.cpp:100] Creating Layer conv3_2_1x1_down
I0929 13:47:20.148277 36229 net.cpp:434] conv3_2_1x1_down <- conv3_2_global_pool
I0929 13:47:20.148283 36229 net.cpp:408] conv3_2_1x1_down -> conv3_2_1x1_down
I0929 13:47:20.149571 36229 net.cpp:150] Setting up conv3_2_1x1_down
I0929 13:47:20.149585 36229 net.cpp:157] Top shape: 8 32 1 1 (256)
I0929 13:47:20.149590 36229 net.cpp:165] Memory required for data: 1608988736
I0929 13:47:20.149595 36229 layer_factory.hpp:77] Creating layer conv3_2_1x1_down/relu
I0929 13:47:20.149603 36229 net.cpp:100] Creating Layer conv3_2_1x1_down/relu
I0929 13:47:20.149607 36229 net.cpp:434] conv3_2_1x1_down/relu <- conv3_2_1x1_down
I0929 13:47:20.149616 36229 net.cpp:395] conv3_2_1x1_down/relu -> conv3_2_1x1_down (in-place)
I0929 13:47:20.149814 36229 net.cpp:150] Setting up conv3_2_1x1_down/relu
I0929 13:47:20.149824 36229 net.cpp:157] Top shape: 8 32 1 1 (256)
I0929 13:47:20.149827 36229 net.cpp:165] Memory required for data: 1608989760
I0929 13:47:20.149830 36229 layer_factory.hpp:77] Creating layer conv3_2_1x1_up
I0929 13:47:20.149840 36229 net.cpp:100] Creating Layer conv3_2_1x1_up
I0929 13:47:20.149843 36229 net.cpp:434] conv3_2_1x1_up <- conv3_2_1x1_down
I0929 13:47:20.149848 36229 net.cpp:408] conv3_2_1x1_up -> conv3_2_1x1_up
I0929 13:47:20.151109 36229 net.cpp:150] Setting up conv3_2_1x1_up
I0929 13:47:20.151124 36229 net.cpp:157] Top shape: 8 512 1 1 (4096)
I0929 13:47:20.151127 36229 net.cpp:165] Memory required for data: 1609006144
I0929 13:47:20.151134 36229 layer_factory.hpp:77] Creating layer conv3_2_prob
I0929 13:47:20.151139 36229 net.cpp:100] Creating Layer conv3_2_prob
I0929 13:47:20.151142 36229 net.cpp:434] conv3_2_prob <- conv3_2_1x1_up
I0929 13:47:20.151149 36229 net.cpp:395] conv3_2_prob -> conv3_2_1x1_up (in-place)
I0929 13:47:20.151628 36229 net.cpp:150] Setting up conv3_2_prob
I0929 13:47:20.151641 36229 net.cpp:157] Top shape: 8 512 1 1 (4096)
I0929 13:47:20.151644 36229 net.cpp:165] Memory required for data: 1609022528
I0929 13:47:20.151648 36229 layer_factory.hpp:77] Creating layer conv3_2
I0929 13:47:20.151655 36229 net.cpp:100] Creating Layer conv3_2
I0929 13:47:20.151659 36229 net.cpp:434] conv3_2 <- conv3_2_1x1_up
I0929 13:47:20.151664 36229 net.cpp:434] conv3_2 <- conv3_2_1x1_increase_conv3_2_1x1_increase/bn/scale_0_split_1
I0929 13:47:20.151667 36229 net.cpp:434] conv3_2 <- conv3_1_conv3_1/relu_0_split_1
I0929 13:47:20.151672 36229 net.cpp:408] conv3_2 -> conv3_2
I0929 13:47:20.151746 36229 net.cpp:150] Setting up conv3_2
I0929 13:47:20.151753 36229 net.cpp:157] Top shape: 8 512 28 28 (3211264)
I0929 13:47:20.151768 36229 net.cpp:165] Memory required for data: 1621867584
I0929 13:47:20.151772 36229 layer_factory.hpp:77] Creating layer conv3_2/relu
I0929 13:47:20.151777 36229 net.cpp:100] Creating Layer conv3_2/relu
I0929 13:47:20.151782 36229 net.cpp:434] conv3_2/relu <- conv3_2
I0929 13:47:20.151793 36229 net.cpp:395] conv3_2/relu -> conv3_2 (in-place)
I0929 13:47:20.151986 36229 net.cpp:150] Setting up conv3_2/relu
I0929 13:47:20.151995 36229 net.cpp:157] Top shape: 8 512 28 28 (3211264)
I0929 13:47:20.151998 36229 net.cpp:165] Memory required for data: 1634712640
I0929 13:47:20.152001 36229 layer_factory.hpp:77] Creating layer conv3_2_conv3_2/relu_0_split
I0929 13:47:20.152009 36229 net.cpp:100] Creating Layer conv3_2_conv3_2/relu_0_split
I0929 13:47:20.152011 36229 net.cpp:434] conv3_2_conv3_2/relu_0_split <- conv3_2
I0929 13:47:20.152015 36229 net.cpp:408] conv3_2_conv3_2/relu_0_split -> conv3_2_conv3_2/relu_0_split_0
I0929 13:47:20.152021 36229 net.cpp:408] conv3_2_conv3_2/relu_0_split -> conv3_2_conv3_2/relu_0_split_1
I0929 13:47:20.152079 36229 net.cpp:150] Setting up conv3_2_conv3_2/relu_0_split
I0929 13:47:20.152086 36229 net.cpp:157] Top shape: 8 512 28 28 (3211264)
I0929 13:47:20.152091 36229 net.cpp:157] Top shape: 8 512 28 28 (3211264)
I0929 13:47:20.152092 36229 net.cpp:165] Memory required for data: 1660402752
I0929 13:47:20.152096 36229 layer_factory.hpp:77] Creating layer conv3_3_1x1_reduce
I0929 13:47:20.152117 36229 net.cpp:100] Creating Layer conv3_3_1x1_reduce
I0929 13:47:20.152122 36229 net.cpp:434] conv3_3_1x1_reduce <- conv3_2_conv3_2/relu_0_split_0
I0929 13:47:20.152127 36229 net.cpp:408] conv3_3_1x1_reduce -> conv3_3_1x1_reduce
I0929 13:47:20.154398 36229 net.cpp:150] Setting up conv3_3_1x1_reduce
I0929 13:47:20.154412 36229 net.cpp:157] Top shape: 8 256 28 28 (1605632)
I0929 13:47:20.154417 36229 net.cpp:165] Memory required for data: 1666825280
I0929 13:47:20.154439 36229 layer_factory.hpp:77] Creating layer conv3_3_1x1_reduce/bn
I0929 13:47:20.154453 36229 net.cpp:100] Creating Layer conv3_3_1x1_reduce/bn
I0929 13:47:20.154458 36229 net.cpp:434] conv3_3_1x1_reduce/bn <- conv3_3_1x1_reduce
I0929 13:47:20.154462 36229 net.cpp:395] conv3_3_1x1_reduce/bn -> conv3_3_1x1_reduce (in-place)
I0929 13:47:20.154723 36229 net.cpp:150] Setting up conv3_3_1x1_reduce/bn
I0929 13:47:20.154731 36229 net.cpp:157] Top shape: 8 256 28 28 (1605632)
I0929 13:47:20.154734 36229 net.cpp:165] Memory required for data: 1673247808
I0929 13:47:20.154742 36229 layer_factory.hpp:77] Creating layer conv3_3_1x1_reduce/bn/scale
I0929 13:47:20.154747 36229 net.cpp:100] Creating Layer conv3_3_1x1_reduce/bn/scale
I0929 13:47:20.154750 36229 net.cpp:434] conv3_3_1x1_reduce/bn/scale <- conv3_3_1x1_reduce
I0929 13:47:20.154755 36229 net.cpp:395] conv3_3_1x1_reduce/bn/scale -> conv3_3_1x1_reduce (in-place)
I0929 13:47:20.154819 36229 layer_factory.hpp:77] Creating layer conv3_3_1x1_reduce/bn/scale
I0929 13:47:20.154984 36229 net.cpp:150] Setting up conv3_3_1x1_reduce/bn/scale
I0929 13:47:20.154994 36229 net.cpp:157] Top shape: 8 256 28 28 (1605632)
I0929 13:47:20.154996 36229 net.cpp:165] Memory required for data: 1679670336
I0929 13:47:20.155002 36229 layer_factory.hpp:77] Creating layer conv3_3_1x1_reduce/relu
I0929 13:47:20.155009 36229 net.cpp:100] Creating Layer conv3_3_1x1_reduce/relu
I0929 13:47:20.155011 36229 net.cpp:434] conv3_3_1x1_reduce/relu <- conv3_3_1x1_reduce
I0929 13:47:20.155015 36229 net.cpp:395] conv3_3_1x1_reduce/relu -> conv3_3_1x1_reduce (in-place)
I0929 13:47:20.155225 36229 net.cpp:150] Setting up conv3_3_1x1_reduce/relu
I0929 13:47:20.155236 36229 net.cpp:157] Top shape: 8 256 28 28 (1605632)
I0929 13:47:20.155238 36229 net.cpp:165] Memory required for data: 1686092864
I0929 13:47:20.155241 36229 layer_factory.hpp:77] Creating layer conv3_3_3x3
I0929 13:47:20.155251 36229 net.cpp:100] Creating Layer conv3_3_3x3
I0929 13:47:20.155254 36229 net.cpp:434] conv3_3_3x3 <- conv3_3_1x1_reduce
I0929 13:47:20.155261 36229 net.cpp:408] conv3_3_3x3 -> conv3_3_3x3
I0929 13:47:20.181669 36229 net.cpp:150] Setting up conv3_3_3x3
I0929 13:47:20.181684 36229 net.cpp:157] Top shape: 8 256 28 28 (1605632)
I0929 13:47:20.181689 36229 net.cpp:165] Memory required for data: 1692515392
I0929 13:47:20.181694 36229 layer_factory.hpp:77] Creating layer conv3_3_3x3/bn
I0929 13:47:20.181702 36229 net.cpp:100] Creating Layer conv3_3_3x3/bn
I0929 13:47:20.181705 36229 net.cpp:434] conv3_3_3x3/bn <- conv3_3_3x3
I0929 13:47:20.181710 36229 net.cpp:395] conv3_3_3x3/bn -> conv3_3_3x3 (in-place)
I0929 13:47:20.181990 36229 net.cpp:150] Setting up conv3_3_3x3/bn
I0929 13:47:20.181999 36229 net.cpp:157] Top shape: 8 256 28 28 (1605632)
I0929 13:47:20.182003 36229 net.cpp:165] Memory required for data: 1698937920
I0929 13:47:20.182009 36229 layer_factory.hpp:77] Creating layer conv3_3_3x3/bn/scale
I0929 13:47:20.182015 36229 net.cpp:100] Creating Layer conv3_3_3x3/bn/scale
I0929 13:47:20.182018 36229 net.cpp:434] conv3_3_3x3/bn/scale <- conv3_3_3x3
I0929 13:47:20.182023 36229 net.cpp:395] conv3_3_3x3/bn/scale -> conv3_3_3x3 (in-place)
I0929 13:47:20.182080 36229 layer_factory.hpp:77] Creating layer conv3_3_3x3/bn/scale
I0929 13:47:20.182231 36229 net.cpp:150] Setting up conv3_3_3x3/bn/scale
I0929 13:47:20.182240 36229 net.cpp:157] Top shape: 8 256 28 28 (1605632)
I0929 13:47:20.182241 36229 net.cpp:165] Memory required for data: 1705360448
I0929 13:47:20.182247 36229 layer_factory.hpp:77] Creating layer conv3_3_3x3/relu
I0929 13:47:20.182253 36229 net.cpp:100] Creating Layer conv3_3_3x3/relu
I0929 13:47:20.182268 36229 net.cpp:434] conv3_3_3x3/relu <- conv3_3_3x3
I0929 13:47:20.182274 36229 net.cpp:395] conv3_3_3x3/relu -> conv3_3_3x3 (in-place)
I0929 13:47:20.182488 36229 net.cpp:150] Setting up conv3_3_3x3/relu
I0929 13:47:20.182499 36229 net.cpp:157] Top shape: 8 256 28 28 (1605632)
I0929 13:47:20.182507 36229 net.cpp:165] Memory required for data: 1711782976
I0929 13:47:20.182509 36229 layer_factory.hpp:77] Creating layer conv3_3_1x1_increase
I0929 13:47:20.182518 36229 net.cpp:100] Creating Layer conv3_3_1x1_increase
I0929 13:47:20.182521 36229 net.cpp:434] conv3_3_1x1_increase <- conv3_3_3x3
I0929 13:47:20.182528 36229 net.cpp:408] conv3_3_1x1_increase -> conv3_3_1x1_increase
I0929 13:47:20.183833 36229 net.cpp:150] Setting up conv3_3_1x1_increase
I0929 13:47:20.183847 36229 net.cpp:157] Top shape: 8 512 28 28 (3211264)
I0929 13:47:20.183851 36229 net.cpp:165] Memory required for data: 1724628032
I0929 13:47:20.183856 36229 layer_factory.hpp:77] Creating layer conv3_3_1x1_increase/bn
I0929 13:47:20.183863 36229 net.cpp:100] Creating Layer conv3_3_1x1_increase/bn
I0929 13:47:20.183867 36229 net.cpp:434] conv3_3_1x1_increase/bn <- conv3_3_1x1_increase
I0929 13:47:20.183873 36229 net.cpp:395] conv3_3_1x1_increase/bn -> conv3_3_1x1_increase (in-place)
I0929 13:47:20.184142 36229 net.cpp:150] Setting up conv3_3_1x1_increase/bn
I0929 13:47:20.184150 36229 net.cpp:157] Top shape: 8 512 28 28 (3211264)
I0929 13:47:20.184154 36229 net.cpp:165] Memory required for data: 1737473088
I0929 13:47:20.184160 36229 layer_factory.hpp:77] Creating layer conv3_3_1x1_increase/bn/scale
I0929 13:47:20.184166 36229 net.cpp:100] Creating Layer conv3_3_1x1_increase/bn/scale
I0929 13:47:20.184170 36229 net.cpp:434] conv3_3_1x1_increase/bn/scale <- conv3_3_1x1_increase
I0929 13:47:20.184173 36229 net.cpp:395] conv3_3_1x1_increase/bn/scale -> conv3_3_1x1_increase (in-place)
I0929 13:47:20.184227 36229 layer_factory.hpp:77] Creating layer conv3_3_1x1_increase/bn/scale
I0929 13:47:20.184375 36229 net.cpp:150] Setting up conv3_3_1x1_increase/bn/scale
I0929 13:47:20.184382 36229 net.cpp:157] Top shape: 8 512 28 28 (3211264)
I0929 13:47:20.184384 36229 net.cpp:165] Memory required for data: 1750318144
I0929 13:47:20.184391 36229 layer_factory.hpp:77] Creating layer conv3_3_1x1_increase_conv3_3_1x1_increase/bn/scale_0_split
I0929 13:47:20.184409 36229 net.cpp:100] Creating Layer conv3_3_1x1_increase_conv3_3_1x1_increase/bn/scale_0_split
I0929 13:47:20.184414 36229 net.cpp:434] conv3_3_1x1_increase_conv3_3_1x1_increase/bn/scale_0_split <- conv3_3_1x1_increase
I0929 13:47:20.184419 36229 net.cpp:408] conv3_3_1x1_increase_conv3_3_1x1_increase/bn/scale_0_split -> conv3_3_1x1_increase_conv3_3_1x1_increase/bn/scale_0_split_0
I0929 13:47:20.184427 36229 net.cpp:408] conv3_3_1x1_increase_conv3_3_1x1_increase/bn/scale_0_split -> conv3_3_1x1_increase_conv3_3_1x1_increase/bn/scale_0_split_1
I0929 13:47:20.184481 36229 net.cpp:150] Setting up conv3_3_1x1_increase_conv3_3_1x1_increase/bn/scale_0_split
I0929 13:47:20.184499 36229 net.cpp:157] Top shape: 8 512 28 28 (3211264)
I0929 13:47:20.184505 36229 net.cpp:157] Top shape: 8 512 28 28 (3211264)
I0929 13:47:20.184509 36229 net.cpp:165] Memory required for data: 1776008256
I0929 13:47:20.184511 36229 layer_factory.hpp:77] Creating layer conv3_3_global_pool
I0929 13:47:20.184518 36229 net.cpp:100] Creating Layer conv3_3_global_pool
I0929 13:47:20.184521 36229 net.cpp:434] conv3_3_global_pool <- conv3_3_1x1_increase_conv3_3_1x1_increase/bn/scale_0_split_0
I0929 13:47:20.184525 36229 net.cpp:408] conv3_3_global_pool -> conv3_3_global_pool
I0929 13:47:20.184564 36229 net.cpp:150] Setting up conv3_3_global_pool
I0929 13:47:20.184571 36229 net.cpp:157] Top shape: 8 512 1 1 (4096)
I0929 13:47:20.184574 36229 net.cpp:165] Memory required for data: 1776024640
I0929 13:47:20.184577 36229 layer_factory.hpp:77] Creating layer conv3_3_1x1_down
I0929 13:47:20.184584 36229 net.cpp:100] Creating Layer conv3_3_1x1_down
I0929 13:47:20.184587 36229 net.cpp:434] conv3_3_1x1_down <- conv3_3_global_pool
I0929 13:47:20.184604 36229 net.cpp:408] conv3_3_1x1_down -> conv3_3_1x1_down
I0929 13:47:20.186260 36229 net.cpp:150] Setting up conv3_3_1x1_down
I0929 13:47:20.186275 36229 net.cpp:157] Top shape: 8 32 1 1 (256)
I0929 13:47:20.186280 36229 net.cpp:165] Memory required for data: 1776025664
I0929 13:47:20.186286 36229 layer_factory.hpp:77] Creating layer conv3_3_1x1_down/relu
I0929 13:47:20.186295 36229 net.cpp:100] Creating Layer conv3_3_1x1_down/relu
I0929 13:47:20.186300 36229 net.cpp:434] conv3_3_1x1_down/relu <- conv3_3_1x1_down
I0929 13:47:20.186305 36229 net.cpp:395] conv3_3_1x1_down/relu -> conv3_3_1x1_down (in-place)
I0929 13:47:20.186506 36229 net.cpp:150] Setting up conv3_3_1x1_down/relu
I0929 13:47:20.186516 36229 net.cpp:157] Top shape: 8 32 1 1 (256)
I0929 13:47:20.186518 36229 net.cpp:165] Memory required for data: 1776026688
I0929 13:47:20.186522 36229 layer_factory.hpp:77] Creating layer conv3_3_1x1_up
I0929 13:47:20.186532 36229 net.cpp:100] Creating Layer conv3_3_1x1_up
I0929 13:47:20.186535 36229 net.cpp:434] conv3_3_1x1_up <- conv3_3_1x1_down
I0929 13:47:20.186540 36229 net.cpp:408] conv3_3_1x1_up -> conv3_3_1x1_up
I0929 13:47:20.187860 36229 net.cpp:150] Setting up conv3_3_1x1_up
I0929 13:47:20.187873 36229 net.cpp:157] Top shape: 8 512 1 1 (4096)
I0929 13:47:20.187876 36229 net.cpp:165] Memory required for data: 1776043072
I0929 13:47:20.187883 36229 layer_factory.hpp:77] Creating layer conv3_3_prob
I0929 13:47:20.187891 36229 net.cpp:100] Creating Layer conv3_3_prob
I0929 13:47:20.187896 36229 net.cpp:434] conv3_3_prob <- conv3_3_1x1_up
I0929 13:47:20.187901 36229 net.cpp:395] conv3_3_prob -> conv3_3_1x1_up (in-place)
I0929 13:47:20.188098 36229 net.cpp:150] Setting up conv3_3_prob
I0929 13:47:20.188108 36229 net.cpp:157] Top shape: 8 512 1 1 (4096)
I0929 13:47:20.188112 36229 net.cpp:165] Memory required for data: 1776059456
I0929 13:47:20.188114 36229 layer_factory.hpp:77] Creating layer conv3_3
I0929 13:47:20.188120 36229 net.cpp:100] Creating Layer conv3_3
I0929 13:47:20.188123 36229 net.cpp:434] conv3_3 <- conv3_3_1x1_up
I0929 13:47:20.188127 36229 net.cpp:434] conv3_3 <- conv3_3_1x1_increase_conv3_3_1x1_increase/bn/scale_0_split_1
I0929 13:47:20.188132 36229 net.cpp:434] conv3_3 <- conv3_2_conv3_2/relu_0_split_1
I0929 13:47:20.188138 36229 net.cpp:408] conv3_3 -> conv3_3
I0929 13:47:20.188215 36229 net.cpp:150] Setting up conv3_3
I0929 13:47:20.188222 36229 net.cpp:157] Top shape: 8 512 28 28 (3211264)
I0929 13:47:20.188225 36229 net.cpp:165] Memory required for data: 1788904512
I0929 13:47:20.188228 36229 layer_factory.hpp:77] Creating layer conv3_3/relu
I0929 13:47:20.188233 36229 net.cpp:100] Creating Layer conv3_3/relu
I0929 13:47:20.188236 36229 net.cpp:434] conv3_3/relu <- conv3_3
I0929 13:47:20.188241 36229 net.cpp:395] conv3_3/relu -> conv3_3 (in-place)
I0929 13:47:20.188745 36229 net.cpp:150] Setting up conv3_3/relu
I0929 13:47:20.188758 36229 net.cpp:157] Top shape: 8 512 28 28 (3211264)
I0929 13:47:20.188761 36229 net.cpp:165] Memory required for data: 1801749568
I0929 13:47:20.188765 36229 layer_factory.hpp:77] Creating layer conv3_3_conv3_3/relu_0_split
I0929 13:47:20.188771 36229 net.cpp:100] Creating Layer conv3_3_conv3_3/relu_0_split
I0929 13:47:20.188776 36229 net.cpp:434] conv3_3_conv3_3/relu_0_split <- conv3_3
I0929 13:47:20.188781 36229 net.cpp:408] conv3_3_conv3_3/relu_0_split -> conv3_3_conv3_3/relu_0_split_0
I0929 13:47:20.188792 36229 net.cpp:408] conv3_3_conv3_3/relu_0_split -> conv3_3_conv3_3/relu_0_split_1
I0929 13:47:20.188855 36229 net.cpp:150] Setting up conv3_3_conv3_3/relu_0_split
I0929 13:47:20.188863 36229 net.cpp:157] Top shape: 8 512 28 28 (3211264)
I0929 13:47:20.188868 36229 net.cpp:157] Top shape: 8 512 28 28 (3211264)
I0929 13:47:20.188870 36229 net.cpp:165] Memory required for data: 1827439680
I0929 13:47:20.188887 36229 layer_factory.hpp:77] Creating layer conv3_4_1x1_reduce
I0929 13:47:20.188897 36229 net.cpp:100] Creating Layer conv3_4_1x1_reduce
I0929 13:47:20.188902 36229 net.cpp:434] conv3_4_1x1_reduce <- conv3_3_conv3_3/relu_0_split_0
I0929 13:47:20.188920 36229 net.cpp:408] conv3_4_1x1_reduce -> conv3_4_1x1_reduce
I0929 13:47:20.189905 36229 net.cpp:150] Setting up conv3_4_1x1_reduce
I0929 13:47:20.189918 36229 net.cpp:157] Top shape: 8 256 28 28 (1605632)
I0929 13:47:20.189921 36229 net.cpp:165] Memory required for data: 1833862208
I0929 13:47:20.189926 36229 layer_factory.hpp:77] Creating layer conv3_4_1x1_reduce/bn
I0929 13:47:20.189934 36229 net.cpp:100] Creating Layer conv3_4_1x1_reduce/bn
I0929 13:47:20.189939 36229 net.cpp:434] conv3_4_1x1_reduce/bn <- conv3_4_1x1_reduce
I0929 13:47:20.189942 36229 net.cpp:395] conv3_4_1x1_reduce/bn -> conv3_4_1x1_reduce (in-place)
I0929 13:47:20.190220 36229 net.cpp:150] Setting up conv3_4_1x1_reduce/bn
I0929 13:47:20.190228 36229 net.cpp:157] Top shape: 8 256 28 28 (1605632)
I0929 13:47:20.190232 36229 net.cpp:165] Memory required for data: 1840284736
I0929 13:47:20.190238 36229 layer_factory.hpp:77] Creating layer conv3_4_1x1_reduce/bn/scale
I0929 13:47:20.190244 36229 net.cpp:100] Creating Layer conv3_4_1x1_reduce/bn/scale
I0929 13:47:20.190248 36229 net.cpp:434] conv3_4_1x1_reduce/bn/scale <- conv3_4_1x1_reduce
I0929 13:47:20.190251 36229 net.cpp:395] conv3_4_1x1_reduce/bn/scale -> conv3_4_1x1_reduce (in-place)
I0929 13:47:20.190310 36229 layer_factory.hpp:77] Creating layer conv3_4_1x1_reduce/bn/scale
I0929 13:47:20.190465 36229 net.cpp:150] Setting up conv3_4_1x1_reduce/bn/scale
I0929 13:47:20.190474 36229 net.cpp:157] Top shape: 8 256 28 28 (1605632)
I0929 13:47:20.190476 36229 net.cpp:165] Memory required for data: 1846707264
I0929 13:47:20.190481 36229 layer_factory.hpp:77] Creating layer conv3_4_1x1_reduce/relu
I0929 13:47:20.190490 36229 net.cpp:100] Creating Layer conv3_4_1x1_reduce/relu
I0929 13:47:20.190492 36229 net.cpp:434] conv3_4_1x1_reduce/relu <- conv3_4_1x1_reduce
I0929 13:47:20.190497 36229 net.cpp:395] conv3_4_1x1_reduce/relu -> conv3_4_1x1_reduce (in-place)
I0929 13:47:20.191006 36229 net.cpp:150] Setting up conv3_4_1x1_reduce/relu
I0929 13:47:20.191020 36229 net.cpp:157] Top shape: 8 256 28 28 (1605632)
I0929 13:47:20.191023 36229 net.cpp:165] Memory required for data: 1853129792
I0929 13:47:20.191026 36229 layer_factory.hpp:77] Creating layer conv3_4_3x3
I0929 13:47:20.191037 36229 net.cpp:100] Creating Layer conv3_4_3x3
I0929 13:47:20.191040 36229 net.cpp:434] conv3_4_3x3 <- conv3_4_1x1_reduce
I0929 13:47:20.191047 36229 net.cpp:408] conv3_4_3x3 -> conv3_4_3x3
I0929 13:47:20.218307 36229 net.cpp:150] Setting up conv3_4_3x3
I0929 13:47:20.218322 36229 net.cpp:157] Top shape: 8 256 28 28 (1605632)
I0929 13:47:20.218325 36229 net.cpp:165] Memory required for data: 1859552320
I0929 13:47:20.218330 36229 layer_factory.hpp:77] Creating layer conv3_4_3x3/bn
I0929 13:47:20.218338 36229 net.cpp:100] Creating Layer conv3_4_3x3/bn
I0929 13:47:20.218343 36229 net.cpp:434] conv3_4_3x3/bn <- conv3_4_3x3
I0929 13:47:20.218348 36229 net.cpp:395] conv3_4_3x3/bn -> conv3_4_3x3 (in-place)
I0929 13:47:20.218655 36229 net.cpp:150] Setting up conv3_4_3x3/bn
I0929 13:47:20.218663 36229 net.cpp:157] Top shape: 8 256 28 28 (1605632)
I0929 13:47:20.218667 36229 net.cpp:165] Memory required for data: 1865974848
I0929 13:47:20.218675 36229 layer_factory.hpp:77] Creating layer conv3_4_3x3/bn/scale
I0929 13:47:20.218682 36229 net.cpp:100] Creating Layer conv3_4_3x3/bn/scale
I0929 13:47:20.218684 36229 net.cpp:434] conv3_4_3x3/bn/scale <- conv3_4_3x3
I0929 13:47:20.218688 36229 net.cpp:395] conv3_4_3x3/bn/scale -> conv3_4_3x3 (in-place)
I0929 13:47:20.218750 36229 layer_factory.hpp:77] Creating layer conv3_4_3x3/bn/scale
I0929 13:47:20.218932 36229 net.cpp:150] Setting up conv3_4_3x3/bn/scale
I0929 13:47:20.218941 36229 net.cpp:157] Top shape: 8 256 28 28 (1605632)
I0929 13:47:20.218961 36229 net.cpp:165] Memory required for data: 1872397376
I0929 13:47:20.218969 36229 layer_factory.hpp:77] Creating layer conv3_4_3x3/relu
I0929 13:47:20.218977 36229 net.cpp:100] Creating Layer conv3_4_3x3/relu
I0929 13:47:20.218982 36229 net.cpp:434] conv3_4_3x3/relu <- conv3_4_3x3
I0929 13:47:20.218986 36229 net.cpp:395] conv3_4_3x3/relu -> conv3_4_3x3 (in-place)
I0929 13:47:20.219209 36229 net.cpp:150] Setting up conv3_4_3x3/relu
I0929 13:47:20.219219 36229 net.cpp:157] Top shape: 8 256 28 28 (1605632)
I0929 13:47:20.219223 36229 net.cpp:165] Memory required for data: 1878819904
I0929 13:47:20.219226 36229 layer_factory.hpp:77] Creating layer conv3_4_1x1_increase
I0929 13:47:20.219236 36229 net.cpp:100] Creating Layer conv3_4_1x1_increase
I0929 13:47:20.219240 36229 net.cpp:434] conv3_4_1x1_increase <- conv3_4_3x3
I0929 13:47:20.219245 36229 net.cpp:408] conv3_4_1x1_increase -> conv3_4_1x1_increase
I0929 13:47:20.220599 36229 net.cpp:150] Setting up conv3_4_1x1_increase
I0929 13:47:20.220613 36229 net.cpp:157] Top shape: 8 512 28 28 (3211264)
I0929 13:47:20.220618 36229 net.cpp:165] Memory required for data: 1891664960
I0929 13:47:20.220623 36229 layer_factory.hpp:77] Creating layer conv3_4_1x1_increase/bn
I0929 13:47:20.220630 36229 net.cpp:100] Creating Layer conv3_4_1x1_increase/bn
I0929 13:47:20.220634 36229 net.cpp:434] conv3_4_1x1_increase/bn <- conv3_4_1x1_increase
I0929 13:47:20.220639 36229 net.cpp:395] conv3_4_1x1_increase/bn -> conv3_4_1x1_increase (in-place)
I0929 13:47:20.220940 36229 net.cpp:150] Setting up conv3_4_1x1_increase/bn
I0929 13:47:20.220949 36229 net.cpp:157] Top shape: 8 512 28 28 (3211264)
I0929 13:47:20.220952 36229 net.cpp:165] Memory required for data: 1904510016
I0929 13:47:20.220959 36229 layer_factory.hpp:77] Creating layer conv3_4_1x1_increase/bn/scale
I0929 13:47:20.220966 36229 net.cpp:100] Creating Layer conv3_4_1x1_increase/bn/scale
I0929 13:47:20.220970 36229 net.cpp:434] conv3_4_1x1_increase/bn/scale <- conv3_4_1x1_increase
I0929 13:47:20.220974 36229 net.cpp:395] conv3_4_1x1_increase/bn/scale -> conv3_4_1x1_increase (in-place)
I0929 13:47:20.221034 36229 layer_factory.hpp:77] Creating layer conv3_4_1x1_increase/bn/scale
I0929 13:47:20.221192 36229 net.cpp:150] Setting up conv3_4_1x1_increase/bn/scale
I0929 13:47:20.221199 36229 net.cpp:157] Top shape: 8 512 28 28 (3211264)
I0929 13:47:20.221202 36229 net.cpp:165] Memory required for data: 1917355072
I0929 13:47:20.221207 36229 layer_factory.hpp:77] Creating layer conv3_4_1x1_increase_conv3_4_1x1_increase/bn/scale_0_split
I0929 13:47:20.221212 36229 net.cpp:100] Creating Layer conv3_4_1x1_increase_conv3_4_1x1_increase/bn/scale_0_split
I0929 13:47:20.221215 36229 net.cpp:434] conv3_4_1x1_increase_conv3_4_1x1_increase/bn/scale_0_split <- conv3_4_1x1_increase
I0929 13:47:20.221221 36229 net.cpp:408] conv3_4_1x1_increase_conv3_4_1x1_increase/bn/scale_0_split -> conv3_4_1x1_increase_conv3_4_1x1_increase/bn/scale_0_split_0
I0929 13:47:20.221227 36229 net.cpp:408] conv3_4_1x1_increase_conv3_4_1x1_increase/bn/scale_0_split -> conv3_4_1x1_increase_conv3_4_1x1_increase/bn/scale_0_split_1
I0929 13:47:20.221287 36229 net.cpp:150] Setting up conv3_4_1x1_increase_conv3_4_1x1_increase/bn/scale_0_split
I0929 13:47:20.221293 36229 net.cpp:157] Top shape: 8 512 28 28 (3211264)
I0929 13:47:20.221297 36229 net.cpp:157] Top shape: 8 512 28 28 (3211264)
I0929 13:47:20.221299 36229 net.cpp:165] Memory required for data: 1943045184
I0929 13:47:20.221302 36229 layer_factory.hpp:77] Creating layer conv3_4_global_pool
I0929 13:47:20.221308 36229 net.cpp:100] Creating Layer conv3_4_global_pool
I0929 13:47:20.221312 36229 net.cpp:434] conv3_4_global_pool <- conv3_4_1x1_increase_conv3_4_1x1_increase/bn/scale_0_split_0
I0929 13:47:20.221315 36229 net.cpp:408] conv3_4_global_pool -> conv3_4_global_pool
I0929 13:47:20.221364 36229 net.cpp:150] Setting up conv3_4_global_pool
I0929 13:47:20.221372 36229 net.cpp:157] Top shape: 8 512 1 1 (4096)
I0929 13:47:20.221375 36229 net.cpp:165] Memory required for data: 1943061568
I0929 13:47:20.221379 36229 layer_factory.hpp:77] Creating layer conv3_4_1x1_down
I0929 13:47:20.221387 36229 net.cpp:100] Creating Layer conv3_4_1x1_down
I0929 13:47:20.221392 36229 net.cpp:434] conv3_4_1x1_down <- conv3_4_global_pool
I0929 13:47:20.221397 36229 net.cpp:408] conv3_4_1x1_down -> conv3_4_1x1_down
I0929 13:47:20.222759 36229 net.cpp:150] Setting up conv3_4_1x1_down
I0929 13:47:20.222791 36229 net.cpp:157] Top shape: 8 32 1 1 (256)
I0929 13:47:20.222796 36229 net.cpp:165] Memory required for data: 1943062592
I0929 13:47:20.222803 36229 layer_factory.hpp:77] Creating layer conv3_4_1x1_down/relu
I0929 13:47:20.222810 36229 net.cpp:100] Creating Layer conv3_4_1x1_down/relu
I0929 13:47:20.222815 36229 net.cpp:434] conv3_4_1x1_down/relu <- conv3_4_1x1_down
I0929 13:47:20.222821 36229 net.cpp:395] conv3_4_1x1_down/relu -> conv3_4_1x1_down (in-place)
I0929 13:47:20.223029 36229 net.cpp:150] Setting up conv3_4_1x1_down/relu
I0929 13:47:20.223039 36229 net.cpp:157] Top shape: 8 32 1 1 (256)
I0929 13:47:20.223042 36229 net.cpp:165] Memory required for data: 1943063616
I0929 13:47:20.223045 36229 layer_factory.hpp:77] Creating layer conv3_4_1x1_up
I0929 13:47:20.223055 36229 net.cpp:100] Creating Layer conv3_4_1x1_up
I0929 13:47:20.223058 36229 net.cpp:434] conv3_4_1x1_up <- conv3_4_1x1_down
I0929 13:47:20.223063 36229 net.cpp:408] conv3_4_1x1_up -> conv3_4_1x1_up
I0929 13:47:20.224419 36229 net.cpp:150] Setting up conv3_4_1x1_up
I0929 13:47:20.224433 36229 net.cpp:157] Top shape: 8 512 1 1 (4096)
I0929 13:47:20.224437 36229 net.cpp:165] Memory required for data: 1943080000
I0929 13:47:20.224443 36229 layer_factory.hpp:77] Creating layer conv3_4_prob
I0929 13:47:20.224452 36229 net.cpp:100] Creating Layer conv3_4_prob
I0929 13:47:20.224457 36229 net.cpp:434] conv3_4_prob <- conv3_4_1x1_up
I0929 13:47:20.224462 36229 net.cpp:395] conv3_4_prob -> conv3_4_1x1_up (in-place)
I0929 13:47:20.224663 36229 net.cpp:150] Setting up conv3_4_prob
I0929 13:47:20.224673 36229 net.cpp:157] Top shape: 8 512 1 1 (4096)
I0929 13:47:20.224675 36229 net.cpp:165] Memory required for data: 1943096384
I0929 13:47:20.224678 36229 layer_factory.hpp:77] Creating layer conv3_4
I0929 13:47:20.224684 36229 net.cpp:100] Creating Layer conv3_4
I0929 13:47:20.224687 36229 net.cpp:434] conv3_4 <- conv3_4_1x1_up
I0929 13:47:20.224691 36229 net.cpp:434] conv3_4 <- conv3_4_1x1_increase_conv3_4_1x1_increase/bn/scale_0_split_1
I0929 13:47:20.224695 36229 net.cpp:434] conv3_4 <- conv3_3_conv3_3/relu_0_split_1
I0929 13:47:20.224699 36229 net.cpp:408] conv3_4 -> conv3_4
I0929 13:47:20.224778 36229 net.cpp:150] Setting up conv3_4
I0929 13:47:20.224791 36229 net.cpp:157] Top shape: 8 512 28 28 (3211264)
I0929 13:47:20.224794 36229 net.cpp:165] Memory required for data: 1955941440
I0929 13:47:20.224797 36229 layer_factory.hpp:77] Creating layer conv3_4/relu
I0929 13:47:20.224804 36229 net.cpp:100] Creating Layer conv3_4/relu
I0929 13:47:20.224808 36229 net.cpp:434] conv3_4/relu <- conv3_4
I0929 13:47:20.224812 36229 net.cpp:395] conv3_4/relu -> conv3_4 (in-place)
I0929 13:47:20.225008 36229 net.cpp:150] Setting up conv3_4/relu
I0929 13:47:20.225018 36229 net.cpp:157] Top shape: 8 512 28 28 (3211264)
I0929 13:47:20.225020 36229 net.cpp:165] Memory required for data: 1968786496
I0929 13:47:20.225023 36229 layer_factory.hpp:77] Creating layer conv3_4_conv3_4/relu_0_split
I0929 13:47:20.225029 36229 net.cpp:100] Creating Layer conv3_4_conv3_4/relu_0_split
I0929 13:47:20.225033 36229 net.cpp:434] conv3_4_conv3_4/relu_0_split <- conv3_4
I0929 13:47:20.225037 36229 net.cpp:408] conv3_4_conv3_4/relu_0_split -> conv3_4_conv3_4/relu_0_split_0
I0929 13:47:20.225044 36229 net.cpp:408] conv3_4_conv3_4/relu_0_split -> conv3_4_conv3_4/relu_0_split_1
I0929 13:47:20.225116 36229 net.cpp:150] Setting up conv3_4_conv3_4/relu_0_split
I0929 13:47:20.225124 36229 net.cpp:157] Top shape: 8 512 28 28 (3211264)
I0929 13:47:20.225128 36229 net.cpp:157] Top shape: 8 512 28 28 (3211264)
I0929 13:47:20.225131 36229 net.cpp:165] Memory required for data: 1994476608
I0929 13:47:20.225133 36229 layer_factory.hpp:77] Creating layer conv4_1_1x1_reduce
I0929 13:47:20.225142 36229 net.cpp:100] Creating Layer conv4_1_1x1_reduce
I0929 13:47:20.225147 36229 net.cpp:434] conv4_1_1x1_reduce <- conv3_4_conv3_4/relu_0_split_0
I0929 13:47:20.225153 36229 net.cpp:408] conv4_1_1x1_reduce -> conv4_1_1x1_reduce
I0929 13:47:20.227576 36229 net.cpp:150] Setting up conv4_1_1x1_reduce
I0929 13:47:20.227604 36229 net.cpp:157] Top shape: 8 512 28 28 (3211264)
I0929 13:47:20.227608 36229 net.cpp:165] Memory required for data: 2007321664
I0929 13:47:20.227613 36229 layer_factory.hpp:77] Creating layer conv4_1_1x1_reduce/bn
I0929 13:47:20.227622 36229 net.cpp:100] Creating Layer conv4_1_1x1_reduce/bn
I0929 13:47:20.227625 36229 net.cpp:434] conv4_1_1x1_reduce/bn <- conv4_1_1x1_reduce
I0929 13:47:20.227630 36229 net.cpp:395] conv4_1_1x1_reduce/bn -> conv4_1_1x1_reduce (in-place)
I0929 13:47:20.227936 36229 net.cpp:150] Setting up conv4_1_1x1_reduce/bn
I0929 13:47:20.227943 36229 net.cpp:157] Top shape: 8 512 28 28 (3211264)
I0929 13:47:20.227946 36229 net.cpp:165] Memory required for data: 2020166720
I0929 13:47:20.227955 36229 layer_factory.hpp:77] Creating layer conv4_1_1x1_reduce/bn/scale
I0929 13:47:20.227962 36229 net.cpp:100] Creating Layer conv4_1_1x1_reduce/bn/scale
I0929 13:47:20.227964 36229 net.cpp:434] conv4_1_1x1_reduce/bn/scale <- conv4_1_1x1_reduce
I0929 13:47:20.227969 36229 net.cpp:395] conv4_1_1x1_reduce/bn/scale -> conv4_1_1x1_reduce (in-place)
I0929 13:47:20.228029 36229 layer_factory.hpp:77] Creating layer conv4_1_1x1_reduce/bn/scale
I0929 13:47:20.228215 36229 net.cpp:150] Setting up conv4_1_1x1_reduce/bn/scale
I0929 13:47:20.228225 36229 net.cpp:157] Top shape: 8 512 28 28 (3211264)
I0929 13:47:20.228229 36229 net.cpp:165] Memory required for data: 2033011776
I0929 13:47:20.228235 36229 layer_factory.hpp:77] Creating layer conv4_1_1x1_reduce/relu
I0929 13:47:20.228241 36229 net.cpp:100] Creating Layer conv4_1_1x1_reduce/relu
I0929 13:47:20.228245 36229 net.cpp:434] conv4_1_1x1_reduce/relu <- conv4_1_1x1_reduce
I0929 13:47:20.228248 36229 net.cpp:395] conv4_1_1x1_reduce/relu -> conv4_1_1x1_reduce (in-place)
I0929 13:47:20.228467 36229 net.cpp:150] Setting up conv4_1_1x1_reduce/relu
I0929 13:47:20.228478 36229 net.cpp:157] Top shape: 8 512 28 28 (3211264)
I0929 13:47:20.228482 36229 net.cpp:165] Memory required for data: 2045856832
I0929 13:47:20.228484 36229 layer_factory.hpp:77] Creating layer conv4_1_3x3
I0929 13:47:20.228494 36229 net.cpp:100] Creating Layer conv4_1_3x3
I0929 13:47:20.228497 36229 net.cpp:434] conv4_1_3x3 <- conv4_1_1x1_reduce
I0929 13:47:20.228502 36229 net.cpp:408] conv4_1_3x3 -> conv4_1_3x3
I0929 13:47:20.256564 36229 net.cpp:150] Setting up conv4_1_3x3
I0929 13:47:20.256580 36229 net.cpp:157] Top shape: 8 512 14 14 (802816)
I0929 13:47:20.256585 36229 net.cpp:165] Memory required for data: 2049068096
I0929 13:47:20.256592 36229 layer_factory.hpp:77] Creating layer conv4_1_3x3/bn
I0929 13:47:20.256597 36229 net.cpp:100] Creating Layer conv4_1_3x3/bn
I0929 13:47:20.256602 36229 net.cpp:434] conv4_1_3x3/bn <- conv4_1_3x3
I0929 13:47:20.256608 36229 net.cpp:395] conv4_1_3x3/bn -> conv4_1_3x3 (in-place)
I0929 13:47:20.256947 36229 net.cpp:150] Setting up conv4_1_3x3/bn
I0929 13:47:20.256956 36229 net.cpp:157] Top shape: 8 512 14 14 (802816)
I0929 13:47:20.256959 36229 net.cpp:165] Memory required for data: 2052279360
I0929 13:47:20.256966 36229 layer_factory.hpp:77] Creating layer conv4_1_3x3/bn/scale
I0929 13:47:20.256973 36229 net.cpp:100] Creating Layer conv4_1_3x3/bn/scale
I0929 13:47:20.256975 36229 net.cpp:434] conv4_1_3x3/bn/scale <- conv4_1_3x3
I0929 13:47:20.256979 36229 net.cpp:395] conv4_1_3x3/bn/scale -> conv4_1_3x3 (in-place)
I0929 13:47:20.257037 36229 layer_factory.hpp:77] Creating layer conv4_1_3x3/bn/scale
I0929 13:47:20.257236 36229 net.cpp:150] Setting up conv4_1_3x3/bn/scale
I0929 13:47:20.257246 36229 net.cpp:157] Top shape: 8 512 14 14 (802816)
I0929 13:47:20.257249 36229 net.cpp:165] Memory required for data: 2055490624
I0929 13:47:20.257254 36229 layer_factory.hpp:77] Creating layer conv4_1_3x3/relu
I0929 13:47:20.257261 36229 net.cpp:100] Creating Layer conv4_1_3x3/relu
I0929 13:47:20.257266 36229 net.cpp:434] conv4_1_3x3/relu <- conv4_1_3x3
I0929 13:47:20.257269 36229 net.cpp:395] conv4_1_3x3/relu -> conv4_1_3x3 (in-place)
I0929 13:47:20.257808 36229 net.cpp:150] Setting up conv4_1_3x3/relu
I0929 13:47:20.257822 36229 net.cpp:157] Top shape: 8 512 14 14 (802816)
I0929 13:47:20.257838 36229 net.cpp:165] Memory required for data: 2058701888
I0929 13:47:20.257843 36229 layer_factory.hpp:77] Creating layer conv4_1_1x1_increase
I0929 13:47:20.257853 36229 net.cpp:100] Creating Layer conv4_1_1x1_increase
I0929 13:47:20.257858 36229 net.cpp:434] conv4_1_1x1_increase <- conv4_1_3x3
I0929 13:47:20.257864 36229 net.cpp:408] conv4_1_1x1_increase -> conv4_1_1x1_increase
I0929 13:47:20.260231 36229 net.cpp:150] Setting up conv4_1_1x1_increase
I0929 13:47:20.260246 36229 net.cpp:157] Top shape: 8 1024 14 14 (1605632)
I0929 13:47:20.260249 36229 net.cpp:165] Memory required for data: 2065124416
I0929 13:47:20.260254 36229 layer_factory.hpp:77] Creating layer conv4_1_1x1_increase/bn
I0929 13:47:20.260262 36229 net.cpp:100] Creating Layer conv4_1_1x1_increase/bn
I0929 13:47:20.260267 36229 net.cpp:434] conv4_1_1x1_increase/bn <- conv4_1_1x1_increase
I0929 13:47:20.260272 36229 net.cpp:395] conv4_1_1x1_increase/bn -> conv4_1_1x1_increase (in-place)
I0929 13:47:20.260587 36229 net.cpp:150] Setting up conv4_1_1x1_increase/bn
I0929 13:47:20.260596 36229 net.cpp:157] Top shape: 8 1024 14 14 (1605632)
I0929 13:47:20.260598 36229 net.cpp:165] Memory required for data: 2071546944
I0929 13:47:20.260606 36229 layer_factory.hpp:77] Creating layer conv4_1_1x1_increase/bn/scale
I0929 13:47:20.260612 36229 net.cpp:100] Creating Layer conv4_1_1x1_increase/bn/scale
I0929 13:47:20.260617 36229 net.cpp:434] conv4_1_1x1_increase/bn/scale <- conv4_1_1x1_increase
I0929 13:47:20.260619 36229 net.cpp:395] conv4_1_1x1_increase/bn/scale -> conv4_1_1x1_increase (in-place)
I0929 13:47:20.260679 36229 layer_factory.hpp:77] Creating layer conv4_1_1x1_increase/bn/scale
I0929 13:47:20.260874 36229 net.cpp:150] Setting up conv4_1_1x1_increase/bn/scale
I0929 13:47:20.260884 36229 net.cpp:157] Top shape: 8 1024 14 14 (1605632)
I0929 13:47:20.260885 36229 net.cpp:165] Memory required for data: 2077969472
I0929 13:47:20.260891 36229 layer_factory.hpp:77] Creating layer conv4_1_1x1_increase_conv4_1_1x1_increase/bn/scale_0_split
I0929 13:47:20.260898 36229 net.cpp:100] Creating Layer conv4_1_1x1_increase_conv4_1_1x1_increase/bn/scale_0_split
I0929 13:47:20.260901 36229 net.cpp:434] conv4_1_1x1_increase_conv4_1_1x1_increase/bn/scale_0_split <- conv4_1_1x1_increase
I0929 13:47:20.260905 36229 net.cpp:408] conv4_1_1x1_increase_conv4_1_1x1_increase/bn/scale_0_split -> conv4_1_1x1_increase_conv4_1_1x1_increase/bn/scale_0_split_0
I0929 13:47:20.260912 36229 net.cpp:408] conv4_1_1x1_increase_conv4_1_1x1_increase/bn/scale_0_split -> conv4_1_1x1_increase_conv4_1_1x1_increase/bn/scale_0_split_1
I0929 13:47:20.261001 36229 net.cpp:150] Setting up conv4_1_1x1_increase_conv4_1_1x1_increase/bn/scale_0_split
I0929 13:47:20.261010 36229 net.cpp:157] Top shape: 8 1024 14 14 (1605632)
I0929 13:47:20.261014 36229 net.cpp:157] Top shape: 8 1024 14 14 (1605632)
I0929 13:47:20.261016 36229 net.cpp:165] Memory required for data: 2090814528
I0929 13:47:20.261019 36229 layer_factory.hpp:77] Creating layer conv4_1_global_pool
I0929 13:47:20.261025 36229 net.cpp:100] Creating Layer conv4_1_global_pool
I0929 13:47:20.261029 36229 net.cpp:434] conv4_1_global_pool <- conv4_1_1x1_increase_conv4_1_1x1_increase/bn/scale_0_split_0
I0929 13:47:20.261034 36229 net.cpp:408] conv4_1_global_pool -> conv4_1_global_pool
I0929 13:47:20.261072 36229 net.cpp:150] Setting up conv4_1_global_pool
I0929 13:47:20.261080 36229 net.cpp:157] Top shape: 8 1024 1 1 (8192)
I0929 13:47:20.261081 36229 net.cpp:165] Memory required for data: 2090847296
I0929 13:47:20.261085 36229 layer_factory.hpp:77] Creating layer conv4_1_1x1_down
I0929 13:47:20.261093 36229 net.cpp:100] Creating Layer conv4_1_1x1_down
I0929 13:47:20.261098 36229 net.cpp:434] conv4_1_1x1_down <- conv4_1_global_pool
I0929 13:47:20.261102 36229 net.cpp:408] conv4_1_1x1_down -> conv4_1_1x1_down
I0929 13:47:20.262581 36229 net.cpp:150] Setting up conv4_1_1x1_down
I0929 13:47:20.262595 36229 net.cpp:157] Top shape: 8 64 1 1 (512)
I0929 13:47:20.262599 36229 net.cpp:165] Memory required for data: 2090849344
I0929 13:47:20.262617 36229 layer_factory.hpp:77] Creating layer conv4_1_1x1_down/relu
I0929 13:47:20.262625 36229 net.cpp:100] Creating Layer conv4_1_1x1_down/relu
I0929 13:47:20.262630 36229 net.cpp:434] conv4_1_1x1_down/relu <- conv4_1_1x1_down
I0929 13:47:20.262637 36229 net.cpp:395] conv4_1_1x1_down/relu -> conv4_1_1x1_down (in-place)
I0929 13:47:20.263164 36229 net.cpp:150] Setting up conv4_1_1x1_down/relu
I0929 13:47:20.263177 36229 net.cpp:157] Top shape: 8 64 1 1 (512)
I0929 13:47:20.263180 36229 net.cpp:165] Memory required for data: 2090851392
I0929 13:47:20.263185 36229 layer_factory.hpp:77] Creating layer conv4_1_1x1_up
I0929 13:47:20.263195 36229 net.cpp:100] Creating Layer conv4_1_1x1_up
I0929 13:47:20.263198 36229 net.cpp:434] conv4_1_1x1_up <- conv4_1_1x1_down
I0929 13:47:20.263216 36229 net.cpp:408] conv4_1_1x1_up -> conv4_1_1x1_up
I0929 13:47:20.264691 36229 net.cpp:150] Setting up conv4_1_1x1_up
I0929 13:47:20.264705 36229 net.cpp:157] Top shape: 8 1024 1 1 (8192)
I0929 13:47:20.264709 36229 net.cpp:165] Memory required for data: 2090884160
I0929 13:47:20.264715 36229 layer_factory.hpp:77] Creating layer conv4_1_prob
I0929 13:47:20.264722 36229 net.cpp:100] Creating Layer conv4_1_prob
I0929 13:47:20.264726 36229 net.cpp:434] conv4_1_prob <- conv4_1_1x1_up
I0929 13:47:20.264730 36229 net.cpp:395] conv4_1_prob -> conv4_1_1x1_up (in-place)
I0929 13:47:20.264953 36229 net.cpp:150] Setting up conv4_1_prob
I0929 13:47:20.264964 36229 net.cpp:157] Top shape: 8 1024 1 1 (8192)
I0929 13:47:20.264967 36229 net.cpp:165] Memory required for data: 2090916928
I0929 13:47:20.264971 36229 layer_factory.hpp:77] Creating layer conv4_1_1x1_proj
I0929 13:47:20.264982 36229 net.cpp:100] Creating Layer conv4_1_1x1_proj
I0929 13:47:20.264988 36229 net.cpp:434] conv4_1_1x1_proj <- conv3_4_conv3_4/relu_0_split_1
I0929 13:47:20.264993 36229 net.cpp:408] conv4_1_1x1_proj -> conv4_1_1x1_proj
I0929 13:47:20.267931 36229 net.cpp:150] Setting up conv4_1_1x1_proj
I0929 13:47:20.267946 36229 net.cpp:157] Top shape: 8 1024 14 14 (1605632)
I0929 13:47:20.267951 36229 net.cpp:165] Memory required for data: 2097339456
I0929 13:47:20.267956 36229 layer_factory.hpp:77] Creating layer conv4_1_1x1_proj/bn
I0929 13:47:20.267962 36229 net.cpp:100] Creating Layer conv4_1_1x1_proj/bn
I0929 13:47:20.267966 36229 net.cpp:434] conv4_1_1x1_proj/bn <- conv4_1_1x1_proj
I0929 13:47:20.267971 36229 net.cpp:395] conv4_1_1x1_proj/bn -> conv4_1_1x1_proj (in-place)
I0929 13:47:20.268271 36229 net.cpp:150] Setting up conv4_1_1x1_proj/bn
I0929 13:47:20.268280 36229 net.cpp:157] Top shape: 8 1024 14 14 (1605632)
I0929 13:47:20.268283 36229 net.cpp:165] Memory required for data: 2103761984
I0929 13:47:20.268290 36229 layer_factory.hpp:77] Creating layer conv4_1_1x1_proj/bn/scale
I0929 13:47:20.268296 36229 net.cpp:100] Creating Layer conv4_1_1x1_proj/bn/scale
I0929 13:47:20.268301 36229 net.cpp:434] conv4_1_1x1_proj/bn/scale <- conv4_1_1x1_proj
I0929 13:47:20.268304 36229 net.cpp:395] conv4_1_1x1_proj/bn/scale -> conv4_1_1x1_proj (in-place)
I0929 13:47:20.268360 36229 layer_factory.hpp:77] Creating layer conv4_1_1x1_proj/bn/scale
I0929 13:47:20.268533 36229 net.cpp:150] Setting up conv4_1_1x1_proj/bn/scale
I0929 13:47:20.268541 36229 net.cpp:157] Top shape: 8 1024 14 14 (1605632)
I0929 13:47:20.268544 36229 net.cpp:165] Memory required for data: 2110184512
I0929 13:47:20.268550 36229 layer_factory.hpp:77] Creating layer conv4_1
I0929 13:47:20.268555 36229 net.cpp:100] Creating Layer conv4_1
I0929 13:47:20.268559 36229 net.cpp:434] conv4_1 <- conv4_1_1x1_up
I0929 13:47:20.268563 36229 net.cpp:434] conv4_1 <- conv4_1_1x1_increase_conv4_1_1x1_increase/bn/scale_0_split_1
I0929 13:47:20.268568 36229 net.cpp:434] conv4_1 <- conv4_1_1x1_proj
I0929 13:47:20.268571 36229 net.cpp:408] conv4_1 -> conv4_1
I0929 13:47:20.268671 36229 net.cpp:150] Setting up conv4_1
I0929 13:47:20.268678 36229 net.cpp:157] Top shape: 8 1024 14 14 (1605632)
I0929 13:47:20.268681 36229 net.cpp:165] Memory required for data: 2116607040
I0929 13:47:20.268684 36229 layer_factory.hpp:77] Creating layer conv4_1/relu
I0929 13:47:20.268702 36229 net.cpp:100] Creating Layer conv4_1/relu
I0929 13:47:20.268707 36229 net.cpp:434] conv4_1/relu <- conv4_1
I0929 13:47:20.268712 36229 net.cpp:395] conv4_1/relu -> conv4_1 (in-place)
I0929 13:47:20.268923 36229 net.cpp:150] Setting up conv4_1/relu
I0929 13:47:20.268932 36229 net.cpp:157] Top shape: 8 1024 14 14 (1605632)
I0929 13:47:20.268935 36229 net.cpp:165] Memory required for data: 2123029568
I0929 13:47:20.268939 36229 layer_factory.hpp:77] Creating layer conv4_1_conv4_1/relu_0_split
I0929 13:47:20.268954 36229 net.cpp:100] Creating Layer conv4_1_conv4_1/relu_0_split
I0929 13:47:20.268960 36229 net.cpp:434] conv4_1_conv4_1/relu_0_split <- conv4_1
I0929 13:47:20.268965 36229 net.cpp:408] conv4_1_conv4_1/relu_0_split -> conv4_1_conv4_1/relu_0_split_0
I0929 13:47:20.268971 36229 net.cpp:408] conv4_1_conv4_1/relu_0_split -> conv4_1_conv4_1/relu_0_split_1
I0929 13:47:20.269040 36229 net.cpp:150] Setting up conv4_1_conv4_1/relu_0_split
I0929 13:47:20.269047 36229 net.cpp:157] Top shape: 8 1024 14 14 (1605632)
I0929 13:47:20.269050 36229 net.cpp:157] Top shape: 8 1024 14 14 (1605632)
I0929 13:47:20.269053 36229 net.cpp:165] Memory required for data: 2135874624
I0929 13:47:20.269057 36229 layer_factory.hpp:77] Creating layer conv4_2_1x1_reduce
I0929 13:47:20.269064 36229 net.cpp:100] Creating Layer conv4_2_1x1_reduce
I0929 13:47:20.269068 36229 net.cpp:434] conv4_2_1x1_reduce <- conv4_1_conv4_1/relu_0_split_0
I0929 13:47:20.269073 36229 net.cpp:408] conv4_2_1x1_reduce -> conv4_2_1x1_reduce
I0929 13:47:20.271750 36229 net.cpp:150] Setting up conv4_2_1x1_reduce
I0929 13:47:20.271765 36229 net.cpp:157] Top shape: 8 512 14 14 (802816)
I0929 13:47:20.271769 36229 net.cpp:165] Memory required for data: 2139085888
I0929 13:47:20.271775 36229 layer_factory.hpp:77] Creating layer conv4_2_1x1_reduce/bn
I0929 13:47:20.271782 36229 net.cpp:100] Creating Layer conv4_2_1x1_reduce/bn
I0929 13:47:20.271790 36229 net.cpp:434] conv4_2_1x1_reduce/bn <- conv4_2_1x1_reduce
I0929 13:47:20.271795 36229 net.cpp:395] conv4_2_1x1_reduce/bn -> conv4_2_1x1_reduce (in-place)
I0929 13:47:20.272141 36229 net.cpp:150] Setting up conv4_2_1x1_reduce/bn
I0929 13:47:20.272151 36229 net.cpp:157] Top shape: 8 512 14 14 (802816)
I0929 13:47:20.272155 36229 net.cpp:165] Memory required for data: 2142297152
I0929 13:47:20.272161 36229 layer_factory.hpp:77] Creating layer conv4_2_1x1_reduce/bn/scale
I0929 13:47:20.272169 36229 net.cpp:100] Creating Layer conv4_2_1x1_reduce/bn/scale
I0929 13:47:20.272173 36229 net.cpp:434] conv4_2_1x1_reduce/bn/scale <- conv4_2_1x1_reduce
I0929 13:47:20.272177 36229 net.cpp:395] conv4_2_1x1_reduce/bn/scale -> conv4_2_1x1_reduce (in-place)
I0929 13:47:20.272238 36229 layer_factory.hpp:77] Creating layer conv4_2_1x1_reduce/bn/scale
I0929 13:47:20.272424 36229 net.cpp:150] Setting up conv4_2_1x1_reduce/bn/scale
I0929 13:47:20.272433 36229 net.cpp:157] Top shape: 8 512 14 14 (802816)
I0929 13:47:20.272435 36229 net.cpp:165] Memory required for data: 2145508416
I0929 13:47:20.272440 36229 layer_factory.hpp:77] Creating layer conv4_2_1x1_reduce/relu
I0929 13:47:20.272460 36229 net.cpp:100] Creating Layer conv4_2_1x1_reduce/relu
I0929 13:47:20.272466 36229 net.cpp:434] conv4_2_1x1_reduce/relu <- conv4_2_1x1_reduce
I0929 13:47:20.272474 36229 net.cpp:395] conv4_2_1x1_reduce/relu -> conv4_2_1x1_reduce (in-place)
I0929 13:47:20.272686 36229 net.cpp:150] Setting up conv4_2_1x1_reduce/relu
I0929 13:47:20.272694 36229 net.cpp:157] Top shape: 8 512 14 14 (802816)
I0929 13:47:20.272697 36229 net.cpp:165] Memory required for data: 2148719680
I0929 13:47:20.272701 36229 layer_factory.hpp:77] Creating layer conv4_2_3x3
I0929 13:47:20.272711 36229 net.cpp:100] Creating Layer conv4_2_3x3
I0929 13:47:20.272713 36229 net.cpp:434] conv4_2_3x3 <- conv4_2_1x1_reduce
I0929 13:47:20.272720 36229 net.cpp:408] conv4_2_3x3 -> conv4_2_3x3
I0929 13:47:20.302490 36229 net.cpp:150] Setting up conv4_2_3x3
I0929 13:47:20.302505 36229 net.cpp:157] Top shape: 8 512 14 14 (802816)
I0929 13:47:20.302508 36229 net.cpp:165] Memory required for data: 2151930944
I0929 13:47:20.302526 36229 layer_factory.hpp:77] Creating layer conv4_2_3x3/bn
I0929 13:47:20.302536 36229 net.cpp:100] Creating Layer conv4_2_3x3/bn
I0929 13:47:20.302541 36229 net.cpp:434] conv4_2_3x3/bn <- conv4_2_3x3
I0929 13:47:20.302546 36229 net.cpp:395] conv4_2_3x3/bn -> conv4_2_3x3 (in-place)
I0929 13:47:20.302919 36229 net.cpp:150] Setting up conv4_2_3x3/bn
I0929 13:47:20.302928 36229 net.cpp:157] Top shape: 8 512 14 14 (802816)
I0929 13:47:20.302932 36229 net.cpp:165] Memory required for data: 2155142208
I0929 13:47:20.302939 36229 layer_factory.hpp:77] Creating layer conv4_2_3x3/bn/scale
I0929 13:47:20.302945 36229 net.cpp:100] Creating Layer conv4_2_3x3/bn/scale
I0929 13:47:20.302948 36229 net.cpp:434] conv4_2_3x3/bn/scale <- conv4_2_3x3
I0929 13:47:20.302954 36229 net.cpp:395] conv4_2_3x3/bn/scale -> conv4_2_3x3 (in-place)
I0929 13:47:20.303016 36229 layer_factory.hpp:77] Creating layer conv4_2_3x3/bn/scale
I0929 13:47:20.303241 36229 net.cpp:150] Setting up conv4_2_3x3/bn/scale
I0929 13:47:20.303249 36229 net.cpp:157] Top shape: 8 512 14 14 (802816)
I0929 13:47:20.303252 36229 net.cpp:165] Memory required for data: 2158353472
I0929 13:47:20.303257 36229 layer_factory.hpp:77] Creating layer conv4_2_3x3/relu
I0929 13:47:20.303264 36229 net.cpp:100] Creating Layer conv4_2_3x3/relu
I0929 13:47:20.303268 36229 net.cpp:434] conv4_2_3x3/relu <- conv4_2_3x3
I0929 13:47:20.303272 36229 net.cpp:395] conv4_2_3x3/relu -> conv4_2_3x3 (in-place)
I0929 13:47:20.303494 36229 net.cpp:150] Setting up conv4_2_3x3/relu
I0929 13:47:20.303505 36229 net.cpp:157] Top shape: 8 512 14 14 (802816)
I0929 13:47:20.303508 36229 net.cpp:165] Memory required for data: 2161564736
I0929 13:47:20.303511 36229 layer_factory.hpp:77] Creating layer conv4_2_1x1_increase
I0929 13:47:20.303519 36229 net.cpp:100] Creating Layer conv4_2_1x1_increase
I0929 13:47:20.303522 36229 net.cpp:434] conv4_2_1x1_increase <- conv4_2_3x3
I0929 13:47:20.303529 36229 net.cpp:408] conv4_2_1x1_increase -> conv4_2_1x1_increase
I0929 13:47:20.306309 36229 net.cpp:150] Setting up conv4_2_1x1_increase
I0929 13:47:20.306324 36229 net.cpp:157] Top shape: 8 1024 14 14 (1605632)
I0929 13:47:20.306327 36229 net.cpp:165] Memory required for data: 2167987264
I0929 13:47:20.306334 36229 layer_factory.hpp:77] Creating layer conv4_2_1x1_increase/bn
I0929 13:47:20.306341 36229 net.cpp:100] Creating Layer conv4_2_1x1_increase/bn
I0929 13:47:20.306345 36229 net.cpp:434] conv4_2_1x1_increase/bn <- conv4_2_1x1_increase
I0929 13:47:20.306349 36229 net.cpp:395] conv4_2_1x1_increase/bn -> conv4_2_1x1_increase (in-place)
I0929 13:47:20.306699 36229 net.cpp:150] Setting up conv4_2_1x1_increase/bn
I0929 13:47:20.306707 36229 net.cpp:157] Top shape: 8 1024 14 14 (1605632)
I0929 13:47:20.306710 36229 net.cpp:165] Memory required for data: 2174409792
I0929 13:47:20.306717 36229 layer_factory.hpp:77] Creating layer conv4_2_1x1_increase/bn/scale
I0929 13:47:20.306725 36229 net.cpp:100] Creating Layer conv4_2_1x1_increase/bn/scale
I0929 13:47:20.306728 36229 net.cpp:434] conv4_2_1x1_increase/bn/scale <- conv4_2_1x1_increase
I0929 13:47:20.306732 36229 net.cpp:395] conv4_2_1x1_increase/bn/scale -> conv4_2_1x1_increase (in-place)
I0929 13:47:20.306802 36229 layer_factory.hpp:77] Creating layer conv4_2_1x1_increase/bn/scale
I0929 13:47:20.307005 36229 net.cpp:150] Setting up conv4_2_1x1_increase/bn/scale
I0929 13:47:20.307013 36229 net.cpp:157] Top shape: 8 1024 14 14 (1605632)
I0929 13:47:20.307015 36229 net.cpp:165] Memory required for data: 2180832320
I0929 13:47:20.307021 36229 layer_factory.hpp:77] Creating layer conv4_2_1x1_increase_conv4_2_1x1_increase/bn/scale_0_split
I0929 13:47:20.307029 36229 net.cpp:100] Creating Layer conv4_2_1x1_increase_conv4_2_1x1_increase/bn/scale_0_split
I0929 13:47:20.307031 36229 net.cpp:434] conv4_2_1x1_increase_conv4_2_1x1_increase/bn/scale_0_split <- conv4_2_1x1_increase
I0929 13:47:20.307035 36229 net.cpp:408] conv4_2_1x1_increase_conv4_2_1x1_increase/bn/scale_0_split -> conv4_2_1x1_increase_conv4_2_1x1_increase/bn/scale_0_split_0
I0929 13:47:20.307068 36229 net.cpp:408] conv4_2_1x1_increase_conv4_2_1x1_increase/bn/scale_0_split -> conv4_2_1x1_increase_conv4_2_1x1_increase/bn/scale_0_split_1
I0929 13:47:20.307147 36229 net.cpp:150] Setting up conv4_2_1x1_increase_conv4_2_1x1_increase/bn/scale_0_split
I0929 13:47:20.307154 36229 net.cpp:157] Top shape: 8 1024 14 14 (1605632)
I0929 13:47:20.307158 36229 net.cpp:157] Top shape: 8 1024 14 14 (1605632)
I0929 13:47:20.307162 36229 net.cpp:165] Memory required for data: 2193677376
I0929 13:47:20.307164 36229 layer_factory.hpp:77] Creating layer conv4_2_global_pool
I0929 13:47:20.307169 36229 net.cpp:100] Creating Layer conv4_2_global_pool
I0929 13:47:20.307173 36229 net.cpp:434] conv4_2_global_pool <- conv4_2_1x1_increase_conv4_2_1x1_increase/bn/scale_0_split_0
I0929 13:47:20.307178 36229 net.cpp:408] conv4_2_global_pool -> conv4_2_global_pool
I0929 13:47:20.307219 36229 net.cpp:150] Setting up conv4_2_global_pool
I0929 13:47:20.307225 36229 net.cpp:157] Top shape: 8 1024 1 1 (8192)
I0929 13:47:20.307229 36229 net.cpp:165] Memory required for data: 2193710144
I0929 13:47:20.307231 36229 layer_factory.hpp:77] Creating layer conv4_2_1x1_down
I0929 13:47:20.307241 36229 net.cpp:100] Creating Layer conv4_2_1x1_down
I0929 13:47:20.307246 36229 net.cpp:434] conv4_2_1x1_down <- conv4_2_global_pool
I0929 13:47:20.307250 36229 net.cpp:408] conv4_2_1x1_down -> conv4_2_1x1_down
I0929 13:47:20.308832 36229 net.cpp:150] Setting up conv4_2_1x1_down
I0929 13:47:20.308847 36229 net.cpp:157] Top shape: 8 64 1 1 (512)
I0929 13:47:20.308851 36229 net.cpp:165] Memory required for data: 2193712192
I0929 13:47:20.308857 36229 layer_factory.hpp:77] Creating layer conv4_2_1x1_down/relu
I0929 13:47:20.308866 36229 net.cpp:100] Creating Layer conv4_2_1x1_down/relu
I0929 13:47:20.308871 36229 net.cpp:434] conv4_2_1x1_down/relu <- conv4_2_1x1_down
I0929 13:47:20.308876 36229 net.cpp:395] conv4_2_1x1_down/relu -> conv4_2_1x1_down (in-place)
I0929 13:47:20.309096 36229 net.cpp:150] Setting up conv4_2_1x1_down/relu
I0929 13:47:20.309105 36229 net.cpp:157] Top shape: 8 64 1 1 (512)
I0929 13:47:20.309108 36229 net.cpp:165] Memory required for data: 2193714240
I0929 13:47:20.309111 36229 layer_factory.hpp:77] Creating layer conv4_2_1x1_up
I0929 13:47:20.309121 36229 net.cpp:100] Creating Layer conv4_2_1x1_up
I0929 13:47:20.309124 36229 net.cpp:434] conv4_2_1x1_up <- conv4_2_1x1_down
I0929 13:47:20.309131 36229 net.cpp:408] conv4_2_1x1_up -> conv4_2_1x1_up
I0929 13:47:20.311681 36229 net.cpp:150] Setting up conv4_2_1x1_up
I0929 13:47:20.311694 36229 net.cpp:157] Top shape: 8 1024 1 1 (8192)
I0929 13:47:20.311698 36229 net.cpp:165] Memory required for data: 2193747008
I0929 13:47:20.311705 36229 layer_factory.hpp:77] Creating layer conv4_2_prob
I0929 13:47:20.311713 36229 net.cpp:100] Creating Layer conv4_2_prob
I0929 13:47:20.311719 36229 net.cpp:434] conv4_2_prob <- conv4_2_1x1_up
I0929 13:47:20.311724 36229 net.cpp:395] conv4_2_prob -> conv4_2_1x1_up (in-place)
I0929 13:47:20.311952 36229 net.cpp:150] Setting up conv4_2_prob
I0929 13:47:20.311962 36229 net.cpp:157] Top shape: 8 1024 1 1 (8192)
I0929 13:47:20.311965 36229 net.cpp:165] Memory required for data: 2193779776
I0929 13:47:20.311969 36229 layer_factory.hpp:77] Creating layer conv4_2
I0929 13:47:20.311975 36229 net.cpp:100] Creating Layer conv4_2
I0929 13:47:20.311980 36229 net.cpp:434] conv4_2 <- conv4_2_1x1_up
I0929 13:47:20.311983 36229 net.cpp:434] conv4_2 <- conv4_2_1x1_increase_conv4_2_1x1_increase/bn/scale_0_split_1
I0929 13:47:20.311987 36229 net.cpp:434] conv4_2 <- conv4_1_conv4_1/relu_0_split_1
I0929 13:47:20.311993 36229 net.cpp:408] conv4_2 -> conv4_2
I0929 13:47:20.312091 36229 net.cpp:150] Setting up conv4_2
I0929 13:47:20.312099 36229 net.cpp:157] Top shape: 8 1024 14 14 (1605632)
I0929 13:47:20.312103 36229 net.cpp:165] Memory required for data: 2200202304
I0929 13:47:20.312105 36229 layer_factory.hpp:77] Creating layer conv4_2/relu
…
I0929 13:47:21.339391 36229 net.cpp:165] Memory required for data: 308982660
I0929 13:47:21.339398 36229 layer_factory.hpp:77] Creating layer conv4_6_1x1_reduce/bn/scale
I0929 13:47:21.339406 36229 net.cpp:100] Creating Layer conv4_6_1x1_reduce/bn/scale
I0929 13:47:21.339408 36229 net.cpp:434] conv4_6_1x1_reduce/bn/scale <- conv4_6_1x1_reduce
I0929 13:47:21.339412 36229 net.cpp:395] conv4_6_1x1_reduce/bn/scale -> conv4_6_1x1_reduce (in-place)
I0929 13:47:21.339514 36229 layer_factory.hpp:77] Creating layer conv4_6_1x1_reduce/bn/scale
I0929 13:47:21.339735 36229 net.cpp:150] Setting up conv4_6_1x1_reduce/bn/scale
I0929 13:47:21.339743 36229 net.cpp:157] Top shape: 1 512 14 14 (100352)
I0929 13:47:21.339746 36229 net.cpp:165] Memory required for data: 309384068
I0929 13:47:21.339751 36229 layer_factory.hpp:77] Creating layer conv4_6_1x1_reduce/relu
I0929 13:47:21.339756 36229 net.cpp:100] Creating Layer conv4_6_1x1_reduce/relu
I0929 13:47:21.339759 36229 net.cpp:434] conv4_6_1x1_reduce/relu <- conv4_6_1x1_reduce
I0929 13:47:21.339763 36229 net.cpp:395] conv4_6_1x1_reduce/relu -> conv4_6_1x1_reduce (in-place)
I0929 13:47:21.339977 36229 net.cpp:150] Setting up conv4_6_1x1_reduce/relu
I0929 13:47:21.339987 36229 net.cpp:157] Top shape: 1 512 14 14 (100352)
I0929 13:47:21.340003 36229 net.cpp:165] Memory required for data: 309785476
I0929 13:47:21.340008 36229 layer_factory.hpp:77] Creating layer conv4_6_3x3
I0929 13:47:21.340016 36229 net.cpp:100] Creating Layer conv4_6_3x3
I0929 13:47:21.340021 36229 net.cpp:434] conv4_6_3x3 <- conv4_6_1x1_reduce
I0929 13:47:21.340029 36229 net.cpp:408] conv4_6_3x3 -> conv4_6_3x3
I0929 13:47:21.374454 36229 net.cpp:150] Setting up conv4_6_3x3
I0929 13:47:21.374470 36229 net.cpp:157] Top shape: 1 512 14 14 (100352)
I0929 13:47:21.374475 36229 net.cpp:165] Memory required for data: 310186884
I0929 13:47:21.374480 36229 layer_factory.hpp:77] Creating layer conv4_6_3x3/bn
I0929 13:47:21.374487 36229 net.cpp:100] Creating Layer conv4_6_3x3/bn
I0929 13:47:21.374490 36229 net.cpp:434] conv4_6_3x3/bn <- conv4_6_3x3
I0929 13:47:21.374497 36229 net.cpp:395] conv4_6_3x3/bn -> conv4_6_3x3 (in-place)
I0929 13:47:21.374897 36229 net.cpp:150] Setting up conv4_6_3x3/bn
I0929 13:47:21.374907 36229 net.cpp:157] Top shape: 1 512 14 14 (100352)
I0929 13:47:21.374910 36229 net.cpp:165] Memory required for data: 310588292
I0929 13:47:21.374917 36229 layer_factory.hpp:77] Creating layer conv4_6_3x3/bn/scale
I0929 13:47:21.374923 36229 net.cpp:100] Creating Layer conv4_6_3x3/bn/scale
I0929 13:47:21.374927 36229 net.cpp:434] conv4_6_3x3/bn/scale <- conv4_6_3x3
I0929 13:47:21.374930 36229 net.cpp:395] conv4_6_3x3/bn/scale -> conv4_6_3x3 (in-place)
I0929 13:47:21.375037 36229 layer_factory.hpp:77] Creating layer conv4_6_3x3/bn/scale
I0929 13:47:21.375267 36229 net.cpp:150] Setting up conv4_6_3x3/bn/scale
I0929 13:47:21.375275 36229 net.cpp:157] Top shape: 1 512 14 14 (100352)
I0929 13:47:21.375278 36229 net.cpp:165] Memory required for data: 310989700
I0929 13:47:21.375283 36229 layer_factory.hpp:77] Creating layer conv4_6_3x3/relu
I0929 13:47:21.375288 36229 net.cpp:100] Creating Layer conv4_6_3x3/relu
I0929 13:47:21.375291 36229 net.cpp:434] conv4_6_3x3/relu <- conv4_6_3x3
I0929 13:47:21.375301 36229 net.cpp:395] conv4_6_3x3/relu -> conv4_6_3x3 (in-place)
I0929 13:47:21.375520 36229 net.cpp:150] Setting up conv4_6_3x3/relu
I0929 13:47:21.375531 36229 net.cpp:157] Top shape: 1 512 14 14 (100352)
I0929 13:47:21.375535 36229 net.cpp:165] Memory required for data: 311391108
I0929 13:47:21.375537 36229 layer_factory.hpp:77] Creating layer conv4_6_1x1_increase
I0929 13:47:21.375546 36229 net.cpp:100] Creating Layer conv4_6_1x1_increase
I0929 13:47:21.375550 36229 net.cpp:434] conv4_6_1x1_increase <- conv4_6_3x3
I0929 13:47:21.375556 36229 net.cpp:408] conv4_6_1x1_increase -> conv4_6_1x1_increase
I0929 13:47:21.378515 36229 net.cpp:150] Setting up conv4_6_1x1_increase
I0929 13:47:21.378530 36229 net.cpp:157] Top shape: 1 1024 14 14 (200704)
I0929 13:47:21.378533 36229 net.cpp:165] Memory required for data: 312193924
I0929 13:47:21.378540 36229 layer_factory.hpp:77] Creating layer conv4_6_1x1_increase/bn
I0929 13:47:21.378547 36229 net.cpp:100] Creating Layer conv4_6_1x1_increase/bn
I0929 13:47:21.378551 36229 net.cpp:434] conv4_6_1x1_increase/bn <- conv4_6_1x1_increase
I0929 13:47:21.378557 36229 net.cpp:395] conv4_6_1x1_increase/bn -> conv4_6_1x1_increase (in-place)
I0929 13:47:21.378954 36229 net.cpp:150] Setting up conv4_6_1x1_increase/bn
I0929 13:47:21.378963 36229 net.cpp:157] Top shape: 1 1024 14 14 (200704)
I0929 13:47:21.378968 36229 net.cpp:165] Memory required for data: 312996740
I0929 13:47:21.378973 36229 layer_factory.hpp:77] Creating layer conv4_6_1x1_increase/bn/scale
I0929 13:47:21.378981 36229 net.cpp:100] Creating Layer conv4_6_1x1_increase/bn/scale
I0929 13:47:21.378985 36229 net.cpp:434] conv4_6_1x1_increase/bn/scale <- conv4_6_1x1_increase
I0929 13:47:21.378989 36229 net.cpp:395] conv4_6_1x1_increase/bn/scale -> conv4_6_1x1_increase (in-place)
I0929 13:47:21.379096 36229 layer_factory.hpp:77] Creating layer conv4_6_1x1_increase/bn/scale
I0929 13:47:21.379326 36229 net.cpp:150] Setting up conv4_6_1x1_increase/bn/scale
I0929 13:47:21.379334 36229 net.cpp:157] Top shape: 1 1024 14 14 (200704)
I0929 13:47:21.379350 36229 net.cpp:165] Memory required for data: 313799556
I0929 13:47:21.379356 36229 layer_factory.hpp:77] Creating layer conv4_6_1x1_increase_conv4_6_1x1_increase/bn/scale_0_split
I0929 13:47:21.379362 36229 net.cpp:100] Creating Layer conv4_6_1x1_increase_conv4_6_1x1_increase/bn/scale_0_split
I0929 13:47:21.379365 36229 net.cpp:434] conv4_6_1x1_increase_conv4_6_1x1_increase/bn/scale_0_split <- conv4_6_1x1_increase
I0929 13:47:21.379372 36229 net.cpp:408] conv4_6_1x1_increase_conv4_6_1x1_increase/bn/scale_0_split -> conv4_6_1x1_increase_conv4_6_1x1_increase/bn/scale_0_split_0
I0929 13:47:21.379379 36229 net.cpp:408] conv4_6_1x1_increase_conv4_6_1x1_increase/bn/scale_0_split -> conv4_6_1x1_increase_conv4_6_1x1_increase/bn/scale_0_split_1
I0929 13:47:21.379431 36229 net.cpp:150] Setting up conv4_6_1x1_increase_conv4_6_1x1_increase/bn/scale_0_split
I0929 13:47:21.379438 36229 net.cpp:157] Top shape: 1 1024 14 14 (200704)
I0929 13:47:21.379442 36229 net.cpp:157] Top shape: 1 1024 14 14 (200704)
I0929 13:47:21.379446 36229 net.cpp:165] Memory required for data: 315405188
I0929 13:47:21.379447 36229 layer_factory.hpp:77] Creating layer conv4_6_global_pool
I0929 13:47:21.379454 36229 net.cpp:100] Creating Layer conv4_6_global_pool
I0929 13:47:21.379457 36229 net.cpp:434] conv4_6_global_pool <- conv4_6_1x1_increase_conv4_6_1x1_increase/bn/scale_0_split_0
I0929 13:47:21.379462 36229 net.cpp:408] conv4_6_global_pool -> conv4_6_global_pool
I0929 13:47:21.379492 36229 net.cpp:150] Setting up conv4_6_global_pool
I0929 13:47:21.379498 36229 net.cpp:157] Top shape: 1 1024 1 1 (1024)
I0929 13:47:21.379500 36229 net.cpp:165] Memory required for data: 315409284
I0929 13:47:21.379504 36229 layer_factory.hpp:77] Creating layer conv4_6_1x1_down
I0929 13:47:21.379513 36229 net.cpp:100] Creating Layer conv4_6_1x1_down
I0929 13:47:21.379518 36229 net.cpp:434] conv4_6_1x1_down <- conv4_6_global_pool
I0929 13:47:21.379521 36229 net.cpp:408] conv4_6_1x1_down -> conv4_6_1x1_down
I0929 13:47:21.382314 36229 net.cpp:150] Setting up conv4_6_1x1_down
I0929 13:47:21.382329 36229 net.cpp:157] Top shape: 1 64 1 1 (64)
I0929 13:47:21.382333 36229 net.cpp:165] Memory required for data: 315409540
I0929 13:47:21.382339 36229 layer_factory.hpp:77] Creating layer conv4_6_1x1_down/relu
I0929 13:47:21.382345 36229 net.cpp:100] Creating Layer conv4_6_1x1_down/relu
I0929 13:47:21.382349 36229 net.cpp:434] conv4_6_1x1_down/relu <- conv4_6_1x1_down
I0929 13:47:21.382356 36229 net.cpp:395] conv4_6_1x1_down/relu -> conv4_6_1x1_down (in-place)
I0929 13:47:21.383049 36229 net.cpp:150] Setting up conv4_6_1x1_down/relu
I0929 13:47:21.383064 36229 net.cpp:157] Top shape: 1 64 1 1 (64)
I0929 13:47:21.383067 36229 net.cpp:165] Memory required for data: 315409796
I0929 13:47:21.383070 36229 layer_factory.hpp:77] Creating layer conv4_6_1x1_up
I0929 13:47:21.383080 36229 net.cpp:100] Creating Layer conv4_6_1x1_up
I0929 13:47:21.383085 36229 net.cpp:434] conv4_6_1x1_up <- conv4_6_1x1_down
I0929 13:47:21.383090 36229 net.cpp:408] conv4_6_1x1_up -> conv4_6_1x1_up
I0929 13:47:21.384237 36229 net.cpp:150] Setting up conv4_6_1x1_up
I0929 13:47:21.384248 36229 net.cpp:157] Top shape: 1 1024 1 1 (1024)
I0929 13:47:21.384251 36229 net.cpp:165] Memory required for data: 315413892
I0929 13:47:21.384258 36229 layer_factory.hpp:77] Creating layer conv4_6_prob
I0929 13:47:21.384263 36229 net.cpp:100] Creating Layer conv4_6_prob
I0929 13:47:21.384268 36229 net.cpp:434] conv4_6_prob <- conv4_6_1x1_up
I0929 13:47:21.384275 36229 net.cpp:395] conv4_6_prob -> conv4_6_1x1_up (in-place)
I0929 13:47:21.384980 36229 net.cpp:150] Setting up conv4_6_prob
I0929 13:47:21.384994 36229 net.cpp:157] Top shape: 1 1024 1 1 (1024)
I0929 13:47:21.384997 36229 net.cpp:165] Memory required for data: 315417988
I0929 13:47:21.385001 36229 layer_factory.hpp:77] Creating layer conv4_6
I0929 13:47:21.385010 36229 net.cpp:100] Creating Layer conv4_6
I0929 13:47:21.385013 36229 net.cpp:434] conv4_6 <- conv4_6_1x1_up
I0929 13:47:21.385017 36229 net.cpp:434] conv4_6 <- conv4_6_1x1_increase_conv4_6_1x1_increase/bn/scale_0_split_1
I0929 13:47:21.385033 36229 net.cpp:434] conv4_6 <- conv4_5_conv4_5/relu_0_split_1
I0929 13:47:21.385040 36229 net.cpp:408] conv4_6 -> conv4_6
I0929 13:47:21.385120 36229 net.cpp:150] Setting up conv4_6
I0929 13:47:21.385128 36229 net.cpp:157] Top shape: 1 1024 14 14 (200704)
I0929 13:47:21.385130 36229 net.cpp:165] Memory required for data: 316220804
I0929 13:47:21.385133 36229 layer_factory.hpp:77] Creating layer conv4_6/relu
I0929 13:47:21.385139 36229 net.cpp:100] Creating Layer conv4_6/relu
I0929 13:47:21.385143 36229 net.cpp:434] conv4_6/relu <- conv4_6
I0929 13:47:21.385148 36229 net.cpp:395] conv4_6/relu -> conv4_6 (in-place)
I0929 13:47:21.385352 36229 net.cpp:150] Setting up conv4_6/relu
I0929 13:47:21.385362 36229 net.cpp:157] Top shape: 1 1024 14 14 (200704)
I0929 13:47:21.385365 36229 net.cpp:165] Memory required for data: 317023620
I0929 13:47:21.385368 36229 layer_factory.hpp:77] Creating layer conv4_6_conv4_6/relu_0_split
I0929 13:47:21.385375 36229 net.cpp:100] Creating Layer conv4_6_conv4_6/relu_0_split
I0929 13:47:21.385377 36229 net.cpp:434] conv4_6_conv4_6/relu_0_split <- conv4_6
I0929 13:47:21.385382 36229 net.cpp:408] conv4_6_conv4_6/relu_0_split -> conv4_6_conv4_6/relu_0_split_0
I0929 13:47:21.385390 36229 net.cpp:408] conv4_6_conv4_6/relu_0_split -> conv4_6_conv4_6/relu_0_split_1
I0929 13:47:21.385447 36229 net.cpp:150] Setting up conv4_6_conv4_6/relu_0_split
I0929 13:47:21.385452 36229 net.cpp:157] Top shape: 1 1024 14 14 (200704)
I0929 13:47:21.385457 36229 net.cpp:157] Top shape: 1 1024 14 14 (200704)
I0929 13:47:21.385458 36229 net.cpp:165] Memory required for data: 318629252
I0929 13:47:21.385462 36229 layer_factory.hpp:77] Creating layer conv5_1_1x1_reduce
I0929 13:47:21.385475 36229 net.cpp:100] Creating Layer conv5_1_1x1_reduce
I0929 13:47:21.385479 36229 net.cpp:434] conv5_1_1x1_reduce <- conv4_6_conv4_6/relu_0_split_0
I0929 13:47:21.385485 36229 net.cpp:408] conv5_1_1x1_reduce -> conv5_1_1x1_reduce
I0929 13:47:21.389572 36229 net.cpp:150] Setting up conv5_1_1x1_reduce
I0929 13:47:21.389587 36229 net.cpp:157] Top shape: 1 1024 14 14 (200704)
I0929 13:47:21.389590 36229 net.cpp:165] Memory required for data: 319432068
I0929 13:47:21.389596 36229 layer_factory.hpp:77] Creating layer conv5_1_1x1_reduce/bn
I0929 13:47:21.389605 36229 net.cpp:100] Creating Layer conv5_1_1x1_reduce/bn
I0929 13:47:21.389611 36229 net.cpp:434] conv5_1_1x1_reduce/bn <- conv5_1_1x1_reduce
I0929 13:47:21.389616 36229 net.cpp:395] conv5_1_1x1_reduce/bn -> conv5_1_1x1_reduce (in-place)
I0929 13:47:21.390017 36229 net.cpp:150] Setting up conv5_1_1x1_reduce/bn
I0929 13:47:21.390027 36229 net.cpp:157] Top shape: 1 1024 14 14 (200704)
I0929 13:47:21.390029 36229 net.cpp:165] Memory required for data: 320234884
I0929 13:47:21.390036 36229 layer_factory.hpp:77] Creating layer conv5_1_1x1_reduce/bn/scale
I0929 13:47:21.390043 36229 net.cpp:100] Creating Layer conv5_1_1x1_reduce/bn/scale
I0929 13:47:21.390048 36229 net.cpp:434] conv5_1_1x1_reduce/bn/scale <- conv5_1_1x1_reduce
I0929 13:47:21.390051 36229 net.cpp:395] conv5_1_1x1_reduce/bn/scale -> conv5_1_1x1_reduce (in-place)
I0929 13:47:21.390161 36229 layer_factory.hpp:77] Creating layer conv5_1_1x1_reduce/bn/scale
I0929 13:47:21.390394 36229 net.cpp:150] Setting up conv5_1_1x1_reduce/bn/scale
I0929 13:47:21.390403 36229 net.cpp:157] Top shape: 1 1024 14 14 (200704)
I0929 13:47:21.390405 36229 net.cpp:165] Memory required for data: 321037700
I0929 13:47:21.390411 36229 layer_factory.hpp:77] Creating layer conv5_1_1x1_reduce/relu
I0929 13:47:21.390416 36229 net.cpp:100] Creating Layer conv5_1_1x1_reduce/relu
I0929 13:47:21.390419 36229 net.cpp:434] conv5_1_1x1_reduce/relu <- conv5_1_1x1_reduce
I0929 13:47:21.390424 36229 net.cpp:395] conv5_1_1x1_reduce/relu -> conv5_1_1x1_reduce (in-place)
I0929 13:47:21.390632 36229 net.cpp:150] Setting up conv5_1_1x1_reduce/relu
I0929 13:47:21.390642 36229 net.cpp:157] Top shape: 1 1024 14 14 (200704)
I0929 13:47:21.390645 36229 net.cpp:165] Memory required for data: 321840516
I0929 13:47:21.390648 36229 layer_factory.hpp:77] Creating layer conv5_1_3x3
I0929 13:47:21.390668 36229 net.cpp:100] Creating Layer conv5_1_3x3
I0929 13:47:21.390674 36229 net.cpp:434] conv5_1_3x3 <- conv5_1_1x1_reduce
I0929 13:47:21.390681 36229 net.cpp:408] conv5_1_3x3 -> conv5_1_3x3
I0929 13:47:21.424962 36229 net.cpp:150] Setting up conv5_1_3x3
I0929 13:47:21.424976 36229 net.cpp:157] Top shape: 1 1024 7 7 (50176)
I0929 13:47:21.424980 36229 net.cpp:165] Memory required for data: 322041220
I0929 13:47:21.424985 36229 layer_factory.hpp:77] Creating layer conv5_1_3x3/bn
I0929 13:47:21.424993 36229 net.cpp:100] Creating Layer conv5_1_3x3/bn
I0929 13:47:21.424995 36229 net.cpp:434] conv5_1_3x3/bn <- conv5_1_3x3
I0929 13:47:21.425002 36229 net.cpp:395] conv5_1_3x3/bn -> conv5_1_3x3 (in-place)
I0929 13:47:21.425452 36229 net.cpp:150] Setting up conv5_1_3x3/bn
I0929 13:47:21.425463 36229 net.cpp:157] Top shape: 1 1024 7 7 (50176)
I0929 13:47:21.425467 36229 net.cpp:165] Memory required for data: 322241924
I0929 13:47:21.425474 36229 layer_factory.hpp:77] Creating layer conv5_1_3x3/bn/scale
I0929 13:47:21.425480 36229 net.cpp:100] Creating Layer conv5_1_3x3/bn/scale
I0929 13:47:21.425483 36229 net.cpp:434] conv5_1_3x3/bn/scale <- conv5_1_3x3
I0929 13:47:21.425487 36229 net.cpp:395] conv5_1_3x3/bn/scale -> conv5_1_3x3 (in-place)
I0929 13:47:21.425599 36229 layer_factory.hpp:77] Creating layer conv5_1_3x3/bn/scale
I0929 13:47:21.425849 36229 net.cpp:150] Setting up conv5_1_3x3/bn/scale
I0929 13:47:21.425859 36229 net.cpp:157] Top shape: 1 1024 7 7 (50176)
I0929 13:47:21.425861 36229 net.cpp:165] Memory required for data: 322442628
I0929 13:47:21.425868 36229 layer_factory.hpp:77] Creating layer conv5_1_3x3/relu
I0929 13:47:21.425874 36229 net.cpp:100] Creating Layer conv5_1_3x3/relu
I0929 13:47:21.425878 36229 net.cpp:434] conv5_1_3x3/relu <- conv5_1_3x3
I0929 13:47:21.425881 36229 net.cpp:395] conv5_1_3x3/relu -> conv5_1_3x3 (in-place)
I0929 13:47:21.426097 36229 net.cpp:150] Setting up conv5_1_3x3/relu
I0929 13:47:21.426106 36229 net.cpp:157] Top shape: 1 1024 7 7 (50176)
I0929 13:47:21.426110 36229 net.cpp:165] Memory required for data: 322643332
I0929 13:47:21.426113 36229 layer_factory.hpp:77] Creating layer conv5_1_1x1_increase
I0929 13:47:21.426122 36229 net.cpp:100] Creating Layer conv5_1_1x1_increase
I0929 13:47:21.426126 36229 net.cpp:434] conv5_1_1x1_increase <- conv5_1_3x3
I0929 13:47:21.426132 36229 net.cpp:408] conv5_1_1x1_increase -> conv5_1_1x1_increase
I0929 13:47:21.432440 36229 net.cpp:150] Setting up conv5_1_1x1_increase
I0929 13:47:21.432456 36229 net.cpp:157] Top shape: 1 2048 7 7 (100352)
I0929 13:47:21.432458 36229 net.cpp:165] Memory required for data: 323044740
I0929 13:47:21.432464 36229 layer_factory.hpp:77] Creating layer conv5_1_1x1_increase/bn
I0929 13:47:21.432473 36229 net.cpp:100] Creating Layer conv5_1_1x1_increase/bn
I0929 13:47:21.432477 36229 net.cpp:434] conv5_1_1x1_increase/bn <- conv5_1_1x1_increase
I0929 13:47:21.432482 36229 net.cpp:395] conv5_1_1x1_increase/bn -> conv5_1_1x1_increase (in-place)
I0929 13:47:21.432950 36229 net.cpp:150] Setting up conv5_1_1x1_increase/bn
I0929 13:47:21.432961 36229 net.cpp:157] Top shape: 1 2048 7 7 (100352)
I0929 13:47:21.432965 36229 net.cpp:165] Memory required for data: 323446148
I0929 13:47:21.432971 36229 layer_factory.hpp:77] Creating layer conv5_1_1x1_increase/bn/scale
I0929 13:47:21.432976 36229 net.cpp:100] Creating Layer conv5_1_1x1_increase/bn/scale
I0929 13:47:21.432979 36229 net.cpp:434] conv5_1_1x1_increase/bn/scale <- conv5_1_1x1_increase
I0929 13:47:21.432984 36229 net.cpp:395] conv5_1_1x1_increase/bn/scale -> conv5_1_1x1_increase (in-place)
I0929 13:47:21.433106 36229 layer_factory.hpp:77] Creating layer conv5_1_1x1_increase/bn/scale
I0929 13:47:21.433360 36229 net.cpp:150] Setting up conv5_1_1x1_increase/bn/scale
I0929 13:47:21.433369 36229 net.cpp:157] Top shape: 1 2048 7 7 (100352)
I0929 13:47:21.433372 36229 net.cpp:165] Memory required for data: 323847556
I0929 13:47:21.433377 36229 layer_factory.hpp:77] Creating layer conv5_1_1x1_increase_conv5_1_1x1_increase/bn/scale_0_split
I0929 13:47:21.433399 36229 net.cpp:100] Creating Layer conv5_1_1x1_increase_conv5_1_1x1_increase/bn/scale_0_split
I0929 13:47:21.433404 36229 net.cpp:434] conv5_1_1x1_increase_conv5_1_1x1_increase/bn/scale_0_split <- conv5_1_1x1_increase
I0929 13:47:21.433410 36229 net.cpp:408] conv5_1_1x1_increase_conv5_1_1x1_increase/bn/scale_0_split -> conv5_1_1x1_increase_conv5_1_1x1_increase/bn/scale_0_split_0
I0929 13:47:21.433418 36229 net.cpp:408] conv5_1_1x1_increase_conv5_1_1x1_increase/bn/scale_0_split -> conv5_1_1x1_increase_conv5_1_1x1_increase/bn/scale_0_split_1
I0929 13:47:21.433475 36229 net.cpp:150] Setting up conv5_1_1x1_increase_conv5_1_1x1_increase/bn/scale_0_split
I0929 13:47:21.433482 36229 net.cpp:157] Top shape: 1 2048 7 7 (100352)
I0929 13:47:21.433486 36229 net.cpp:157] Top shape: 1 2048 7 7 (100352)
I0929 13:47:21.433488 36229 net.cpp:165] Memory required for data: 324650372
I0929 13:47:21.433491 36229 layer_factory.hpp:77] Creating layer conv5_1_global_pool
I0929 13:47:21.433497 36229 net.cpp:100] Creating Layer conv5_1_global_pool
I0929 13:47:21.433501 36229 net.cpp:434] conv5_1_global_pool <- conv5_1_1x1_increase_conv5_1_1x1_increase/bn/scale_0_split_0
I0929 13:47:21.433506 36229 net.cpp:408] conv5_1_global_pool -> conv5_1_global_pool
I0929 13:47:21.433542 36229 net.cpp:150] Setting up conv5_1_global_pool
I0929 13:47:21.433548 36229 net.cpp:157] Top shape: 1 2048 1 1 (2048)
I0929 13:47:21.433552 36229 net.cpp:165] Memory required for data: 324658564
I0929 13:47:21.433554 36229 layer_factory.hpp:77] Creating layer conv5_1_1x1_down
I0929 13:47:21.433562 36229 net.cpp:100] Creating Layer conv5_1_1x1_down
I0929 13:47:21.433564 36229 net.cpp:434] conv5_1_1x1_down <- conv5_1_global_pool
I0929 13:47:21.433568 36229 net.cpp:408] conv5_1_1x1_down -> conv5_1_1x1_down
I0929 13:47:21.436543 36229 net.cpp:150] Setting up conv5_1_1x1_down
I0929 13:47:21.436558 36229 net.cpp:157] Top shape: 1 128 1 1 (128)
I0929 13:47:21.436563 36229 net.cpp:165] Memory required for data: 324659076
I0929 13:47:21.436570 36229 layer_factory.hpp:77] Creating layer conv5_1_1x1_down/relu
I0929 13:47:21.436578 36229 net.cpp:100] Creating Layer conv5_1_1x1_down/relu
I0929 13:47:21.436581 36229 net.cpp:434] conv5_1_1x1_down/relu <- conv5_1_1x1_down
I0929 13:47:21.436586 36229 net.cpp:395] conv5_1_1x1_down/relu -> conv5_1_1x1_down (in-place)
I0929 13:47:21.437269 36229 net.cpp:150] Setting up conv5_1_1x1_down/relu
I0929 13:47:21.437283 36229 net.cpp:157] Top shape: 1 128 1 1 (128)
I0929 13:47:21.437288 36229 net.cpp:165] Memory required for data: 324659588
I0929 13:47:21.437291 36229 layer_factory.hpp:77] Creating layer conv5_1_1x1_up
I0929 13:47:21.437301 36229 net.cpp:100] Creating Layer conv5_1_1x1_up
I0929 13:47:21.437305 36229 net.cpp:434] conv5_1_1x1_up <- conv5_1_1x1_down
I0929 13:47:21.437312 36229 net.cpp:408] conv5_1_1x1_up -> conv5_1_1x1_up
I0929 13:47:21.439132 36229 net.cpp:150] Setting up conv5_1_1x1_up
I0929 13:47:21.439147 36229 net.cpp:157] Top shape: 1 2048 1 1 (2048)
I0929 13:47:21.439151 36229 net.cpp:165] Memory required for data: 324667780
I0929 13:47:21.439157 36229 layer_factory.hpp:77] Creating layer conv5_1_prob
I0929 13:47:21.439163 36229 net.cpp:100] Creating Layer conv5_1_prob
I0929 13:47:21.439167 36229 net.cpp:434] conv5_1_prob <- conv5_1_1x1_up
I0929 13:47:21.439173 36229 net.cpp:395] conv5_1_prob -> conv5_1_1x1_up (in-place)
I0929 13:47:21.439384 36229 net.cpp:150] Setting up conv5_1_prob
I0929 13:47:21.439394 36229 net.cpp:157] Top shape: 1 2048 1 1 (2048)
I0929 13:47:21.439398 36229 net.cpp:165] Memory required for data: 324675972
I0929 13:47:21.439400 36229 layer_factory.hpp:77] Creating layer conv5_1_1x1_proj
I0929 13:47:21.439409 36229 net.cpp:100] Creating Layer conv5_1_1x1_proj
I0929 13:47:21.439414 36229 net.cpp:434] conv5_1_1x1_proj <- conv4_6_conv4_6/relu_0_split_1
I0929 13:47:21.439419 36229 net.cpp:408] conv5_1_1x1_proj -> conv5_1_1x1_proj
I0929 13:47:21.445714 36229 net.cpp:150] Setting up conv5_1_1x1_proj
I0929 13:47:21.445729 36229 net.cpp:157] Top shape: 1 2048 7 7 (100352)
I0929 13:47:21.445734 36229 net.cpp:165] Memory required for data: 325077380
I0929 13:47:21.445753 36229 layer_factory.hpp:77] Creating layer conv5_1_1x1_proj/bn
I0929 13:47:21.445765 36229 net.cpp:100] Creating Layer conv5_1_1x1_proj/bn
I0929 13:47:21.445770 36229 net.cpp:434] conv5_1_1x1_proj/bn <- conv5_1_1x1_proj
I0929 13:47:21.445775 36229 net.cpp:395] conv5_1_1x1_proj/bn -> conv5_1_1x1_proj (in-place)
I0929 13:47:21.446219 36229 net.cpp:150] Setting up conv5_1_1x1_proj/bn
I0929 13:47:21.446229 36229 net.cpp:157] Top shape: 1 2048 7 7 (100352)
I0929 13:47:21.446233 36229 net.cpp:165] Memory required for data: 325478788
I0929 13:47:21.446239 36229 layer_factory.hpp:77] Creating layer conv5_1_1x1_proj/bn/scale
I0929 13:47:21.446246 36229 net.cpp:100] Creating Layer conv5_1_1x1_proj/bn/scale
I0929 13:47:21.446249 36229 net.cpp:434] conv5_1_1x1_proj/bn/scale <- conv5_1_1x1_proj
I0929 13:47:21.446254 36229 net.cpp:395] conv5_1_1x1_proj/bn/scale -> conv5_1_1x1_proj (in-place)
I0929 13:47:21.446377 36229 layer_factory.hpp:77] Creating layer conv5_1_1x1_proj/bn/scale
I0929 13:47:21.446631 36229 net.cpp:150] Setting up conv5_1_1x1_proj/bn/scale
I0929 13:47:21.446640 36229 net.cpp:157] Top shape: 1 2048 7 7 (100352)
I0929 13:47:21.446642 36229 net.cpp:165] Memory required for data: 325880196
I0929 13:47:21.446647 36229 layer_factory.hpp:77] Creating layer conv5_1
I0929 13:47:21.446653 36229 net.cpp:100] Creating Layer conv5_1
I0929 13:47:21.446656 36229 net.cpp:434] conv5_1 <- conv5_1_1x1_up
I0929 13:47:21.446660 36229 net.cpp:434] conv5_1 <- conv5_1_1x1_increase_conv5_1_1x1_increase/bn/scale_0_split_1
I0929 13:47:21.446663 36229 net.cpp:434] conv5_1 <- conv5_1_1x1_proj
I0929 13:47:21.446669 36229 net.cpp:408] conv5_1 -> conv5_1
I0929 13:47:21.446745 36229 net.cpp:150] Setting up conv5_1
I0929 13:47:21.446753 36229 net.cpp:157] Top shape: 1 2048 7 7 (100352)
I0929 13:47:21.446756 36229 net.cpp:165] Memory required for data: 326281604
I0929 13:47:21.446758 36229 layer_factory.hpp:77] Creating layer conv5_1/relu
I0929 13:47:21.446763 36229 net.cpp:100] Creating Layer conv5_1/relu
I0929 13:47:21.446766 36229 net.cpp:434] conv5_1/relu <- conv5_1
I0929 13:47:21.446770 36229 net.cpp:395] conv5_1/relu -> conv5_1 (in-place)
I0929 13:47:21.447479 36229 net.cpp:150] Setting up conv5_1/relu
I0929 13:47:21.447494 36229 net.cpp:157] Top shape: 1 2048 7 7 (100352)
I0929 13:47:21.447497 36229 net.cpp:165] Memory required for data: 326683012
I0929 13:47:21.447501 36229 layer_factory.hpp:77] Creating layer conv5_1_conv5_1/relu_0_split
I0929 13:47:21.447510 36229 net.cpp:100] Creating Layer conv5_1_conv5_1/relu_0_split
I0929 13:47:21.447513 36229 net.cpp:434] conv5_1_conv5_1/relu_0_split <- conv5_1
I0929 13:47:21.447518 36229 net.cpp:408] conv5_1_conv5_1/relu_0_split -> conv5_1_conv5_1/relu_0_split_0
I0929 13:47:21.447526 36229 net.cpp:408] conv5_1_conv5_1/relu_0_split -> conv5_1_conv5_1/relu_0_split_1
I0929 13:47:21.447589 36229 net.cpp:150] Setting up conv5_1_conv5_1/relu_0_split
I0929 13:47:21.447597 36229 net.cpp:157] Top shape: 1 2048 7 7 (100352)
I0929 13:47:21.447600 36229 net.cpp:157] Top shape: 1 2048 7 7 (100352)
I0929 13:47:21.447602 36229 net.cpp:165] Memory required for data: 327485828
I0929 13:47:21.447605 36229 layer_factory.hpp:77] Creating layer conv5_2_1x1_reduce
I0929 13:47:21.447615 36229 net.cpp:100] Creating Layer conv5_2_1x1_reduce
I0929 13:47:21.447619 36229 net.cpp:434] conv5_2_1x1_reduce <- conv5_1_conv5_1/relu_0_split_0
I0929 13:47:21.447629 36229 net.cpp:408] conv5_2_1x1_reduce -> conv5_2_1x1_reduce
I0929 13:47:21.453439 36229 net.cpp:150] Setting up conv5_2_1x1_reduce
I0929 13:47:21.453455 36229 net.cpp:157] Top shape: 1 1024 7 7 (50176)
I0929 13:47:21.453459 36229 net.cpp:165] Memory required for data: 327686532
I0929 13:47:21.453464 36229 layer_factory.hpp:77] Creating layer conv5_2_1x1_reduce/bn
I0929 13:47:21.453474 36229 net.cpp:100] Creating Layer conv5_2_1x1_reduce/bn
I0929 13:47:21.453477 36229 net.cpp:434] conv5_2_1x1_reduce/bn <- conv5_2_1x1_reduce
I0929 13:47:21.453482 36229 net.cpp:395] conv5_2_1x1_reduce/bn -> conv5_2_1x1_reduce (in-place)
I0929 13:47:21.453927 36229 net.cpp:150] Setting up conv5_2_1x1_reduce/bn
I0929 13:47:21.453936 36229 net.cpp:157] Top shape: 1 1024 7 7 (50176)
I0929 13:47:21.453939 36229 net.cpp:165] Memory required for data: 327887236
I0929 13:47:21.453946 36229 layer_factory.hpp:77] Creating layer conv5_2_1x1_reduce/bn/scale
I0929 13:47:21.453953 36229 net.cpp:100] Creating Layer conv5_2_1x1_reduce/bn/scale
I0929 13:47:21.453955 36229 net.cpp:434] conv5_2_1x1_reduce/bn/scale <- conv5_2_1x1_reduce
I0929 13:47:21.453959 36229 net.cpp:395] conv5_2_1x1_reduce/bn/scale -> conv5_2_1x1_reduce (in-place)
I0929 13:47:21.454072 36229 layer_factory.hpp:77] Creating layer conv5_2_1x1_reduce/bn/scale
I0929 13:47:21.454316 36229 net.cpp:150] Setting up conv5_2_1x1_reduce/bn/scale
I0929 13:47:21.454324 36229 net.cpp:157] Top shape: 1 1024 7 7 (50176)
I0929 13:47:21.454327 36229 net.cpp:165] Memory required for data: 328087940
I0929 13:47:21.454334 36229 layer_factory.hpp:77] Creating layer conv5_2_1x1_reduce/relu
I0929 13:47:21.454340 36229 net.cpp:100] Creating Layer conv5_2_1x1_reduce/relu
I0929 13:47:21.454344 36229 net.cpp:434] conv5_2_1x1_reduce/relu <- conv5_2_1x1_reduce
I0929 13:47:21.454349 36229 net.cpp:395] conv5_2_1x1_reduce/relu -> conv5_2_1x1_reduce (in-place)
I0929 13:47:21.455052 36229 net.cpp:150] Setting up conv5_2_1x1_reduce/relu
I0929 13:47:21.455066 36229 net.cpp:157] Top shape: 1 1024 7 7 (50176)
I0929 13:47:21.455070 36229 net.cpp:165] Memory required for data: 328288644
I0929 13:47:21.455073 36229 layer_factory.hpp:77] Creating layer conv5_2_3x3
I0929 13:47:21.455083 36229 net.cpp:100] Creating Layer conv5_2_3x3
I0929 13:47:21.455087 36229 net.cpp:434] conv5_2_3x3 <- conv5_2_1x1_reduce
I0929 13:47:21.455098 36229 net.cpp:408] conv5_2_3x3 -> conv5_2_3x3
I0929 13:47:21.491690 36229 net.cpp:150] Setting up conv5_2_3x3
I0929 13:47:21.491705 36229 net.cpp:157] Top shape: 1 1024 7 7 (50176)
I0929 13:47:21.491709 36229 net.cpp:165] Memory required for data: 328489348
I0929 13:47:21.491715 36229 layer_factory.hpp:77] Creating layer conv5_2_3x3/bn
I0929 13:47:21.491724 36229 net.cpp:100] Creating Layer conv5_2_3x3/bn
I0929 13:47:21.491727 36229 net.cpp:434] conv5_2_3x3/bn <- conv5_2_3x3
I0929 13:47:21.491734 36229 net.cpp:395] conv5_2_3x3/bn -> conv5_2_3x3 (in-place)
I0929 13:47:21.492187 36229 net.cpp:150] Setting up conv5_2_3x3/bn
I0929 13:47:21.492197 36229 net.cpp:157] Top shape: 1 1024 7 7 (50176)
I0929 13:47:21.492200 36229 net.cpp:165] Memory required for data: 328690052
I0929 13:47:21.492208 36229 layer_factory.hpp:77] Creating layer conv5_2_3x3/bn/scale
I0929 13:47:21.492214 36229 net.cpp:100] Creating Layer conv5_2_3x3/bn/scale
I0929 13:47:21.492218 36229 net.cpp:434] conv5_2_3x3/bn/scale <- conv5_2_3x3
I0929 13:47:21.492225 36229 net.cpp:395] conv5_2_3x3/bn/scale -> conv5_2_3x3 (in-place)
I0929 13:47:21.492341 36229 layer_factory.hpp:77] Creating layer conv5_2_3x3/bn/scale
I0929 13:47:21.492600 36229 net.cpp:150] Setting up conv5_2_3x3/bn/scale
I0929 13:47:21.492610 36229 net.cpp:157] Top shape: 1 1024 7 7 (50176)
I0929 13:47:21.492614 36229 net.cpp:165] Memory required for data: 328890756
I0929 13:47:21.492619 36229 layer_factory.hpp:77] Creating layer conv5_2_3x3/relu
I0929 13:47:21.492624 36229 net.cpp:100] Creating Layer conv5_2_3x3/relu
I0929 13:47:21.492627 36229 net.cpp:434] conv5_2_3x3/relu <- conv5_2_3x3
I0929 13:47:21.492631 36229 net.cpp:395] conv5_2_3x3/relu -> conv5_2_3x3 (in-place)
I0929 13:47:21.492871 36229 net.cpp:150] Setting up conv5_2_3x3/relu
I0929 13:47:21.492882 36229 net.cpp:157] Top shape: 1 1024 7 7 (50176)
I0929 13:47:21.492887 36229 net.cpp:165] Memory required for data: 329091460
I0929 13:47:21.492890 36229 layer_factory.hpp:77] Creating layer conv5_2_1x1_increase
I0929 13:47:21.492898 36229 net.cpp:100] Creating Layer conv5_2_1x1_increase
I0929 13:47:21.492902 36229 net.cpp:434] conv5_2_1x1_increase <- conv5_2_3x3
I0929 13:47:21.492908 36229 net.cpp:408] conv5_2_1x1_increase -> conv5_2_1x1_increase
I0929 13:47:21.499289 36229 net.cpp:150] Setting up conv5_2_1x1_increase
I0929 13:47:21.499318 36229 net.cpp:157] Top shape: 1 2048 7 7 (100352)
I0929 13:47:21.499322 36229 net.cpp:165] Memory required for data: 329492868
I0929 13:47:21.499328 36229 layer_factory.hpp:77] Creating layer conv5_2_1x1_increase/bn
I0929 13:47:21.499336 36229 net.cpp:100] Creating Layer conv5_2_1x1_increase/bn
I0929 13:47:21.499341 36229 net.cpp:434] conv5_2_1x1_increase/bn <- conv5_2_1x1_increase
I0929 13:47:21.499346 36229 net.cpp:395] conv5_2_1x1_increase/bn -> conv5_2_1x1_increase (in-place)
I0929 13:47:21.499827 36229 net.cpp:150] Setting up conv5_2_1x1_increase/bn
I0929 13:47:21.499838 36229 net.cpp:157] Top shape: 1 2048 7 7 (100352)
I0929 13:47:21.499841 36229 net.cpp:165] Memory required for data: 329894276
I0929 13:47:21.499850 36229 layer_factory.hpp:77] Creating layer conv5_2_1x1_increase/bn/scale
I0929 13:47:21.499857 36229 net.cpp:100] Creating Layer conv5_2_1x1_increase/bn/scale
I0929 13:47:21.499861 36229 net.cpp:434] conv5_2_1x1_increase/bn/scale <- conv5_2_1x1_increase
I0929 13:47:21.499864 36229 net.cpp:395] conv5_2_1x1_increase/bn/scale -> conv5_2_1x1_increase (in-place)
I0929 13:47:21.499992 36229 layer_factory.hpp:77] Creating layer conv5_2_1x1_increase/bn/scale
I0929 13:47:21.500262 36229 net.cpp:150] Setting up conv5_2_1x1_increase/bn/scale
I0929 13:47:21.500270 36229 net.cpp:157] Top shape: 1 2048 7 7 (100352)
I0929 13:47:21.500273 36229 net.cpp:165] Memory required for data: 330295684
I0929 13:47:21.500279 36229 layer_factory.hpp:77] Creating layer conv5_2_1x1_increase_conv5_2_1x1_increase/bn/scale_0_split
I0929 13:47:21.500288 36229 net.cpp:100] Creating Layer conv5_2_1x1_increase_conv5_2_1x1_increase/bn/scale_0_split
I0929 13:47:21.500290 36229 net.cpp:434] conv5_2_1x1_increase_conv5_2_1x1_increase/bn/scale_0_split <- conv5_2_1x1_increase
I0929 13:47:21.500295 36229 net.cpp:408] conv5_2_1x1_increase_conv5_2_1x1_increase/bn/scale_0_split -> conv5_2_1x1_increase_conv5_2_1x1_increase/bn/scale_0_split_0
I0929 13:47:21.500303 36229 net.cpp:408] conv5_2_1x1_increase_conv5_2_1x1_increase/bn/scale_0_split -> conv5_2_1x1_increase_conv5_2_1x1_increase/bn/scale_0_split_1
I0929 13:47:21.500361 36229 net.cpp:150] Setting up conv5_2_1x1_increase_conv5_2_1x1_increase/bn/scale_0_split
I0929 13:47:21.500368 36229 net.cpp:157] Top shape: 1 2048 7 7 (100352)
I0929 13:47:21.500372 36229 net.cpp:157] Top shape: 1 2048 7 7 (100352)
I0929 13:47:21.500375 36229 net.cpp:165] Memory required for data: 331098500
I0929 13:47:21.500377 36229 layer_factory.hpp:77] Creating layer conv5_2_global_pool
I0929 13:47:21.500385 36229 net.cpp:100] Creating Layer conv5_2_global_pool
I0929 13:47:21.500389 36229 net.cpp:434] conv5_2_global_pool <- conv5_2_1x1_increase_conv5_2_1x1_increase/bn/scale_0_split_0
I0929 13:47:21.500393 36229 net.cpp:408] conv5_2_global_pool -> conv5_2_global_pool
I0929 13:47:21.500432 36229 net.cpp:150] Setting up conv5_2_global_pool
I0929 13:47:21.500439 36229 net.cpp:157] Top shape: 1 2048 1 1 (2048)
I0929 13:47:21.500442 36229 net.cpp:165] Memory required for data: 331106692
I0929 13:47:21.500444 36229 layer_factory.hpp:77] Creating layer conv5_2_1x1_down
I0929 13:47:21.500452 36229 net.cpp:100] Creating Layer conv5_2_1x1_down
I0929 13:47:21.500455 36229 net.cpp:434] conv5_2_1x1_down <- conv5_2_global_pool
I0929 13:47:21.500460 36229 net.cpp:408] conv5_2_1x1_down -> conv5_2_1x1_down
I0929 13:47:21.503521 36229 net.cpp:150] Setting up conv5_2_1x1_down
I0929 13:47:21.503536 36229 net.cpp:157] Top shape: 1 128 1 1 (128)
I0929 13:47:21.503540 36229 net.cpp:165] Memory required for data: 331107204
I0929 13:47:21.503546 36229 layer_factory.hpp:77] Creating layer conv5_2_1x1_down/relu
I0929 13:47:21.503552 36229 net.cpp:100] Creating Layer conv5_2_1x1_down/relu
I0929 13:47:21.503556 36229 net.cpp:434] conv5_2_1x1_down/relu <- conv5_2_1x1_down
I0929 13:47:21.503562 36229 net.cpp:395] conv5_2_1x1_down/relu -> conv5_2_1x1_down (in-place)
I0929 13:47:21.503798 36229 net.cpp:150] Setting up conv5_2_1x1_down/relu
I0929 13:47:21.503808 36229 net.cpp:157] Top shape: 1 128 1 1 (128)
I0929 13:47:21.503810 36229 net.cpp:165] Memory required for data: 331107716
I0929 13:47:21.503824 36229 layer_factory.hpp:77] Creating layer conv5_2_1x1_up
I0929 13:47:21.503834 36229 net.cpp:100] Creating Layer conv5_2_1x1_up
I0929 13:47:21.503839 36229 net.cpp:434] conv5_2_1x1_up <- conv5_2_1x1_down
I0929 13:47:21.503846 36229 net.cpp:408] conv5_2_1x1_up -> conv5_2_1x1_up
I0929 13:47:21.505736 36229 net.cpp:150] Setting up conv5_2_1x1_up
I0929 13:47:21.505751 36229 net.cpp:157] Top shape: 1 2048 1 1 (2048)
I0929 13:47:21.505755 36229 net.cpp:165] Memory required for data: 331115908
I0929 13:47:21.505761 36229 layer_factory.hpp:77] Creating layer conv5_2_prob
I0929 13:47:21.505769 36229 net.cpp:100] Creating Layer conv5_2_prob
I0929 13:47:21.505771 36229 net.cpp:434] conv5_2_prob <- conv5_2_1x1_up
I0929 13:47:21.505776 36229 net.cpp:395] conv5_2_prob -> conv5_2_1x1_up (in-place)
I0929 13:47:21.506011 36229 net.cpp:150] Setting up conv5_2_prob
I0929 13:47:21.506022 36229 net.cpp:157] Top shape: 1 2048 1 1 (2048)
I0929 13:47:21.506026 36229 net.cpp:165] Memory required for data: 331124100
I0929 13:47:21.506029 36229 layer_factory.hpp:77] Creating layer conv5_2
I0929 13:47:21.506036 36229 net.cpp:100] Creating Layer conv5_2
I0929 13:47:21.506038 36229 net.cpp:434] conv5_2 <- conv5_2_1x1_up
I0929 13:47:21.506042 36229 net.cpp:434] conv5_2 <- conv5_2_1x1_increase_conv5_2_1x1_increase/bn/scale_0_split_1
I0929 13:47:21.506047 36229 net.cpp:434] conv5_2 <- conv5_1_conv5_1/relu_0_split_1
I0929 13:47:21.506052 36229 net.cpp:408] conv5_2 -> conv5_2
I0929 13:47:21.506141 36229 net.cpp:150] Setting up conv5_2
I0929 13:47:21.506150 36229 net.cpp:157] Top shape: 1 2048 7 7 (100352)
I0929 13:47:21.506152 36229 net.cpp:165] Memory required for data: 331525508
I0929 13:47:21.506155 36229 layer_factory.hpp:77] Creating layer conv5_2/relu
I0929 13:47:21.506161 36229 net.cpp:100] Creating Layer conv5_2/relu
I0929 13:47:21.506165 36229 net.cpp:434] conv5_2/relu <- conv5_2
I0929 13:47:21.506168 36229 net.cpp:395] conv5_2/relu -> conv5_2 (in-place)
I0929 13:47:21.506382 36229 net.cpp:150] Setting up conv5_2/relu
I0929 13:47:21.506392 36229 net.cpp:157] Top shape: 1 2048 7 7 (100352)
I0929 13:47:21.506397 36229 net.cpp:165] Memory required for data: 331926916
I0929 13:47:21.506400 36229 layer_factory.hpp:77] Creating layer conv5_2_conv5_2/relu_0_split
I0929 13:47:21.506405 36229 net.cpp:100] Creating Layer conv5_2_conv5_2/relu_0_split
I0929 13:47:21.506409 36229 net.cpp:434] conv5_2_conv5_2/relu_0_split <- conv5_2
I0929 13:47:21.506413 36229 net.cpp:408] conv5_2_conv5_2/relu_0_split -> conv5_2_conv5_2/relu_0_split_0
I0929 13:47:21.506419 36229 net.cpp:408] conv5_2_conv5_2/relu_0_split -> conv5_2_conv5_2/relu_0_split_1
I0929 13:47:21.506484 36229 net.cpp:150] Setting up conv5_2_conv5_2/relu_0_split
I0929 13:47:21.506491 36229 net.cpp:157] Top shape: 1 2048 7 7 (100352)
I0929 13:47:21.506495 36229 net.cpp:157] Top shape: 1 2048 7 7 (100352)
I0929 13:47:21.506497 36229 net.cpp:165] Memory required for data: 332729732
I0929 13:47:21.506500 36229 layer_factory.hpp:77] Creating layer conv5_3_1x1_reduce
I0929 13:47:21.506510 36229 net.cpp:100] Creating Layer conv5_3_1x1_reduce
I0929 13:47:21.506513 36229 net.cpp:434] conv5_3_1x1_reduce <- conv5_2_conv5_2/relu_0_split_0
I0929 13:47:21.506520 36229 net.cpp:408] conv5_3_1x1_reduce -> conv5_3_1x1_reduce
I0929 13:47:21.512893 36229 net.cpp:150] Setting up conv5_3_1x1_reduce
I0929 13:47:21.512910 36229 net.cpp:157] Top shape: 1 1024 7 7 (50176)
I0929 13:47:21.512913 36229 net.cpp:165] Memory required for data: 332930436
I0929 13:47:21.512919 36229 layer_factory.hpp:77] Creating layer conv5_3_1x1_reduce/bn
I0929 13:47:21.512926 36229 net.cpp:100] Creating Layer conv5_3_1x1_reduce/bn
I0929 13:47:21.512929 36229 net.cpp:434] conv5_3_1x1_reduce/bn <- conv5_3_1x1_reduce
I0929 13:47:21.512936 36229 net.cpp:395] conv5_3_1x1_reduce/bn -> conv5_3_1x1_reduce (in-place)
I0929 13:47:21.513383 36229 net.cpp:150] Setting up conv5_3_1x1_reduce/bn
I0929 13:47:21.513393 36229 net.cpp:157] Top shape: 1 1024 7 7 (50176)
I0929 13:47:21.513396 36229 net.cpp:165] Memory required for data: 333131140
I0929 13:47:21.513415 36229 layer_factory.hpp:77] Creating layer conv5_3_1x1_reduce/bn/scale
I0929 13:47:21.513423 36229 net.cpp:100] Creating Layer conv5_3_1x1_reduce/bn/scale
I0929 13:47:21.513427 36229 net.cpp:434] conv5_3_1x1_reduce/bn/scale <- conv5_3_1x1_reduce
I0929 13:47:21.513432 36229 net.cpp:395] conv5_3_1x1_reduce/bn/scale -> conv5_3_1x1_reduce (in-place)
I0929 13:47:21.513551 36229 layer_factory.hpp:77] Creating layer conv5_3_1x1_reduce/bn/scale
I0929 13:47:21.513821 36229 net.cpp:150] Setting up conv5_3_1x1_reduce/bn/scale
I0929 13:47:21.513831 36229 net.cpp:157] Top shape: 1 1024 7 7 (50176)
I0929 13:47:21.513833 36229 net.cpp:165] Memory required for data: 333331844
I0929 13:47:21.513839 36229 layer_factory.hpp:77] Creating layer conv5_3_1x1_reduce/relu
I0929 13:47:21.513846 36229 net.cpp:100] Creating Layer conv5_3_1x1_reduce/relu
I0929 13:47:21.513850 36229 net.cpp:434] conv5_3_1x1_reduce/relu <- conv5_3_1x1_reduce
I0929 13:47:21.513854 36229 net.cpp:395] conv5_3_1x1_reduce/relu -> conv5_3_1x1_reduce (in-place)
I0929 13:47:21.514075 36229 net.cpp:150] Setting up conv5_3_1x1_reduce/relu
I0929 13:47:21.514086 36229 net.cpp:157] Top shape: 1 1024 7 7 (50176)
I0929 13:47:21.514088 36229 net.cpp:165] Memory required for data: 333532548
I0929 13:47:21.514091 36229 layer_factory.hpp:77] Creating layer conv5_3_3x3
I0929 13:47:21.514101 36229 net.cpp:100] Creating Layer conv5_3_3x3
I0929 13:47:21.514104 36229 net.cpp:434] conv5_3_3x3 <- conv5_3_1x1_reduce
I0929 13:47:21.514111 36229 net.cpp:408] conv5_3_3x3 -> conv5_3_3x3
I0929 13:47:21.552311 36229 net.cpp:150] Setting up conv5_3_3x3
I0929 13:47:21.552327 36229 net.cpp:157] Top shape: 1 1024 7 7 (50176)
I0929 13:47:21.552330 36229 net.cpp:165] Memory required for data: 333733252
I0929 13:47:21.552336 36229 layer_factory.hpp:77] Creating layer conv5_3_3x3/bn
I0929 13:47:21.552345 36229 net.cpp:100] Creating Layer conv5_3_3x3/bn
I0929 13:47:21.552348 36229 net.cpp:434] conv5_3_3x3/bn <- conv5_3_3x3
I0929 13:47:21.552353 36229 net.cpp:395] conv5_3_3x3/bn -> conv5_3_3x3 (in-place)
I0929 13:47:21.552830 36229 net.cpp:150] Setting up conv5_3_3x3/bn
I0929 13:47:21.552840 36229 net.cpp:157] Top shape: 1 1024 7 7 (50176)
I0929 13:47:21.552844 36229 net.cpp:165] Memory required for data: 333933956
I0929 13:47:21.552850 36229 layer_factory.hpp:77] Creating layer conv5_3_3x3/bn/scale
I0929 13:47:21.552857 36229 net.cpp:100] Creating Layer conv5_3_3x3/bn/scale
I0929 13:47:21.552861 36229 net.cpp:434] conv5_3_3x3/bn/scale <- conv5_3_3x3
I0929 13:47:21.552870 36229 net.cpp:395] conv5_3_3x3/bn/scale -> conv5_3_3x3 (in-place)
I0929 13:47:21.552989 36229 layer_factory.hpp:77] Creating layer conv5_3_3x3/bn/scale
I0929 13:47:21.553261 36229 net.cpp:150] Setting up conv5_3_3x3/bn/scale
I0929 13:47:21.553272 36229 net.cpp:157] Top shape: 1 1024 7 7 (50176)
I0929 13:47:21.553274 36229 net.cpp:165] Memory required for data: 334134660
I0929 13:47:21.553279 36229 layer_factory.hpp:77] Creating layer conv5_3_3x3/relu
I0929 13:47:21.553284 36229 net.cpp:100] Creating Layer conv5_3_3x3/relu
I0929 13:47:21.553288 36229 net.cpp:434] conv5_3_3x3/relu <- conv5_3_3x3
I0929 13:47:21.553292 36229 net.cpp:395] conv5_3_3x3/relu -> conv5_3_3x3 (in-place)
I0929 13:47:21.554040 36229 net.cpp:150] Setting up conv5_3_3x3/relu
I0929 13:47:21.554054 36229 net.cpp:157] Top shape: 1 1024 7 7 (50176)
I0929 13:47:21.554059 36229 net.cpp:165] Memory required for data: 334335364
I0929 13:47:21.554062 36229 layer_factory.hpp:77] Creating layer conv5_3_1x1_increase
I0929 13:47:21.554072 36229 net.cpp:100] Creating Layer conv5_3_1x1_increase
I0929 13:47:21.554076 36229 net.cpp:434] conv5_3_1x1_increase <- conv5_3_3x3
I0929 13:47:21.554083 36229 net.cpp:408] conv5_3_1x1_increase -> conv5_3_1x1_increase
I0929 13:47:21.560019 36229 net.cpp:150] Setting up conv5_3_1x1_increase
I0929 13:47:21.560034 36229 net.cpp:157] Top shape: 1 2048 7 7 (100352)
I0929 13:47:21.560039 36229 net.cpp:165] Memory required for data: 334736772
I0929 13:47:21.560044 36229 layer_factory.hpp:77] Creating layer conv5_3_1x1_increase/bn
I0929 13:47:21.560066 36229 net.cpp:100] Creating Layer conv5_3_1x1_increase/bn
I0929 13:47:21.560073 36229 net.cpp:434] conv5_3_1x1_increase/bn <- conv5_3_1x1_increase
I0929 13:47:21.560078 36229 net.cpp:395] conv5_3_1x1_increase/bn -> conv5_3_1x1_increase (in-place)
I0929 13:47:21.560578 36229 net.cpp:150] Setting up conv5_3_1x1_increase/bn
I0929 13:47:21.560587 36229 net.cpp:157] Top shape: 1 2048 7 7 (100352)
I0929 13:47:21.560590 36229 net.cpp:165] Memory required for data: 335138180
I0929 13:47:21.560600 36229 layer_factory.hpp:77] Creating layer conv5_3_1x1_increase/bn/scale
I0929 13:47:21.560606 36229 net.cpp:100] Creating Layer conv5_3_1x1_increase/bn/scale
I0929 13:47:21.560611 36229 net.cpp:434] conv5_3_1x1_increase/bn/scale <- conv5_3_1x1_increase
I0929 13:47:21.560614 36229 net.cpp:395] conv5_3_1x1_increase/bn/scale -> conv5_3_1x1_increase (in-place)
I0929 13:47:21.560746 36229 layer_factory.hpp:77] Creating layer conv5_3_1x1_increase/bn/scale
I0929 13:47:21.561038 36229 net.cpp:150] Setting up conv5_3_1x1_increase/bn/scale
I0929 13:47:21.561046 36229 net.cpp:157] Top shape: 1 2048 7 7 (100352)
I0929 13:47:21.561049 36229 net.cpp:165] Memory required for data: 335539588
I0929 13:47:21.561055 36229 layer_factory.hpp:77] Creating layer conv5_3_1x1_increase_conv5_3_1x1_increase/bn/scale_0_split
I0929 13:47:21.561062 36229 net.cpp:100] Creating Layer conv5_3_1x1_increase_conv5_3_1x1_increase/bn/scale_0_split
I0929 13:47:21.561066 36229 net.cpp:434] conv5_3_1x1_increase_conv5_3_1x1_increase/bn/scale_0_split <- conv5_3_1x1_increase
I0929 13:47:21.561070 36229 net.cpp:408] conv5_3_1x1_increase_conv5_3_1x1_increase/bn/scale_0_split -> conv5_3_1x1_increase_conv5_3_1x1_increase/bn/scale_0_split_0
I0929 13:47:21.561076 36229 net.cpp:408] conv5_3_1x1_increase_conv5_3_1x1_increase/bn/scale_0_split -> conv5_3_1x1_increase_conv5_3_1x1_increase/bn/scale_0_split_1
I0929 13:47:21.561141 36229 net.cpp:150] Setting up conv5_3_1x1_increase_conv5_3_1x1_increase/bn/scale_0_split
I0929 13:47:21.561147 36229 net.cpp:157] Top shape: 1 2048 7 7 (100352)
I0929 13:47:21.561151 36229 net.cpp:157] Top shape: 1 2048 7 7 (100352)
I0929 13:47:21.561154 36229 net.cpp:165] Memory required for data: 336342404
I0929 13:47:21.561157 36229 layer_factory.hpp:77] Creating layer conv5_3_global_pool
I0929 13:47:21.561163 36229 net.cpp:100] Creating Layer conv5_3_global_pool
I0929 13:47:21.561167 36229 net.cpp:434] conv5_3_global_pool <- conv5_3_1x1_increase_conv5_3_1x1_increase/bn/scale_0_split_0
I0929 13:47:21.561172 36229 net.cpp:408] conv5_3_global_pool -> conv5_3_global_pool
I0929 13:47:21.561213 36229 net.cpp:150] Setting up conv5_3_global_pool
I0929 13:47:21.561218 36229 net.cpp:157] Top shape: 1 2048 1 1 (2048)
I0929 13:47:21.561221 36229 net.cpp:165] Memory required for data: 336350596
I0929 13:47:21.561224 36229 layer_factory.hpp:77] Creating layer conv5_3_1x1_down
I0929 13:47:21.561231 36229 net.cpp:100] Creating Layer conv5_3_1x1_down
I0929 13:47:21.561235 36229 net.cpp:434] conv5_3_1x1_down <- conv5_3_global_pool
I0929 13:47:21.561239 36229 net.cpp:408] conv5_3_1x1_down -> conv5_3_1x1_down
I0929 13:47:21.564337 36229 net.cpp:150] Setting up conv5_3_1x1_down
I0929 13:47:21.564352 36229 net.cpp:157] Top shape: 1 128 1 1 (128)
I0929 13:47:21.564355 36229 net.cpp:165] Memory required for data: 336351108
I0929 13:47:21.564363 36229 layer_factory.hpp:77] Creating layer conv5_3_1x1_down/relu
I0929 13:47:21.564368 36229 net.cpp:100] Creating Layer conv5_3_1x1_down/relu
I0929 13:47:21.564371 36229 net.cpp:434] conv5_3_1x1_down/relu <- conv5_3_1x1_down
I0929 13:47:21.564378 36229 net.cpp:395] conv5_3_1x1_down/relu -> conv5_3_1x1_down (in-place)
I0929 13:47:21.565124 36229 net.cpp:150] Setting up conv5_3_1x1_down/relu
I0929 13:47:21.565137 36229 net.cpp:157] Top shape: 1 128 1 1 (128)
I0929 13:47:21.565140 36229 net.cpp:165] Memory required for data: 336351620
I0929 13:47:21.565145 36229 layer_factory.hpp:77] Creating layer conv5_3_1x1_up
I0929 13:47:21.565155 36229 net.cpp:100] Creating Layer conv5_3_1x1_up
I0929 13:47:21.565171 36229 net.cpp:434] conv5_3_1x1_up <- conv5_3_1x1_down
I0929 13:47:21.565177 36229 net.cpp:408] conv5_3_1x1_up -> conv5_3_1x1_up
I0929 13:47:21.567126 36229 net.cpp:150] Setting up conv5_3_1x1_up
I0929 13:47:21.567140 36229 net.cpp:157] Top shape: 1 2048 1 1 (2048)
I0929 13:47:21.567144 36229 net.cpp:165] Memory required for data: 336359812
I0929 13:47:21.567152 36229 layer_factory.hpp:77] Creating layer conv5_3_prob
I0929 13:47:21.567159 36229 net.cpp:100] Creating Layer conv5_3_prob
I0929 13:47:21.567163 36229 net.cpp:434] conv5_3_prob <- conv5_3_1x1_up
I0929 13:47:21.567173 36229 net.cpp:395] conv5_3_prob -> conv5_3_1x1_up (in-place)
I0929 13:47:21.567407 36229 net.cpp:150] Setting up conv5_3_prob
I0929 13:47:21.567417 36229 net.cpp:157] Top shape: 1 2048 1 1 (2048)
I0929 13:47:21.567420 36229 net.cpp:165] Memory required for data: 336368004
I0929 13:47:21.567425 36229 layer_factory.hpp:77] Creating layer conv5_3
I0929 13:47:21.567430 36229 net.cpp:100] Creating Layer conv5_3
I0929 13:47:21.567433 36229 net.cpp:434] conv5_3 <- conv5_3_1x1_up
I0929 13:47:21.567437 36229 net.cpp:434] conv5_3 <- conv5_3_1x1_increase_conv5_3_1x1_increase/bn/scale_0_split_1
I0929 13:47:21.567441 36229 net.cpp:434] conv5_3 <- conv5_2_conv5_2/relu_0_split_1
I0929 13:47:21.567447 36229 net.cpp:408] conv5_3 -> conv5_3
I0929 13:47:21.567541 36229 net.cpp:150] Setting up conv5_3
I0929 13:47:21.567549 36229 net.cpp:157] Top shape: 1 2048 7 7 (100352)
I0929 13:47:21.567551 36229 net.cpp:165] Memory required for data: 336769412
I0929 13:47:21.567555 36229 layer_factory.hpp:77] Creating layer conv5_3/relu
I0929 13:47:21.567559 36229 net.cpp:100] Creating Layer conv5_3/relu
I0929 13:47:21.567562 36229 net.cpp:434] conv5_3/relu <- conv5_3
I0929 13:47:21.567567 36229 net.cpp:395] conv5_3/relu -> conv5_3 (in-place)
I0929 13:47:21.567791 36229 net.cpp:150] Setting up conv5_3/relu
I0929 13:47:21.567800 36229 net.cpp:157] Top shape: 1 2048 7 7 (100352)
I0929 13:47:21.567803 36229 net.cpp:165] Memory required for data: 337170820
I0929 13:47:21.567807 36229 layer_factory.hpp:77] Creating layer pool5/7x7_s1
I0929 13:47:21.567814 36229 net.cpp:100] Creating Layer pool5/7x7_s1
I0929 13:47:21.567818 36229 net.cpp:434] pool5/7x7_s1 <- conv5_3
I0929 13:47:21.567823 36229 net.cpp:408] pool5/7x7_s1 -> pool5/7x7_s1
I0929 13:47:21.568078 36229 net.cpp:150] Setting up pool5/7x7_s1
I0929 13:47:21.568086 36229 net.cpp:157] Top shape: 1 2048 1 1 (2048)
I0929 13:47:21.568089 36229 net.cpp:165] Memory required for data: 337179012
I0929 13:47:21.568094 36229 layer_factory.hpp:77] Creating layer bottleneck
I0929 13:47:21.568102 36229 net.cpp:100] Creating Layer bottleneck
I0929 13:47:21.568105 36229 net.cpp:434] bottleneck <- pool5/7x7_s1
I0929 13:47:21.568114 36229 net.cpp:408] bottleneck -> bottleneck
I0929 13:47:21.577059 36229 net.cpp:150] Setting up bottleneck
I0929 13:47:21.577076 36229 net.cpp:157] Top shape: 1 256 (256)
I0929 13:47:21.577080 36229 net.cpp:165] Memory required for data: 337180036
I0929 13:47:21.577086 36229 layer_factory.hpp:77] Creating layer fc8_1
I0929 13:47:21.577096 36229 net.cpp:100] Creating Layer fc8_1
I0929 13:47:21.577101 36229 net.cpp:434] fc8_1 <- bottleneck
I0929 13:47:21.577108 36229 net.cpp:408] fc8_1 -> fc8
I0929 13:47:21.577440 36229 net.cpp:150] Setting up fc8_1
I0929 13:47:21.577450 36229 net.cpp:157] Top shape: 1 12 (12)
I0929 13:47:21.577452 36229 net.cpp:165] Memory required for data: 337180084
I0929 13:47:21.577457 36229 layer_factory.hpp:77] Creating layer accuracy
I0929 13:47:21.577471 36229 net.cpp:100] Creating Layer accuracy
I0929 13:47:21.577476 36229 net.cpp:434] accuracy <- fc8
I0929 13:47:21.577479 36229 net.cpp:434] accuracy <- label
I0929 13:47:21.577484 36229 net.cpp:408] accuracy -> accuracy
…
