…
    mean_value: 123
  }
  image_data_param {
    source: "./data/VisDA2017/train.txt"
    batch_size: 8
    shuffle: true
    new_height: 224
    new_width: 224
  }
}
layer {
  name: "target_data"
  type: "ImageData"
  top: "target_data"
  top: "target_label"
  include {
    phase: TRAIN
  }
  transform_param {
    mirror: true
    crop_size: 224
    mean_value: 104
    mean_value: 117
    mean_value: 123
  }
  image_data_param {
    source: "./data/VisDA2017/test_online.txt"
    batch_size: 8
    shuffle: true
    new_height: 224
    new_width: 224
  }
}
layer {
  name: "target_label_silence"
  type: "Silence"
  bottom: "target_label"
  include {
    phase: TRAIN
  }
}
layer {
  name: "data"
  type: "Concat"
  bottom: "source_data"
  bottom: "target_data"
  top: "data"
  include {
    phase: TRAIN
  }
  concat_param {
    axis: 0
  }
}
layer {
  name: "conv1/7x7_s2"
  type: "Convolution"
  bottom: "data"
  top: "conv1/7x7_s2"
  param {
    lr_mult: 0
  }
  convolution_param {
    num_output: 64
    bias_term: false
    pad: 3
    kernel_size: 7
    stride: 2
  }
}
layer {
  name: "conv1/7x7_s2/bn"
  type: "BatchNorm"
  bottom: "conv1/7x7_s2"
  top: "conv1/7x7_s2"
  batch_norm_param {
    use_global_stats: true
  }
}
layer {
  name: "conv1/7x7_s2/bn/scale"
  type: "Scale"
  bottom: "conv1/7x7_s2"
  top: "conv1/7x7_s2"
  scale_param {
    bias_term: true
  }
}
layer {
  name: "conv1/relu_7x7_s2"
  type: "ReLU"
  bottom: "conv1/7x7_s2"
  top: "conv1/7x7_s2"
}
layer {
  name: "pool1/3x3_s2"
  type: "Pooling"
  bottom: "conv1/7x7_s2"
  top: "pool1/3x3_s2"
  pooling_param {
    pool: MAX
    kernel_size: 3
    stride: 2
  }
}
layer {
  name: "conv2_1_1x1_reduce"
  type: "Convolution"
  bottom: "pool1/3x3_s2"
  top: "conv2_1_1x1_reduce"
  param {
    lr_mult: 0
  }
  convolution_param {
    num_output: 64
    bias_term: false
    kernel_size: 1
    stride: 1
  }
}
layer {
  name: "conv2_1_1x1_reduce/bn"
  type: "BatchNorm"
  bottom: "conv2_1_1x1_reduce"
  top: "conv2_1_1x1_reduce"
  batch_norm_param {
    use_global_stats: true
  }
}
layer {
  name: "conv2_1_1x1_reduce/bn/scale"
  type: "Scale"
  bottom: "conv2_1_1x1_reduce"
  top: "conv2_1_1x1_reduce"
  scale_param {
    bias_term: true
  }
}
layer {
  name: "conv2_1_1x1_reduce/relu"
  type: "ReLU"
  bottom: "conv2_1_1x1_reduce"
  top: "conv2_1_1x1_reduce"
}
layer {
  name: "conv2_1_3x3"
  type: "Convolution"
  bottom: "conv2_1_1x1_reduce"
  top: "conv2_1_3x3"
  param {
    lr_mult: 0
  }
  convolution_param {
    num_output: 64
    bias_term: false
    pad: 1
    kernel_size: 3
    stride: 1
  }
}
layer {
  name: "conv2_1_3x3/bn"
  type: "BatchNorm"
  bottom: "conv2_1_3x3"
  top: "conv2_1_3x3"
  batch_norm_param {
    use_global_stats: true
  }
}
layer {
  name: "conv2_1_3x3/bn/scale"
  type: "Scale"
  bottom: "conv2_1_3x3"
  top: "conv2_1_3x3"
  scale_param {
    bias_term: true
  }
}
layer {
  name: "conv2_1_3x3/relu"
  type: "ReLU"
  bottom: "conv2_1_3x3"
  top: "conv2_1_3x3"
}
layer {
  name: "conv2_1_1x1_increase"
  type: "Convolution"
  bottom: "conv2_1_3x3"
  top: "conv2_1_1x1_increase"
  param {
    lr_mult: 0
  }
  convolution_param {
    num_output: 256
    bias_term: false
    kernel_size: 1
    stride: 1
  }
}
layer {
  name: "conv2_1_1x1_increase/bn"
  type: "BatchNorm"
  bottom: "conv2_1_1x1_increase"
  top: "conv2_1_1x1_increase"
  batch_norm_param {
    use_global_stats: true
  }
}
layer {
  name: "conv2_1_1x1_increase/bn/scale"
  type: "Scale"
  bottom: "conv2_1_1x1_increase"
  top: "conv2_1_1x1_increase"
  scale_param {
    bias_term: true
  }
}
layer {
  name: "conv2_1_global_pool"
  type: "Pooling"
  bottom: "conv2_1_1x1_increase"
  top: "conv2_1_global_pool"
  pooling_param {
    pool: AVE
    engine: CAFFE
    global_pooling: true
  }
}
layer {
  name: "conv2_1_1x1_down"
  type: "Convolution"
  bottom: "conv2_1_global_pool"
  top: "conv2_1_1x1_down"
  param {
    lr_mult: 0
  }
  convolution_param {
    num_output: 16
    kernel_size: 1
    stride: 1
  }
}
layer {
  name: "conv2_1_1x1_down/relu"
  type: "ReLU"
  bottom: "conv2_1_1x1_down"
  top: "conv2_1_1x1_down"
}
layer {
  name: "conv2_1_1x1_up"
  type: "Convolution"
  bottom: "conv2_1_1x1_down"
  top: "conv2_1_1x1_up"
  param {
    lr_mult: 0
  }
  convolution_param {
    num_output: 256
    kernel_size: 1
    stride: 1
  }
}
layer {
  name: "conv2_1_prob"
  type: "Sigmoid"
  bottom: "conv2_1_1x1_up"
  top: "conv2_1_1x1_up"
}
layer {
  name: "conv2_1_1x1_proj"
  type: "Convolution"
  bottom: "pool1/3x3_s2"
  top: "conv2_1_1x1_proj"
  param {
    lr_mult: 0
  }
  convolution_param {
    num_output: 256
    bias_term: false
    kernel_size: 1
    stride: 1
  }
}
layer {
  name: "conv2_1_1x1_proj/bn"
  type: "BatchNorm"
  bottom: "conv2_1_1x1_proj"
  top: "conv2_1_1x1_proj"
  batch_norm_param {
    use_global_stats: true
  }
}
layer {
  name: "conv2_1_1x1_proj/bn/scale"
  type: "Scale"
  bottom: "conv2_1_1x1_proj"
  top: "conv2_1_1x1_proj"
  scale_param {
    bias_term: true
  }
}
layer {
  name: "conv2_1"
  type: "Axpy"
  bottom: "conv2_1_1x1_up"
  bottom: "conv2_1_1x1_increase"
  bottom: "conv2_1_1x1_proj"
  top: "conv2_1"
}
layer {
  name: "conv2_1/relu"
  type: "ReLU"
  bottom: "conv2_1"
  top: "conv2_1"
}
layer {
  name: "conv2_2_1x1_reduce"
  type: "Convolution"
  bottom: "conv2_1"
  top: "conv2_2_1x1_reduce"
  param {
    lr_mult: 0
  }
  convolution_param {
    num_output: 64
    bias_term: false
    kernel_size: 1
    stride: 1
  }
}
layer {
  name: "conv2_2_1x1_reduce/bn"
  type: "BatchNorm"
  bottom: "conv2_2_1x1_reduce"
  top: "conv2_2_1x1_reduce"
  batch_norm_param {
    use_global_stats: true
  }
}
layer {
  name: "conv2_2_1x1_reduce/bn/scale"
  type: "Scale"
  bottom: "conv2_2_1x1_reduce"
  top: "conv2_2_1x1_reduce"
  scale_param {
    bias_term: true
  }
}
layer {
  name: "conv2_2_1x1_reduce/relu"
  type: "ReLU"
  bottom: "conv2_2_1x1_reduce"
  top: "conv2_2_1x1_reduce"
}
layer {
  name: "conv2_2_3x3"
  type: "Convolution"
  bottom: "conv2_2_1x1_reduce"
  top: "conv2_2_3x3"
  param {
    lr_mult: 0
  }
  convolution_param {
    num_output: 64
    bias_term: false
    pad: 1
    kernel_size: 3
    stride: 1
  }
}
layer {
  name: "conv2_2_3x3/bn"
  type: "BatchNorm"
  bottom: "conv2_2_3x3"
  top: "conv2_2_3x3"
  batch_norm_param {
    use_global_stats: true
  }
}
layer {
  name: "conv2_2_3x3/bn/scale"
  type: "Scale"
  bottom: "conv2_2_3x3"
  top: "conv2_2_3x3"
  scale_param {
    bias_term: true
  }
}
layer {
  name: "conv2_2_3x3/relu"
  type: "ReLU"
  bottom: "conv2_2_3x3"
  top: "conv2_2_3x3"
}
layer {
  name: "conv2_2_1x1_increase"
  type: "Convolution"
  bottom: "conv2_2_3x3"
  top: "conv2_2_1x1_increase"
  param {
    lr_mult: 0
  }
  convolution_param {
    num_output: 256
    bias_term: false
    kernel_size: 1
    stride: 1
  }
}
layer {
  name: "conv2_2_1x1_increase/bn"
  type: "BatchNorm"
  bottom: "conv2_2_1x1_increase"
  top: "conv2_2_1x1_increase"
  batch_norm_param {
    use_global_stats: true
  }
}
layer {
  name: "conv2_2_1x1_increase/bn/scale"
  type: "Scale"
  bottom: "conv2_2_1x1_increase"
  top: "conv2_2_1x1_increase"
  scale_param {
    bias_term: true
  }
}
layer {
  name: "conv2_2_global_pool"
  type: "Pooling"
  bottom: "conv2_2_1x1_increase"
  top: "conv2_2_global_pool"
  pooling_param {
    pool: AVE
    engine: CAFFE
    global_pooling: true
  }
}
layer {
  name: "conv2_2_1x1_down"
  type: "Convolution"
  bottom: "conv2_2_global_pool"
  top: "conv2_2_1x1_down"
  param {
    lr_mult: 0
  }
  convolution_param {
    num_output: 16
    kernel_size: 1
    stride: 1
  }
}
layer {
  name: "conv2_2_1x1_down/relu"
  type: "ReLU"
  bottom: "conv2_2_1x1_down"
  top: "conv2_2_1x1_down"
}
layer {
  name: "conv2_2_1x1_up"
  type: "Convolution"
  bottom: "conv2_2_1x1_down"
  top: "conv2_2_1x1_up"
  param {
    lr_mult: 0
  }
  convolution_param {
    num_output: 256
    kernel_size: 1
    stride: 1
  }
}
layer {
  name: "conv2_2_prob"
  type: "Sigmoid"
  bottom: "conv2_2_1x1_up"
  top: "conv2_2_1x1_up"
}
layer {
  name: "conv2_2"
  type: "Axpy"
  bottom: "conv2_2_1x1_up"
  bottom: "conv2_2_1x1_increase"
  bottom: "conv2_1"
  top: "conv2_2"
}
layer {
  name: "conv2_2/relu"
  type: "ReLU"
  bottom: "conv2_2"
  top: "conv2_2"
}
layer {
  name: "conv2_3_1x1_reduce"
  type: "Convolution"
  bottom: "conv2_2"
  top: "conv2_3_1x1_reduce"
  param {
    lr_mult: 0
  }
  convolution_param {
    num_output: 64
    bias_term: false
    kernel_size: 1
    stride: 1
  }
}
layer {
  name: "conv2_3_1x1_reduce/bn"
  type: "BatchNorm"
  bottom: "conv2_3_1x1_reduce"
  top: "conv2_3_1x1_reduce"
  batch_norm_param {
    use_global_stats: true
  }
}
layer {
  name: "conv2_3_1x1_reduce/bn/scale"
  type: "Scale"
  bottom: "conv2_3_1x1_reduce"
  top: "conv2_3_1x1_reduce"
  scale_param {
    bias_term: true
  }
}
layer {
  name: "conv2_3_1x1_reduce/relu"
  type: "ReLU"
  bottom: "conv2_3_1x1_reduce"
  top: "conv2_3_1x1_reduce"
}
layer {
  name: "conv2_3_3x3"
  type: "Convolution"
  bottom: "conv2_3_1x1_reduce"
  top: "conv2_3_3x3"
  param {
    lr_mult: 0
  }
  convolution_param {
    num_output: 64
    bias_term: false
    pad: 1
    kernel_size: 3
    stride: 1
  }
}
layer {
  name: "conv2_3_3x3/bn"
  type: "BatchNorm"
  bottom: "conv2_3_3x3"
  top: "conv2_3_3x3"
  batch_norm_param {
    use_global_stats: true
  }
}
layer {
  name: "conv2_3_3x3/bn/scale"
  type: "Scale"
  bottom: "conv2_3_3x3"
  top: "conv2_3_3x3"
  scale_param {
    bias_term: true
  }
}
layer {
  name: "conv2_3_3x3/relu"
  type: "ReLU"
  bottom: "conv2_3_3x3"
  top: "conv2_3_3x3"
}
layer {
  name: "conv2_3_1x1_increase"
  type: "Convolution"
  bottom: "conv2_3_3x3"
  top: "conv2_3_1x1_increase"
  param {
    lr_mult: 0
  }
  convolution_param {
    num_output: 256
    bias_term: false
    kernel_size: 1
    stride: 1
  }
}
layer {
  name: "conv2_3_1x1_increase/bn"
  type: "BatchNorm"
  bottom: "conv2_3_1x1_increase"
  top: "conv2_3_1x1_increase"
  batch_norm_param {
    use_global_stats: true
  }
}
layer {
  name: "conv2_3_1x1_increase/bn/scale"
  type: "Scale"
  bottom: "conv2_3_1x1_increase"
  top: "conv2_3_1x1_increase"
  scale_param {
    bias_term: true
  }
}
layer {
  name: "conv2_3_global_pool"
  type: "Pooling"
  bottom: "conv2_3_1x1_increase"
  top: "conv2_3_global_pool"
  pooling_param {
    pool: AVE
    engine: CAFFE
    global_pooling: true
  }
}
layer {
  name: "conv2_3_1x1_down"
  type: "Convolution"
  bottom: "conv2_3_global_pool"
  top: "conv2_3_1x1_down"
  param {
    lr_mult: 0
  }
  convolution_param {
    num_output: 16
    kernel_size: 1
    stride: 1
  }
}
layer {
  name: "conv2_3_1x1_down/relu"
  type: "ReLU"
  bottom: "conv2_3_1x1_down"
  top: "conv2_3_1x1_down"
}
layer {
  name: "conv2_3_1x1_up"
  type: "Convolution"
  bottom: "conv2_3_1x1_down"
  top: "conv2_3_1x1_up"
  param {
    lr_mult: 0
  }
  convolution_param {
    num_output: 256
    kernel_size: 1
    stride: 1
  }
}
layer {
  name: "conv2_3_prob"
  type: "Sigmoid"
  bottom: "conv2_3_1x1_up"
  top: "conv2_3_1x1_up"
}
layer {
  name: "conv2_3"
  type: "Axpy"
  bottom: "conv2_3_1x1_up"
  bottom: "conv2_3_1x1_increase"
  bottom: "conv2_2"
  top: "conv2_3"
}
layer {
  name: "conv2_3/relu"
  type: "ReLU"
  bottom: "conv2_3"
  top: "conv2_3"
}
layer {
  name: "conv3_1_1x1_reduce"
  type: "Convolution"
  bottom: "conv2_3"
  top: "conv3_1_1x1_reduce"
  convolution_param {
    num_output: 128
    bias_term: false
    kernel_size: 1
    stride: 2
  }
}
layer {
  name: "conv3_1_1x1_reduce/bn"
  type: "BatchNorm"
  bottom: "conv3_1_1x1_reduce"
  top: "conv3_1_1x1_reduce"
  batch_norm_param {
    use_global_stats: true
  }
}
layer {
  name: "conv3_1_1x1_reduce/bn/scale"
  type: "Scale"
  bottom: "conv3_1_1x1_reduce"
  top: "conv3_1_1x1_reduce"
  scale_param {
    bias_term: true
  }
}
layer {
  name: "conv3_1_1x1_reduce/relu"
  type: "ReLU"
  bottom: "conv3_1_1x1_reduce"
  top: "conv3_1_1x1_reduce"
}
layer {
  name: "conv3_1_3x3"
  type: "Convolution"
  bottom: "conv3_1_1x1_reduce"
  top: "conv3_1_3x3"
  convolution_param {
    num_output: 128
    bias_term: false
    pad: 1
    kernel_size: 3
    stride: 1
  }
}
layer {
  name: "conv3_1_3x3/bn"
  type: "BatchNorm"
  bottom: "conv3_1_3x3"
  top: "conv3_1_3x3"
  batch_norm_param {
    use_global_stats: true
  }
}
layer {
  name: "conv3_1_3x3/bn/scale"
  type: "Scale"
  bottom: "conv3_1_3x3"
  top: "conv3_1_3x3"
  scale_param {
    bias_term: true
  }
}
layer {
  name: "conv3_1_3x3/relu"
  type: "ReLU"
  bottom: "conv3_1_3x3"
  top: "conv3_1_3x3"
}
layer {
  name: "conv3_1_1x1_increase"
  type: "Convolution"
  bottom: "conv3_1_3x3"
  top: "conv3_1_1x1_increase"
  convolution_param {
    num_output: 512
    bias_term: false
    kernel_size: 1
    stride: 1
  }
}
layer {
  name: "conv3_1_1x1_increase/bn"
  type: "BatchNorm"
  bottom: "conv3_1_1x1_increase"
  top: "conv3_1_1x1_increase"
  batch_norm_param {
    use_global_stats: true
  }
}
layer {
  name: "conv3_1_1x1_increase/bn/scale"
  type: "Scale"
  bottom: "conv3_1_1x1_increase"
  top: "conv3_1_1x1_increase"
  scale_param {
    bias_term: true
  }
}
layer {
  name: "conv3_1_global_pool"
  type: "Pooling"
  bottom: "conv3_1_1x1_increase"
  top: "conv3_1_global_pool"
  pooling_param {
    pool: AVE
    engine: CAFFE
    global_pooling: true
  }
}
layer {
  name: "conv3_1_1x1_down"
  type: "Convolution"
  bottom: "conv3_1_global_pool"
  top: "conv3_1_1x1_down"
  convolution_param {
    num_output: 32
    kernel_size: 1
    stride: 1
  }
}
layer {
  name: "conv3_1_1x1_down/relu"
  type: "ReLU"
  bottom: "conv3_1_1x1_down"
  top: "conv3_1_1x1_down"
}
layer {
  name: "conv3_1_1x1_up"
  type: "Convolution"
  bottom: "conv3_1_1x1_down"
  top: "conv3_1_1x1_up"
  convolution_param {
    num_output: 512
    kernel_size: 1
    stride: 1
  }
}
layer {
  name: "conv3_1_prob"
  type: "Sigmoid"
  bottom: "conv3_1_1x1_up"
  top: "conv3_1_1x1_up"
}
layer {
  name: "conv3_1_1x1_proj"
  type: "Convolution"
  bottom: "conv2_3"
  top: "conv3_1_1x1_proj"
  convolution_param {
    num_output: 512
    bias_term: false
    kernel_size: 1
    stride: 2
  }
}
layer {
  name: "conv3_1_1x1_proj/bn"
  type: "BatchNorm"
  bottom: "conv3_1_1x1_proj"
  top: "conv3_1_1x1_proj"
  batch_norm_param {
    use_global_stats: true
  }
}
layer {
  name: "conv3_1_1x1_proj/bn/scale"
  type: "Scale"
  bottom: "conv3_1_1x1_proj"
  top: "conv3_1_1x1_proj"
  scale_param {
    bias_term: true
  }
}
layer {
  name: "conv3_1"
  type: "Axpy"
  bottom: "conv3_1_1x1_up"
  bottom: "conv3_1_1x1_increase"
  bottom: "conv3_1_1x1_proj"
  top: "conv3_1"
}
layer {
  name: "conv3_1/relu"
  type: "ReLU"
  bottom: "conv3_1"
  top: "conv3_1"
}
layer {
  name: "conv3_2_1x1_reduce"
  type: "Convolution"
  bottom: "conv3_1"
  top: "conv3_2_1x1_reduce"
  convolution_param {
    num_output: 128
    bias_term: false
    kernel_size: 1
    stride: 1
  }
}
layer {
  name: "conv3_2_1x1_reduce/bn"
  type: "BatchNorm"
  bottom: "conv3_2_1x1_reduce"
  top: "conv3_2_1x1_reduce"
  batch_norm_param {
    use_global_stats: true
  }
}
layer {
  name: "conv3_2_1x1_reduce/bn/scale"
  type: "Scale"
  bottom: "conv3_2_1x1_reduce"
  top: "conv3_2_1x1_reduce"
  scale_param {
    bias_term: true
  }
}
layer {
  name: "conv3_2_1x1_reduce/relu"
  type: "ReLU"
  bottom: "conv3_2_1x1_reduce"
  top: "conv3_2_1x1_reduce"
}
layer {
  name: "conv3_2_3x3"
  type: "Convolution"
  bottom: "conv3_2_1x1_reduce"
  top: "conv3_2_3x3"
  convolution_param {
    num_output: 128
    bias_term: false
    pad: 1
    kernel_size: 3
    stride: 1
  }
}
layer {
  name: "conv3_2_3x3/bn"
  type: "BatchNorm"
  bottom: "conv3_2_3x3"
  top: "conv3_2_3x3"
  batch_norm_param {
    use_global_stats: true
  }
}
layer {
  name: "conv3_2_3x3/bn/scale"
  type: "Scale"
  bottom: "conv3_2_3x3"
  top: "conv3_2_3x3"
  scale_param {
    bias_term: true
  }
}
layer {
  name: "conv3_2_3x3/relu"
  type: "ReLU"
  bottom: "conv3_2_3x3"
  top: "conv3_2_3x3"
}
layer {
  name: "conv3_2_1x1_increase"
  type: "Convolution"
  bottom: "conv3_2_3x3"
  top: "conv3_2_1x1_increase"
  convolution_param {
    num_output: 512
    bias_term: false
    kernel_size: 1
    stride: 1
  }
}
layer {
  name: "conv3_2_1x1_increase/bn"
  type: "BatchNorm"
  bottom: "conv3_2_1x1_increase"
  top: "conv3_2_1x1_increase"
  batch_norm_param {
    use_global_stats: true
  }
}
layer {
  name: "conv3_2_1x1_increase/bn/scale"
  type: "Scale"
  bottom: "conv3_2_1x1_increase"
  top: "conv3_2_1x1_increase"
  scale_param {
    bias_term: true
  }
}
layer {
  name: "conv3_2_global_pool"
  type: "Pooling"
  bottom: "conv3_2_1x1_increase"
  top: "conv3_2_global_pool"
  pooling_param {
    pool: AVE
    engine: CAFFE
    global_pooling: true
  }
}
layer {
  name: "conv3_2_1x1_down"
  type: "Convolution"
  bottom: "conv3_2_global_pool"
  top: "conv3_2_1x1_down"
  convolution_param {
    num_output: 32
    kernel_size: 1
    stride: 1
  }
}
layer {
  name: "conv3_2_1x1_down/relu"
  type: "ReLU"
  bottom: "conv3_2_1x1_down"
  top: "conv3_2_1x1_down"
}
layer {
  name: "conv3_2_1x1_up"
  type: "Convolution"
  bottom: "conv3_2_1x1_down"
  top: "conv3_2_1x1_up"
  convolution_param {
    num_output: 512
    kernel_size: 1
    stride: 1
  }
}
layer {
  name: "conv3_2_prob"
  type: "Sigmoid"
  bottom: "conv3_2_1x1_up"
  top: "conv3_2_1x1_up"
}
layer {
  name: "conv3_2"
  type: "Axpy"
  bottom: "conv3_2_1x1_up"
  bottom: "conv3_2_1x1_increase"
  bottom: "conv3_1"
  top: "conv3_2"
}
layer {
  name: "conv3_2/relu"
  type: "ReLU"
  bottom: "conv3_2"
  top: "conv3_2"
}
layer {
  name: "conv3_3_1x1_reduce"
  type: "Convolution"
  bottom: "conv3_2"
  top: "conv3_3_1x1_reduce"
  convolution_param {
    num_output: 128
    bias_term: false
    kernel_size: 1
    stride: 1
  }
}
layer {
  name: "conv3_3_1x1_reduce/bn"
  type: "BatchNorm"
  bottom: "conv3_3_1x1_reduce"
  top: "conv3_3_1x1_reduce"
  batch_norm_param {
    use_global_stats: true
  }
}
layer {
  name: "conv3_3_1x1_reduce/bn/scale"
  type: "Scale"
  bottom: "conv3_3_1x1_reduce"
  top: "conv3_3_1x1_reduce"
  scale_param {
    bias_term: true
  }
}
layer {
  name: "conv3_3_1x1_reduce/relu"
  type: "ReLU"
  bottom: "conv3_3_1x1_reduce"
  top: "conv3_3_1x1_reduce"
}
layer {
  name: "conv3_3_3x3"
  type: "Convolution"
  bottom: "conv3_3_1x1_reduce"
  top: "conv3_3_3x3"
  convolution_param {
    num_output: 128
    bias_term: false
    pad: 1
    kernel_size: 3
    stride: 1
  }
}
layer {
  name: "conv3_3_3x3/bn"
  type: "BatchNorm"
  bottom: "conv3_3_3x3"
  top: "conv3_3_3x3"
  batch_norm_param {
    use_global_stats: true
  }
}
layer {
  name: "conv3_3_3x3/bn/scale"
  type: "Scale"
  bottom: "conv3_3_3x3"
  top: "conv3_3_3x3"
  scale_param {
    bias_term: true
  }
}
layer {
  name: "conv3_3_3x3/relu"
  type: "ReLU"
  bottom: "conv3_3_3x3"
  top: "conv3_3_3x3"
}
layer {
  name: "conv3_3_1x1_increase"
  type: "Convolution"
  bottom: "conv3_3_3x3"
  top: "conv3_3_1x1_increase"
  convolution_param {
    num_output: 512
    bias_term: false
    kernel_size: 1
    stride: 1
  }
}
layer {
  name: "conv3_3_1x1_increase/bn"
  type: "BatchNorm"
  bottom: "conv3_3_1x1_increase"
  top: "conv3_3_1x1_increase"
  batch_norm_param {
    use_global_stats: true
  }
}
layer {
  name: "conv3_3_1x1_increase/bn/scale"
  type: "Scale"
  bottom: "conv3_3_1x1_increase"
  top: "conv3_3_1x1_increase"
  scale_param {
    bias_term: true
  }
}
layer {
  name: "conv3_3_global_pool"
  type: "Pooling"
  bottom: "conv3_3_1x1_increase"
  top: "conv3_3_global_pool"
  pooling_param {
    pool: AVE
    engine: CAFFE
    global_pooling: true
  }
}
layer {
  name: "conv3_3_1x1_down"
  type: "Convolution"
  bottom: "conv3_3_global_pool"
  top: "conv3_3_1x1_down"
  convolution_param {
    num_output: 32
    kernel_size: 1
    stride: 1
  }
}
layer {
  name: "conv3_3_1x1_down/relu"
  type: "ReLU"
  bottom: "conv3_3_1x1_down"
  top: "conv3_3_1x1_down"
}
layer {
  name: "conv3_3_1x1_up"
  type: "Convolution"
  bottom: "conv3_3_1x1_down"
  top: "conv3_3_1x1_up"
  convolution_param {
    num_output: 512
    kernel_size: 1
    stride: 1
  }
}
layer {
  name: "conv3_3_prob"
  type: "Sigmoid"
  bottom: "conv3_3_1x1_up"
  top: "conv3_3_1x1_up"
}
layer {
  name: "conv3_3"
  type: "Axpy"
  bottom: "conv3_3_1x1_up"
  bottom: "conv3_3_1x1_increase"
  bottom: "conv3_2"
  top: "conv3_3"
}
layer {
  name: "conv3_3/relu"
  type: "ReLU"
  bottom: "conv3_3"
  top: "conv3_3"
}
layer {
  name: "conv3_4_1x1_reduce"
  type: "Convolution"
  bottom: "conv3_3"
  top: "conv3_4_1x1_reduce"
  convolution_param {
    num_output: 128
    bias_term: false
    kernel_size: 1
    stride: 1
  }
}
layer {
  name: "conv3_4_1x1_reduce/bn"
  type: "BatchNorm"
  bottom: "conv3_4_1x1_reduce"
  top: "conv3_4_1x1_reduce"
  batch_norm_param {
    use_global_stats: true
  }
}
layer {
  name: "conv3_4_1x1_reduce/bn/scale"
  type: "Scale"
  bottom: "conv3_4_1x1_reduce"
  top: "conv3_4_1x1_reduce"
  scale_param {
    bias_term: true
  }
}
layer {
  name: "conv3_4_1x1_reduce/relu"
  type: "ReLU"
  bottom: "conv3_4_1x1_reduce"
  top: "conv3_4_1x1_reduce"
}
layer {
  name: "conv3_4_3x3"
  type: "Convolution"
  bottom: "conv3_4_1x1_reduce"
  top: "conv3_4_3x3"
  convolution_param {
    num_output: 128
    bias_term: false
    pad: 1
    kernel_size: 3
    stride: 1
  }
}
layer {
  name: "conv3_4_3x3/bn"
  type: "BatchNorm"
  bottom: "conv3_4_3x3"
  top: "conv3_4_3x3"
  batch_norm_param {
    use_global_stats: true
  }
}
layer {
  name: "conv3_4_3x3/bn/scale"
  type: "Scale"
  bottom: "conv3_4_3x3"
  top: "conv3_4_3x3"
  scale_param {
    bias_term: true
  }
}
layer {
  name: "conv3_4_3x3/relu"
  type: "ReLU"
  bottom: "conv3_4_3x3"
  top: "conv3_4_3x3"
}
layer {
  name: "conv3_4_1x1_increase"
  type: "Convolution"
  bottom: "conv3_4_3x3"
  top: "conv3_4_1x1_increase"
  convolution_param {
    num_output: 512
    bias_term: false
    kernel_size: 1
    stride: 1
  }
}
layer {
  name: "conv3_4_1x1_increase/bn"
  type: "BatchNorm"
  bottom: "conv3_4_1x1_increase"
  top: "conv3_4_1x1_increase"
  batch_norm_param {
    use_global_stats: true
  }
}
layer {
  name: "conv3_4_1x1_increase/bn/scale"
  type: "Scale"
  bottom: "conv3_4_1x1_increase"
  top: "conv3_4_1x1_increase"
  scale_param {
    bias_term: true
  }
}
layer {
  name: "conv3_4_global_pool"
  type: "Pooling"
  bottom: "conv3_4_1x1_increase"
  top: "conv3_4_global_pool"
  pooling_param {
    pool: AVE
    engine: CAFFE
    global_pooling: true
  }
}
layer {
  name: "conv3_4_1x1_down"
  type: "Convolution"
  bottom: "conv3_4_global_pool"
  top: "conv3_4_1x1_down"
  convolution_param {
    num_output: 32
    kernel_size: 1
    stride: 1
  }
}
layer {
  name: "conv3_4_1x1_down/relu"
  type: "ReLU"
  bottom: "conv3_4_1x1_down"
  top: "conv3_4_1x1_down"
}
layer {
  name: "conv3_4_1x1_up"
  type: "Convolution"
  bottom: "conv3_4_1x1_down"
  top: "conv3_4_1x1_up"
  convolution_param {
    num_output: 512
    kernel_size: 1
    stride: 1
  }
}
layer {
  name: "conv3_4_prob"
  type: "Sigmoid"
  bottom: "conv3_4_1x1_up"
  top: "conv3_4_1x1_up"
}
layer {
  name: "conv3_4"
  type: "Axpy"
  bottom: "conv3_4_1x1_up"
  bottom: "conv3_4_1x1_increase"
  bottom: "conv3_3"
  top: "conv3_4"
}
layer {
  name: "conv3_4/relu"
  type: "ReLU"
  bottom: "conv3_4"
  top: "conv3_4"
}
layer {
  name: "conv4_1_1x1_reduce"
  type: "Convolution"
  bottom: "conv3_4"
  top: "conv4_1_1x1_reduce"
  convolution_param {
    num_output: 256
    bias_term: false
    kernel_size: 1
    stride: 2
  }
}
layer {
  name: "conv4_1_1x1_reduce/bn"
  type: "BatchNorm"
  bottom: "conv4_1_1x1_reduce"
  top: "conv4_1_1x1_reduce"
  batch_norm_param {
    use_global_stats: true
  }
}
layer {
  name: "conv4_1_1x1_reduce/bn/scale"
  type: "Scale"
  bottom: "conv4_1_1x1_reduce"
  top: "conv4_1_1x1_reduce"
  scale_param {
    bias_term: true
  }
}
layer {
  name: "conv4_1_1x1_reduce/relu"
  type: "ReLU"
  bottom: "conv4_1_1x1_reduce"
  top: "conv4_1_1x1_reduce"
}
layer {
  name: "conv4_1_3x3"
  type: "Convolution"
  bottom: "conv4_1_1x1_reduce"
  top: "conv4_1_3x3"
  convolution_param {
    num_output: 256
    bias_term: false
    pad: 1
    kernel_size: 3
    stride: 1
  }
}
layer {
  name: "conv4_1_3x3/bn"
  type: "BatchNorm"
  bottom: "conv4_1_3x3"
  top: "conv4_1_3x3"
  batch_norm_param {
    use_global_stats: true
  }
}
layer {
  name: "conv4_1_3x3/bn/scale"
  type: "Scale"
  bottom: "conv4_1_3x3"
  top: "conv4_1_3x3"
  scale_param {
    bias_term: true
  }
}
layer {
  name: "conv4_1_3x3/relu"
  type: "ReLU"
  bottom: "conv4_1_3x3"
  top: "conv4_1_3x3"
}
layer {
  name: "conv4_1_1x1_increase"
  type: "Convolution"
  bottom: "conv4_1_3x3"
  top: "conv4_1_1x1_increase"
  convolution_param {
    num_output: 1024
    bias_term: false
    kernel_size: 1
    stride: 1
  }
}
layer {
  name: "conv4_1_1x1_increase/bn"
  type: "BatchNorm"
  bottom: "conv4_1_1x1_increase"
  top: "conv4_1_1x1_increase"
  batch_norm_param {
    use_global_stats: true
  }
}
layer {
  name: "conv4_1_1x1_increase/bn/scale"
  type: "Scale"
  bottom: "conv4_1_1x1_increase"
  top: "conv4_1_1x1_increase"
  scale_param {
    bias_term: true
  }
}
layer {
  name: "conv4_1_global_pool"
  type: "Pooling"
  bottom: "conv4_1_1x1_increase"
  top: "conv4_1_global_pool"
  pooling_param {
    pool: AVE
    engine: CAFFE
    global_pooling: true
  }
}
layer {
  name: "conv4_1_1x1_down"
  type: "Convolution"
  bottom: "conv4_1_global_pool"
  top: "conv4_1_1x1_down"
  convolution_param {
    num_output: 64
    kernel_size: 1
    stride: 1
  }
}
layer {
  name: "conv4_1_1x1_down/relu"
  type: "ReLU"
  bottom: "conv4_1_1x1_down"
  top: "conv4_1_1x1_down"
}
layer {
  name: "conv4_1_1x1_up"
  type: "Convolution"
  bottom: "conv4_1_1x1_down"
  top: "conv4_1_1x1_up"
  convolution_param {
    num_output: 1024
    kernel_size: 1
    stride: 1
  }
}
layer {
  name: "conv4_1_prob"
  type: "Sigmoid"
  bottom: "conv4_1_1x1_up"
  top: "conv4_1_1x1_up"
}
layer {
  name: "conv4_1_1x1_proj"
  type: "Convolution"
  bottom: "conv3_4"
  top: "conv4_1_1x1_proj"
  convolution_param {
    num_output: 1024
    bias_term: false
    kernel_size: 1
    stride: 2
  }
}
layer {
  name: "conv4_1_1x1_proj/bn"
  type: "BatchNorm"
  bottom: "conv4_1_1x1_proj"
  top: "conv4_1_1x1_proj"
  batch_norm_param {
    use_global_stats: true
  }
}
layer {
  name: "conv4_1_1x1_proj/bn/scale"
  type: "Scale"
  bottom: "conv4_1_1x1_proj"
  top: "conv4_1_1x1_proj"
  scale_param {
    bias_term: true
  }
}
layer {
  name: "conv4_1"
  type: "Axpy"
  bottom: "conv4_1_1x1_up"
  bottom: "conv4_1_1x1_increase"
  bottom: "conv4_1_1x1_proj"
  top: "conv4_1"
}
layer {
  name: "conv4_1/relu"
  type: "ReLU"
  bottom: "conv4_1"
  top: "conv4_1"
}
layer {
  name: "conv4_2_1x1_reduce"
  type: "Convolution"
  bottom: "conv4_1"
  top: "conv4_2_1x1_reduce"
  convolution_param {
    num_output: 256
    bias_term: false
    kernel_size: 1
    stride: 1
  }
}
layer {
  name: "conv4_2_1x1_reduce/bn"
  type: "BatchNorm"
  bottom: "conv4_2_1x1_reduce"
  top: "conv4_2_1x1_reduce"
  batch_norm_param {
    use_global_stats: true
  }
}
layer {
  name: "conv4_2_1x1_reduce/bn/scale"
  type: "Scale"
  bottom: "conv4_2_1x1_reduce"
  top: "conv4_2_1x1_reduce"
  scale_param {
    bias_term: true
  }
}
layer {
  name: "conv4_2_1x1_reduce/relu"
  type: "ReLU"
  bottom: "conv4_2_1x1_reduce"
  top: "conv4_2_1x1_reduce"
}
layer {
  name: "conv4_2_3x3"
  type: "Convolution"
  bottom: "conv4_2_1x1_reduce"
  top: "conv4_2_3x3"
  convolution_param {
    num_output: 256
    bias_term: false
    pad: 1
    kernel_size: 3
    stride: 1
  }
}
layer {
  name: "conv4_2_3x3/bn"
  type: "BatchNorm"
  bottom: "conv4_2_3x3"
  top: "conv4_2_3x3"
  batch_norm_param {
    use_global_stats: true
  }
}
layer {
  name: "conv4_2_3x3/bn/scale"
  type: "Scale"
  bottom: "conv4_2_3x3"
  top: "conv4_2_3x3"
  scale_param {
    bias_term: true
  }
}
layer {
  name: "conv4_2_3x3/relu"
  type: "ReLU"
  bottom: "conv4_2_3x3"
  top: "conv4_2_3x3"
}
layer {
  name: "conv4_2_1x1_increase"
  type: "Convolution"
  bottom: "conv4_2_3x3"
  top: "conv4_2_1x1_increase"
  convolution_param {
    num_output: 1024
    bias_term: false
    kernel_size: 1
    stride: 1
  }
}
layer {
  name: "conv4_2_1x1_increase/bn"
  type: "BatchNorm"
  bottom: "conv4_2_1x1_increase"
  top: "conv4_2_1x1_increase"
  batch_norm_param {
    use_global_stats: true
  }
}
layer {
  name: "conv4_2_1x1_increase/bn/scale"
  type: "Scale"
  bottom: "conv4_2_1x1_increase"
  top: "conv4_2_1x1_increase"
  scale_param {
    bias_term: true
  }
}
layer {
  name: "conv4_2_global_pool"
  type: "Pooling"
  bottom: "conv4_2_1x1_increase"
  top: "conv4_2_global_pool"
  pooling_param {
    pool: AVE
    engine: CAFFE
    global_pooling: true
  }
}
layer {
  name: "conv4_2_1x1_down"
  type: "Convolution"
  bottom: "conv4_2_global_pool"
  top: "conv4_2_1x1_down"
  convolution_param {
    num_output: 64
    kernel_size: 1
    stride: 1
  }
}
layer {
  name: "conv4_2_1x1_down/relu"
  type: "ReLU"
  bottom: "conv4_2_1x1_down"
  top: "conv4_2_1x1_down"
}
layer {
  name: "conv4_2_1x1_up"
  type: "Convolution"
  bottom: "conv4_2_1x1_down"
  top: "conv4_2_1x1_up"
  convolution_param {
    num_output: 1024
    kernel_size: 1
    stride: 1
  }
}
layer {
  name: "conv4_2_prob"
  type: "Sigmoid"
  bottom: "conv4_2_1x1_up"
  top: "conv4_2_1x1_up"
}
layer {
  name: "conv4_2"
  type: "Axpy"
  bottom: "conv4_2_1x1_up"
  bottom: "conv4_2_1x1_increase"
  bottom: "conv4_1"
  top: "conv4_2"
}
layer {
  name: "conv4_2/relu"
  type: "ReLU"
  bottom: "conv4_2"
  top: "conv4_2"
}
layer {
  name: "conv4_3_1x1_reduce"
  type: "Convolution"
  bottom: "conv4_2"
  top: "conv4_3_1x1_reduce"
  convolution_param {
    num_output: 256
    bias_term: false
    
I0929 11:22:29.723914  5438 layer_factory.hpp:77] Creating layer source_data
I0929 11:22:29.723968  5438 net.cpp:100] Creating Layer source_data
I0929 11:22:29.723979  5438 net.cpp:408] source_data -> source_data
I0929 11:22:29.724009  5438 net.cpp:408] source_data -> source_label
I0929 11:22:29.724401  5438 image_data_layer.cpp:38] Opening file ./data/VisDA2017/train.txt
I0929 11:22:29.784191  5438 image_data_layer.cpp:53] Shuffling data
I0929 11:22:29.798934  5438 image_data_layer.cpp:58] A total of 152397 images.
I0929 11:22:29.823292  5438 image_data_layer.cpp:85] output data size: 8,3,224,224
I0929 11:22:29.832516  5438 net.cpp:150] Setting up source_data
I0929 11:22:29.832556  5438 net.cpp:157] Top shape: 8 3 224 224 (1204224)
I0929 11:22:29.832566  5438 net.cpp:157] Top shape: 8 (8)
I0929 11:22:29.832571  5438 net.cpp:165] Memory required for data: 4816928
I0929 11:22:29.832578  5438 layer_factory.hpp:77] Creating layer source_label_source_data_1_split
I0929 11:22:29.832597  5438 net.cpp:100] Creating Layer source_label_source_data_1_split
I0929 11:22:29.832603  5438 net.cpp:434] source_label_source_data_1_split <- source_label
I0929 11:22:29.832619  5438 net.cpp:408] source_label_source_data_1_split -> source_label_source_data_1_split_0
I0929 11:22:29.832630  5438 net.cpp:408] source_label_source_data_1_split -> source_label_source_data_1_split_1
I0929 11:22:29.832716  5438 net.cpp:150] Setting up source_label_source_data_1_split
I0929 11:22:29.832725  5438 net.cpp:157] Top shape: 8 (8)
I0929 11:22:29.832729  5438 net.cpp:157] Top shape: 8 (8)
I0929 11:22:29.832734  5438 net.cpp:165] Memory required for data: 4816992
I0929 11:22:29.832737  5438 layer_factory.hpp:77] Creating layer target_data
I0929 11:22:29.832788  5438 net.cpp:100] Creating Layer target_data
I0929 11:22:29.832797  5438 net.cpp:408] target_data -> target_data
I0929 11:22:29.832808  5438 net.cpp:408] target_data -> target_label
I0929 11:22:29.832819  5438 image_data_layer.cpp:38] Opening file ./data/VisDA2017/test_online.txt
I0929 11:22:29.855183  5438 image_data_layer.cpp:53] Shuffling data
I0929 11:22:29.860307  5438 image_data_layer.cpp:58] A total of 72372 images.
I0929 11:22:29.868275  5438 image_data_layer.cpp:85] output data size: 8,3,224,224
I0929 11:22:29.877707  5438 net.cpp:150] Setting up target_data
I0929 11:22:29.877725  5438 net.cpp:157] Top shape: 8 3 224 224 (1204224)
I0929 11:22:29.877733  5438 net.cpp:157] Top shape: 8 (8)
I0929 11:22:29.877737  5438 net.cpp:165] Memory required for data: 9633920
I0929 11:22:29.877743  5438 layer_factory.hpp:77] Creating layer target_label_silence
I0929 11:22:29.877758  5438 net.cpp:100] Creating Layer target_label_silence
I0929 11:22:29.877765  5438 net.cpp:434] target_label_silence <- target_label
I0929 11:22:29.877774  5438 net.cpp:150] Setting up target_label_silence
I0929 11:22:29.877779  5438 net.cpp:165] Memory required for data: 9633920
I0929 11:22:29.877781  5438 layer_factory.hpp:77] Creating layer data
I0929 11:22:29.877799  5438 net.cpp:100] Creating Layer data
I0929 11:22:29.877804  5438 net.cpp:434] data <- source_data
I0929 11:22:29.877810  5438 net.cpp:434] data <- target_data
I0929 11:22:29.877816  5438 net.cpp:408] data -> data
I0929 11:22:29.877866  5438 net.cpp:150] Setting up data
I0929 11:22:29.877874  5438 net.cpp:157] Top shape: 16 3 224 224 (2408448)
I0929 11:22:29.877878  5438 net.cpp:165] Memory required for data: 19267712
I0929 11:22:29.877882  5438 layer_factory.hpp:77] Creating layer conv1/7x7_s2
I0929 11:22:29.877902  5438 net.cpp:100] Creating Layer conv1/7x7_s2
I0929 11:22:29.877907  5438 net.cpp:434] conv1/7x7_s2 <- data
I0929 11:22:29.877912  5438 net.cpp:408] conv1/7x7_s2 -> conv1/7x7_s2
I0929 11:22:30.135892  5438 net.cpp:150] Setting up conv1/7x7_s2
I0929 11:22:30.135924  5438 net.cpp:157] Top shape: 16 64 112 112 (12845056)
I0929 11:22:30.135929  5438 net.cpp:165] Memory required for data: 70647936
I0929 11:22:30.135946  5438 layer_factory.hpp:77] Creating layer conv1/7x7_s2/bn
I0929 11:22:30.135964  5438 net.cpp:100] Creating Layer conv1/7x7_s2/bn
I0929 11:22:30.135969  5438 net.cpp:434] conv1/7x7_s2/bn <- conv1/7x7_s2
I0929 11:22:30.135977  5438 net.cpp:395] conv1/7x7_s2/bn -> conv1/7x7_s2 (in-place)
I0929 11:22:30.136164  5438 net.cpp:150] Setting up conv1/7x7_s2/bn
I0929 11:22:30.136173  5438 net.cpp:157] Top shape: 16 64 112 112 (12845056)
I0929 11:22:30.136179  5438 net.cpp:165] Memory required for data: 122028160
I0929 11:22:30.136190  5438 layer_factory.hpp:77] Creating layer conv1/7x7_s2/bn/scale
I0929 11:22:30.136201  5438 net.cpp:100] Creating Layer conv1/7x7_s2/bn/scale
I0929 11:22:30.136207  5438 net.cpp:434] conv1/7x7_s2/bn/scale <- conv1/7x7_s2
I0929 11:22:30.136212  5438 net.cpp:395] conv1/7x7_s2/bn/scale -> conv1/7x7_s2 (in-place)
I0929 11:22:30.136255  5438 layer_factory.hpp:77] Creating layer conv1/7x7_s2/bn/scale
I0929 11:22:30.136380  5438 net.cpp:150] Setting up conv1/7x7_s2/bn/scale
I0929 11:22:30.136389  5438 net.cpp:157] Top shape: 16 64 112 112 (12845056)
I0929 11:22:30.136394  5438 net.cpp:165] Memory required for data: 173408384
I0929 11:22:30.136401  5438 layer_factory.hpp:77] Creating layer conv1/relu_7x7_s2
I0929 11:22:30.136412  5438 net.cpp:100] Creating Layer conv1/relu_7x7_s2
I0929 11:22:30.136417  5438 net.cpp:434] conv1/relu_7x7_s2 <- conv1/7x7_s2
I0929 11:22:30.136422  5438 net.cpp:395] conv1/relu_7x7_s2 -> conv1/7x7_s2 (in-place)
I0929 11:22:30.136582  5438 net.cpp:150] Setting up conv1/relu_7x7_s2
I0929 11:22:30.136592  5438 net.cpp:157] Top shape: 16 64 112 112 (12845056)
I0929 11:22:30.136595  5438 net.cpp:165] Memory required for data: 224788608
I0929 11:22:30.136600  5438 layer_factory.hpp:77] Creating layer pool1/3x3_s2
I0929 11:22:30.136610  5438 net.cpp:100] Creating Layer pool1/3x3_s2
I0929 11:22:30.136638  5438 net.cpp:434] pool1/3x3_s2 <- conv1/7x7_s2
I0929 11:22:30.136646  5438 net.cpp:408] pool1/3x3_s2 -> pool1/3x3_s2
I0929 11:22:30.136698  5438 net.cpp:150] Setting up pool1/3x3_s2
I0929 11:22:30.136705  5438 net.cpp:157] Top shape: 16 64 56 56 (3211264)
I0929 11:22:30.136709  5438 net.cpp:165] Memory required for data: 237633664
I0929 11:22:30.136713  5438 layer_factory.hpp:77] Creating layer pool1/3x3_s2_pool1/3x3_s2_0_split
I0929 11:22:30.136720  5438 net.cpp:100] Creating Layer pool1/3x3_s2_pool1/3x3_s2_0_split
I0929 11:22:30.136725  5438 net.cpp:434] pool1/3x3_s2_pool1/3x3_s2_0_split <- pool1/3x3_s2
I0929 11:22:30.136729  5438 net.cpp:408] pool1/3x3_s2_pool1/3x3_s2_0_split -> pool1/3x3_s2_pool1/3x3_s2_0_split_0
I0929 11:22:30.136736  5438 net.cpp:408] pool1/3x3_s2_pool1/3x3_s2_0_split -> pool1/3x3_s2_pool1/3x3_s2_0_split_1
I0929 11:22:30.136765  5438 net.cpp:150] Setting up pool1/3x3_s2_pool1/3x3_s2_0_split
I0929 11:22:30.136771  5438 net.cpp:157] Top shape: 16 64 56 56 (3211264)
I0929 11:22:30.136776  5438 net.cpp:157] Top shape: 16 64 56 56 (3211264)
I0929 11:22:30.136780  5438 net.cpp:165] Memory required for data: 263323776
I0929 11:22:30.136790  5438 layer_factory.hpp:77] Creating layer conv2_1_1x1_reduce
I0929 11:22:30.136801  5438 net.cpp:100] Creating Layer conv2_1_1x1_reduce
I0929 11:22:30.136806  5438 net.cpp:434] conv2_1_1x1_reduce <- pool1/3x3_s2_pool1/3x3_s2_0_split_0
I0929 11:22:30.136811  5438 net.cpp:408] conv2_1_1x1_reduce -> conv2_1_1x1_reduce
I0929 11:22:30.138712  5438 net.cpp:150] Setting up conv2_1_1x1_reduce
I0929 11:22:30.138726  5438 net.cpp:157] Top shape: 16 64 56 56 (3211264)
I0929 11:22:30.138733  5438 net.cpp:165] Memory required for data: 276168832
I0929 11:22:30.138739  5438 layer_factory.hpp:77] Creating layer conv2_1_1x1_reduce/bn
I0929 11:22:30.138747  5438 net.cpp:100] Creating Layer conv2_1_1x1_reduce/bn
I0929 11:22:30.138752  5438 net.cpp:434] conv2_1_1x1_reduce/bn <- conv2_1_1x1_reduce
I0929 11:22:30.138758  5438 net.cpp:395] conv2_1_1x1_reduce/bn -> conv2_1_1x1_reduce (in-place)
I0929 11:22:30.138926  5438 net.cpp:150] Setting up conv2_1_1x1_reduce/bn
I0929 11:22:30.138933  5438 net.cpp:157] Top shape: 16 64 56 56 (3211264)
I0929 11:22:30.138938  5438 net.cpp:165] Memory required for data: 289013888
I0929 11:22:30.138948  5438 layer_factory.hpp:77] Creating layer conv2_1_1x1_reduce/bn/scale
I0929 11:22:30.138957  5438 net.cpp:100] Creating Layer conv2_1_1x1_reduce/bn/scale
I0929 11:22:30.138960  5438 net.cpp:434] conv2_1_1x1_reduce/bn/scale <- conv2_1_1x1_reduce
I0929 11:22:30.138965  5438 net.cpp:395] conv2_1_1x1_reduce/bn/scale -> conv2_1_1x1_reduce (in-place)
I0929 11:22:30.138999  5438 layer_factory.hpp:77] Creating layer conv2_1_1x1_reduce/bn/scale
I0929 11:22:30.139096  5438 net.cpp:150] Setting up conv2_1_1x1_reduce/bn/scale
I0929 11:22:30.139103  5438 net.cpp:157] Top shape: 16 64 56 56 (3211264)
I0929 11:22:30.139107  5438 net.cpp:165] Memory required for data: 301858944
I0929 11:22:30.139113  5438 layer_factory.hpp:77] Creating layer conv2_1_1x1_reduce/relu
I0929 11:22:30.139120  5438 net.cpp:100] Creating Layer conv2_1_1x1_reduce/relu
I0929 11:22:30.139124  5438 net.cpp:434] conv2_1_1x1_reduce/relu <- conv2_1_1x1_reduce
I0929 11:22:30.139129  5438 net.cpp:395] conv2_1_1x1_reduce/relu -> conv2_1_1x1_reduce (in-place)
I0929 11:22:30.139549  5438 net.cpp:150] Setting up conv2_1_1x1_reduce/relu
I0929 11:22:30.139562  5438 net.cpp:157] Top shape: 16 64 56 56 (3211264)
I0929 11:22:30.139567  5438 net.cpp:165] Memory required for data: 314704000
I0929 11:22:30.139571  5438 layer_factory.hpp:77] Creating layer conv2_1_3x3
I0929 11:22:30.139582  5438 net.cpp:100] Creating Layer conv2_1_3x3
I0929 11:22:30.139587  5438 net.cpp:434] conv2_1_3x3 <- conv2_1_1x1_reduce
I0929 11:22:30.139593  5438 net.cpp:408] conv2_1_3x3 -> conv2_1_3x3
I0929 11:22:30.141268  5438 net.cpp:150] Setting up conv2_1_3x3
I0929 11:22:30.141283  5438 net.cpp:157] Top shape: 16 64 56 56 (3211264)
I0929 11:22:30.141288  5438 net.cpp:165] Memory required for data: 327549056
I0929 11:22:30.141307  5438 layer_factory.hpp:77] Creating layer conv2_1_3x3/bn
I0929 11:22:30.141320  5438 net.cpp:100] Creating Layer conv2_1_3x3/bn
I0929 11:22:30.141325  5438 net.cpp:434] conv2_1_3x3/bn <- conv2_1_3x3
I0929 11:22:30.141332  5438 net.cpp:395] conv2_1_3x3/bn -> conv2_1_3x3 (in-place)
I0929 11:22:30.141512  5438 net.cpp:150] Setting up conv2_1_3x3/bn
I0929 11:22:30.141520  5438 net.cpp:157] Top shape: 16 64 56 56 (3211264)
I0929 11:22:30.141523  5438 net.cpp:165] Memory required for data: 340394112
I0929 11:22:30.141532  5438 layer_factory.hpp:77] Creating layer conv2_1_3x3/bn/scale
I0929 11:22:30.141540  5438 net.cpp:100] Creating Layer conv2_1_3x3/bn/scale
I0929 11:22:30.141544  5438 net.cpp:434] conv2_1_3x3/bn/scale <- conv2_1_3x3
I0929 11:22:30.141551  5438 net.cpp:395] conv2_1_3x3/bn/scale -> conv2_1_3x3 (in-place)
I0929 11:22:30.141588  5438 layer_factory.hpp:77] Creating layer conv2_1_3x3/bn/scale
I0929 11:22:30.141696  5438 net.cpp:150] Setting up conv2_1_3x3/bn/scale
I0929 11:22:30.141705  5438 net.cpp:157] Top shape: 16 64 56 56 (3211264)
I0929 11:22:30.141708  5438 net.cpp:165] Memory required for data: 353239168
I0929 11:22:30.141717  5438 layer_factory.hpp:77] Creating layer conv2_1_3x3/relu
I0929 11:22:30.141726  5438 net.cpp:100] Creating Layer conv2_1_3x3/relu
I0929 11:22:30.141729  5438 net.cpp:434] conv2_1_3x3/relu <- conv2_1_3x3
I0929 11:22:30.141734  5438 net.cpp:395] conv2_1_3x3/relu -> conv2_1_3x3 (in-place)
I0929 11:22:30.142177  5438 net.cpp:150] Setting up conv2_1_3x3/relu
I0929 11:22:30.142192  5438 net.cpp:157] Top shape: 16 64 56 56 (3211264)
I0929 11:22:30.142197  5438 net.cpp:165] Memory required for data: 366084224
I0929 11:22:30.142200  5438 layer_factory.hpp:77] Creating layer conv2_1_1x1_increase
I0929 11:22:30.142211  5438 net.cpp:100] Creating Layer conv2_1_1x1_increase
I0929 11:22:30.142216  5438 net.cpp:434] conv2_1_1x1_increase <- conv2_1_3x3
I0929 11:22:30.142223  5438 net.cpp:408] conv2_1_1x1_increase -> conv2_1_1x1_increase
I0929 11:22:30.143184  5438 net.cpp:150] Setting up conv2_1_1x1_increase
I0929 11:22:30.143198  5438 net.cpp:157] Top shape: 16 256 56 56 (12845056)
I0929 11:22:30.143203  5438 net.cpp:165] Memory required for data: 417464448
I0929 11:22:30.143208  5438 layer_factory.hpp:77] Creating layer conv2_1_1x1_increase/bn
I0929 11:22:30.143218  5438 net.cpp:100] Creating Layer conv2_1_1x1_increase/bn
I0929 11:22:30.143224  5438 net.cpp:434] conv2_1_1x1_increase/bn <- conv2_1_1x1_increase
I0929 11:22:30.143229  5438 net.cpp:395] conv2_1_1x1_increase/bn -> conv2_1_1x1_increase (in-place)
I0929 11:22:30.143401  5438 net.cpp:150] Setting up conv2_1_1x1_increase/bn
I0929 11:22:30.143409  5438 net.cpp:157] Top shape: 16 256 56 56 (12845056)
I0929 11:22:30.143414  5438 net.cpp:165] Memory required for data: 468844672
I0929 11:22:30.143420  5438 layer_factory.hpp:77] Creating layer conv2_1_1x1_increase/bn/scale
I0929 11:22:30.143427  5438 net.cpp:100] Creating Layer conv2_1_1x1_increase/bn/scale
I0929 11:22:30.143431  5438 net.cpp:434] conv2_1_1x1_increase/bn/scale <- conv2_1_1x1_increase
I0929 11:22:30.143437  5438 net.cpp:395] conv2_1_1x1_increase/bn/scale -> conv2_1_1x1_increase (in-place)
I0929 11:22:30.143472  5438 layer_factory.hpp:77] Creating layer conv2_1_1x1_increase/bn/scale
I0929 11:22:30.143570  5438 net.cpp:150] Setting up conv2_1_1x1_increase/bn/scale
I0929 11:22:30.143579  5438 net.cpp:157] Top shape: 16 256 56 56 (12845056)
I0929 11:22:30.143584  5438 net.cpp:165] Memory required for data: 520224896
I0929 11:22:30.143589  5438 layer_factory.hpp:77] Creating layer conv2_1_1x1_increase_conv2_1_1x1_increase/bn/scale_0_split
I0929 11:22:30.143595  5438 net.cpp:100] Creating Layer conv2_1_1x1_increase_conv2_1_1x1_increase/bn/scale_0_split
I0929 11:22:30.143599  5438 net.cpp:434] conv2_1_1x1_increase_conv2_1_1x1_increase/bn/scale_0_split <- conv2_1_1x1_increase
I0929 11:22:30.143604  5438 net.cpp:408] conv2_1_1x1_increase_conv2_1_1x1_increase/bn/scale_0_split -> conv2_1_1x1_increase_conv2_1_1x1_increase/bn/scale_0_split_0
I0929 11:22:30.143611  5438 net.cpp:408] conv2_1_1x1_increase_conv2_1_1x1_increase/bn/scale_0_split -> conv2_1_1x1_increase_conv2_1_1x1_increase/bn/scale_0_split_1
I0929 11:22:30.143661  5438 net.cpp:150] Setting up conv2_1_1x1_increase_conv2_1_1x1_increase/bn/scale_0_split
I0929 11:22:30.143668  5438 net.cpp:157] Top shape: 16 256 56 56 (12845056)
I0929 11:22:30.143673  5438 net.cpp:157] Top shape: 16 256 56 56 (12845056)
I0929 11:22:30.143677  5438 net.cpp:165] Memory required for data: 622985344
I0929 11:22:30.143681  5438 layer_factory.hpp:77] Creating layer conv2_1_global_pool
I0929 11:22:30.143690  5438 net.cpp:100] Creating Layer conv2_1_global_pool
I0929 11:22:30.143694  5438 net.cpp:434] conv2_1_global_pool <- conv2_1_1x1_increase_conv2_1_1x1_increase/bn/scale_0_split_0
I0929 11:22:30.143702  5438 net.cpp:408] conv2_1_global_pool -> conv2_1_global_pool
I0929 11:22:30.143724  5438 net.cpp:150] Setting up conv2_1_global_pool
I0929 11:22:30.143731  5438 net.cpp:157] Top shape: 16 256 1 1 (4096)
I0929 11:22:30.143735  5438 net.cpp:165] Memory required for data: 623001728
I0929 11:22:30.143738  5438 layer_factory.hpp:77] Creating layer conv2_1_1x1_down
I0929 11:22:30.143751  5438 net.cpp:100] Creating Layer conv2_1_1x1_down
I0929 11:22:30.143756  5438 net.cpp:434] conv2_1_1x1_down <- conv2_1_global_pool
I0929 11:22:30.143762  5438 net.cpp:408] conv2_1_1x1_down -> conv2_1_1x1_down
I0929 11:22:30.145015  5438 net.cpp:150] Setting up conv2_1_1x1_down
I0929 11:22:30.145028  5438 net.cpp:157] Top shape: 16 16 1 1 (256)
I0929 11:22:30.145035  5438 net.cpp:165] Memory required for data: 623002752
I0929 11:22:30.145041  5438 layer_factory.hpp:77] Creating layer conv2_1_1x1_down/relu
I0929 11:22:30.145050  5438 net.cpp:100] Creating Layer conv2_1_1x1_down/relu
I0929 11:22:30.145053  5438 net.cpp:434] conv2_1_1x1_down/relu <- conv2_1_1x1_down
I0929 11:22:30.145064  5438 net.cpp:395] conv2_1_1x1_down/relu -> conv2_1_1x1_down (in-place)
I0929 11:22:30.145233  5438 net.cpp:150] Setting up conv2_1_1x1_down/relu
I0929 11:22:30.145243  5438 net.cpp:157] Top shape: 16 16 1 1 (256)
I0929 11:22:30.145247  5438 net.cpp:165] Memory required for data: 623003776
I0929 11:22:30.145251  5438 layer_factory.hpp:77] Creating layer conv2_1_1x1_up
I0929 11:22:30.145262  5438 net.cpp:100] Creating Layer conv2_1_1x1_up
I0929 11:22:30.145267  5438 net.cpp:434] conv2_1_1x1_up <- conv2_1_1x1_down
I0929 11:22:30.145274  5438 net.cpp:408] conv2_1_1x1_up -> conv2_1_1x1_up
I0929 11:22:30.146266  5438 net.cpp:150] Setting up conv2_1_1x1_up
I0929 11:22:30.146281  5438 net.cpp:157] Top shape: 16 256 1 1 (4096)
I0929 11:22:30.146286  5438 net.cpp:165] Memory required for data: 623020160
I0929 11:22:30.146291  5438 layer_factory.hpp:77] Creating layer conv2_1_prob
I0929 11:22:30.146301  5438 net.cpp:100] Creating Layer conv2_1_prob
I0929 11:22:30.146306  5438 net.cpp:434] conv2_1_prob <- conv2_1_1x1_up
I0929 11:22:30.146311  5438 net.cpp:395] conv2_1_prob -> conv2_1_1x1_up (in-place)
I0929 11:22:30.146477  5438 net.cpp:150] Setting up conv2_1_prob
I0929 11:22:30.146486  5438 net.cpp:157] Top shape: 16 256 1 1 (4096)
I0929 11:22:30.146491  5438 net.cpp:165] Memory required for data: 623036544
I0929 11:22:30.146493  5438 layer_factory.hpp:77] Creating layer conv2_1_1x1_proj
I0929 11:22:30.146504  5438 net.cpp:100] Creating Layer conv2_1_1x1_proj
I0929 11:22:30.146510  5438 net.cpp:434] conv2_1_1x1_proj <- pool1/3x3_s2_pool1/3x3_s2_0_split_1
I0929 11:22:30.146515  5438 net.cpp:408] conv2_1_1x1_proj -> conv2_1_1x1_proj
I0929 11:22:30.147475  5438 net.cpp:150] Setting up conv2_1_1x1_proj
I0929 11:22:30.147490  5438 net.cpp:157] Top shape: 16 256 56 56 (12845056)
I0929 11:22:30.147493  5438 net.cpp:165] Memory required for data: 674416768
I0929 11:22:30.147500  5438 layer_factory.hpp:77] Creating layer conv2_1_1x1_proj/bn
I0929 11:22:30.147509  5438 net.cpp:100] Creating Layer conv2_1_1x1_proj/bn
I0929 11:22:30.147514  5438 net.cpp:434] conv2_1_1x1_proj/bn <- conv2_1_1x1_proj
I0929 11:22:30.147522  5438 net.cpp:395] conv2_1_1x1_proj/bn -> conv2_1_1x1_proj (in-place)
I0929 11:22:30.147694  5438 net.cpp:150] Setting up conv2_1_1x1_proj/bn
I0929 11:22:30.147714  5438 net.cpp:157] Top shape: 16 256 56 56 (12845056)
I0929 11:22:30.147719  5438 net.cpp:165] Memory required for data: 725796992
I0929 11:22:30.147727  5438 layer_factory.hpp:77] Creating layer conv2_1_1x1_proj/bn/scale
I0929 11:22:30.147733  5438 net.cpp:100] Creating Layer conv2_1_1x1_proj/bn/scale
I0929 11:22:30.147737  5438 net.cpp:434] conv2_1_1x1_proj/bn/scale <- conv2_1_1x1_proj
I0929 11:22:30.147747  5438 net.cpp:395] conv2_1_1x1_proj/bn/scale -> conv2_1_1x1_proj (in-place)
I0929 11:22:30.147792  5438 layer_factory.hpp:77] Creating layer conv2_1_1x1_proj/bn/scale
I0929 11:22:30.147898  5438 net.cpp:150] Setting up conv2_1_1x1_proj/bn/scale
I0929 11:22:30.147907  5438 net.cpp:157] Top shape: 16 256 56 56 (12845056)
I0929 11:22:30.147910  5438 net.cpp:165] Memory required for data: 777177216
I0929 11:22:30.147923  5438 layer_factory.hpp:77] Creating layer conv2_1
I0929 11:22:30.147933  5438 net.cpp:100] Creating Layer conv2_1
I0929 11:22:30.147936  5438 net.cpp:434] conv2_1 <- conv2_1_1x1_up
I0929 11:22:30.147941  5438 net.cpp:434] conv2_1 <- conv2_1_1x1_increase_conv2_1_1x1_increase/bn/scale_0_split_1
I0929 11:22:30.147945  5438 net.cpp:434] conv2_1 <- conv2_1_1x1_proj
I0929 11:22:30.147950  5438 net.cpp:408] conv2_1 -> conv2_1
I0929 11:22:30.148002  5438 net.cpp:150] Setting up conv2_1
I0929 11:22:30.148010  5438 net.cpp:157] Top shape: 16 256 56 56 (12845056)
I0929 11:22:30.148015  5438 net.cpp:165] Memory required for data: 828557440
I0929 11:22:30.148017  5438 layer_factory.hpp:77] Creating layer conv2_1/relu
I0929 11:22:30.148025  5438 net.cpp:100] Creating Layer conv2_1/relu
I0929 11:22:30.148030  5438 net.cpp:434] conv2_1/relu <- conv2_1
I0929 11:22:30.148036  5438 net.cpp:395] conv2_1/relu -> conv2_1 (in-place)
I0929 11:22:30.148197  5438 net.cpp:150] Setting up conv2_1/relu
I0929 11:22:30.148207  5438 net.cpp:157] Top shape: 16 256 56 56 (12845056)
I0929 11:22:30.148211  5438 net.cpp:165] Memory required for data: 879937664
I0929 11:22:30.148214  5438 layer_factory.hpp:77] Creating layer conv2_1_conv2_1/relu_0_split
I0929 11:22:30.148224  5438 net.cpp:100] Creating Layer conv2_1_conv2_1/relu_0_split
I0929 11:22:30.148229  5438 net.cpp:434] conv2_1_conv2_1/relu_0_split <- conv2_1
I0929 11:22:30.148233  5438 net.cpp:408] conv2_1_conv2_1/relu_0_split -> conv2_1_conv2_1/relu_0_split_0
I0929 11:22:30.148243  5438 net.cpp:408] conv2_1_conv2_1/relu_0_split -> conv2_1_conv2_1/relu_0_split_1
I0929 11:22:30.148280  5438 net.cpp:150] Setting up conv2_1_conv2_1/relu_0_split
I0929 11:22:30.148288  5438 net.cpp:157] Top shape: 16 256 56 56 (12845056)
I0929 11:22:30.148293  5438 net.cpp:157] Top shape: 16 256 56 56 (12845056)
I0929 11:22:30.148295  5438 net.cpp:165] Memory required for data: 982698112
I0929 11:22:30.148298  5438 layer_factory.hpp:77] Creating layer conv2_2_1x1_reduce
I0929 11:22:30.148308  5438 net.cpp:100] Creating Layer conv2_2_1x1_reduce
I0929 11:22:30.148313  5438 net.cpp:434] conv2_2_1x1_reduce <- conv2_1_conv2_1/relu_0_split_0
I0929 11:22:30.148319  5438 net.cpp:408] conv2_2_1x1_reduce -> conv2_2_1x1_reduce
I0929 11:22:30.149289  5438 net.cpp:150] Setting up conv2_2_1x1_reduce
I0929 11:22:30.149303  5438 net.cpp:157] Top shape: 16 64 56 56 (3211264)
I0929 11:22:30.149308  5438 net.cpp:165] Memory required for data: 995543168
I0929 11:22:30.149314  5438 layer_factory.hpp:77] Creating layer conv2_2_1x1_reduce/bn
I0929 11:22:30.149322  5438 net.cpp:100] Creating Layer conv2_2_1x1_reduce/bn
I0929 11:22:30.149327  5438 net.cpp:434] conv2_2_1x1_reduce/bn <- conv2_2_1x1_reduce
I0929 11:22:30.149334  5438 net.cpp:395] conv2_2_1x1_reduce/bn -> conv2_2_1x1_reduce (in-place)
I0929 11:22:30.149520  5438 net.cpp:150] Setting up conv2_2_1x1_reduce/bn
I0929 11:22:30.149528  5438 net.cpp:157] Top shape: 16 64 56 56 (3211264)
I0929 11:22:30.149533  5438 net.cpp:165] Memory required for data: 1008388224
I0929 11:22:30.149539  5438 layer_factory.hpp:77] Creating layer conv2_2_1x1_reduce/bn/scale
I0929 11:22:30.149546  5438 net.cpp:100] Creating Layer conv2_2_1x1_reduce/bn/scale
I0929 11:22:30.149562  5438 net.cpp:434] conv2_2_1x1_reduce/bn/scale <- conv2_2_1x1_reduce
I0929 11:22:30.149571  5438 net.cpp:395] conv2_2_1x1_reduce/bn/scale -> conv2_2_1x1_reduce (in-place)
I0929 11:22:30.149610  5438 layer_factory.hpp:77] Creating layer conv2_2_1x1_reduce/bn/scale
I0929 11:22:30.149725  5438 net.cpp:150] Setting up conv2_2_1x1_reduce/bn/scale
I0929 11:22:30.149732  5438 net.cpp:157] Top shape: 16 64 56 56 (3211264)
I0929 11:22:30.149735  5438 net.cpp:165] Memory required for data: 1021233280
I0929 11:22:30.149744  5438 layer_factory.hpp:77] Creating layer conv2_2_1x1_reduce/relu
I0929 11:22:30.149750  5438 net.cpp:100] Creating Layer conv2_2_1x1_reduce/relu
I0929 11:22:30.149755  5438 net.cpp:434] conv2_2_1x1_reduce/relu <- conv2_2_1x1_reduce
I0929 11:22:30.149760  5438 net.cpp:395] conv2_2_1x1_reduce/relu -> conv2_2_1x1_reduce (in-place)
I0929 11:22:30.149933  5438 net.cpp:150] Setting up conv2_2_1x1_reduce/relu
I0929 11:22:30.149943  5438 net.cpp:157] Top shape: 16 64 56 56 (3211264)
I0929 11:22:30.149947  5438 net.cpp:165] Memory required for data: 1034078336
I0929 11:22:30.149950  5438 layer_factory.hpp:77] Creating layer conv2_2_3x3
I0929 11:22:30.149963  5438 net.cpp:100] Creating Layer conv2_2_3x3
I0929 11:22:30.149967  5438 net.cpp:434] conv2_2_3x3 <- conv2_2_1x1_reduce
I0929 11:22:30.149973  5438 net.cpp:408] conv2_2_3x3 -> conv2_2_3x3
I0929 11:22:30.150995  5438 net.cpp:150] Setting up conv2_2_3x3
I0929 11:22:30.151008  5438 net.cpp:157] Top shape: 16 64 56 56 (3211264)
I0929 11:22:30.151013  5438 net.cpp:165] Memory required for data: 1046923392
I0929 11:22:30.151018  5438 layer_factory.hpp:77] Creating layer conv2_2_3x3/bn
I0929 11:22:30.151028  5438 net.cpp:100] Creating Layer conv2_2_3x3/bn
I0929 11:22:30.151034  5438 net.cpp:434] conv2_2_3x3/bn <- conv2_2_3x3
I0929 11:22:30.151039  5438 net.cpp:395] conv2_2_3x3/bn -> conv2_2_3x3 (in-place)
I0929 11:22:30.151226  5438 net.cpp:150] Setting up conv2_2_3x3/bn
I0929 11:22:30.151233  5438 net.cpp:157] Top shape: 16 64 56 56 (3211264)
I0929 11:22:30.151238  5438 net.cpp:165] Memory required for data: 1059768448
I0929 11:22:30.151245  5438 layer_factory.hpp:77] Creating layer conv2_2_3x3/bn/scale
I0929 11:22:30.151252  5438 net.cpp:100] Creating Layer conv2_2_3x3/bn/scale
I0929 11:22:30.151255  5438 net.cpp:434] conv2_2_3x3/bn/scale <- conv2_2_3x3
I0929 11:22:30.151260  5438 net.cpp:395] conv2_2_3x3/bn/scale -> conv2_2_3x3 (in-place)
I0929 11:22:30.151300  5438 layer_factory.hpp:77] Creating layer conv2_2_3x3/bn/scale
I0929 11:22:30.151407  5438 net.cpp:150] Setting up conv2_2_3x3/bn/scale
I0929 11:22:30.151414  5438 net.cpp:157] Top shape: 16 64 56 56 (3211264)
I0929 11:22:30.151418  5438 net.cpp:165] Memory required for data: 1072613504
I0929 11:22:30.151424  5438 layer_factory.hpp:77] Creating layer conv2_2_3x3/relu
I0929 11:22:30.151433  5438 net.cpp:100] Creating Layer conv2_2_3x3/relu
I0929 11:22:30.151437  5438 net.cpp:434] conv2_2_3x3/relu <- conv2_2_3x3
I0929 11:22:30.151442  5438 net.cpp:395] conv2_2_3x3/relu -> conv2_2_3x3 (in-place)
I0929 11:22:30.151603  5438 net.cpp:150] Setting up conv2_2_3x3/relu
I0929 11:22:30.151614  5438 net.cpp:157] Top shape: 16 64 56 56 (3211264)
I0929 11:22:30.151618  5438 net.cpp:165] Memory required for data: 1085458560
I0929 11:22:30.151621  5438 layer_factory.hpp:77] Creating layer conv2_2_1x1_increase
I0929 11:22:30.151630  5438 net.cpp:100] Creating Layer conv2_2_1x1_increase
I0929 11:22:30.151635  5438 net.cpp:434] conv2_2_1x1_increase <- conv2_2_3x3
I0929 11:22:30.151641  5438 net.cpp:408] conv2_2_1x1_increase -> conv2_2_1x1_increase
I0929 11:22:30.152604  5438 net.cpp:150] Setting up conv2_2_1x1_increase
I0929 11:22:30.152618  5438 net.cpp:157] Top shape: 16 256 56 56 (12845056)
I0929 11:22:30.152623  5438 net.cpp:165] Memory required for data: 1136838784
I0929 11:22:30.152628  5438 layer_factory.hpp:77] Creating layer conv2_2_1x1_increase/bn
I0929 11:22:30.152638  5438 net.cpp:100] Creating Layer conv2_2_1x1_increase/bn
I0929 11:22:30.152644  5438 net.cpp:434] conv2_2_1x1_increase/bn <- conv2_2_1x1_increase
I0929 11:22:30.152662  5438 net.cpp:395] conv2_2_1x1_increase/bn -> conv2_2_1x1_increase (in-place)
I0929 11:22:30.152848  5438 net.cpp:150] Setting up conv2_2_1x1_increase/bn
I0929 11:22:30.152856  5438 net.cpp:157] Top shape: 16 256 56 56 (12845056)
I0929 11:22:30.152861  5438 net.cpp:165] Memory required for data: 1188219008
I0929 11:22:30.152868  5438 layer_factory.hpp:77] Creating layer conv2_2_1x1_increase/bn/scale
I0929 11:22:30.152875  5438 net.cpp:100] Creating Layer conv2_2_1x1_increase/bn/scale
I0929 11:22:30.152880  5438 net.cpp:434] conv2_2_1x1_increase/bn/scale <- conv2_2_1x1_increase
I0929 11:22:30.152886  5438 net.cpp:395] conv2_2_1x1_increase/bn/scale -> conv2_2_1x1_increase (in-place)
I0929 11:22:30.152923  5438 layer_factory.hpp:77] Creating layer conv2_2_1x1_increase/bn/scale
I0929 11:22:30.153033  5438 net.cpp:150] Setting up conv2_2_1x1_increase/bn/scale
I0929 11:22:30.153043  5438 net.cpp:157] Top shape: 16 256 56 56 (12845056)
I0929 11:22:30.153046  5438 net.cpp:165] Memory required for data: 1239599232
I0929 11:22:30.153051  5438 layer_factory.hpp:77] Creating layer conv2_2_1x1_increase_conv2_2_1x1_increase/bn/scale_0_split
I0929 11:22:30.153059  5438 net.cpp:100] Creating Layer conv2_2_1x1_increase_conv2_2_1x1_increase/bn/scale_0_split
I0929 11:22:30.153061  5438 net.cpp:434] conv2_2_1x1_increase_conv2_2_1x1_increase/bn/scale_0_split <- conv2_2_1x1_increase
I0929 11:22:30.153067  5438 net.cpp:408] conv2_2_1x1_increase_conv2_2_1x1_increase/bn/scale_0_split -> conv2_2_1x1_increase_conv2_2_1x1_increase/bn/scale_0_split_0
I0929 11:22:30.153074  5438 net.cpp:408] conv2_2_1x1_increase_conv2_2_1x1_increase/bn/scale_0_split -> conv2_2_1x1_increase_conv2_2_1x1_increase/bn/scale_0_split_1
I0929 11:22:30.153110  5438 net.cpp:150] Setting up conv2_2_1x1_increase_conv2_2_1x1_increase/bn/scale_0_split
I0929 11:22:30.153116  5438 net.cpp:157] Top shape: 16 256 56 56 (12845056)
I0929 11:22:30.153121  5438 net.cpp:157] Top shape: 16 256 56 56 (12845056)
I0929 11:22:30.153125  5438 net.cpp:165] Memory required for data: 1342359680
I0929 11:22:30.153127  5438 layer_factory.hpp:77] Creating layer conv2_2_global_pool
I0929 11:22:30.153134  5438 net.cpp:100] Creating Layer conv2_2_global_pool
I0929 11:22:30.153138  5438 net.cpp:434] conv2_2_global_pool <- conv2_2_1x1_increase_conv2_2_1x1_increase/bn/scale_0_split_0
I0929 11:22:30.153146  5438 net.cpp:408] conv2_2_global_pool -> conv2_2_global_pool
I0929 11:22:30.153167  5438 net.cpp:150] Setting up conv2_2_global_pool
I0929 11:22:30.153173  5438 net.cpp:157] Top shape: 16 256 1 1 (4096)
I0929 11:22:30.153177  5438 net.cpp:165] Memory required for data: 1342376064
I0929 11:22:30.153180  5438 layer_factory.hpp:77] Creating layer conv2_2_1x1_down
I0929 11:22:30.153190  5438 net.cpp:100] Creating Layer conv2_2_1x1_down
I0929 11:22:30.153195  5438 net.cpp:434] conv2_2_1x1_down <- conv2_2_global_pool
I0929 11:22:30.153200  5438 net.cpp:408] conv2_2_1x1_down -> conv2_2_1x1_down
I0929 11:22:30.154214  5438 net.cpp:150] Setting up conv2_2_1x1_down
I0929 11:22:30.154228  5438 net.cpp:157] Top shape: 16 16 1 1 (256)
I0929 11:22:30.154233  5438 net.cpp:165] Memory required for data: 1342377088
I0929 11:22:30.154239  5438 layer_factory.hpp:77] Creating layer conv2_2_1x1_down/relu
I0929 11:22:30.154249  5438 net.cpp:100] Creating Layer conv2_2_1x1_down/relu
I0929 11:22:30.154254  5438 net.cpp:434] conv2_2_1x1_down/relu <- conv2_2_1x1_down
I0929 11:22:30.154261  5438 net.cpp:395] conv2_2_1x1_down/relu -> conv2_2_1x1_down (in-place)
I0929 11:22:30.154695  5438 net.cpp:150] Setting up conv2_2_1x1_down/relu
I0929 11:22:30.154709  5438 net.cpp:157] Top shape: 16 16 1 1 (256)
I0929 11:22:30.154713  5438 net.cpp:165] Memory required for data: 1342378112
I0929 11:22:30.154717  5438 layer_factory.hpp:77] Creating layer conv2_2_1x1_up
I0929 11:22:30.154728  5438 net.cpp:100] Creating Layer conv2_2_1x1_up
I0929 11:22:30.154733  5438 net.cpp:434] conv2_2_1x1_up <- conv2_2_1x1_down
I0929 11:22:30.154742  5438 net.cpp:408] conv2_2_1x1_up -> conv2_2_1x1_up
I0929 11:22:30.155481  5438 net.cpp:150] Setting up conv2_2_1x1_up
I0929 11:22:30.155493  5438 net.cpp:157] Top shape: 16 256 1 1 (4096)
I0929 11:22:30.155498  5438 net.cpp:165] Memory required for data: 1342394496
I0929 11:22:30.155504  5438 layer_factory.hpp:77] Creating layer conv2_2_prob
I0929 11:22:30.155515  5438 net.cpp:100] Creating Layer conv2_2_prob
I0929 11:22:30.155521  5438 net.cpp:434] conv2_2_prob <- conv2_2_1x1_up
I0929 11:22:30.155527  5438 net.cpp:395] conv2_2_prob -> conv2_2_1x1_up (in-place)
I0929 11:22:30.155972  5438 net.cpp:150] Setting up conv2_2_prob
I0929 11:22:30.155985  5438 net.cpp:157] Top shape: 16 256 1 1 (4096)
I0929 11:22:30.155990  5438 net.cpp:165] Memory required for data: 1342410880
I0929 11:22:30.155993  5438 layer_factory.hpp:77] Creating layer conv2_2
I0929 11:22:30.156002  5438 net.cpp:100] Creating Layer conv2_2
I0929 11:22:30.156008  5438 net.cpp:434] conv2_2 <- conv2_2_1x1_up
I0929 11:22:30.156013  5438 net.cpp:434] conv2_2 <- conv2_2_1x1_increase_conv2_2_1x1_increase/bn/scale_0_split_1
I0929 11:22:30.156018  5438 net.cpp:434] conv2_2 <- conv2_1_conv2_1/relu_0_split_1
I0929 11:22:30.156023  5438 net.cpp:408] conv2_2 -> conv2_2
I0929 11:22:30.156080  5438 net.cpp:150] Setting up conv2_2
I0929 11:22:30.156087  5438 net.cpp:157] Top shape: 16 256 56 56 (12845056)
I0929 11:22:30.156091  5438 net.cpp:165] Memory required for data: 1393791104
I0929 11:22:30.156095  5438 layer_factory.hpp:77] Creating layer conv2_2/relu
I0929 11:22:30.156102  5438 net.cpp:100] Creating Layer conv2_2/relu
I0929 11:22:30.156106  5438 net.cpp:434] conv2_2/relu <- conv2_2
I0929 11:22:30.156112  5438 net.cpp:395] conv2_2/relu -> conv2_2 (in-place)
I0929 11:22:30.156270  5438 net.cpp:150] Setting up conv2_2/relu
I0929 11:22:30.156278  5438 net.cpp:157] Top shape: 16 256 56 56 (12845056)
I0929 11:22:30.156283  5438 net.cpp:165] Memory required for data: 1445171328
I0929 11:22:30.156286  5438 layer_factory.hpp:77] Creating layer conv2_2_conv2_2/relu_0_split
I0929 11:22:30.156291  5438 net.cpp:100] Creating Layer conv2_2_conv2_2/relu_0_split
I0929 11:22:30.156296  5438 net.cpp:434] conv2_2_conv2_2/relu_0_split <- conv2_2
I0929 11:22:30.156302  5438 net.cpp:408] conv2_2_conv2_2/relu_0_split -> conv2_2_conv2_2/relu_0_split_0
I0929 11:22:30.156311  5438 net.cpp:408] conv2_2_conv2_2/relu_0_split -> conv2_2_conv2_2/relu_0_split_1
I0929 11:22:30.156354  5438 net.cpp:150] Setting up conv2_2_conv2_2/relu_0_split
I0929 11:22:30.156361  5438 net.cpp:157] Top shape: 16 256 56 56 (12845056)
I0929 11:22:30.156365  5438 net.cpp:157] Top shape: 16 256 56 56 (12845056)
I0929 11:22:30.156369  5438 net.cpp:165] Memory required for data: 1547931776
I0929 11:22:30.156373  5438 layer_factory.hpp:77] Creating layer conv2_3_1x1_reduce
I0929 11:22:30.156383  5438 net.cpp:100] Creating Layer conv2_3_1x1_reduce
I0929 11:22:30.156388  5438 net.cpp:434] conv2_3_1x1_reduce <- conv2_2_conv2_2/relu_0_split_0
I0929 11:22:30.156394  5438 net.cpp:408] conv2_3_1x1_reduce -> conv2_3_1x1_reduce
I0929 11:22:30.157618  5438 net.cpp:150] Setting up conv2_3_1x1_reduce
I0929 11:22:30.157632  5438 net.cpp:157] Top shape: 16 64 56 56 (3211264)
I0929 11:22:30.157637  5438 net.cpp:165] Memory required for data: 1560776832
I0929 11:22:30.157642  5438 layer_factory.hpp:77] Creating layer conv2_3_1x1_reduce/bn
I0929 11:22:30.157651  5438 net.cpp:100] Creating Layer conv2_3_1x1_reduce/bn
I0929 11:22:30.157656  5438 net.cpp:434] conv2_3_1x1_reduce/bn <- conv2_3_1x1_reduce
I0929 11:22:30.157665  5438 net.cpp:395] conv2_3_1x1_reduce/bn -> conv2_3_1x1_reduce (in-place)
I0929 11:22:30.157869  5438 net.cpp:150] Setting up conv2_3_1x1_reduce/bn
I0929 11:22:30.157878  5438 net.cpp:157] Top shape: 16 64 56 56 (3211264)
I0929 11:22:30.157883  5438 net.cpp:165] Memory required for data: 1573621888
I0929 11:22:30.157891  5438 layer_factory.hpp:77] Creating layer conv2_3_1x1_reduce/bn/scale
I0929 11:22:30.157897  5438 net.cpp:100] Creating Layer conv2_3_1x1_reduce/bn/scale
I0929 11:22:30.157902  5438 net.cpp:434] conv2_3_1x1_reduce/bn/scale <- conv2_3_1x1_reduce
I0929 11:22:30.157923  5438 net.cpp:395] conv2_3_1x1_reduce/bn/scale -> conv2_3_1x1_reduce (in-place)
I0929 11:22:30.157965  5438 layer_factory.hpp:77] Creating layer conv2_3_1x1_reduce/bn/scale
I0929 11:22:30.158083  5438 net.cpp:150] Setting up conv2_3_1x1_reduce/bn/scale
I0929 11:22:30.158092  5438 net.cpp:157] Top shape: 16 64 56 56 (3211264)
I0929 11:22:30.158095  5438 net.cpp:165] Memory required for data: 1586466944
I0929 11:22:30.158102  5438 layer_factory.hpp:77] Creating layer conv2_3_1x1_reduce/relu
I0929 11:22:30.158108  5438 net.cpp:100] Creating Layer conv2_3_1x1_reduce/relu
I0929 11:22:30.158112  5438 net.cpp:434] conv2_3_1x1_reduce/relu <- conv2_3_1x1_reduce
I0929 11:22:30.158118  5438 net.cpp:395] conv2_3_1x1_reduce/relu -> conv2_3_1x1_reduce (in-place)
I0929 11:22:30.158285  5438 net.cpp:150] Setting up conv2_3_1x1_reduce/relu
I0929 11:22:30.158294  5438 net.cpp:157] Top shape: 16 64 56 56 (3211264)
I0929 11:22:30.158299  5438 net.cpp:165] Memory required for data: 1599312000
I0929 11:22:30.158303  5438 layer_factory.hpp:77] Creating layer conv2_3_3x3
I0929 11:22:30.158313  5438 net.cpp:100] Creating Layer conv2_3_3x3
I0929 11:22:30.158318  5438 net.cpp:434] conv2_3_3x3 <- conv2_3_1x1_reduce
I0929 11:22:30.158324  5438 net.cpp:408] conv2_3_3x3 -> conv2_3_3x3
I0929 11:22:30.159317  5438 net.cpp:150] Setting up conv2_3_3x3
I0929 11:22:30.159330  5438 net.cpp:157] Top shape: 16 64 56 56 (3211264)
I0929 11:22:30.159335  5438 net.cpp:165] Memory required for data: 1612157056
I0929 11:22:30.159340  5438 layer_factory.hpp:77] Creating layer conv2_3_3x3/bn
I0929 11:22:30.159350  5438 net.cpp:100] Creating Layer conv2_3_3x3/bn
I0929 11:22:30.159355  5438 net.cpp:434] conv2_3_3x3/bn <- conv2_3_3x3
I0929 11:22:30.159361  5438 net.cpp:395] conv2_3_3x3/bn -> conv2_3_3x3 (in-place)
I0929 11:22:30.159553  5438 net.cpp:150] Setting up conv2_3_3x3/bn
I0929 11:22:30.159560  5438 net.cpp:157] Top shape: 16 64 56 56 (3211264)
I0929 11:22:30.159564  5438 net.cpp:165] Memory required for data: 1625002112
I0929 11:22:30.159579  5438 layer_factory.hpp:77] Creating layer conv2_3_3x3/bn/scale
I0929 11:22:30.159588  5438 net.cpp:100] Creating Layer conv2_3_3x3/bn/scale
I0929 11:22:30.159593  5438 net.cpp:434] conv2_3_3x3/bn/scale <- conv2_3_3x3
I0929 11:22:30.159597  5438 net.cpp:395] conv2_3_3x3/bn/scale -> conv2_3_3x3 (in-place)
I0929 11:22:30.159642  5438 layer_factory.hpp:77] Creating layer conv2_3_3x3/bn/scale
I0929 11:22:30.159754  5438 net.cpp:150] Setting up conv2_3_3x3/bn/scale
I0929 11:22:30.159762  5438 net.cpp:157] Top shape: 16 64 56 56 (3211264)
I0929 11:22:30.159766  5438 net.cpp:165] Memory required for data: 1637847168
I0929 11:22:30.159772  5438 layer_factory.hpp:77] Creating layer conv2_3_3x3/relu
I0929 11:22:30.159778  5438 net.cpp:100] Creating Layer conv2_3_3x3/relu
I0929 11:22:30.159782  5438 net.cpp:434] conv2_3_3x3/relu <- conv2_3_3x3
I0929 11:22:30.159793  5438 net.cpp:395] conv2_3_3x3/relu -> conv2_3_3x3 (in-place)
I0929 11:22:30.159958  5438 net.cpp:150] Setting up conv2_3_3x3/relu
I0929 11:22:30.159967  5438 net.cpp:157] Top shape: 16 64 56 56 (3211264)
I0929 11:22:30.159972  5438 net.cpp:165] Memory required for data: 1650692224
I0929 11:22:30.159976  5438 layer_factory.hpp:77] Creating layer conv2_3_1x1_increase
I0929 11:22:30.159986  5438 net.cpp:100] Creating Layer conv2_3_1x1_increase
I0929 11:22:30.159989  5438 net.cpp:434] conv2_3_1x1_increase <- conv2_3_3x3
I0929 11:22:30.159996  5438 net.cpp:408] conv2_3_1x1_increase -> conv2_3_1x1_increase
I0929 11:22:30.160985  5438 net.cpp:150] Setting up conv2_3_1x1_increase
I0929 11:22:30.161000  5438 net.cpp:157] Top shape: 16 256 56 56 (12845056)
I0929 11:22:30.161005  5438 net.cpp:165] Memory required for data: 1702072448
I0929 11:22:30.161010  5438 layer_factory.hpp:77] Creating layer conv2_3_1x1_increase/bn
I0929 11:22:30.161018  5438 net.cpp:100] Creating Layer conv2_3_1x1_increase/bn
I0929 11:22:30.161023  5438 net.cpp:434] conv2_3_1x1_increase/bn <- conv2_3_1x1_increase
I0929 11:22:30.161032  5438 net.cpp:395] conv2_3_1x1_increase/bn -> conv2_3_1x1_increase (in-place)
I0929 11:22:30.161229  5438 net.cpp:150] Setting up conv2_3_1x1_increase/bn
I0929 11:22:30.161237  5438 net.cpp:157] Top shape: 16 256 56 56 (12845056)
I0929 11:22:30.161242  5438 net.cpp:165] Memory required for data: 1753452672
I0929 11:22:30.161249  5438 layer_factory.hpp:77] Creating layer conv2_3_1x1_increase/bn/scale
I0929 11:22:30.161262  5438 net.cpp:100] Creating Layer conv2_3_1x1_increase/bn/scale
I0929 11:22:30.161267  5438 net.cpp:434] conv2_3_1x1_increase/bn/scale <- conv2_3_1x1_increase
I0929 11:22:30.161273  5438 net.cpp:395] conv2_3_1x1_increase/bn/scale -> conv2_3_1x1_increase (in-place)
I0929 11:22:30.161314  5438 layer_factory.hpp:77] Creating layer conv2_3_1x1_increase/bn/scale
I0929 11:22:30.161424  5438 net.cpp:150] Setting up conv2_3_1x1_increase/bn/scale
I0929 11:22:30.161432  5438 net.cpp:157] Top shape: 16 256 56 56 (12845056)
I0929 11:22:30.161437  5438 net.cpp:165] Memory required for data: 1804832896
I0929 11:22:30.161443  5438 layer_factory.hpp:77] Creating layer conv2_3_1x1_increase_conv2_3_1x1_increase/bn/scale_0_split
I0929 11:22:30.161449  5438 net.cpp:100] Creating Layer conv2_3_1x1_increase_conv2_3_1x1_increase/bn/scale_0_split
I0929 11:22:30.161454  5438 net.cpp:434] conv2_3_1x1_increase_conv2_3_1x1_increase/bn/scale_0_split <- conv2_3_1x1_increase
I0929 11:22:30.161460  5438 net.cpp:408] conv2_3_1x1_increase_conv2_3_1x1_increase/bn/scale_0_split -> conv2_3_1x1_increase_conv2_3_1x1_increase/bn/scale_0_split_0
I0929 11:22:30.161468  5438 net.cpp:408] conv2_3_1x1_increase_conv2_3_1x1_increase/bn/scale_0_split -> conv2_3_1x1_increase_conv2_3_1x1_increase/bn/scale_0_split_1
I0929 11:22:30.161504  5438 net.cpp:150] Setting up conv2_3_1x1_increase_conv2_3_1x1_increase/bn/scale_0_split
I0929 11:22:30.161509  5438 net.cpp:157] Top shape: 16 256 56 56 (12845056)
I0929 11:22:30.161514  5438 net.cpp:157] Top shape: 16 256 56 56 (12845056)
I0929 11:22:30.161517  5438 net.cpp:165] Memory required for data: 1907593344
I0929 11:22:30.161521  5438 layer_factory.hpp:77] Creating layer conv2_3_global_pool
I0929 11:22:30.161531  5438 net.cpp:100] Creating Layer conv2_3_global_pool
I0929 11:22:30.161535  5438 net.cpp:434] conv2_3_global_pool <- conv2_3_1x1_increase_conv2_3_1x1_increase/bn/scale_0_split_0
I0929 11:22:30.161540  5438 net.cpp:408] conv2_3_global_pool -> conv2_3_global_pool
I0929 11:22:30.161563  5438 net.cpp:150] Setting up conv2_3_global_pool
I0929 11:22:30.161569  5438 net.cpp:157] Top shape: 16 256 1 1 (4096)
I0929 11:22:30.161573  5438 net.cpp:165] Memory required for data: 1907609728
I0929 11:22:30.161576  5438 layer_factory.hpp:77] Creating layer conv2_3_1x1_down
I0929 11:22:30.161586  5438 net.cpp:100] Creating Layer conv2_3_1x1_down
I0929 11:22:30.161592  5438 net.cpp:434] conv2_3_1x1_down <- conv2_3_global_pool
I0929 11:22:30.161597  5438 net.cpp:408] conv2_3_1x1_down -> conv2_3_1x1_down
I0929 11:22:30.162618  5438 net.cpp:150] Setting up conv2_3_1x1_down
I0929 11:22:30.162632  5438 net.cpp:157] Top shape: 16 16 1 1 (256)
I0929 11:22:30.162637  5438 net.cpp:165] Memory required for data: 1907610752
I0929 11:22:30.162644  5438 layer_factory.hpp:77] Creating layer conv2_3_1x1_down/relu
I0929 11:22:30.162653  5438 net.cpp:100] Creating Layer conv2_3_1x1_down/relu
I0929 11:22:30.162658  5438 net.cpp:434] conv2_3_1x1_down/relu <- conv2_3_1x1_down
I0929 11:22:30.162665  5438 net.cpp:395] conv2_3_1x1_down/relu -> conv2_3_1x1_down (in-place)
I0929 11:22:30.162834  5438 net.cpp:150] Setting up conv2_3_1x1_down/relu
I0929 11:22:30.162844  5438 net.cpp:157] Top shape: 16 16 1 1 (256)
I0929 11:22:30.162849  5438 net.cpp:165] Memory required for data: 1907611776
I0929 11:22:30.162853  5438 layer_factory.hpp:77] Creating layer conv2_3_1x1_up
I0929 11:22:30.162863  5438 net.cpp:100] Creating Layer conv2_3_1x1_up
I0929 11:22:30.162868  5438 net.cpp:434] conv2_3_1x1_up <- conv2_3_1x1_down
I0929 11:22:30.162874  5438 net.cpp:408] conv2_3_1x1_up -> conv2_3_1x1_up
I0929 11:22:30.163888  5438 net.cpp:150] Setting up conv2_3_1x1_up
I0929 11:22:30.163902  5438 net.cpp:157] Top shape: 16 256 1 1 (4096)
I0929 11:22:30.163918  5438 net.cpp:165] Memory required for data: 1907628160
I0929 11:22:30.163928  5438 layer_factory.hpp:77] Creating layer conv2_3_prob
I0929 11:22:30.163935  5438 net.cpp:100] Creating Layer conv2_3_prob
I0929 11:22:30.163940  5438 net.cpp:434] conv2_3_prob <- conv2_3_1x1_up
I0929 11:22:30.163947  5438 net.cpp:395] conv2_3_prob -> conv2_3_1x1_up (in-place)
I0929 11:22:30.164391  5438 net.cpp:150] Setting up conv2_3_prob
I0929 11:22:30.164403  5438 net.cpp:157] Top shape: 16 256 1 1 (4096)
I0929 11:22:30.164408  5438 net.cpp:165] Memory required for data: 1907644544
I0929 11:22:30.164412  5438 layer_factory.hpp:77] Creating layer conv2_3
I0929 11:22:30.164419  5438 net.cpp:100] Creating Layer conv2_3
I0929 11:22:30.164424  5438 net.cpp:434] conv2_3 <- conv2_3_1x1_up
I0929 11:22:30.164429  5438 net.cpp:434] conv2_3 <- conv2_3_1x1_increase_conv2_3_1x1_increase/bn/scale_0_split_1
I0929 11:22:30.164434  5438 net.cpp:434] conv2_3 <- conv2_2_conv2_2/relu_0_split_1
I0929 11:22:30.164443  5438 net.cpp:408] conv2_3 -> conv2_3
I0929 11:22:30.164501  5438 net.cpp:150] Setting up conv2_3
I0929 11:22:30.164510  5438 net.cpp:157] Top shape: 16 256 56 56 (12845056)
I0929 11:22:30.164513  5438 net.cpp:165] Memory required for data: 1959024768
I0929 11:22:30.164516  5438 layer_factory.hpp:77] Creating layer conv2_3/relu
I0929 11:22:30.164523  5438 net.cpp:100] Creating Layer conv2_3/relu
I0929 11:22:30.164527  5438 net.cpp:434] conv2_3/relu <- conv2_3
I0929 11:22:30.164532  5438 net.cpp:395] conv2_3/relu -> conv2_3 (in-place)
I0929 11:22:30.164691  5438 net.cpp:150] Setting up conv2_3/relu
I0929 11:22:30.164700  5438 net.cpp:157] Top shape: 16 256 56 56 (12845056)
I0929 11:22:30.164705  5438 net.cpp:165] Memory required for data: 2010404992
I0929 11:22:30.164708  5438 layer_factory.hpp:77] Creating layer conv2_3_conv2_3/relu_0_split
I0929 11:22:30.164716  5438 net.cpp:100] Creating Layer conv2_3_conv2_3/relu_0_split
I0929 11:22:30.164721  5438 net.cpp:434] conv2_3_conv2_3/relu_0_split <- conv2_3
I0929 11:22:30.164726  5438 net.cpp:408] conv2_3_conv2_3/relu_0_split -> conv2_3_conv2_3/relu_0_split_0
I0929 11:22:30.164732  5438 net.cpp:408] conv2_3_conv2_3/relu_0_split -> conv2_3_conv2_3/relu_0_split_1
I0929 11:22:30.164775  5438 net.cpp:150] Setting up conv2_3_conv2_3/relu_0_split
I0929 11:22:30.164783  5438 net.cpp:157] Top shape: 16 256 56 56 (12845056)
I0929 11:22:30.164791  5438 net.cpp:157] Top shape: 16 256 56 56 (12845056)
I0929 11:22:30.164794  5438 net.cpp:165] Memory required for data: 2113165440
I0929 11:22:30.164799  5438 layer_factory.hpp:77] Creating layer conv3_1_1x1_reduce
I0929 11:22:30.164808  5438 net.cpp:100] Creating Layer conv3_1_1x1_reduce
I0929 11:22:30.164813  5438 net.cpp:434] conv3_1_1x1_reduce <- conv2_3_conv2_3/relu_0_split_0
I0929 11:22:30.164818  5438 net.cpp:408] conv3_1_1x1_reduce -> conv3_1_1x1_reduce
I0929 11:22:30.165804  5438 net.cpp:150] Setting up conv3_1_1x1_reduce
I0929 11:22:30.165818  5438 net.cpp:157] Top shape: 16 128 28 28 (1605632)
I0929 11:22:30.165823  5438 net.cpp:165] Memory required for data: 2119587968
I0929 11:22:30.165828  5438 layer_factory.hpp:77] Creating layer conv3_1_1x1_reduce/bn
I0929 11:22:30.165838  5438 net.cpp:100] Creating Layer conv3_1_1x1_reduce/bn
I0929 11:22:30.165843  5438 net.cpp:434] conv3_1_1x1_reduce/bn <- conv3_1_1x1_reduce
I0929 11:22:30.165851  5438 net.cpp:395] conv3_1_1x1_reduce/bn -> conv3_1_1x1_reduce (in-place)
I0929 11:22:30.167055  5438 net.cpp:150] Setting up conv3_1_1x1_reduce/bn
I0929 11:22:30.167068  5438 net.cpp:157] Top shape: 16 128 28 28 (1605632)
I0929 11:22:30.167073  5438 net.cpp:165] Memory required for data: 2126010496
I0929 11:22:30.167081  5438 layer_factory.hpp:77] Creating layer conv3_1_1x1_reduce/bn/scale
I0929 11:22:30.167089  5438 net.cpp:100] Creating Layer conv3_1_1x1_reduce/bn/scale
I0929 11:22:30.167093  5438 net.cpp:434] conv3_1_1x1_reduce/bn/scale <- conv3_1_1x1_reduce
I0929 11:22:30.167099  5438 net.cpp:395] conv3_1_1x1_reduce/bn/scale -> conv3_1_1x1_reduce (in-place)
I0929 11:22:30.167145  5438 layer_factory.hpp:77] Creating layer conv3_1_1x1_reduce/bn/scale
I0929 11:22:30.167269  5438 net.cpp:150] Setting up conv3_1_1x1_reduce/bn/scale
I0929 11:22:30.167277  5438 net.cpp:157] Top shape: 16 128 28 28 (1605632)
I0929 11:22:30.167281  5438 net.cpp:165] Memory required for data: 2132433024
I0929 11:22:30.167287  5438 layer_factory.hpp:77] Creating layer conv3_1_1x1_reduce/relu
I0929 11:22:30.167294  5438 net.cpp:100] Creating Layer conv3_1_1x1_reduce/relu
I0929 11:22:30.167299  5438 net.cpp:434] conv3_1_1x1_reduce/relu <- conv3_1_1x1_reduce
I0929 11:22:30.167304  5438 net.cpp:395] conv3_1_1x1_reduce/relu -> conv3_1_1x1_reduce (in-place)
I0929 11:22:30.167481  5438 net.cpp:150] Setting up conv3_1_1x1_reduce/relu
I0929 11:22:30.167491  5438 net.cpp:157] Top shape: 16 128 28 28 (1605632)
I0929 11:22:30.167495  5438 net.cpp:165] Memory required for data: 2138855552
I0929 11:22:30.167498  5438 layer_factory.hpp:77] Creating layer conv3_1_3x3
I0929 11:22:30.167510  5438 net.cpp:100] Creating Layer conv3_1_3x3
I0929 11:22:30.167515  5438 net.cpp:434] conv3_1_3x3 <- conv3_1_1x1_reduce
I0929 11:22:30.167521  5438 net.cpp:408] conv3_1_3x3 -> conv3_1_3x3
I0929 11:22:30.169899  5438 net.cpp:150] Setting up conv3_1_3x3
I0929 11:22:30.169914  5438 net.cpp:157] Top shape: 16 128 28 28 (1605632)
I0929 11:22:30.169919  5438 net.cpp:165] Memory required for data: 2145278080
I0929 11:22:30.169924  5438 layer_factory.hpp:77] Creating layer conv3_1_3x3/bn
I0929 11:22:30.169932  5438 net.cpp:100] Creating Layer conv3_1_3x3/bn
I0929 11:22:30.169937  5438 net.cpp:434] conv3_1_3x3/bn <- conv3_1_3x3
I0929 11:22:30.169945  5438 net.cpp:395] conv3_1_3x3/bn -> conv3_1_3x3 (in-place)
I0929 11:22:30.170138  5438 net.cpp:150] Setting up conv3_1_3x3/bn
I0929 11:22:30.170146  5438 net.cpp:157] Top shape: 16 128 28 28 (1605632)
I0929 11:22:30.170150  5438 net.cpp:165] Memory required for data: 2151700608
I0929 11:22:30.170158  5438 layer_factory.hpp:77] Creating layer conv3_1_3x3/bn/scale
I0929 11:22:30.170166  5438 net.cpp:100] Creating Layer conv3_1_3x3/bn/scale
I0929 11:22:30.170169  5438 net.cpp:434] conv3_1_3x3/bn/scale <- conv3_1_3x3
I0929 11:22:30.170174  5438 net.cpp:395] conv3_1_3x3/bn/scale -> conv3_1_3x3 (in-place)
I0929 11:22:30.170214  5438 layer_factory.hpp:77] Creating layer conv3_1_3x3/bn/scale
I0929 11:22:30.170325  5438 net.cpp:150] Setting up conv3_1_3x3/bn/scale
I0929 11:22:30.170332  5438 net.cpp:157] Top shape: 16 128 28 28 (1605632)
I0929 11:22:30.170336  5438 net.cpp:165] Memory required for data: 2158123136
I0929 11:22:30.170342  5438 layer_factory.hpp:77] Creating layer conv3_1_3x3/relu
I0929 11:22:30.170351  5438 net.cpp:100] Creating Layer conv3_1_3x3/relu
I0929 11:22:30.170354  5438 net.cpp:434] conv3_1_3x3/relu <- conv3_1_3x3
I0929 11:22:30.170359  5438 net.cpp:395] conv3_1_3x3/relu -> conv3_1_3x3 (in-place)
I0929 11:22:30.170532  5438 net.cpp:150] Setting up conv3_1_3x3/relu
I0929 11:22:30.170542  5438 net.cpp:157] Top shape: 16 128 28 28 (1605632)
I0929 11:22:30.170545  5438 net.cpp:165] Memory required for data: 2164545664
I0929 11:22:30.170549  5438 layer_factory.hpp:77] Creating layer conv3_1_1x1_increase
I0929 11:22:30.170559  5438 net.cpp:100] Creating Layer conv3_1_1x1_increase
I0929 11:22:30.170564  5438 net.cpp:434] conv3_1_1x1_increase <- conv3_1_3x3
I0929 11:22:30.170570  5438 net.cpp:408] conv3_1_1x1_increase -> conv3_1_1x1_increase
I0929 11:22:30.171612  5438 net.cpp:150] Setting up conv3_1_1x1_increase
I0929 11:22:30.171625  5438 net.cpp:157] Top shape: 16 512 28 28 (6422528)
I0929 11:22:30.171630  5438 net.cpp:165] Memory required for data: 2190235776
I0929 11:22:30.171635  5438 layer_factory.hpp:77] Creating layer conv3_1_1x1_increase/bn
I0929 11:22:30.171645  5438 net.cpp:100] Creating Layer conv3_1_1x1_increase/bn
I0929 11:22:30.171651  5438 net.cpp:434] conv3_1_1x1_increase/bn <- conv3_1_1x1_increase
I0929 11:22:30.171658  5438 net.cpp:395] conv3_1_1x1_increase/bn -> conv3_1_1x1_increase (in-place)
I0929 11:22:30.171854  5438 net.cpp:150] Setting up conv3_1_1x1_increase/bn
I0929 11:22:30.171862  5438 net.cpp:157] Top shape: 16 512 28 28 (6422528)
I0929 11:22:30.171877  5438 net.cpp:165] Memory required for data: 2215925888
I0929 11:22:30.171886  5438 layer_factory.hpp:77] Creating layer conv3_1_1x1_increase/bn/scale
I0929 11:22:30.171893  5438 net.cpp:100] Creating Layer conv3_1_1x1_increase/bn/scale
I0929 11:22:30.171897  5438 net.cpp:434] conv3_1_1x1_increase/bn/scale <- conv3_1_1x1_increase
I0929 11:22:30.171905  5438 net.cpp:395] conv3_1_1x1_increase/bn/scale -> conv3_1_1x1_increase (in-place)
I0929 11:22:30.171947  5438 layer_factory.hpp:77] Creating layer conv3_1_1x1_increase/bn/scale
I0929 11:22:30.172051  5438 net.cpp:150] Setting up conv3_1_1x1_increase/bn/scale
I0929 11:22:30.172060  5438 net.cpp:157] Top shape: 16 512 28 28 (6422528)
I0929 11:22:30.172065  5438 net.cpp:165] Memory required for data: 2241616000
I0929 11:22:30.172070  5438 layer_factory.hpp:77] Creating layer conv3_1_1x1_increase_conv3_1_1x1_increase/bn/scale_0_split
I0929 11:22:30.172076  5438 net.cpp:100] Creating Layer conv3_1_1x1_increase_conv3_1_1x1_increase/bn/scale_0_split
I0929 11:22:30.172080  5438 net.cpp:434] conv3_1_1x1_increase_conv3_1_1x1_increase/bn/scale_0_split <- conv3_1_1x1_increase
I0929 11:22:30.172086  5438 net.cpp:408] conv3_1_1x1_increase_conv3_1_1x1_increase/bn/scale_0_split -> conv3_1_1x1_increase_conv3_1_1x1_increase/bn/scale_0_split_0
I0929 11:22:30.172092  5438 net.cpp:408] conv3_1_1x1_increase_conv3_1_1x1_increase/bn/scale_0_split -> conv3_1_1x1_increase_conv3_1_1x1_increase/bn/scale_0_split_1
I0929 11:22:30.172134  5438 net.cpp:150] Setting up conv3_1_1x1_increase_conv3_1_1x1_increase/bn/scale_0_split
I0929 11:22:30.172140  5438 net.cpp:157] Top shape: 16 512 28 28 (6422528)
I0929 11:22:30.172145  5438 net.cpp:157] Top shape: 16 512 28 28 (6422528)
I0929 11:22:30.172149  5438 net.cpp:165] Memory required for data: 2292996224
I0929 11:22:30.172152  5438 layer_factory.hpp:77] Creating layer conv3_1_global_pool
I0929 11:22:30.172158  5438 net.cpp:100] Creating Layer conv3_1_global_pool
I0929 11:22:30.172163  5438 net.cpp:434] conv3_1_global_pool <- conv3_1_1x1_increase_conv3_1_1x1_increase/bn/scale_0_split_0
I0929 11:22:30.172169  5438 net.cpp:408] conv3_1_global_pool -> conv3_1_global_pool
I0929 11:22:30.172193  5438 net.cpp:150] Setting up conv3_1_global_pool
I0929 11:22:30.172199  5438 net.cpp:157] Top shape: 16 512 1 1 (8192)
I0929 11:22:30.172202  5438 net.cpp:165] Memory required for data: 2293028992
I0929 11:22:30.172205  5438 layer_factory.hpp:77] Creating layer conv3_1_1x1_down
I0929 11:22:30.172215  5438 net.cpp:100] Creating Layer conv3_1_1x1_down
I0929 11:22:30.172219  5438 net.cpp:434] conv3_1_1x1_down <- conv3_1_global_pool
I0929 11:22:30.172224  5438 net.cpp:408] conv3_1_1x1_down -> conv3_1_1x1_down
I0929 11:22:30.173279  5438 net.cpp:150] Setting up conv3_1_1x1_down
I0929 11:22:30.173292  5438 net.cpp:157] Top shape: 16 32 1 1 (512)
I0929 11:22:30.173296  5438 net.cpp:165] Memory required for data: 2293031040
I0929 11:22:30.173303  5438 layer_factory.hpp:77] Creating layer conv3_1_1x1_down/relu
I0929 11:22:30.173311  5438 net.cpp:100] Creating Layer conv3_1_1x1_down/relu
I0929 11:22:30.173316  5438 net.cpp:434] conv3_1_1x1_down/relu <- conv3_1_1x1_down
I0929 11:22:30.173324  5438 net.cpp:395] conv3_1_1x1_down/relu -> conv3_1_1x1_down (in-place)
I0929 11:22:30.173491  5438 net.cpp:150] Setting up conv3_1_1x1_down/relu
I0929 11:22:30.173501  5438 net.cpp:157] Top shape: 16 32 1 1 (512)
I0929 11:22:30.173506  5438 net.cpp:165] Memory required for data: 2293033088
I0929 11:22:30.173508  5438 layer_factory.hpp:77] Creating layer conv3_1_1x1_up
I0929 11:22:30.173517  5438 net.cpp:100] Creating Layer conv3_1_1x1_up
I0929 11:22:30.173522  5438 net.cpp:434] conv3_1_1x1_up <- conv3_1_1x1_down
I0929 11:22:30.173529  5438 net.cpp:408] conv3_1_1x1_up -> conv3_1_1x1_up
I0929 11:22:30.174576  5438 net.cpp:150] Setting up conv3_1_1x1_up
I0929 11:22:30.174589  5438 net.cpp:157] Top shape: 16 512 1 1 (8192)
I0929 11:22:30.174594  5438 net.cpp:165] Memory required for data: 2293065856
I0929 11:22:30.174602  5438 layer_factory.hpp:77] Creating layer conv3_1_prob
I0929 11:22:30.174623  5438 net.cpp:100] Creating Layer conv3_1_prob
I0929 11:22:30.174628  5438 net.cpp:434] conv3_1_prob <- conv3_1_1x1_up
I0929 11:22:30.174635  5438 net.cpp:395] conv3_1_prob -> conv3_1_1x1_up (in-place)
I0929 11:22:30.174808  5438 net.cpp:150] Setting up conv3_1_prob
I0929 11:22:30.174818  5438 net.cpp:157] Top shape: 16 512 1 1 (8192)
I0929 11:22:30.174823  5438 net.cpp:165] Memory required for data: 2293098624
I0929 11:22:30.174825  5438 layer_factory.hpp:77] Creating layer conv3_1_1x1_proj
I0929 11:22:30.174839  5438 net.cpp:100] Creating Layer conv3_1_1x1_proj
I0929 11:22:30.174844  5438 net.cpp:434] conv3_1_1x1_proj <- conv2_3_conv2_3/relu_0_split_1
I0929 11:22:30.174854  5438 net.cpp:408] conv3_1_1x1_proj -> conv3_1_1x1_proj
I0929 11:22:30.175915  5438 net.cpp:150] Setting up conv3_1_1x1_proj
I0929 11:22:30.175928  5438 net.cpp:157] Top shape: 16 512 28 28 (6422528)
I0929 11:22:30.175932  5438 net.cpp:165] Memory required for data: 2318788736
I0929 11:22:30.175938  5438 layer_factory.hpp:77] Creating layer conv3_1_1x1_proj/bn
I0929 11:22:30.175948  5438 net.cpp:100] Creating Layer conv3_1_1x1_proj/bn
I0929 11:22:30.175954  5438 net.cpp:434] conv3_1_1x1_proj/bn <- conv3_1_1x1_proj
I0929 11:22:30.175959  5438 net.cpp:395] conv3_1_1x1_proj/bn -> conv3_1_1x1_proj (in-place)
I0929 11:22:30.176141  5438 net.cpp:150] Setting up conv3_1_1x1_proj/bn
I0929 11:22:30.176149  5438 net.cpp:157] Top shape: 16 512 28 28 (6422528)
I0929 11:22:30.176152  5438 net.cpp:165] Memory required for data: 2344478848
I0929 11:22:30.176162  5438 layer_factory.hpp:77] Creating layer conv3_1_1x1_proj/bn/scale
I0929 11:22:30.176170  5438 net.cpp:100] Creating Layer conv3_1_1x1_proj/bn/scale
I0929 11:22:30.176175  5438 net.cpp:434] conv3_1_1x1_proj/bn/scale <- conv3_1_1x1_proj
I0929 11:22:30.176180  5438 net.cpp:395] conv3_1_1x1_proj/bn/scale -> conv3_1_1x1_proj (in-place)
I0929 11:22:30.176221  5438 layer_factory.hpp:77] Creating layer conv3_1_1x1_proj/bn/scale
I0929 11:22:30.176326  5438 net.cpp:150] Setting up conv3_1_1x1_proj/bn/scale
I0929 11:22:30.176333  5438 net.cpp:157] Top shape: 16 512 28 28 (6422528)
I0929 11:22:30.176337  5438 net.cpp:165] Memory required for data: 2370168960
I0929 11:22:30.176342  5438 layer_factory.hpp:77] Creating layer conv3_1
I0929 11:22:30.176348  5438 net.cpp:100] Creating Layer conv3_1
I0929 11:22:30.176352  5438 net.cpp:434] conv3_1 <- conv3_1_1x1_up
I0929 11:22:30.176357  5438 net.cpp:434] conv3_1 <- conv3_1_1x1_increase_conv3_1_1x1_increase/bn/scale_0_split_1
I0929 11:22:30.176362  5438 net.cpp:434] conv3_1 <- conv3_1_1x1_proj
I0929 11:22:30.176368  5438 net.cpp:408] conv3_1 -> conv3_1
I0929 11:22:30.176420  5438 net.cpp:150] Setting up conv3_1
I0929 11:22:30.176427  5438 net.cpp:157] Top shape: 16 512 28 28 (6422528)
I0929 11:22:30.176430  5438 net.cpp:165] Memory required for data: 2395859072
I0929 11:22:30.176434  5438 layer_factory.hpp:77] Creating layer conv3_1/relu
I0929 11:22:30.176440  5438 net.cpp:100] Creating Layer conv3_1/relu
I0929 11:22:30.176443  5438 net.cpp:434] conv3_1/relu <- conv3_1
I0929 11:22:30.176448  5438 net.cpp:395] conv3_1/relu -> conv3_1 (in-place)
I0929 11:22:30.176903  5438 net.cpp:150] Setting up conv3_1/relu
I0929 11:22:30.176916  5438 net.cpp:157] Top shape: 16 512 28 28 (6422528)
I0929 11:22:30.176920  5438 net.cpp:165] Memory required for data: 2421549184
I0929 11:22:30.176924  5438 layer_factory.hpp:77] Creating layer conv3_1_conv3_1/relu_0_split
I0929 11:22:30.176933  5438 net.cpp:100] Creating Layer conv3_1_conv3_1/relu_0_split
I0929 11:22:30.176937  5438 net.cpp:434] conv3_1_conv3_1/relu_0_split <- conv3_1
I0929 11:22:30.176944  5438 net.cpp:408] conv3_1_conv3_1/relu_0_split -> conv3_1_conv3_1/relu_0_split_0
I0929 11:22:30.176952  5438 net.cpp:408] conv3_1_conv3_1/relu_0_split -> conv3_1_conv3_1/relu_0_split_1
I0929 11:22:30.176996  5438 net.cpp:150] Setting up conv3_1_conv3_1/relu_0_split
I0929 11:22:30.177002  5438 net.cpp:157] Top shape: 16 512 28 28 (6422528)
I0929 11:22:30.177008  5438 net.cpp:157] Top shape: 16 512 28 28 (6422528)
I0929 11:22:30.177022  5438 net.cpp:165] Memory required for data: 2472929408
I0929 11:22:30.177027  5438 layer_factory.hpp:77] Creating layer conv3_2_1x1_reduce
I0929 11:22:30.177042  5438 net.cpp:100] Creating Layer conv3_2_1x1_reduce
I0929 11:22:30.177045  5438 net.cpp:434] conv3_2_1x1_reduce <- conv3_1_conv3_1/relu_0_split_0
I0929 11:22:30.177052  5438 net.cpp:408] conv3_2_1x1_reduce -> conv3_2_1x1_reduce
I0929 11:22:30.177788  5438 net.cpp:150] Setting up conv3_2_1x1_reduce
I0929 11:22:30.177799  5438 net.cpp:157] Top shape: 16 128 28 28 (1605632)
I0929 11:22:30.177804  5438 net.cpp:165] Memory required for data: 2479351936
I0929 11:22:30.177809  5438 layer_factory.hpp:77] Creating layer conv3_2_1x1_reduce/bn
I0929 11:22:30.177819  5438 net.cpp:100] Creating Layer conv3_2_1x1_reduce/bn
I0929 11:22:30.177824  5438 net.cpp:434] conv3_2_1x1_reduce/bn <- conv3_2_1x1_reduce
I0929 11:22:30.177830  5438 net.cpp:395] conv3_2_1x1_reduce/bn -> conv3_2_1x1_reduce (in-place)
I0929 11:22:30.178017  5438 net.cpp:150] Setting up conv3_2_1x1_reduce/bn
I0929 11:22:30.178025  5438 net.cpp:157] Top shape: 16 128 28 28 (1605632)
I0929 11:22:30.178028  5438 net.cpp:165] Memory required for data: 2485774464
I0929 11:22:30.178036  5438 layer_factory.hpp:77] Creating layer conv3_2_1x1_reduce/bn/scale
I0929 11:22:30.178045  5438 net.cpp:100] Creating Layer conv3_2_1x1_reduce/bn/scale
I0929 11:22:30.178050  5438 net.cpp:434] conv3_2_1x1_reduce/bn/scale <- conv3_2_1x1_reduce
I0929 11:22:30.178053  5438 net.cpp:395] conv3_2_1x1_reduce/bn/scale -> conv3_2_1x1_reduce (in-place)
I0929 11:22:30.178093  5438 layer_factory.hpp:77] Creating layer conv3_2_1x1_reduce/bn/scale
I0929 11:22:30.178200  5438 net.cpp:150] Setting up conv3_2_1x1_reduce/bn/scale
I0929 11:22:30.178206  5438 net.cpp:157] Top shape: 16 128 28 28 (1605632)
I0929 11:22:30.178210  5438 net.cpp:165] Memory required for data: 2492196992
I0929 11:22:30.178215  5438 layer_factory.hpp:77] Creating layer conv3_2_1x1_reduce/relu
I0929 11:22:30.178221  5438 net.cpp:100] Creating Layer conv3_2_1x1_reduce/relu
I0929 11:22:30.178225  5438 net.cpp:434] conv3_2_1x1_reduce/relu <- conv3_2_1x1_reduce
I0929 11:22:30.178232  5438 net.cpp:395] conv3_2_1x1_reduce/relu -> conv3_2_1x1_reduce (in-place)
I0929 11:22:30.178676  5438 net.cpp:150] Setting up conv3_2_1x1_reduce/relu
I0929 11:22:30.178691  5438 net.cpp:157] Top shape: 16 128 28 28 (1605632)
I0929 11:22:30.178695  5438 net.cpp:165] Memory required for data: 2498619520
I0929 11:22:30.178699  5438 layer_factory.hpp:77] Creating layer conv3_2_3x3
I0929 11:22:30.178709  5438 net.cpp:100] Creating Layer conv3_2_3x3
I0929 11:22:30.178714  5438 net.cpp:434] conv3_2_3x3 <- conv3_2_1x1_reduce
I0929 11:22:30.178721  5438 net.cpp:408] conv3_2_3x3 -> conv3_2_3x3
I0929 11:22:30.180063  5438 net.cpp:150] Setting up conv3_2_3x3
I0929 11:22:30.180076  5438 net.cpp:157] Top shape: 16 128 28 28 (1605632)
I0929 11:22:30.180083  5438 net.cpp:165] Memory required for data: 2505042048
I0929 11:22:30.180088  5438 layer_factory.hpp:77] Creating layer conv3_2_3x3/bn
I0929 11:22:30.180099  5438 net.cpp:100] Creating Layer conv3_2_3x3/bn
I0929 11:22:30.180104  5438 net.cpp:434] conv3_2_3x3/bn <- conv3_2_3x3
I0929 11:22:30.180109  5438 net.cpp:395] conv3_2_3x3/bn -> conv3_2_3x3 (in-place)
I0929 11:22:30.180307  5438 net.cpp:150] Setting up conv3_2_3x3/bn
I0929 11:22:30.180315  5438 net.cpp:157] Top shape: 16 128 28 28 (1605632)
I0929 11:22:30.180318  5438 net.cpp:165] Memory required for data: 2511464576
I0929 11:22:30.180326  5438 layer_factory.hpp:77] Creating layer conv3_2_3x3/bn/scale
I0929 11:22:30.180336  5438 net.cpp:100] Creating Layer conv3_2_3x3/bn/scale
I0929 11:22:30.180341  5438 net.cpp:434] conv3_2_3x3/bn/scale <- conv3_2_3x3
I0929 11:22:30.180346  5438 net.cpp:395] conv3_2_3x3/bn/scale -> conv3_2_3x3 (in-place)
I0929 11:22:30.180387  5438 layer_factory.hpp:77] Creating layer conv3_2_3x3/bn/scale
I0929 11:22:30.180495  5438 net.cpp:150] Setting up conv3_2_3x3/bn/scale
I0929 11:22:30.180502  5438 net.cpp:157] Top shape: 16 128 28 28 (1605632)
I0929 11:22:30.180517  5438 net.cpp:165] Memory required for data: 2517887104
I0929 11:22:30.180524  5438 layer_factory.hpp:77] Creating layer conv3_2_3x3/relu
I0929 11:22:30.180531  5438 net.cpp:100] Creating Layer conv3_2_3x3/relu
I0929 11:22:30.180536  5438 net.cpp:434] conv3_2_3x3/relu <- conv3_2_3x3
I0929 11:22:30.180541  5438 net.cpp:395] conv3_2_3x3/relu -> conv3_2_3x3 (in-place)
I0929 11:22:30.180717  5438 net.cpp:150] Setting up conv3_2_3x3/relu
I0929 11:22:30.180727  5438 net.cpp:157] Top shape: 16 128 28 28 (1605632)
I0929 11:22:30.180730  5438 net.cpp:165] Memory required for data: 2524309632
I0929 11:22:30.180733  5438 layer_factory.hpp:77] Creating layer conv3_2_1x1_increase
I0929 11:22:30.180743  5438 net.cpp:100] Creating Layer conv3_2_1x1_increase
I0929 11:22:30.180747  5438 net.cpp:434] conv3_2_1x1_increase <- conv3_2_3x3
I0929 11:22:30.180754  5438 net.cpp:408] conv3_2_1x1_increase -> conv3_2_1x1_increase
I0929 11:22:30.181807  5438 net.cpp:150] Setting up conv3_2_1x1_increase
I0929 11:22:30.181821  5438 net.cpp:157] Top shape: 16 512 28 28 (6422528)
I0929 11:22:30.181826  5438 net.cpp:165] Memory required for data: 2549999744
I0929 11:22:30.181831  5438 layer_factory.hpp:77] Creating layer conv3_2_1x1_increase/bn
I0929 11:22:30.181841  5438 net.cpp:100] Creating Layer conv3_2_1x1_increase/bn
I0929 11:22:30.181846  5438 net.cpp:434] conv3_2_1x1_increase/bn <- conv3_2_1x1_increase
I0929 11:22:30.181851  5438 net.cpp:395] conv3_2_1x1_increase/bn -> conv3_2_1x1_increase (in-place)
I0929 11:22:30.182049  5438 net.cpp:150] Setting up conv3_2_1x1_increase/bn
I0929 11:22:30.182056  5438 net.cpp:157] Top shape: 16 512 28 28 (6422528)
I0929 11:22:30.182061  5438 net.cpp:165] Memory required for data: 2575689856
I0929 11:22:30.182070  5438 layer_factory.hpp:77] Creating layer conv3_2_1x1_increase/bn/scale
I0929 11:22:30.182077  5438 net.cpp:100] Creating Layer conv3_2_1x1_increase/bn/scale
I0929 11:22:30.182082  5438 net.cpp:434] conv3_2_1x1_increase/bn/scale <- conv3_2_1x1_increase
I0929 11:22:30.182086  5438 net.cpp:395] conv3_2_1x1_increase/bn/scale -> conv3_2_1x1_increase (in-place)
I0929 11:22:30.182127  5438 layer_factory.hpp:77] Creating layer conv3_2_1x1_increase/bn/scale
I0929 11:22:30.182232  5438 net.cpp:150] Setting up conv3_2_1x1_increase/bn/scale
I0929 11:22:30.182240  5438 net.cpp:157] Top shape: 16 512 28 28 (6422528)
I0929 11:22:30.182243  5438 net.cpp:165] Memory required for data: 2601379968
I0929 11:22:30.182248  5438 layer_factory.hpp:77] Creating layer conv3_2_1x1_increase_conv3_2_1x1_increase/bn/scale_0_split
I0929 11:22:30.182257  5438 net.cpp:100] Creating Layer conv3_2_1x1_increase_conv3_2_1x1_increase/bn/scale_0_split
I0929 11:22:30.182261  5438 net.cpp:434] conv3_2_1x1_increase_conv3_2_1x1_increase/bn/scale_0_split <- conv3_2_1x1_increase
I0929 11:22:30.182266  5438 net.cpp:408] conv3_2_1x1_increase_conv3_2_1x1_increase/bn/scale_0_split -> conv3_2_1x1_increase_conv3_2_1x1_increase/bn/scale_0_split_0
I0929 11:22:30.182274  5438 net.cpp:408] conv3_2_1x1_increase_conv3_2_1x1_increase/bn/scale_0_split -> conv3_2_1x1_increase_conv3_2_1x1_increase/bn/scale_0_split_1
I0929 11:22:30.182312  5438 net.cpp:150] Setting up conv3_2_1x1_increase_conv3_2_1x1_increase/bn/scale_0_split
I0929 11:22:30.182317  5438 net.cpp:157] Top shape: 16 512 28 28 (6422528)
I0929 11:22:30.182322  5438 net.cpp:157] Top shape: 16 512 28 28 (6422528)
I0929 11:22:30.182325  5438 net.cpp:165] Memory required for data: 2652760192
I0929 11:22:30.182328  5438 layer_factory.hpp:77] Creating layer conv3_2_global_pool
I0929 11:22:30.182334  5438 net.cpp:100] Creating Layer conv3_2_global_pool
I0929 11:22:30.182338  5438 net.cpp:434] conv3_2_global_pool <- conv3_2_1x1_increase_conv3_2_1x1_increase/bn/scale_0_split_0
I0929 11:22:30.182343  5438 net.cpp:408] conv3_2_global_pool -> conv3_2_global_pool
I0929 11:22:30.182368  5438 net.cpp:150] Setting up conv3_2_global_pool
I0929 11:22:30.182374  5438 net.cpp:157] Top shape: 16 512 1 1 (8192)
I0929 11:22:30.182377  5438 net.cpp:165] Memory required for data: 2652792960
I0929 11:22:30.182392  5438 layer_factory.hpp:77] Creating layer conv3_2_1x1_down
I0929 11:22:30.182404  5438 net.cpp:100] Creating Layer conv3_2_1x1_down
I0929 11:22:30.182407  5438 net.cpp:434] conv3_2_1x1_down <- conv3_2_global_pool
I0929 11:22:30.182412  5438 net.cpp:408] conv3_2_1x1_down -> conv3_2_1x1_down
I0929 11:22:30.183483  5438 net.cpp:150] Setting up conv3_2_1x1_down
I0929 11:22:30.183497  5438 net.cpp:157] Top shape: 16 32 1 1 (512)
I0929 11:22:30.183502  5438 net.cpp:165] Memory required for data: 2652795008
I0929 11:22:30.183508  5438 layer_factory.hpp:77] Creating layer conv3_2_1x1_down/relu
I0929 11:22:30.183516  5438 net.cpp:100] Creating Layer conv3_2_1x1_down/relu
I0929 11:22:30.183521  5438 net.cpp:434] conv3_2_1x1_down/relu <- conv3_2_1x1_down
I0929 11:22:30.183529  5438 net.cpp:395] conv3_2_1x1_down/relu -> conv3_2_1x1_down (in-place)
I0929 11:22:30.183698  5438 net.cpp:150] Setting up conv3_2_1x1_down/relu
I0929 11:22:30.183708  5438 net.cpp:157] Top shape: 16 32 1 1 (512)
I0929 11:22:30.183712  5438 net.cpp:165] Memory required for data: 2652797056
I0929 11:22:30.183715  5438 layer_factory.hpp:77] Creating layer conv3_2_1x1_up
I0929 11:22:30.183724  5438 net.cpp:100] Creating Layer conv3_2_1x1_up
I0929 11:22:30.183729  5438 net.cpp:434] conv3_2_1x1_up <- conv3_2_1x1_down
I0929 11:22:30.183735  5438 net.cpp:408] conv3_2_1x1_up -> conv3_2_1x1_up
I0929 11:22:30.184823  5438 net.cpp:150] Setting up conv3_2_1x1_up
I0929 11:22:30.184837  5438 net.cpp:157] Top shape: 16 512 1 1 (8192)
I0929 11:22:30.184841  5438 net.cpp:165] Memory required for data: 2652829824
I0929 11:22:30.184849  5438 layer_factory.hpp:77] Creating layer conv3_2_prob
I0929 11:22:30.184856  5438 net.cpp:100] Creating Layer conv3_2_prob
I0929 11:22:30.184860  5438 net.cpp:434] conv3_2_prob <- conv3_2_1x1_up
I0929 11:22:30.184871  5438 net.cpp:395] conv3_2_prob -> conv3_2_1x1_up (in-place)
I0929 11:22:30.185042  5438 net.cpp:150] Setting up conv3_2_prob
I0929 11:22:30.185051  5438 net.cpp:157] Top shape: 16 512 1 1 (8192)
I0929 11:22:30.185056  5438 net.cpp:165] Memory required for data: 2652862592
I0929 11:22:30.185060  5438 layer_factory.hpp:77] Creating layer conv3_2
I0929 11:22:30.185067  5438 net.cpp:100] Creating Layer conv3_2
I0929 11:22:30.185072  5438 net.cpp:434] conv3_2 <- conv3_2_1x1_up
I0929 11:22:30.185076  5438 net.cpp:434] conv3_2 <- conv3_2_1x1_increase_conv3_2_1x1_increase/bn/scale_0_split_1
I0929 11:22:30.185082  5438 net.cpp:434] conv3_2 <- conv3_1_conv3_1/relu_0_split_1
I0929 11:22:30.185087  5438 net.cpp:408] conv3_2 -> conv3_2
I0929 11:22:30.185143  5438 net.cpp:150] Setting up conv3_2
I0929 11:22:30.185150  5438 net.cpp:157] Top shape: 16 512 28 28 (6422528)
I0929 11:22:30.185154  5438 net.cpp:165] Memory required for data: 2678552704
I0929 11:22:30.185158  5438 layer_factory.hpp:77] Creating layer conv3_2/relu
I0929 11:22:30.185165  5438 net.cpp:100] Creating Layer conv3_2/relu
I0929 11:22:30.185169  5438 net.cpp:434] conv3_2/relu <- conv3_2
I0929 11:22:30.185173  5438 net.cpp:395] conv3_2/relu -> conv3_2 (in-place)
I0929 11:22:30.185338  5438 net.cpp:150] Setting up conv3_2/relu
I0929 11:22:30.185348  5438 net.cpp:157] Top shape: 16 512 28 28 (6422528)
I0929 11:22:30.185351  5438 net.cpp:165] Memory required for data: 2704242816
I0929 11:22:30.185355  5438 layer_factory.hpp:77] Creating layer conv3_2_conv3_2/relu_0_split
I0929 11:22:30.185362  5438 net.cpp:100] Creating Layer conv3_2_conv3_2/relu_0_split
I0929 11:22:30.185365  5438 net.cpp:434] conv3_2_conv3_2/relu_0_split <- conv3_2
I0929 11:22:30.185370  5438 net.cpp:408] conv3_2_conv3_2/relu_0_split -> conv3_2_conv3_2/relu_0_split_0
I0929 11:22:30.185379  5438 net.cpp:408] conv3_2_conv3_2/relu_0_split -> conv3_2_conv3_2/relu_0_split_1
I0929 11:22:30.185421  5438 net.cpp:150] Setting up conv3_2_conv3_2/relu_0_split
I0929 11:22:30.185428  5438 net.cpp:157] Top shape: 16 512 28 28 (6422528)
I0929 11:22:30.185433  5438 net.cpp:157] Top shape: 16 512 28 28 (6422528)
I0929 11:22:30.185436  5438 net.cpp:165] Memory required for data: 2755623040
I0929 11:22:30.185451  5438 layer_factory.hpp:77] Creating layer conv3_3_1x1_reduce
I0929 11:22:30.185461  5438 net.cpp:100] Creating Layer conv3_3_1x1_reduce
I0929 11:22:30.185465  5438 net.cpp:434] conv3_3_1x1_reduce <- conv3_2_conv3_2/relu_0_split_0
I0929 11:22:30.185473  5438 net.cpp:408] conv3_3_1x1_reduce -> conv3_3_1x1_reduce
I0929 11:22:30.186799  5438 net.cpp:150] Setting up conv3_3_1x1_reduce
I0929 11:22:30.186812  5438 net.cpp:157] Top shape: 16 128 28 28 (1605632)
I0929 11:22:30.186817  5438 net.cpp:165] Memory required for data: 2762045568
I0929 11:22:30.186837  5438 layer_factory.hpp:77] Creating layer conv3_3_1x1_reduce/bn
I0929 11:22:30.186846  5438 net.cpp:100] Creating Layer conv3_3_1x1_reduce/bn
I0929 11:22:30.186852  5438 net.cpp:434] conv3_3_1x1_reduce/bn <- conv3_3_1x1_reduce
I0929 11:22:30.186858  5438 net.cpp:395] conv3_3_1x1_reduce/bn -> conv3_3_1x1_reduce (in-place)
I0929 11:22:30.187060  5438 net.cpp:150] Setting up conv3_3_1x1_reduce/bn
I0929 11:22:30.187068  5438 net.cpp:157] Top shape: 16 128 28 28 (1605632)
I0929 11:22:30.187072  5438 net.cpp:165] Memory required for data: 2768468096
I0929 11:22:30.187080  5438 layer_factory.hpp:77] Creating layer conv3_3_1x1_reduce/bn/scale
I0929 11:22:30.187088  5438 net.cpp:100] Creating Layer conv3_3_1x1_reduce/bn/scale
I0929 11:22:30.187091  5438 net.cpp:434] conv3_3_1x1_reduce/bn/scale <- conv3_3_1x1_reduce
I0929 11:22:30.187096  5438 net.cpp:395] conv3_3_1x1_reduce/bn/scale -> conv3_3_1x1_reduce (in-place)
I0929 11:22:30.187136  5438 layer_factory.hpp:77] Creating layer conv3_3_1x1_reduce/bn/scale
I0929 11:22:30.187244  5438 net.cpp:150] Setting up conv3_3_1x1_reduce/bn/scale
I0929 11:22:30.187252  5438 net.cpp:157] Top shape: 16 128 28 28 (1605632)
I0929 11:22:30.187256  5438 net.cpp:165] Memory required for data: 2774890624
I0929 11:22:30.187263  5438 layer_factory.hpp:77] Creating layer conv3_3_1x1_reduce/relu
I0929 11:22:30.187270  5438 net.cpp:100] Creating Layer conv3_3_1x1_reduce/relu
I0929 11:22:30.187274  5438 net.cpp:434] conv3_3_1x1_reduce/relu <- conv3_3_1x1_reduce
I0929 11:22:30.187280  5438 net.cpp:395] conv3_3_1x1_reduce/relu -> conv3_3_1x1_reduce (in-place)
I0929 11:22:30.187732  5438 net.cpp:150] Setting up conv3_3_1x1_reduce/relu
I0929 11:22:30.187746  5438 net.cpp:157] Top shape: 16 128 28 28 (1605632)
I0929 11:22:30.187749  5438 net.cpp:165] Memory required for data: 2781313152
I0929 11:22:30.187753  5438 layer_factory.hpp:77] Creating layer conv3_3_3x3
I0929 11:22:30.187765  5438 net.cpp:100] Creating Layer conv3_3_3x3
I0929 11:22:30.187772  5438 net.cpp:434] conv3_3_3x3 <- conv3_3_1x1_reduce
I0929 11:22:30.187778  5438 net.cpp:408] conv3_3_3x3 -> conv3_3_3x3
I0929 11:22:30.189931  5438 net.cpp:150] Setting up conv3_3_3x3
I0929 11:22:30.189944  5438 net.cpp:157] Top shape: 16 128 28 28 (1605632)
I0929 11:22:30.189950  5438 net.cpp:165] Memory required for data: 2787735680
I0929 11:22:30.189956  5438 layer_factory.hpp:77] Creating layer conv3_3_3x3/bn
I0929 11:22:30.189965  5438 net.cpp:100] Creating Layer conv3_3_3x3/bn
I0929 11:22:30.189970  5438 net.cpp:434] conv3_3_3x3/bn <- conv3_3_3x3
I0929 11:22:30.189977  5438 net.cpp:395] conv3_3_3x3/bn -> conv3_3_3x3 (in-place)
I0929 11:22:30.190177  5438 net.cpp:150] Setting up conv3_3_3x3/bn
I0929 11:22:30.190186  5438 net.cpp:157] Top shape: 16 128 28 28 (1605632)
I0929 11:22:30.190189  5438 net.cpp:165] Memory required for data: 2794158208
I0929 11:22:30.190197  5438 layer_factory.hpp:77] Creating layer conv3_3_3x3/bn/scale
I0929 11:22:30.190204  5438 net.cpp:100] Creating Layer conv3_3_3x3/bn/scale
I0929 11:22:30.190208  5438 net.cpp:434] conv3_3_3x3/bn/scale <- conv3_3_3x3
I0929 11:22:30.190212  5438 net.cpp:395] conv3_3_3x3/bn/scale -> conv3_3_3x3 (in-place)
I0929 11:22:30.190253  5438 layer_factory.hpp:77] Creating layer conv3_3_3x3/bn/scale
I0929 11:22:30.190363  5438 net.cpp:150] Setting up conv3_3_3x3/bn/scale
I0929 11:22:30.190371  5438 net.cpp:157] Top shape: 16 128 28 28 (1605632)
I0929 11:22:30.190376  5438 net.cpp:165] Memory required for data: 2800580736
I0929 11:22:30.190381  5438 layer_factory.hpp:77] Creating layer conv3_3_3x3/relu
I0929 11:22:30.190403  5438 net.cpp:100] Creating Layer conv3_3_3x3/relu
I0929 11:22:30.190408  5438 net.cpp:434] conv3_3_3x3/relu <- conv3_3_3x3
I0929 11:22:30.190413  5438 net.cpp:395] conv3_3_3x3/relu -> conv3_3_3x3 (in-place)
I0929 11:22:30.190870  5438 net.cpp:150] Setting up conv3_3_3x3/relu
I0929 11:22:30.190882  5438 net.cpp:157] Top shape: 16 128 28 28 (1605632)
I0929 11:22:30.190887  5438 net.cpp:165] Memory required for data: 2807003264
I0929 11:22:30.190891  5438 layer_factory.hpp:77] Creating layer conv3_3_1x1_increase
I0929 11:22:30.190901  5438 net.cpp:100] Creating Layer conv3_3_1x1_increase
I0929 11:22:30.190907  5438 net.cpp:434] conv3_3_1x1_increase <- conv3_3_3x3
I0929 11:22:30.190913  5438 net.cpp:408] conv3_3_1x1_increase -> conv3_3_1x1_increase
I0929 11:22:30.191959  5438 net.cpp:150] Setting up conv3_3_1x1_increase
I0929 11:22:30.191973  5438 net.cpp:157] Top shape: 16 512 28 28 (6422528)
I0929 11:22:30.191978  5438 net.cpp:165] Memory required for data: 2832693376
I0929 11:22:30.191983  5438 layer_factory.hpp:77] Creating layer conv3_3_1x1_increase/bn
I0929 11:22:30.191993  5438 net.cpp:100] Creating Layer conv3_3_1x1_increase/bn
I0929 11:22:30.191998  5438 net.cpp:434] conv3_3_1x1_increase/bn <- conv3_3_1x1_increase
I0929 11:22:30.192005  5438 net.cpp:395] conv3_3_1x1_increase/bn -> conv3_3_1x1_increase (in-place)
I0929 11:22:30.192203  5438 net.cpp:150] Setting up conv3_3_1x1_increase/bn
I0929 11:22:30.192210  5438 net.cpp:157] Top shape: 16 512 28 28 (6422528)
I0929 11:22:30.192214  5438 net.cpp:165] Memory required for data: 2858383488
I0929 11:22:30.192220  5438 layer_factory.hpp:77] Creating layer conv3_3_1x1_increase/bn/scale
I0929 11:22:30.192229  5438 net.cpp:100] Creating Layer conv3_3_1x1_increase/bn/scale
I0929 11:22:30.192232  5438 net.cpp:434] conv3_3_1x1_increase/bn/scale <- conv3_3_1x1_increase
I0929 11:22:30.192239  5438 net.cpp:395] conv3_3_1x1_increase/bn/scale -> conv3_3_1x1_increase (in-place)
I0929 11:22:30.192282  5438 layer_factory.hpp:77] Creating layer conv3_3_1x1_increase/bn/scale
I0929 11:22:30.192395  5438 net.cpp:150] Setting up conv3_3_1x1_increase/bn/scale
I0929 11:22:30.192404  5438 net.cpp:157] Top shape: 16 512 28 28 (6422528)
I0929 11:22:30.192407  5438 net.cpp:165] Memory required for data: 2884073600
I0929 11:22:30.192414  5438 layer_factory.hpp:77] Creating layer conv3_3_1x1_increase_conv3_3_1x1_increase/bn/scale_0_split
I0929 11:22:30.192431  5438 net.cpp:100] Creating Layer conv3_3_1x1_increase_conv3_3_1x1_increase/bn/scale_0_split
I0929 11:22:30.192436  5438 net.cpp:434] conv3_3_1x1_increase_conv3_3_1x1_increase/bn/scale_0_split <- conv3_3_1x1_increase
I0929 11:22:30.192443  5438 net.cpp:408] conv3_3_1x1_increase_conv3_3_1x1_increase/bn/scale_0_split -> conv3_3_1x1_increase_conv3_3_1x1_increase/bn/scale_0_split_0
I0929 11:22:30.192451  5438 net.cpp:408] conv3_3_1x1_increase_conv3_3_1x1_increase/bn/scale_0_split -> conv3_3_1x1_increase_conv3_3_1x1_increase/bn/scale_0_split_1
I0929 11:22:30.192489  5438 net.cpp:150] Setting up conv3_3_1x1_increase_conv3_3_1x1_increase/bn/scale_0_split
I0929 11:22:30.192497  5438 net.cpp:157] Top shape: 16 512 28 28 (6422528)
I0929 11:22:30.192502  5438 net.cpp:157] Top shape: 16 512 28 28 (6422528)
I0929 11:22:30.192504  5438 net.cpp:165] Memory required for data: 2935453824
I0929 11:22:30.192507  5438 layer_factory.hpp:77] Creating layer conv3_3_global_pool
I0929 11:22:30.192518  5438 net.cpp:100] Creating Layer conv3_3_global_pool
I0929 11:22:30.192523  5438 net.cpp:434] conv3_3_global_pool <- conv3_3_1x1_increase_conv3_3_1x1_increase/bn/scale_0_split_0
I0929 11:22:30.192528  5438 net.cpp:408] conv3_3_global_pool -> conv3_3_global_pool
I0929 11:22:30.192553  5438 net.cpp:150] Setting up conv3_3_global_pool
I0929 11:22:30.192559  5438 net.cpp:157] Top shape: 16 512 1 1 (8192)
I0929 11:22:30.192564  5438 net.cpp:165] Memory required for data: 2935486592
I0929 11:22:30.192566  5438 layer_factory.hpp:77] Creating layer conv3_3_1x1_down
I0929 11:22:30.192577  5438 net.cpp:100] Creating Layer conv3_3_1x1_down
I0929 11:22:30.192593  5438 net.cpp:434] conv3_3_1x1_down <- conv3_3_global_pool
I0929 11:22:30.192600  5438 net.cpp:408] conv3_3_1x1_down -> conv3_3_1x1_down
I0929 11:22:30.193392  5438 net.cpp:150] Setting up conv3_3_1x1_down
I0929 11:22:30.193404  5438 net.cpp:157] Top shape: 16 32 1 1 (512)
I0929 11:22:30.193409  5438 net.cpp:165] Memory required for data: 2935488640
I0929 11:22:30.193416  5438 layer_factory.hpp:77] Creating layer conv3_3_1x1_down/relu
I0929 11:22:30.193424  5438 net.cpp:100] Creating Layer conv3_3_1x1_down/relu
I0929 11:22:30.193429  5438 net.cpp:434] conv3_3_1x1_down/relu <- conv3_3_1x1_down
I0929 11:22:30.193434  5438 net.cpp:395] conv3_3_1x1_down/relu -> conv3_3_1x1_down (in-place)
I0929 11:22:30.193886  5438 net.cpp:150] Setting up conv3_3_1x1_down/relu
I0929 11:22:30.193898  5438 net.cpp:157] Top shape: 16 32 1 1 (512)
I0929 11:22:30.193903  5438 net.cpp:165] Memory required for data: 2935490688
I0929 11:22:30.193907  5438 layer_factory.hpp:77] Creating layer conv3_3_1x1_up
I0929 11:22:30.193918  5438 net.cpp:100] Creating Layer conv3_3_1x1_up
I0929 11:22:30.193923  5438 net.cpp:434] conv3_3_1x1_up <- conv3_3_1x1_down
I0929 11:22:30.193931  5438 net.cpp:408] conv3_3_1x1_up -> conv3_3_1x1_up
I0929 11:22:30.195017  5438 net.cpp:150] Setting up conv3_3_1x1_up
I0929 11:22:30.195031  5438 net.cpp:157] Top shape: 16 512 1 1 (8192)
I0929 11:22:30.195034  5438 net.cpp:165] Memory required for data: 2935523456
I0929 11:22:30.195041  5438 layer_factory.hpp:77] Creating layer conv3_3_prob
I0929 11:22:30.195050  5438 net.cpp:100] Creating Layer conv3_3_prob
I0929 11:22:30.195053  5438 net.cpp:434] conv3_3_prob <- conv3_3_1x1_up
I0929 11:22:30.195058  5438 net.cpp:395] conv3_3_prob -> conv3_3_1x1_up (in-place)
I0929 11:22:30.195228  5438 net.cpp:150] Setting up conv3_3_prob
I0929 11:22:30.195238  5438 net.cpp:157] Top shape: 16 512 1 1 (8192)
I0929 11:22:30.195241  5438 net.cpp:165] Memory required for data: 2935556224
I0929 11:22:30.195245  5438 layer_factory.hpp:77] Creating layer conv3_3
I0929 11:22:30.195252  5438 net.cpp:100] Creating Layer conv3_3
I0929 11:22:30.195255  5438 net.cpp:434] conv3_3 <- conv3_3_1x1_up
I0929 11:22:30.195261  5438 net.cpp:434] conv3_3 <- conv3_3_1x1_increase_conv3_3_1x1_increase/bn/scale_0_split_1
I0929 11:22:30.195264  5438 net.cpp:434] conv3_3 <- conv3_2_conv3_2/relu_0_split_1
I0929 11:22:30.195271  5438 net.cpp:408] conv3_3 -> conv3_3
I0929 11:22:30.195330  5438 net.cpp:150] Setting up conv3_3
I0929 11:22:30.195338  5438 net.cpp:157] Top shape: 16 512 28 28 (6422528)
I0929 11:22:30.195340  5438 net.cpp:165] Memory required for data: 2961246336
I0929 11:22:30.195343  5438 layer_factory.hpp:77] Creating layer conv3_3/relu
I0929 11:22:30.195348  5438 net.cpp:100] Creating Layer conv3_3/relu
I0929 11:22:30.195353  5438 net.cpp:434] conv3_3/relu <- conv3_3
I0929 11:22:30.195356  5438 net.cpp:395] conv3_3/relu -> conv3_3 (in-place)
I0929 11:22:30.195528  5438 net.cpp:150] Setting up conv3_3/relu
I0929 11:22:30.195536  5438 net.cpp:157] Top shape: 16 512 28 28 (6422528)
I0929 11:22:30.195539  5438 net.cpp:165] Memory required for data: 2986936448
I0929 11:22:30.195544  5438 layer_factory.hpp:77] Creating layer conv3_3_conv3_3/relu_0_split
I0929 11:22:30.195549  5438 net.cpp:100] Creating Layer conv3_3_conv3_3/relu_0_split
I0929 11:22:30.195551  5438 net.cpp:434] conv3_3_conv3_3/relu_0_split <- conv3_3
I0929 11:22:30.195557  5438 net.cpp:408] conv3_3_conv3_3/relu_0_split -> conv3_3_conv3_3/relu_0_split_0
I0929 11:22:30.195564  5438 net.cpp:408] conv3_3_conv3_3/relu_0_split -> conv3_3_conv3_3/relu_0_split_1
I0929 11:22:30.195607  5438 net.cpp:150] Setting up conv3_3_conv3_3/relu_0_split
I0929 11:22:30.195614  5438 net.cpp:157] Top shape: 16 512 28 28 (6422528)
I0929 11:22:30.195618  5438 net.cpp:157] Top shape: 16 512 28 28 (6422528)
I0929 11:22:30.195621  5438 net.cpp:165] Memory required for data: 3038316672
I0929 11:22:30.195624  5438 layer_factory.hpp:77] Creating layer conv3_4_1x1_reduce
I0929 11:22:30.195634  5438 net.cpp:100] Creating Layer conv3_4_1x1_reduce
I0929 11:22:30.195650  5438 net.cpp:434] conv3_4_1x1_reduce <- conv3_3_conv3_3/relu_0_split_0
I0929 11:22:30.195657  5438 net.cpp:408] conv3_4_1x1_reduce -> conv3_4_1x1_reduce
I0929 11:22:30.197737  5438 net.cpp:150] Setting up conv3_4_1x1_reduce
I0929 11:22:30.197751  5438 net.cpp:157] Top shape: 16 128 28 28 (1605632)
I0929 11:22:30.197755  5438 net.cpp:165] Memory required for data: 3044739200
I0929 11:22:30.197760  5438 layer_factory.hpp:77] Creating layer conv3_4_1x1_reduce/bn
I0929 11:22:30.197769  5438 net.cpp:100] Creating Layer conv3_4_1x1_reduce/bn
I0929 11:22:30.197773  5438 net.cpp:434] conv3_4_1x1_reduce/bn <- conv3_4_1x1_reduce
I0929 11:22:30.197780  5438 net.cpp:395] conv3_4_1x1_reduce/bn -> conv3_4_1x1_reduce (in-place)
I0929 11:22:30.197989  5438 net.cpp:150] Setting up conv3_4_1x1_reduce/bn
I0929 11:22:30.197999  5438 net.cpp:157] Top shape: 16 128 28 28 (1605632)
I0929 11:22:30.198002  5438 net.cpp:165] Memory required for data: 3051161728
I0929 11:22:30.198009  5438 layer_factory.hpp:77] Creating layer conv3_4_1x1_reduce/bn/scale
I0929 11:22:30.198015  5438 net.cpp:100] Creating Layer conv3_4_1x1_reduce/bn/scale
I0929 11:22:30.198019  5438 net.cpp:434] conv3_4_1x1_reduce/bn/scale <- conv3_4_1x1_reduce
I0929 11:22:30.198024  5438 net.cpp:395] conv3_4_1x1_reduce/bn/scale -> conv3_4_1x1_reduce (in-place)
I0929 11:22:30.198065  5438 layer_factory.hpp:77] Creating layer conv3_4_1x1_reduce/bn/scale
I0929 11:22:30.198180  5438 net.cpp:150] Setting up conv3_4_1x1_reduce/bn/scale
I0929 11:22:30.198189  5438 net.cpp:157] Top shape: 16 128 28 28 (1605632)
I0929 11:22:30.198191  5438 net.cpp:165] Memory required for data: 3057584256
I0929 11:22:30.198197  5438 layer_factory.hpp:77] Creating layer conv3_4_1x1_reduce/relu
I0929 11:22:30.198202  5438 net.cpp:100] Creating Layer conv3_4_1x1_reduce/relu
I0929 11:22:30.198205  5438 net.cpp:434] conv3_4_1x1_reduce/relu <- conv3_4_1x1_reduce
I0929 11:22:30.198210  5438 net.cpp:395] conv3_4_1x1_reduce/relu -> conv3_4_1x1_reduce (in-place)
I0929 11:22:30.198385  5438 net.cpp:150] Setting up conv3_4_1x1_reduce/relu
I0929 11:22:30.198395  5438 net.cpp:157] Top shape: 16 128 28 28 (1605632)
I0929 11:22:30.198397  5438 net.cpp:165] Memory required for data: 3064006784
I0929 11:22:30.198401  5438 layer_factory.hpp:77] Creating layer conv3_4_3x3
I0929 11:22:30.198410  5438 net.cpp:100] Creating Layer conv3_4_3x3
I0929 11:22:30.198415  5438 net.cpp:434] conv3_4_3x3 <- conv3_4_1x1_reduce
I0929 11:22:30.198421  5438 net.cpp:408] conv3_4_3x3 -> conv3_4_3x3
I0929 11:22:30.199798  5438 net.cpp:150] Setting up conv3_4_3x3
I0929 11:22:30.199815  5438 net.cpp:157] Top shape: 16 128 28 28 (1605632)
I0929 11:22:30.199818  5438 net.cpp:165] Memory required for data: 3070429312
I0929 11:22:30.199823  5438 layer_factory.hpp:77] Creating layer conv3_4_3x3/bn
I0929 11:22:30.199831  5438 net.cpp:100] Creating Layer conv3_4_3x3/bn
I0929 11:22:30.199834  5438 net.cpp:434] conv3_4_3x3/bn <- conv3_4_3x3
I0929 11:22:30.199841  5438 net.cpp:395] conv3_4_3x3/bn -> conv3_4_3x3 (in-place)
I0929 11:22:30.200053  5438 net.cpp:150] Setting up conv3_4_3x3/bn
I0929 11:22:30.200062  5438 net.cpp:157] Top shape: 16 128 28 28 (1605632)
I0929 11:22:30.200065  5438 net.cpp:165] Memory required for data: 3076851840
I0929 11:22:30.200073  5438 layer_factory.hpp:77] Creating layer conv3_4_3x3/bn/scale
I0929 11:22:30.200078  5438 net.cpp:100] Creating Layer conv3_4_3x3/bn/scale
I0929 11:22:30.200081  5438 net.cpp:434] conv3_4_3x3/bn/scale <- conv3_4_3x3
I0929 11:22:30.200085  5438 net.cpp:395] conv3_4_3x3/bn/scale -> conv3_4_3x3 (in-place)
I0929 11:22:30.200129  5438 layer_factory.hpp:77] Creating layer conv3_4_3x3/bn/scale
I0929 11:22:30.200245  5438 net.cpp:150] Setting up conv3_4_3x3/bn/scale
I0929 11:22:30.200253  5438 net.cpp:157] Top shape: 16 128 28 28 (1605632)
I0929 11:22:30.200256  5438 net.cpp:165] Memory required for data: 3083274368
I0929 11:22:30.200263  5438 layer_factory.hpp:77] Creating layer conv3_4_3x3/relu
I0929 11:22:30.200268  5438 net.cpp:100] Creating Layer conv3_4_3x3/relu
I0929 11:22:30.200283  5438 net.cpp:434] conv3_4_3x3/relu <- conv3_4_3x3
I0929 11:22:30.200289  5438 net.cpp:395] conv3_4_3x3/relu -> conv3_4_3x3 (in-place)
I0929 11:22:30.200742  5438 net.cpp:150] Setting up conv3_4_3x3/relu
I0929 11:22:30.200755  5438 net.cpp:157] Top shape: 16 128 28 28 (1605632)
I0929 11:22:30.200759  5438 net.cpp:165] Memory required for data: 3089696896
I0929 11:22:30.200763  5438 layer_factory.hpp:77] Creating layer conv3_4_1x1_increase
I0929 11:22:30.200773  5438 net.cpp:100] Creating Layer conv3_4_1x1_increase
I0929 11:22:30.200778  5438 net.cpp:434] conv3_4_1x1_increase <- conv3_4_3x3
I0929 11:22:30.200790  5438 net.cpp:408] conv3_4_1x1_increase -> conv3_4_1x1_increase
I0929 11:22:30.201565  5438 net.cpp:150] Setting up conv3_4_1x1_increase
I0929 11:22:30.201577  5438 net.cpp:157] Top shape: 16 512 28 28 (6422528)
I0929 11:22:30.201581  5438 net.cpp:165] Memory required for data: 3115387008
I0929 11:22:30.201586  5438 layer_factory.hpp:77] Creating layer conv3_4_1x1_increase/bn
I0929 11:22:30.201593  5438 net.cpp:100] Creating Layer conv3_4_1x1_increase/bn
I0929 11:22:30.201597  5438 net.cpp:434] conv3_4_1x1_increase/bn <- conv3_4_1x1_increase
I0929 11:22:30.201604  5438 net.cpp:395] conv3_4_1x1_increase/bn -> conv3_4_1x1_increase (in-place)
I0929 11:22:30.201812  5438 net.cpp:150] Setting up conv3_4_1x1_increase/bn
I0929 11:22:30.201820  5438 net.cpp:157] Top shape: 16 512 28 28 (6422528)
I0929 11:22:30.201823  5438 net.cpp:165] Memory required for data: 3141077120
I0929 11:22:30.201830  5438 layer_factory.hpp:77] Creating layer conv3_4_1x1_increase/bn/scale
I0929 11:22:30.201836  5438 net.cpp:100] Creating Layer conv3_4_1x1_increase/bn/scale
I0929 11:22:30.201840  5438 net.cpp:434] conv3_4_1x1_increase/bn/scale <- conv3_4_1x1_increase
I0929 11:22:30.201844  5438 net.cpp:395] conv3_4_1x1_increase/bn/scale -> conv3_4_1x1_increase (in-place)
I0929 11:22:30.201892  5438 layer_factory.hpp:77] Creating layer conv3_4_1x1_increase/bn/scale
I0929 11:22:30.202003  5438 net.cpp:150] Setting up conv3_4_1x1_increase/bn/scale
I0929 11:22:30.202010  5438 net.cpp:157] Top shape: 16 512 28 28 (6422528)
I0929 11:22:30.202013  5438 net.cpp:165] Memory required for data: 3166767232
I0929 11:22:30.202019  5438 layer_factory.hpp:77] Creating layer conv3_4_1x1_increase_conv3_4_1x1_increase/bn/scale_0_split
I0929 11:22:30.202026  5438 net.cpp:100] Creating Layer conv3_4_1x1_increase_conv3_4_1x1_increase/bn/scale_0_split
I0929 11:22:30.202029  5438 net.cpp:434] conv3_4_1x1_increase_conv3_4_1x1_increase/bn/scale_0_split <- conv3_4_1x1_increase
I0929 11:22:30.202034  5438 net.cpp:408] conv3_4_1x1_increase_conv3_4_1x1_increase/bn/scale_0_split -> conv3_4_1x1_increase_conv3_4_1x1_increase/bn/scale_0_split_0
I0929 11:22:30.202040  5438 net.cpp:408] conv3_4_1x1_increase_conv3_4_1x1_increase/bn/scale_0_split -> conv3_4_1x1_increase_conv3_4_1x1_increase/bn/scale_0_split_1
I0929 11:22:30.202080  5438 net.cpp:150] Setting up conv3_4_1x1_increase_conv3_4_1x1_increase/bn/scale_0_split
I0929 11:22:30.202085  5438 net.cpp:157] Top shape: 16 512 28 28 (6422528)
I0929 11:22:30.202090  5438 net.cpp:157] Top shape: 16 512 28 28 (6422528)
I0929 11:22:30.202092  5438 net.cpp:165] Memory required for data: 3218147456
I0929 11:22:30.202095  5438 layer_factory.hpp:77] Creating layer conv3_4_global_pool
I0929 11:22:30.202101  5438 net.cpp:100] Creating Layer conv3_4_global_pool
I0929 11:22:30.202105  5438 net.cpp:434] conv3_4_global_pool <- conv3_4_1x1_increase_conv3_4_1x1_increase/bn/scale_0_split_0
I0929 11:22:30.202111  5438 net.cpp:408] conv3_4_global_pool -> conv3_4_global_pool
I0929 11:22:30.202133  5438 net.cpp:150] Setting up conv3_4_global_pool
I0929 11:22:30.202141  5438 net.cpp:157] Top shape: 16 512 1 1 (8192)
I0929 11:22:30.202142  5438 net.cpp:165] Memory required for data: 3218180224
I0929 11:22:30.202145  5438 layer_factory.hpp:77] Creating layer conv3_4_1x1_down
I0929 11:22:30.202152  5438 net.cpp:100] Creating Layer conv3_4_1x1_down
I0929 11:22:30.202157  5438 net.cpp:434] conv3_4_1x1_down <- conv3_4_global_pool
I0929 11:22:30.202178  5438 net.cpp:408] conv3_4_1x1_down -> conv3_4_1x1_down
I0929 11:22:30.203256  5438 net.cpp:150] Setting up conv3_4_1x1_down
I0929 11:22:30.203270  5438 net.cpp:157] Top shape: 16 32 1 1 (512)
I0929 11:22:30.203274  5438 net.cpp:165] Memory required for data: 3218182272
I0929 11:22:30.203280  5438 layer_factory.hpp:77] Creating layer conv3_4_1x1_down/relu
I0929 11:22:30.203286  5438 net.cpp:100] Creating Layer conv3_4_1x1_down/relu
I0929 11:22:30.203291  5438 net.cpp:434] conv3_4_1x1_down/relu <- conv3_4_1x1_down
I0929 11:22:30.203296  5438 net.cpp:395] conv3_4_1x1_down/relu -> conv3_4_1x1_down (in-place)
I0929 11:22:30.203753  5438 net.cpp:150] Setting up conv3_4_1x1_down/relu
I0929 11:22:30.203766  5438 net.cpp:157] Top shape: 16 32 1 1 (512)
I0929 11:22:30.203770  5438 net.cpp:165] Memory required for data: 3218184320
I0929 11:22:30.203773  5438 layer_factory.hpp:77] Creating layer conv3_4_1x1_up
I0929 11:22:30.203788  5438 net.cpp:100] Creating Layer conv3_4_1x1_up
I0929 11:22:30.203794  5438 net.cpp:434] conv3_4_1x1_up <- conv3_4_1x1_down
I0929 11:22:30.203799  5438 net.cpp:408] conv3_4_1x1_up -> conv3_4_1x1_up
I0929 11:22:30.204607  5438 net.cpp:150] Setting up conv3_4_1x1_up
I0929 11:22:30.204618  5438 net.cpp:157] Top shape: 16 512 1 1 (8192)
I0929 11:22:30.204622  5438 net.cpp:165] Memory required for data: 3218217088
I0929 11:22:30.204628  5438 layer_factory.hpp:77] Creating layer conv3_4_prob
I0929 11:22:30.204634  5438 net.cpp:100] Creating Layer conv3_4_prob
I0929 11:22:30.204638  5438 net.cpp:434] conv3_4_prob <- conv3_4_1x1_up
I0929 11:22:30.204644  5438 net.cpp:395] conv3_4_prob -> conv3_4_1x1_up (in-place)
I0929 11:22:30.205099  5438 net.cpp:150] Setting up conv3_4_prob
I0929 11:22:30.205112  5438 net.cpp:157] Top shape: 16 512 1 1 (8192)
I0929 11:22:30.205116  5438 net.cpp:165] Memory required for data: 3218249856
I0929 11:22:30.205119  5438 layer_factory.hpp:77] Creating layer conv3_4
I0929 11:22:30.205127  5438 net.cpp:100] Creating Layer conv3_4
I0929 11:22:30.205130  5438 net.cpp:434] conv3_4 <- conv3_4_1x1_up
I0929 11:22:30.205135  5438 net.cpp:434] conv3_4 <- conv3_4_1x1_increase_conv3_4_1x1_increase/bn/scale_0_split_1
I0929 11:22:30.205142  5438 net.cpp:434] conv3_4 <- conv3_3_conv3_3/relu_0_split_1
I0929 11:22:30.205147  5438 net.cpp:408] conv3_4 -> conv3_4
I0929 11:22:30.205206  5438 net.cpp:150] Setting up conv3_4
I0929 11:22:30.205214  5438 net.cpp:157] Top shape: 16 512 28 28 (6422528)
I0929 11:22:30.205217  5438 net.cpp:165] Memory required for data: 3243939968
I0929 11:22:30.205220  5438 layer_factory.hpp:77] Creating layer conv3_4/relu
I0929 11:22:30.205225  5438 net.cpp:100] Creating Layer conv3_4/relu
I0929 11:22:30.205229  5438 net.cpp:434] conv3_4/relu <- conv3_4
I0929 11:22:30.205235  5438 net.cpp:395] conv3_4/relu -> conv3_4 (in-place)
I0929 11:22:30.205404  5438 net.cpp:150] Setting up conv3_4/relu
I0929 11:22:30.205413  5438 net.cpp:157] Top shape: 16 512 28 28 (6422528)
I0929 11:22:30.205416  5438 net.cpp:165] Memory required for data: 3269630080
I0929 11:22:30.205420  5438 layer_factory.hpp:77] Creating layer conv3_4_conv3_4/relu_0_split
I0929 11:22:30.205425  5438 net.cpp:100] Creating Layer conv3_4_conv3_4/relu_0_split
I0929 11:22:30.205428  5438 net.cpp:434] conv3_4_conv3_4/relu_0_split <- conv3_4
I0929 11:22:30.205435  5438 net.cpp:408] conv3_4_conv3_4/relu_0_split -> conv3_4_conv3_4/relu_0_split_0
I0929 11:22:30.205441  5438 net.cpp:408] conv3_4_conv3_4/relu_0_split -> conv3_4_conv3_4/relu_0_split_1
I0929 11:22:30.205487  5438 net.cpp:150] Setting up conv3_4_conv3_4/relu_0_split
I0929 11:22:30.205493  5438 net.cpp:157] Top shape: 16 512 28 28 (6422528)
I0929 11:22:30.205497  5438 net.cpp:157] Top shape: 16 512 28 28 (6422528)
I0929 11:22:30.205500  5438 net.cpp:165] Memory required for data: 3321010304
I0929 11:22:30.205504  5438 layer_factory.hpp:77] Creating layer conv4_1_1x1_reduce
I0929 11:22:30.205513  5438 net.cpp:100] Creating Layer conv4_1_1x1_reduce
I0929 11:22:30.205516  5438 net.cpp:434] conv4_1_1x1_reduce <- conv3_4_conv3_4/relu_0_split_0
I0929 11:22:30.205533  5438 net.cpp:408] conv4_1_1x1_reduce -> conv4_1_1x1_reduce
I0929 11:22:30.206635  5438 net.cpp:150] Setting up conv4_1_1x1_reduce
I0929 11:22:30.206650  5438 net.cpp:157] Top shape: 16 256 14 14 (802816)
I0929 11:22:30.206655  5438 net.cpp:165] Memory required for data: 3324221568
I0929 11:22:30.206660  5438 layer_factory.hpp:77] Creating layer conv4_1_1x1_reduce/bn
I0929 11:22:30.206666  5438 net.cpp:100] Creating Layer conv4_1_1x1_reduce/bn
I0929 11:22:30.206670  5438 net.cpp:434] conv4_1_1x1_reduce/bn <- conv4_1_1x1_reduce
I0929 11:22:30.206677  5438 net.cpp:395] conv4_1_1x1_reduce/bn -> conv4_1_1x1_reduce (in-place)
I0929 11:22:30.206898  5438 net.cpp:150] Setting up conv4_1_1x1_reduce/bn
I0929 11:22:30.206907  5438 net.cpp:157] Top shape: 16 256 14 14 (802816)
I0929 11:22:30.206910  5438 net.cpp:165] Memory required for data: 3327432832
I0929 11:22:30.206918  5438 layer_factory.hpp:77] Creating layer conv4_1_1x1_reduce/bn/scale
I0929 11:22:30.206924  5438 net.cpp:100] Creating Layer conv4_1_1x1_reduce/bn/scale
I0929 11:22:30.206928  5438 net.cpp:434] conv4_1_1x1_reduce/bn/scale <- conv4_1_1x1_reduce
I0929 11:22:30.206933  5438 net.cpp:395] conv4_1_1x1_reduce/bn/scale -> conv4_1_1x1_reduce (in-place)
I0929 11:22:30.206975  5438 layer_factory.hpp:77] Creating layer conv4_1_1x1_reduce/bn/scale
I0929 11:22:30.207087  5438 net.cpp:150] Setting up conv4_1_1x1_reduce/bn/scale
I0929 11:22:30.207095  5438 net.cpp:157] Top shape: 16 256 14 14 (802816)
I0929 11:22:30.207098  5438 net.cpp:165] Memory required for data: 3330644096
I0929 11:22:30.207103  5438 layer_factory.hpp:77] Creating layer conv4_1_1x1_reduce/relu
I0929 11:22:30.207109  5438 net.cpp:100] Creating Layer conv4_1_1x1_reduce/relu
I0929 11:22:30.207113  5438 net.cpp:434] conv4_1_1x1_reduce/relu <- conv4_1_1x1_reduce
I0929 11:22:30.207118  5438 net.cpp:395] conv4_1_1x1_reduce/relu -> conv4_1_1x1_reduce (in-place)
I0929 11:22:30.207285  5438 net.cpp:150] Setting up conv4_1_1x1_reduce/relu
I0929 11:22:30.207295  5438 net.cpp:157] Top shape: 16 256 14 14 (802816)
I0929 11:22:30.207298  5438 net.cpp:165] Memory required for data: 3333855360
I0929 11:22:30.207301  5438 layer_factory.hpp:77] Creating layer conv4_1_3x3
I0929 11:22:30.207310  5438 net.cpp:100] Creating Layer conv4_1_3x3
I0929 11:22:30.207314  5438 net.cpp:434] conv4_1_3x3 <- conv4_1_1x1_reduce
I0929 11:22:30.207319  5438 net.cpp:408] conv4_1_3x3 -> conv4_1_3x3
I0929 11:22:30.210124  5438 net.cpp:150] Setting up conv4_1_3x3
I0929 11:22:30.210137  5438 net.cpp:157] Top shape: 16 256 14 14 (802816)
I0929 11:22:30.210141  5438 net.cpp:165] Memory required for data: 3337066624
I0929 11:22:30.210147  5438 layer_factory.hpp:77] Creating layer conv4_1_3x3/bn
I0929 11:22:30.210156  5438 net.cpp:100] Creating Layer conv4_1_3x3/bn
I0929 11:22:30.210160  5438 net.cpp:434] conv4_1_3x3/bn <- conv4_1_3x3
I0929 11:22:30.210166  5438 net.cpp:395] conv4_1_3x3/bn -> conv4_1_3x3 (in-place)
I0929 11:22:30.210373  5438 net.cpp:150] Setting up conv4_1_3x3/bn
I0929 11:22:30.210382  5438 net.cpp:157] Top shape: 16 256 14 14 (802816)
I0929 11:22:30.210386  5438 net.cpp:165] Memory required for data: 3340277888
I0929 11:22:30.210392  5438 layer_factory.hpp:77] Creating layer conv4_1_3x3/bn/scale
I0929 11:22:30.210398  5438 net.cpp:100] Creating Layer conv4_1_3x3/bn/scale
I0929 11:22:30.210402  5438 net.cpp:434] conv4_1_3x3/bn/scale <- conv4_1_3x3
I0929 11:22:30.210407  5438 net.cpp:395] conv4_1_3x3/bn/scale -> conv4_1_3x3 (in-place)
I0929 11:22:30.210448  5438 layer_factory.hpp:77] Creating layer conv4_1_3x3/bn/scale
I0929 11:22:30.210564  5438 net.cpp:150] Setting up conv4_1_3x3/bn/scale
I0929 11:22:30.210572  5438 net.cpp:157] Top shape: 16 256 14 14 (802816)
I0929 11:22:30.210575  5438 net.cpp:165] Memory required for data: 3343489152
I0929 11:22:30.210580  5438 layer_factory.hpp:77] Creating layer conv4_1_3x3/relu
I0929 11:22:30.210587  5438 net.cpp:100] Creating Layer conv4_1_3x3/relu
I0929 11:22:30.210592  5438 net.cpp:434] conv4_1_3x3/relu <- conv4_1_3x3
I0929 11:22:30.210595  5438 net.cpp:395] conv4_1_3x3/relu -> conv4_1_3x3 (in-place)
I0929 11:22:30.210790  5438 net.cpp:150] Setting up conv4_1_3x3/relu
I0929 11:22:30.210803  5438 net.cpp:157] Top shape: 16 256 14 14 (802816)
I0929 11:22:30.210805  5438 net.cpp:165] Memory required for data: 3346700416
I0929 11:22:30.210809  5438 layer_factory.hpp:77] Creating layer conv4_1_1x1_increase
I0929 11:22:30.210816  5438 net.cpp:100] Creating Layer conv4_1_1x1_increase
I0929 11:22:30.210820  5438 net.cpp:434] conv4_1_1x1_increase <- conv4_1_3x3
I0929 11:22:30.210826  5438 net.cpp:408] conv4_1_1x1_increase -> conv4_1_1x1_increase
I0929 11:22:30.213085  5438 net.cpp:150] Setting up conv4_1_1x1_increase
I0929 11:22:30.213100  5438 net.cpp:157] Top shape: 16 1024 14 14 (3211264)
I0929 11:22:30.213104  5438 net.cpp:165] Memory required for data: 3359545472
I0929 11:22:30.213109  5438 layer_factory.hpp:77] Creating layer conv4_1_1x1_increase/bn
I0929 11:22:30.213119  5438 net.cpp:100] Creating Layer conv4_1_1x1_increase/bn
I0929 11:22:30.213124  5438 net.cpp:434] conv4_1_1x1_increase/bn <- conv4_1_1x1_increase
I0929 11:22:30.213129  5438 net.cpp:395] conv4_1_1x1_increase/bn -> conv4_1_1x1_increase (in-place)
I0929 11:22:30.213335  5438 net.cpp:150] Setting up conv4_1_1x1_increase/bn
I0929 11:22:30.213342  5438 net.cpp:157] Top shape: 16 1024 14 14 (3211264)
I0929 11:22:30.213346  5438 net.cpp:165] Memory required for data: 3372390528
I0929 11:22:30.213354  5438 layer_factory.hpp:77] Creating layer conv4_1_1x1_increase/bn/scale
I0929 11:22:30.213361  5438 net.cpp:100] Creating Layer conv4_1_1x1_increase/bn/scale
I0929 11:22:30.213363  5438 net.cpp:434] conv4_1_1x1_increase/bn/scale <- conv4_1_1x1_increase
I0929 11:22:30.213368  5438 net.cpp:395] conv4_1_1x1_increase/bn/scale -> conv4_1_1x1_increase (in-place)
I0929 11:22:30.213408  5438 layer_factory.hpp:77] Creating layer conv4_1_1x1_increase/bn/scale
I0929 11:22:30.213531  5438 net.cpp:150] Setting up conv4_1_1x1_increase/bn/scale
I0929 11:22:30.213539  5438 net.cpp:157] Top shape: 16 1024 14 14 (3211264)
I0929 11:22:30.213542  5438 net.cpp:165] Memory required for data: 3385235584
I0929 11:22:30.213547  5438 layer_factory.hpp:77] Creating layer conv4_1_1x1_increase_conv4_1_1x1_increase/bn/scale_0_split
I0929 11:22:30.213554  5438 net.cpp:100] Creating Layer conv4_1_1x1_increase_conv4_1_1x1_increase/bn/scale_0_split
I0929 11:22:30.213558  5438 net.cpp:434] conv4_1_1x1_increase_conv4_1_1x1_increase/bn/scale_0_split <- conv4_1_1x1_increase
I0929 11:22:30.213562  5438 net.cpp:408] conv4_1_1x1_increase_conv4_1_1x1_increase/bn/scale_0_split -> conv4_1_1x1_increase_conv4_1_1x1_increase/bn/scale_0_split_0
I0929 11:22:30.213570  5438 net.cpp:408] conv4_1_1x1_increase_conv4_1_1x1_increase/bn/scale_0_split -> conv4_1_1x1_increase_conv4_1_1x1_increase/bn/scale_0_split_1
I0929 11:22:30.213610  5438 net.cpp:150] Setting up conv4_1_1x1_increase_conv4_1_1x1_increase/bn/scale_0_split
I0929 11:22:30.213618  5438 net.cpp:157] Top shape: 16 1024 14 14 (3211264)
I0929 11:22:30.213621  5438 net.cpp:157] Top shape: 16 1024 14 14 (3211264)
I0929 11:22:30.213624  5438 net.cpp:165] Memory required for data: 3410925696
I0929 11:22:30.213627  5438 layer_factory.hpp:77] Creating layer conv4_1_global_pool
I0929 11:22:30.213634  5438 net.cpp:100] Creating Layer conv4_1_global_pool
I0929 11:22:30.213637  5438 net.cpp:434] conv4_1_global_pool <- conv4_1_1x1_increase_conv4_1_1x1_increase/bn/scale_0_split_0
I0929 11:22:30.213642  5438 net.cpp:408] conv4_1_global_pool -> conv4_1_global_pool
I0929 11:22:30.213667  5438 net.cpp:150] Setting up conv4_1_global_pool
I0929 11:22:30.213675  5438 net.cpp:157] Top shape: 16 1024 1 1 (16384)
I0929 11:22:30.213677  5438 net.cpp:165] Memory required for data: 3410991232
I0929 11:22:30.213680  5438 layer_factory.hpp:77] Creating layer conv4_1_1x1_down
I0929 11:22:30.213686  5438 net.cpp:100] Creating Layer conv4_1_1x1_down
I0929 11:22:30.213690  5438 net.cpp:434] conv4_1_1x1_down <- conv4_1_global_pool
I0929 11:22:30.213695  5438 net.cpp:408] conv4_1_1x1_down -> conv4_1_1x1_down
I0929 11:22:30.214843  5438 net.cpp:150] Setting up conv4_1_1x1_down
I0929 11:22:30.214869  5438 net.cpp:157] Top shape: 16 64 1 1 (1024)
I0929 11:22:30.214874  5438 net.cpp:165] Memory required for data: 3410995328
I0929 11:22:30.214880  5438 layer_factory.hpp:77] Creating layer conv4_1_1x1_down/relu
I0929 11:22:30.214889  5438 net.cpp:100] Creating Layer conv4_1_1x1_down/relu
I0929 11:22:30.214892  5438 net.cpp:434] conv4_1_1x1_down/relu <- conv4_1_1x1_down
I0929 11:22:30.214897  5438 net.cpp:395] conv4_1_1x1_down/relu -> conv4_1_1x1_down (in-place)
I0929 11:22:30.215075  5438 net.cpp:150] Setting up conv4_1_1x1_down/relu
I0929 11:22:30.215085  5438 net.cpp:157] Top shape: 16 64 1 1 (1024)
I0929 11:22:30.215087  5438 net.cpp:165] Memory required for data: 3410999424
I0929 11:22:30.215090  5438 layer_factory.hpp:77] Creating layer conv4_1_1x1_up
I0929 11:22:30.215101  5438 net.cpp:100] Creating Layer conv4_1_1x1_up
I0929 11:22:30.215104  5438 net.cpp:434] conv4_1_1x1_up <- conv4_1_1x1_down
I0929 11:22:30.215111  5438 net.cpp:408] conv4_1_1x1_up -> conv4_1_1x1_up
I0929 11:22:30.216259  5438 net.cpp:150] Setting up conv4_1_1x1_up
I0929 11:22:30.216272  5438 net.cpp:157] Top shape: 16 1024 1 1 (16384)
I0929 11:22:30.216276  5438 net.cpp:165] Memory required for data: 3411064960
I0929 11:22:30.216284  5438 layer_factory.hpp:77] Creating layer conv4_1_prob
I0929 11:22:30.216289  5438 net.cpp:100] Creating Layer conv4_1_prob
I0929 11:22:30.216295  5438 net.cpp:434] conv4_1_prob <- conv4_1_1x1_up
I0929 11:22:30.216300  5438 net.cpp:395] conv4_1_prob -> conv4_1_1x1_up (in-place)
I0929 11:22:30.216768  5438 net.cpp:150] Setting up conv4_1_prob
I0929 11:22:30.216781  5438 net.cpp:157] Top shape: 16 1024 1 1 (16384)
I0929 11:22:30.216791  5438 net.cpp:165] Memory required for data: 3411130496
I0929 11:22:30.216795  5438 layer_factory.hpp:77] Creating layer conv4_1_1x1_proj
I0929 11:22:30.216805  5438 net.cpp:100] Creating Layer conv4_1_1x1_proj
I0929 11:22:30.216809  5438 net.cpp:434] conv4_1_1x1_proj <- conv3_4_conv3_4/relu_0_split_1
I0929 11:22:30.216817  5438 net.cpp:408] conv4_1_1x1_proj -> conv4_1_1x1_proj
I0929 11:22:30.219009  5438 net.cpp:150] Setting up conv4_1_1x1_proj
I0929 11:22:30.219024  5438 net.cpp:157] Top shape: 16 1024 14 14 (3211264)
I0929 11:22:30.219028  5438 net.cpp:165] Memory required for data: 3423975552
I0929 11:22:30.219034  5438 layer_factory.hpp:77] Creating layer conv4_1_1x1_proj/bn
I0929 11:22:30.219043  5438 net.cpp:100] Creating Layer conv4_1_1x1_proj/bn
I0929 11:22:30.219046  5438 net.cpp:434] conv4_1_1x1_proj/bn <- conv4_1_1x1_proj
I0929 11:22:30.219053  5438 net.cpp:395] conv4_1_1x1_proj/bn -> conv4_1_1x1_proj (in-place)
I0929 11:22:30.219264  5438 net.cpp:150] Setting up conv4_1_1x1_proj/bn
I0929 11:22:30.219272  5438 net.cpp:157] Top shape: 16 1024 14 14 (3211264)
I0929 11:22:30.219275  5438 net.cpp:165] Memory required for data: 3436820608
I0929 11:22:30.219283  5438 layer_factory.hpp:77] Creating layer conv4_1_1x1_proj/bn/scale
I0929 11:22:30.219290  5438 net.cpp:100] Creating Layer conv4_1_1x1_proj/bn/scale
I0929 11:22:30.219295  5438 net.cpp:434] conv4_1_1x1_proj/bn/scale <- conv4_1_1x1_proj
I0929 11:22:30.219298  5438 net.cpp:395] conv4_1_1x1_proj/bn/scale -> conv4_1_1x1_proj (in-place)
I0929 11:22:30.219339  5438 layer_factory.hpp:77] Creating layer conv4_1_1x1_proj/bn/scale
I0929 11:22:30.219460  5438 net.cpp:150] Setting up conv4_1_1x1_proj/bn/scale
I0929 11:22:30.219467  5438 net.cpp:157] Top shape: 16 1024 14 14 (3211264)
I0929 11:22:30.219470  5438 net.cpp:165] Memory required for data: 3449665664
I0929 11:22:30.219475  5438 layer_factory.hpp:77] Creating layer conv4_1
I0929 11:22:30.219483  5438 net.cpp:100] Creating Layer conv4_1
I0929 11:22:30.219486  5438 net.cpp:434] conv4_1 <- conv4_1_1x1_up
I0929 11:22:30.219491  5438 net.cpp:434] conv4_1 <- conv4_1_1x1_increase_conv4_1_1x1_increase/bn/scale_0_split_1
I0929 11:22:30.219496  5438 net.cpp:434] conv4_1 <- conv4_1_1x1_proj
I0929 11:22:30.219499  5438 net.cpp:408] conv4_1 -> conv4_1
I0929 11:22:30.219555  5438 net.cpp:150] Setting up conv4_1
I0929 11:22:30.219563  5438 net.cpp:157] Top shape: 16 1024 14 14 (3211264)
I0929 11:22:30.219578  5438 net.cpp:165] Memory required for data: 3462510720
I0929 11:22:30.219581  5438 layer_factory.hpp:77] Creating layer conv4_1/relu
I0929 11:22:30.219588  5438 net.cpp:100] Creating Layer conv4_1/relu
I0929 11:22:30.219590  5438 net.cpp:434] conv4_1/relu <- conv4_1
I0929 11:22:30.219595  5438 net.cpp:395] conv4_1/relu -> conv4_1 (in-place)
I0929 11:22:30.220329  5438 net.cpp:150] Setting up conv4_1/relu
I0929 11:22:30.220343  5438 net.cpp:157] Top shape: 16 1024 14 14 (3211264)
I0929 11:22:30.220347  5438 net.cpp:165] Memory required for data: 3475355776
I0929 11:22:30.220350  5438 layer_factory.hpp:77] Creating layer conv4_1_conv4_1/relu_0_split
I0929 11:22:30.220356  5438 net.cpp:100] Creating Layer conv4_1_conv4_1/relu_0_split
I0929 11:22:30.220360  5438 net.cpp:434] conv4_1_conv4_1/relu_0_split <- conv4_1
I0929 11:22:30.220367  5438 net.cpp:408] conv4_1_conv4_1/relu_0_split -> conv4_1_conv4_1/relu_0_split_0
I0929 11:22:30.220374  5438 net.cpp:408] conv4_1_conv4_1/relu_0_split -> conv4_1_conv4_1/relu_0_split_1
I0929 11:22:30.220424  5438 net.cpp:150] Setting up conv4_1_conv4_1/relu_0_split
I0929 11:22:30.220432  5438 net.cpp:157] Top shape: 16 1024 14 14 (3211264)
I0929 11:22:30.220435  5438 net.cpp:157] Top shape: 16 1024 14 14 (3211264)
I0929 11:22:30.220438  5438 net.cpp:165] Memory required for data: 3501045888
I0929 11:22:30.220441  5438 layer_factory.hpp:77] Creating layer conv4_2_1x1_reduce
I0929 11:22:30.220450  5438 net.cpp:100] Creating Layer conv4_2_1x1_reduce
I0929 11:22:30.220454  5438 net.cpp:434] conv4_2_1x1_reduce <- conv4_1_conv4_1/relu_0_split_0
I0929 11:22:30.220460  5438 net.cpp:408] conv4_2_1x1_reduce -> conv4_2_1x1_reduce
I0929 11:22:30.221678  5438 net.cpp:150] Setting up conv4_2_1x1_reduce
I0929 11:22:30.221693  5438 net.cpp:157] Top shape: 16 256 14 14 (802816)
I0929 11:22:30.221696  5438 net.cpp:165] Memory required for data: 3504257152
I0929 11:22:30.221702  5438 layer_factory.hpp:77] Creating layer conv4_2_1x1_reduce/bn
I0929 11:22:30.221710  5438 net.cpp:100] Creating Layer conv4_2_1x1_reduce/bn
I0929 11:22:30.221714  5438 net.cpp:434] conv4_2_1x1_reduce/bn <- conv4_2_1x1_reduce
I0929 11:22:30.221719  5438 net.cpp:395] conv4_2_1x1_reduce/bn -> conv4_2_1x1_reduce (in-place)
I0929 11:22:30.221936  5438 net.cpp:150] Setting up conv4_2_1x1_reduce/bn
I0929 11:22:30.221946  5438 net.cpp:157] Top shape: 16 256 14 14 (802816)
I0929 11:22:30.221949  5438 net.cpp:165] Memory required for data: 3507468416
I0929 11:22:30.221956  5438 layer_factory.hpp:77] Creating layer conv4_2_1x1_reduce/bn/scale
I0929 11:22:30.221967  5438 net.cpp:100] Creating Layer conv4_2_1x1_reduce/bn/scale
I0929 11:22:30.221972  5438 net.cpp:434] conv4_2_1x1_reduce/bn/scale <- conv4_2_1x1_reduce
I0929 11:22:30.221977  5438 net.cpp:395] conv4_2_1x1_reduce/bn/scale -> conv4_2_1x1_reduce (in-place)
I0929 11:22:30.222021  5438 layer_factory.hpp:77] Creating layer conv4_2_1x1_reduce/bn/scale
I0929 11:22:30.222136  5438 net.cpp:150] Setting up conv4_2_1x1_reduce/bn/scale
I0929 11:22:30.222143  5438 net.cpp:157] Top shape: 16 256 14 14 (802816)
I0929 11:22:30.222146  5438 net.cpp:165] Memory required for data: 3510679680
I0929 11:22:30.222152  5438 layer_factory.hpp:77] Creating layer conv4_2_1x1_reduce/relu
I0929 11:22:30.222159  5438 net.cpp:100] Creating Layer conv4_2_1x1_reduce/relu
I0929 11:22:30.222162  5438 net.cpp:434] conv4_2_1x1_reduce/relu <- conv4_2_1x1_reduce
I0929 11:22:30.222167  5438 net.cpp:395] conv4_2_1x1_reduce/relu -> conv4_2_1x1_reduce (in-place)
I0929 11:22:30.222337  5438 net.cpp:150] Setting up conv4_2_1x1_reduce/relu
I0929 11:22:30.222347  5438 net.cpp:157] Top shape: 16 256 14 14 (802816)
I0929 11:22:30.222349  5438 net.cpp:165] Memory required for data: 3513890944
I0929 11:22:30.222353  5438 layer_factory.hpp:77] Creating layer conv4_2_3x3
I0929 11:22:30.222362  5438 net.cpp:100] Creating Layer conv4_2_3x3
I0929 11:22:30.222367  5438 net.cpp:434] conv4_2_3x3 <- conv4_2_1x1_reduce
I0929 11:22:30.222373  5438 net.cpp:408] conv4_2_3x3 -> conv4_2_3x3
I0929 11:22:30.225299  5438 net.cpp:150] Setting up conv4_2_3x3
I0929 11:22:30.225313  5438 net.cpp:157] Top shape: 16 256 14 14 (802816)
I0929 11:22:30.225317  5438 net.cpp:165] Memory required for data: 3517102208
I0929 11:22:30.225324  5438 layer_factory.hpp:77] Creating layer conv4_2_3x3/bn
I0929 11:22:30.225333  5438 net.cpp:100] Creating Layer conv4_2_3x3/bn
I0929 11:22:30.225337  5438 net.cpp:434] conv4_2_3x3/bn <- conv4_2_3x3
I0929 11:22:30.225342  5438 net.cpp:395] conv4_2_3x3/bn -> conv4_2_3x3 (in-place)
I0929 11:22:30.225556  5438 net.cpp:150] Setting up conv4_2_3x3/bn
I0929 11:22:30.225564  5438 net.cpp:157] Top shape: 16 256 14 14 (802816)
I0929 11:22:30.225569  5438 net.cpp:165] Memory required for data: 3520313472
I0929 11:22:30.225577  5438 layer_factory.hpp:77] Creating layer conv4_2_3x3/bn/scale
I0929 11:22:30.225584  5438 net.cpp:100] Creating Layer conv4_2_3x3/bn/scale
I0929 11:22:30.225586  5438 net.cpp:434] conv4_2_3x3/bn/scale <- conv4_2_3x3
I0929 11:22:30.225591  5438 net.cpp:395] conv4_2_3x3/bn/scale -> conv4_2_3x3 (in-place)
I0929 11:22:30.225637  5438 layer_factory.hpp:77] Creating layer conv4_2_3x3/bn/scale
I0929 11:22:30.225756  5438 net.cpp:150] Setting up conv4_2_3x3/bn/scale
I0929 11:22:30.225764  5438 net.cpp:157] Top shape: 16 256 14 14 (802816)
I0929 11:22:30.225767  5438 net.cpp:165] Memory required for data: 3523524736
I0929 11:22:30.225772  5438 layer_factory.hpp:77] Creating layer conv4_2_3x3/relu
I0929 11:22:30.225780  5438 net.cpp:100] Creating Layer conv4_2_3x3/relu
I0929 11:22:30.225790  5438 net.cpp:434] conv4_2_3x3/relu <- conv4_2_3x3
I0929 11:22:30.225795  5438 net.cpp:395] conv4_2_3x3/relu -> conv4_2_3x3 (in-place)
I0929 11:22:30.225975  5438 net.cpp:150] Setting up conv4_2_3x3/relu
I0929 11:22:30.225983  5438 net.cpp:157] Top shape: 16 256 14 14 (802816)
I0929 11:22:30.225987  5438 net.cpp:165] Memory required for data: 3526736000
I0929 11:22:30.225991  5438 layer_factory.hpp:77] Creating layer conv4_2_1x1_increase
I0929 11:22:30.226001  5438 net.cpp:100] Creating Layer conv4_2_1x1_increase
I0929 11:22:30.226004  5438 net.cpp:434] conv4_2_1x1_increase <- conv4_2_3x3
I0929 11:22:30.226009  5438 net.cpp:408] conv4_2_1x1_increase -> conv4_2_1x1_increase
I0929 11:22:30.228303  5438 net.cpp:150] Setting up conv4_2_1x1_increase
I0929 11:22:30.228318  5438 net.cpp:157] Top shape: 16 1024 14 14 (3211264)
I0929 11:22:30.228322  5438 net.cpp:165] Memory required for data: 3539581056
I0929 11:22:30.228328  5438 layer_factory.hpp:77] Creating layer conv4_2_1x1_increase/bn
I0929 11:22:30.228337  5438 net.cpp:100] Creating Layer conv4_2_1x1_increase/bn
I0929 11:22:30.228341  5438 net.cpp:434] conv4_2_1x1_increase/bn <- conv4_2_1x1_increase
I0929 11:22:30.228348  5438 net.cpp:395] conv4_2_1x1_increase/bn -> conv4_2_1x1_increase (in-place)
I0929 11:22:30.228559  5438 net.cpp:150] Setting up conv4_2_1x1_increase/bn
I0929 11:22:30.228566  5438 net.cpp:157] Top shape: 16 1024 14 14 (3211264)
I0929 11:22:30.228569  5438 net.cpp:165] Memory required for data: 3552426112
I0929 11:22:30.228576  5438 layer_factory.hpp:77] Creating layer conv4_2_1x1_increase/bn/scale
I0929 11:22:30.228582  5438 net.cpp:100] Creating Layer conv4_2_1x1_increase/bn/scale
I0929 11:22:30.228585  5438 net.cpp:434] conv4_2_1x1_increase/bn/scale <- conv4_2_1x1_increase
I0929 11:22:30.228591  5438 net.cpp:395] conv4_2_1x1_increase/bn/scale -> conv4_2_1x1_increase (in-place)
I0929 11:22:30.228631  5438 layer_factory.hpp:77] Creating layer conv4_2_1x1_increase/bn/scale
I0929 11:22:30.228759  5438 net.cpp:150] Setting up conv4_2_1x1_increase/bn/scale
I0929 11:22:30.228765  5438 net.cpp:157] Top shape: 16 1024 14 14 (3211264)
I0929 11:22:30.228768  5438 net.cpp:165] Memory required for data: 3565271168
I0929 11:22:30.228775  5438 layer_factory.hpp:77] Creating layer conv4_2_1x1_increase_conv4_2_1x1_increase/bn/scale_0_split
I0929 11:22:30.228780  5438 net.cpp:100] Creating Layer conv4_2_1x1_increase_conv4_2_1x1_increase/bn/scale_0_split
I0929 11:22:30.228790  5438 net.cpp:434] conv4_2_1x1_increase_conv4_2_1x1_increase/bn/scale_0_split <- conv4_2_1x1_increase
I0929 11:22:30.228808  5438 net.cpp:408] conv4_2_1x1_increase_conv4_2_1x1_increase/bn/scale_0_split -> conv4_2_1x1_increase_conv4_2_1x1_increase/bn/scale_0_split_0
I0929 11:22:30.228818  5438 net.cpp:408] conv4_2_1x1_increase_conv4_2_1x1_increase/bn/scale_0_split -> conv4_2_1x1_increase_conv4_2_1x1_increase/bn/scale_0_split_1
I0929 11:22:30.228862  5438 net.cpp:150] Setting up conv4_2_1x1_increase_conv4_2_1x1_increase/bn/scale_0_split
I0929 11:22:30.228869  5438 net.cpp:157] Top shape: 16 1024 14 14 (3211264)
I0929 11:22:30.228873  5438 net.cpp:157] Top shape: 16 1024 14 14 (3211264)
I0929 11:22:30.228876  5438 net.cpp:165] Memory required for data: 3590961280
I0929 11:22:30.228879  5438 layer_factory.hpp:77] Creating layer conv4_2_global_pool
I0929 11:22:30.228888  5438 net.cpp:100] Creating Layer conv4_2_global_pool
I0929 11:22:30.228890  5438 net.cpp:434] conv4_2_global_pool <- conv4_2_1x1_increase_conv4_2_1x1_increase/bn/scale_0_split_0
I0929 11:22:30.228895  5438 net.cpp:408] conv4_2_global_pool -> conv4_2_global_pool
I0929 11:22:30.228920  5438 net.cpp:150] Setting up conv4_2_global_pool
I0929 11:22:30.228926  5438 net.cpp:157] Top shape: 16 1024 1 1 (16384)
I0929 11:22:30.228929  5438 net.cpp:165] Memory required for data: 3591026816
I0929 11:22:30.228932  5438 layer_factory.hpp:77] Creating layer conv4_2_1x1_down
I0929 11:22:30.228941  5438 net.cpp:100] Creating Layer conv4_2_1x1_down
I0929 11:22:30.228945  5438 net.cpp:434] conv4_2_1x1_down <- conv4_2_global_pool
I0929 11:22:30.228950  5438 net.cpp:408] conv4_2_1x1_down -> conv4_2_1x1_down
I0929 11:22:30.230128  5438 net.cpp:150] Setting up conv4_2_1x1_down
I0929 11:22:30.230141  5438 net.cpp:157] Top shape: 16 64 1 1 (1024)
I0929 11:22:30.230144  5438 net.cpp:165] Memory required for data: 3591030912
I0929 11:22:30.230151  5438 layer_factory.hpp:77] Creating layer conv4_2_1x1_down/relu
I0929 11:22:30.230159  5438 net.cpp:100] Creating Layer conv4_2_1x1_down/relu
I0929 11:22:30.230163  5438 net.cpp:434] conv4_2_1x1_down/relu <- conv4_2_1x1_down
I0929 11:22:30.230168  5438 net.cpp:395] conv4_2_1x1_down/relu -> conv4_2_1x1_down (in-place)
I0929 11:22:30.230345  5438 net.cpp:150] Setting up conv4_2_1x1_down/relu
I0929 11:22:30.230355  5438 net.cpp:157] Top shape: 16 64 1 1 (1024)
I0929 11:22:30.230358  5438 net.cpp:165] Memory required for data: 3591035008
I0929 11:22:30.230362  5438 layer_factory.hpp:77] Creating layer conv4_2_1x1_up
I0929 11:22:30.230371  5438 net.cpp:100] Creating Layer conv4_2_1x1_up
I0929 11:22:30.230376  5438 net.cpp:434] conv4_2_1x1_up <- conv4_2_1x1_down
I0929 11:22:30.230381  5438 net.cpp:408] conv4_2_1x1_up -> conv4_2_1x1_up
I0929 11:22:30.231554  5438 net.cpp:150] Setting up conv4_2_1x1_up
I0929 11:22:30.231568  5438 net.cpp:157] Top shape: 16 1024 1 1 (16384)
I0929 11:22:30.231572  5438 net.cpp:165] Memory required for data: 3591100544
I0929 11:22:30.231578  5438 layer_factory.hpp:77] Creating layer conv4_2_prob
I0929 11:22:30.231585  5438 net.cpp:100] Creating Layer conv4_2_prob
I0929 11:22:30.231590  5438 net.cpp:434] conv4_2_prob <- conv4_2_1x1_up
I0929 11:22:30.231596  5438 net.cpp:395] conv4_2_prob -> conv4_2_1x1_up (in-place)
I0929 11:22:30.231773  5438 net.cpp:150] Setting up conv4_2_prob
I0929 11:22:30.231788  5438 net.cpp:157] Top shape: 16 1024 1 1 (16384)
I0929 11:22:30.231792  5438 net.cpp:165] Memory required for data: 3591166080
I0929 11:22:30.231796  5438 layer_factory.hpp:77] Creating layer conv4_2
I0929 11:22:30.231803  5438 net.cpp:100] Creating Layer conv4_2
I0929 11:22:30.231806  5438 net.cpp:434] conv4_2 <- conv4_2_1x1_up
I0929 11:22:30.231812  5438 net.cpp:434] conv4_2 <- conv4_2_1x1_increase_conv4_2_1x1_increase/bn/scale_0_split_1
I0929 11:22:30.231817  5438 net.cpp:434] conv4_2 <- conv4_1_conv4_1/relu_0_split_1
I0929 11:22:30.231820  5438 net.cpp:408] conv4_2 -> conv4_2
I0929 11:22:30.231884  5438 net.cpp:150] Setting up conv4_2
…
I0929 11:22:30.563760  5438 net.cpp:165] Memory required for data: 253989764
I0929 11:22:30.563767  5438 layer_factory.hpp:77] Creating layer conv4_6_1x1_reduce/bn/scale
I0929 11:22:30.563773  5438 net.cpp:100] Creating Layer conv4_6_1x1_reduce/bn/scale
I0929 11:22:30.563777  5438 net.cpp:434] conv4_6_1x1_reduce/bn/scale <- conv4_6_1x1_reduce
I0929 11:22:30.563789  5438 net.cpp:395] conv4_6_1x1_reduce/bn/scale -> conv4_6_1x1_reduce (in-place)
I0929 11:22:30.563832  5438 layer_factory.hpp:77] Creating layer conv4_6_1x1_reduce/bn/scale
I0929 11:22:30.563940  5438 net.cpp:150] Setting up conv4_6_1x1_reduce/bn/scale
I0929 11:22:30.563948  5438 net.cpp:157] Top shape: 1 256 14 14 (50176)
I0929 11:22:30.563952  5438 net.cpp:165] Memory required for data: 254190468
I0929 11:22:30.563957  5438 layer_factory.hpp:77] Creating layer conv4_6_1x1_reduce/relu
I0929 11:22:30.563963  5438 net.cpp:100] Creating Layer conv4_6_1x1_reduce/relu
I0929 11:22:30.563979  5438 net.cpp:434] conv4_6_1x1_reduce/relu <- conv4_6_1x1_reduce
I0929 11:22:30.563984  5438 net.cpp:395] conv4_6_1x1_reduce/relu -> conv4_6_1x1_reduce (in-place)
I0929 11:22:30.564194  5438 net.cpp:150] Setting up conv4_6_1x1_reduce/relu
I0929 11:22:30.564206  5438 net.cpp:157] Top shape: 1 256 14 14 (50176)
I0929 11:22:30.564210  5438 net.cpp:165] Memory required for data: 254391172
I0929 11:22:30.564214  5438 layer_factory.hpp:77] Creating layer conv4_6_3x3
I0929 11:22:30.564221  5438 net.cpp:100] Creating Layer conv4_6_3x3
I0929 11:22:30.564225  5438 net.cpp:434] conv4_6_3x3 <- conv4_6_1x1_reduce
I0929 11:22:30.564234  5438 net.cpp:408] conv4_6_3x3 -> conv4_6_3x3
I0929 11:22:30.567471  5438 net.cpp:150] Setting up conv4_6_3x3
I0929 11:22:30.567486  5438 net.cpp:157] Top shape: 1 256 14 14 (50176)
I0929 11:22:30.567489  5438 net.cpp:165] Memory required for data: 254591876
I0929 11:22:30.567495  5438 layer_factory.hpp:77] Creating layer conv4_6_3x3/bn
I0929 11:22:30.567504  5438 net.cpp:100] Creating Layer conv4_6_3x3/bn
I0929 11:22:30.567508  5438 net.cpp:434] conv4_6_3x3/bn <- conv4_6_3x3
I0929 11:22:30.567514  5438 net.cpp:395] conv4_6_3x3/bn -> conv4_6_3x3 (in-place)
I0929 11:22:30.567715  5438 net.cpp:150] Setting up conv4_6_3x3/bn
I0929 11:22:30.567723  5438 net.cpp:157] Top shape: 1 256 14 14 (50176)
I0929 11:22:30.567726  5438 net.cpp:165] Memory required for data: 254792580
I0929 11:22:30.567734  5438 layer_factory.hpp:77] Creating layer conv4_6_3x3/bn/scale
I0929 11:22:30.567741  5438 net.cpp:100] Creating Layer conv4_6_3x3/bn/scale
I0929 11:22:30.567745  5438 net.cpp:434] conv4_6_3x3/bn/scale <- conv4_6_3x3
I0929 11:22:30.567749  5438 net.cpp:395] conv4_6_3x3/bn/scale -> conv4_6_3x3 (in-place)
I0929 11:22:30.567796  5438 layer_factory.hpp:77] Creating layer conv4_6_3x3/bn/scale
I0929 11:22:30.567911  5438 net.cpp:150] Setting up conv4_6_3x3/bn/scale
I0929 11:22:30.567919  5438 net.cpp:157] Top shape: 1 256 14 14 (50176)
I0929 11:22:30.567921  5438 net.cpp:165] Memory required for data: 254993284
I0929 11:22:30.567929  5438 layer_factory.hpp:77] Creating layer conv4_6_3x3/relu
I0929 11:22:30.567934  5438 net.cpp:100] Creating Layer conv4_6_3x3/relu
I0929 11:22:30.567939  5438 net.cpp:434] conv4_6_3x3/relu <- conv4_6_3x3
I0929 11:22:30.567942  5438 net.cpp:395] conv4_6_3x3/relu -> conv4_6_3x3 (in-place)
I0929 11:22:30.568168  5438 net.cpp:150] Setting up conv4_6_3x3/relu
I0929 11:22:30.568178  5438 net.cpp:157] Top shape: 1 256 14 14 (50176)
I0929 11:22:30.568181  5438 net.cpp:165] Memory required for data: 255193988
I0929 11:22:30.568184  5438 layer_factory.hpp:77] Creating layer conv4_6_1x1_increase
I0929 11:22:30.568193  5438 net.cpp:100] Creating Layer conv4_6_1x1_increase
I0929 11:22:30.568197  5438 net.cpp:434] conv4_6_1x1_increase <- conv4_6_3x3
I0929 11:22:30.568202  5438 net.cpp:408] conv4_6_1x1_increase -> conv4_6_1x1_increase
I0929 11:22:30.570756  5438 net.cpp:150] Setting up conv4_6_1x1_increase
I0929 11:22:30.570772  5438 net.cpp:157] Top shape: 1 1024 14 14 (200704)
I0929 11:22:30.570777  5438 net.cpp:165] Memory required for data: 255996804
I0929 11:22:30.570791  5438 layer_factory.hpp:77] Creating layer conv4_6_1x1_increase/bn
I0929 11:22:30.570799  5438 net.cpp:100] Creating Layer conv4_6_1x1_increase/bn
I0929 11:22:30.570804  5438 net.cpp:434] conv4_6_1x1_increase/bn <- conv4_6_1x1_increase
I0929 11:22:30.570809  5438 net.cpp:395] conv4_6_1x1_increase/bn -> conv4_6_1x1_increase (in-place)
I0929 11:22:30.571036  5438 net.cpp:150] Setting up conv4_6_1x1_increase/bn
I0929 11:22:30.571044  5438 net.cpp:157] Top shape: 1 1024 14 14 (200704)
I0929 11:22:30.571048  5438 net.cpp:165] Memory required for data: 256799620
I0929 11:22:30.571055  5438 layer_factory.hpp:77] Creating layer conv4_6_1x1_increase/bn/scale
I0929 11:22:30.571061  5438 net.cpp:100] Creating Layer conv4_6_1x1_increase/bn/scale
I0929 11:22:30.571065  5438 net.cpp:434] conv4_6_1x1_increase/bn/scale <- conv4_6_1x1_increase
I0929 11:22:30.571069  5438 net.cpp:395] conv4_6_1x1_increase/bn/scale -> conv4_6_1x1_increase (in-place)
I0929 11:22:30.571140  5438 layer_factory.hpp:77] Creating layer conv4_6_1x1_increase/bn/scale
I0929 11:22:30.571274  5438 net.cpp:150] Setting up conv4_6_1x1_increase/bn/scale
I0929 11:22:30.571282  5438 net.cpp:157] Top shape: 1 1024 14 14 (200704)
I0929 11:22:30.571285  5438 net.cpp:165] Memory required for data: 257602436
I0929 11:22:30.571291  5438 layer_factory.hpp:77] Creating layer conv4_6_1x1_increase_conv4_6_1x1_increase/bn/scale_0_split
I0929 11:22:30.571296  5438 net.cpp:100] Creating Layer conv4_6_1x1_increase_conv4_6_1x1_increase/bn/scale_0_split
I0929 11:22:30.571300  5438 net.cpp:434] conv4_6_1x1_increase_conv4_6_1x1_increase/bn/scale_0_split <- conv4_6_1x1_increase
I0929 11:22:30.571307  5438 net.cpp:408] conv4_6_1x1_increase_conv4_6_1x1_increase/bn/scale_0_split -> conv4_6_1x1_increase_conv4_6_1x1_increase/bn/scale_0_split_0
I0929 11:22:30.571313  5438 net.cpp:408] conv4_6_1x1_increase_conv4_6_1x1_increase/bn/scale_0_split -> conv4_6_1x1_increase_conv4_6_1x1_increase/bn/scale_0_split_1
I0929 11:22:30.571352  5438 net.cpp:150] Setting up conv4_6_1x1_increase_conv4_6_1x1_increase/bn/scale_0_split
I0929 11:22:30.571359  5438 net.cpp:157] Top shape: 1 1024 14 14 (200704)
I0929 11:22:30.571364  5438 net.cpp:157] Top shape: 1 1024 14 14 (200704)
I0929 11:22:30.571367  5438 net.cpp:165] Memory required for data: 259208068
I0929 11:22:30.571370  5438 layer_factory.hpp:77] Creating layer conv4_6_global_pool
I0929 11:22:30.571377  5438 net.cpp:100] Creating Layer conv4_6_global_pool
I0929 11:22:30.571380  5438 net.cpp:434] conv4_6_global_pool <- conv4_6_1x1_increase_conv4_6_1x1_increase/bn/scale_0_split_0
I0929 11:22:30.571385  5438 net.cpp:408] conv4_6_global_pool -> conv4_6_global_pool
I0929 11:22:30.571409  5438 net.cpp:150] Setting up conv4_6_global_pool
I0929 11:22:30.571415  5438 net.cpp:157] Top shape: 1 1024 1 1 (1024)
I0929 11:22:30.571419  5438 net.cpp:165] Memory required for data: 259212164
I0929 11:22:30.571422  5438 layer_factory.hpp:77] Creating layer conv4_6_1x1_down
I0929 11:22:30.571429  5438 net.cpp:100] Creating Layer conv4_6_1x1_down
I0929 11:22:30.571432  5438 net.cpp:434] conv4_6_1x1_down <- conv4_6_global_pool
I0929 11:22:30.571437  5438 net.cpp:408] conv4_6_1x1_down -> conv4_6_1x1_down
I0929 11:22:30.572808  5438 net.cpp:150] Setting up conv4_6_1x1_down
I0929 11:22:30.572823  5438 net.cpp:157] Top shape: 1 64 1 1 (64)
I0929 11:22:30.572829  5438 net.cpp:165] Memory required for data: 259212420
I0929 11:22:30.572836  5438 layer_factory.hpp:77] Creating layer conv4_6_1x1_down/relu
I0929 11:22:30.572844  5438 net.cpp:100] Creating Layer conv4_6_1x1_down/relu
I0929 11:22:30.572847  5438 net.cpp:434] conv4_6_1x1_down/relu <- conv4_6_1x1_down
I0929 11:22:30.572852  5438 net.cpp:395] conv4_6_1x1_down/relu -> conv4_6_1x1_down (in-place)
I0929 11:22:30.573061  5438 net.cpp:150] Setting up conv4_6_1x1_down/relu
I0929 11:22:30.573072  5438 net.cpp:157] Top shape: 1 64 1 1 (64)
I0929 11:22:30.573076  5438 net.cpp:165] Memory required for data: 259212676
I0929 11:22:30.573078  5438 layer_factory.hpp:77] Creating layer conv4_6_1x1_up
I0929 11:22:30.573086  5438 net.cpp:100] Creating Layer conv4_6_1x1_up
I0929 11:22:30.573091  5438 net.cpp:434] conv4_6_1x1_up <- conv4_6_1x1_down
I0929 11:22:30.573097  5438 net.cpp:408] conv4_6_1x1_up -> conv4_6_1x1_up
I0929 11:22:30.574465  5438 net.cpp:150] Setting up conv4_6_1x1_up
I0929 11:22:30.574481  5438 net.cpp:157] Top shape: 1 1024 1 1 (1024)
I0929 11:22:30.574486  5438 net.cpp:165] Memory required for data: 259216772
I0929 11:22:30.574493  5438 layer_factory.hpp:77] Creating layer conv4_6_prob
I0929 11:22:30.574499  5438 net.cpp:100] Creating Layer conv4_6_prob
I0929 11:22:30.574504  5438 net.cpp:434] conv4_6_prob <- conv4_6_1x1_up
I0929 11:22:30.574509  5438 net.cpp:395] conv4_6_prob -> conv4_6_1x1_up (in-place)
I0929 11:22:30.575126  5438 net.cpp:150] Setting up conv4_6_prob
I0929 11:22:30.575140  5438 net.cpp:157] Top shape: 1 1024 1 1 (1024)
I0929 11:22:30.575143  5438 net.cpp:165] Memory required for data: 259220868
I0929 11:22:30.575147  5438 layer_factory.hpp:77] Creating layer conv4_6
I0929 11:22:30.575167  5438 net.cpp:100] Creating Layer conv4_6
I0929 11:22:30.575173  5438 net.cpp:434] conv4_6 <- conv4_6_1x1_up
I0929 11:22:30.575178  5438 net.cpp:434] conv4_6 <- conv4_6_1x1_increase_conv4_6_1x1_increase/bn/scale_0_split_1
I0929 11:22:30.575182  5438 net.cpp:434] conv4_6 <- conv4_5_conv4_5/relu_0_split_1
I0929 11:22:30.575187  5438 net.cpp:408] conv4_6 -> conv4_6
I0929 11:22:30.575253  5438 net.cpp:150] Setting up conv4_6
I0929 11:22:30.575259  5438 net.cpp:157] Top shape: 1 1024 14 14 (200704)
I0929 11:22:30.575263  5438 net.cpp:165] Memory required for data: 260023684
I0929 11:22:30.575266  5438 layer_factory.hpp:77] Creating layer conv4_6/relu
I0929 11:22:30.575271  5438 net.cpp:100] Creating Layer conv4_6/relu
I0929 11:22:30.575275  5438 net.cpp:434] conv4_6/relu <- conv4_6
I0929 11:22:30.575279  5438 net.cpp:395] conv4_6/relu -> conv4_6 (in-place)
I0929 11:22:30.575865  5438 net.cpp:150] Setting up conv4_6/relu
I0929 11:22:30.575878  5438 net.cpp:157] Top shape: 1 1024 14 14 (200704)
I0929 11:22:30.575882  5438 net.cpp:165] Memory required for data: 260826500
I0929 11:22:30.575886  5438 layer_factory.hpp:77] Creating layer conv4_6_conv4_6/relu_0_split
I0929 11:22:30.575892  5438 net.cpp:100] Creating Layer conv4_6_conv4_6/relu_0_split
I0929 11:22:30.575898  5438 net.cpp:434] conv4_6_conv4_6/relu_0_split <- conv4_6
I0929 11:22:30.575903  5438 net.cpp:408] conv4_6_conv4_6/relu_0_split -> conv4_6_conv4_6/relu_0_split_0
I0929 11:22:30.575909  5438 net.cpp:408] conv4_6_conv4_6/relu_0_split -> conv4_6_conv4_6/relu_0_split_1
I0929 11:22:30.575959  5438 net.cpp:150] Setting up conv4_6_conv4_6/relu_0_split
I0929 11:22:30.575966  5438 net.cpp:157] Top shape: 1 1024 14 14 (200704)
I0929 11:22:30.575970  5438 net.cpp:157] Top shape: 1 1024 14 14 (200704)
I0929 11:22:30.575973  5438 net.cpp:165] Memory required for data: 262432132
I0929 11:22:30.575976  5438 layer_factory.hpp:77] Creating layer conv5_1_1x1_reduce
I0929 11:22:30.575984  5438 net.cpp:100] Creating Layer conv5_1_1x1_reduce
I0929 11:22:30.575989  5438 net.cpp:434] conv5_1_1x1_reduce <- conv4_6_conv4_6/relu_0_split_0
I0929 11:22:30.575996  5438 net.cpp:408] conv5_1_1x1_reduce -> conv5_1_1x1_reduce
I0929 11:22:30.578811  5438 net.cpp:150] Setting up conv5_1_1x1_reduce
I0929 11:22:30.578826  5438 net.cpp:157] Top shape: 1 512 7 7 (25088)
I0929 11:22:30.578830  5438 net.cpp:165] Memory required for data: 262532484
I0929 11:22:30.578835  5438 layer_factory.hpp:77] Creating layer conv5_1_1x1_reduce/bn
I0929 11:22:30.578845  5438 net.cpp:100] Creating Layer conv5_1_1x1_reduce/bn
I0929 11:22:30.578850  5438 net.cpp:434] conv5_1_1x1_reduce/bn <- conv5_1_1x1_reduce
I0929 11:22:30.578855  5438 net.cpp:395] conv5_1_1x1_reduce/bn -> conv5_1_1x1_reduce (in-place)
I0929 11:22:30.579089  5438 net.cpp:150] Setting up conv5_1_1x1_reduce/bn
I0929 11:22:30.579098  5438 net.cpp:157] Top shape: 1 512 7 7 (25088)
I0929 11:22:30.579102  5438 net.cpp:165] Memory required for data: 262632836
I0929 11:22:30.579110  5438 layer_factory.hpp:77] Creating layer conv5_1_1x1_reduce/bn/scale
I0929 11:22:30.579116  5438 net.cpp:100] Creating Layer conv5_1_1x1_reduce/bn/scale
I0929 11:22:30.579120  5438 net.cpp:434] conv5_1_1x1_reduce/bn/scale <- conv5_1_1x1_reduce
I0929 11:22:30.579124  5438 net.cpp:395] conv5_1_1x1_reduce/bn/scale -> conv5_1_1x1_reduce (in-place)
I0929 11:22:30.579175  5438 layer_factory.hpp:77] Creating layer conv5_1_1x1_reduce/bn/scale
I0929 11:22:30.579309  5438 net.cpp:150] Setting up conv5_1_1x1_reduce/bn/scale
I0929 11:22:30.579318  5438 net.cpp:157] Top shape: 1 512 7 7 (25088)
I0929 11:22:30.579320  5438 net.cpp:165] Memory required for data: 262733188
I0929 11:22:30.579327  5438 layer_factory.hpp:77] Creating layer conv5_1_1x1_reduce/relu
I0929 11:22:30.579335  5438 net.cpp:100] Creating Layer conv5_1_1x1_reduce/relu
I0929 11:22:30.579339  5438 net.cpp:434] conv5_1_1x1_reduce/relu <- conv5_1_1x1_reduce
I0929 11:22:30.579344  5438 net.cpp:395] conv5_1_1x1_reduce/relu -> conv5_1_1x1_reduce (in-place)
I0929 11:22:30.579567  5438 net.cpp:150] Setting up conv5_1_1x1_reduce/relu
I0929 11:22:30.579578  5438 net.cpp:157] Top shape: 1 512 7 7 (25088)
I0929 11:22:30.579581  5438 net.cpp:165] Memory required for data: 262833540
I0929 11:22:30.579584  5438 layer_factory.hpp:77] Creating layer conv5_1_3x3
I0929 11:22:30.579596  5438 net.cpp:100] Creating Layer conv5_1_3x3
I0929 11:22:30.579599  5438 net.cpp:434] conv5_1_3x3 <- conv5_1_1x1_reduce
I0929 11:22:30.579604  5438 net.cpp:408] conv5_1_3x3 -> conv5_1_3x3
I0929 11:22:30.586634  5438 net.cpp:150] Setting up conv5_1_3x3
I0929 11:22:30.586650  5438 net.cpp:157] Top shape: 1 512 7 7 (25088)
I0929 11:22:30.586654  5438 net.cpp:165] Memory required for data: 262933892
I0929 11:22:30.586660  5438 layer_factory.hpp:77] Creating layer conv5_1_3x3/bn
I0929 11:22:30.586668  5438 net.cpp:100] Creating Layer conv5_1_3x3/bn
I0929 11:22:30.586671  5438 net.cpp:434] conv5_1_3x3/bn <- conv5_1_3x3
I0929 11:22:30.586678  5438 net.cpp:395] conv5_1_3x3/bn -> conv5_1_3x3 (in-place)
I0929 11:22:30.586920  5438 net.cpp:150] Setting up conv5_1_3x3/bn
I0929 11:22:30.586930  5438 net.cpp:157] Top shape: 1 512 7 7 (25088)
I0929 11:22:30.586932  5438 net.cpp:165] Memory required for data: 263034244
I0929 11:22:30.586941  5438 layer_factory.hpp:77] Creating layer conv5_1_3x3/bn/scale
I0929 11:22:30.586946  5438 net.cpp:100] Creating Layer conv5_1_3x3/bn/scale
I0929 11:22:30.586949  5438 net.cpp:434] conv5_1_3x3/bn/scale <- conv5_1_3x3
I0929 11:22:30.586954  5438 net.cpp:395] conv5_1_3x3/bn/scale -> conv5_1_3x3 (in-place)
I0929 11:22:30.587005  5438 layer_factory.hpp:77] Creating layer conv5_1_3x3/bn/scale
I0929 11:22:30.587144  5438 net.cpp:150] Setting up conv5_1_3x3/bn/scale
I0929 11:22:30.587152  5438 net.cpp:157] Top shape: 1 512 7 7 (25088)
I0929 11:22:30.587155  5438 net.cpp:165] Memory required for data: 263134596
I0929 11:22:30.587162  5438 layer_factory.hpp:77] Creating layer conv5_1_3x3/relu
I0929 11:22:30.587167  5438 net.cpp:100] Creating Layer conv5_1_3x3/relu
I0929 11:22:30.587172  5438 net.cpp:434] conv5_1_3x3/relu <- conv5_1_3x3
I0929 11:22:30.587177  5438 net.cpp:395] conv5_1_3x3/relu -> conv5_1_3x3 (in-place)
I0929 11:22:30.587400  5438 net.cpp:150] Setting up conv5_1_3x3/relu
I0929 11:22:30.587410  5438 net.cpp:157] Top shape: 1 512 7 7 (25088)
I0929 11:22:30.587414  5438 net.cpp:165] Memory required for data: 263234948
I0929 11:22:30.587416  5438 layer_factory.hpp:77] Creating layer conv5_1_1x1_increase
I0929 11:22:30.587426  5438 net.cpp:100] Creating Layer conv5_1_1x1_increase
I0929 11:22:30.587430  5438 net.cpp:434] conv5_1_1x1_increase <- conv5_1_3x3
I0929 11:22:30.587435  5438 net.cpp:408] conv5_1_1x1_increase -> conv5_1_1x1_increase
I0929 11:22:30.591274  5438 net.cpp:150] Setting up conv5_1_1x1_increase
I0929 11:22:30.591289  5438 net.cpp:157] Top shape: 1 2048 7 7 (100352)
I0929 11:22:30.591292  5438 net.cpp:165] Memory required for data: 263636356
I0929 11:22:30.591298  5438 layer_factory.hpp:77] Creating layer conv5_1_1x1_increase/bn
I0929 11:22:30.591306  5438 net.cpp:100] Creating Layer conv5_1_1x1_increase/bn
I0929 11:22:30.591311  5438 net.cpp:434] conv5_1_1x1_increase/bn <- conv5_1_1x1_increase
I0929 11:22:30.591316  5438 net.cpp:395] conv5_1_1x1_increase/bn -> conv5_1_1x1_increase (in-place)
I0929 11:22:30.591568  5438 net.cpp:150] Setting up conv5_1_1x1_increase/bn
I0929 11:22:30.591576  5438 net.cpp:157] Top shape: 1 2048 7 7 (100352)
I0929 11:22:30.591580  5438 net.cpp:165] Memory required for data: 264037764
I0929 11:22:30.591589  5438 layer_factory.hpp:77] Creating layer conv5_1_1x1_increase/bn/scale
I0929 11:22:30.591595  5438 net.cpp:100] Creating Layer conv5_1_1x1_increase/bn/scale
I0929 11:22:30.591599  5438 net.cpp:434] conv5_1_1x1_increase/bn/scale <- conv5_1_1x1_increase
I0929 11:22:30.591603  5438 net.cpp:395] conv5_1_1x1_increase/bn/scale -> conv5_1_1x1_increase (in-place)
I0929 11:22:30.591658  5438 layer_factory.hpp:77] Creating layer conv5_1_1x1_increase/bn/scale
I0929 11:22:30.591804  5438 net.cpp:150] Setting up conv5_1_1x1_increase/bn/scale
I0929 11:22:30.591814  5438 net.cpp:157] Top shape: 1 2048 7 7 (100352)
I0929 11:22:30.591830  5438 net.cpp:165] Memory required for data: 264439172
I0929 11:22:30.591836  5438 layer_factory.hpp:77] Creating layer conv5_1_1x1_increase_conv5_1_1x1_increase/bn/scale_0_split
I0929 11:22:30.591845  5438 net.cpp:100] Creating Layer conv5_1_1x1_increase_conv5_1_1x1_increase/bn/scale_0_split
I0929 11:22:30.591850  5438 net.cpp:434] conv5_1_1x1_increase_conv5_1_1x1_increase/bn/scale_0_split <- conv5_1_1x1_increase
I0929 11:22:30.591855  5438 net.cpp:408] conv5_1_1x1_increase_conv5_1_1x1_increase/bn/scale_0_split -> conv5_1_1x1_increase_conv5_1_1x1_increase/bn/scale_0_split_0
I0929 11:22:30.591861  5438 net.cpp:408] conv5_1_1x1_increase_conv5_1_1x1_increase/bn/scale_0_split -> conv5_1_1x1_increase_conv5_1_1x1_increase/bn/scale_0_split_1
I0929 11:22:30.591909  5438 net.cpp:150] Setting up conv5_1_1x1_increase_conv5_1_1x1_increase/bn/scale_0_split
I0929 11:22:30.591917  5438 net.cpp:157] Top shape: 1 2048 7 7 (100352)
I0929 11:22:30.591920  5438 net.cpp:157] Top shape: 1 2048 7 7 (100352)
I0929 11:22:30.591923  5438 net.cpp:165] Memory required for data: 265241988
I0929 11:22:30.591926  5438 layer_factory.hpp:77] Creating layer conv5_1_global_pool
I0929 11:22:30.591933  5438 net.cpp:100] Creating Layer conv5_1_global_pool
I0929 11:22:30.591936  5438 net.cpp:434] conv5_1_global_pool <- conv5_1_1x1_increase_conv5_1_1x1_increase/bn/scale_0_split_0
I0929 11:22:30.591941  5438 net.cpp:408] conv5_1_global_pool -> conv5_1_global_pool
I0929 11:22:30.591967  5438 net.cpp:150] Setting up conv5_1_global_pool
I0929 11:22:30.591974  5438 net.cpp:157] Top shape: 1 2048 1 1 (2048)
I0929 11:22:30.591976  5438 net.cpp:165] Memory required for data: 265250180
I0929 11:22:30.591979  5438 layer_factory.hpp:77] Creating layer conv5_1_1x1_down
I0929 11:22:30.591987  5438 net.cpp:100] Creating Layer conv5_1_1x1_down
I0929 11:22:30.591991  5438 net.cpp:434] conv5_1_1x1_down <- conv5_1_global_pool
I0929 11:22:30.591996  5438 net.cpp:408] conv5_1_1x1_down -> conv5_1_1x1_down
I0929 11:22:30.593566  5438 net.cpp:150] Setting up conv5_1_1x1_down
I0929 11:22:30.593580  5438 net.cpp:157] Top shape: 1 128 1 1 (128)
I0929 11:22:30.593585  5438 net.cpp:165] Memory required for data: 265250692
I0929 11:22:30.593590  5438 layer_factory.hpp:77] Creating layer conv5_1_1x1_down/relu
I0929 11:22:30.593597  5438 net.cpp:100] Creating Layer conv5_1_1x1_down/relu
I0929 11:22:30.593601  5438 net.cpp:434] conv5_1_1x1_down/relu <- conv5_1_1x1_down
I0929 11:22:30.593607  5438 net.cpp:395] conv5_1_1x1_down/relu -> conv5_1_1x1_down (in-place)
I0929 11:22:30.593827  5438 net.cpp:150] Setting up conv5_1_1x1_down/relu
I0929 11:22:30.593837  5438 net.cpp:157] Top shape: 1 128 1 1 (128)
I0929 11:22:30.593842  5438 net.cpp:165] Memory required for data: 265251204
I0929 11:22:30.593844  5438 layer_factory.hpp:77] Creating layer conv5_1_1x1_up
I0929 11:22:30.593853  5438 net.cpp:100] Creating Layer conv5_1_1x1_up
I0929 11:22:30.593858  5438 net.cpp:434] conv5_1_1x1_up <- conv5_1_1x1_down
I0929 11:22:30.593864  5438 net.cpp:408] conv5_1_1x1_up -> conv5_1_1x1_up
I0929 11:22:30.596559  5438 net.cpp:150] Setting up conv5_1_1x1_up
I0929 11:22:30.596575  5438 net.cpp:157] Top shape: 1 2048 1 1 (2048)
I0929 11:22:30.596580  5438 net.cpp:165] Memory required for data: 265259396
I0929 11:22:30.596587  5438 layer_factory.hpp:77] Creating layer conv5_1_prob
I0929 11:22:30.596593  5438 net.cpp:100] Creating Layer conv5_1_prob
I0929 11:22:30.596598  5438 net.cpp:434] conv5_1_prob <- conv5_1_1x1_up
I0929 11:22:30.596603  5438 net.cpp:395] conv5_1_prob -> conv5_1_1x1_up (in-place)
I0929 11:22:30.596822  5438 net.cpp:150] Setting up conv5_1_prob
I0929 11:22:30.596832  5438 net.cpp:157] Top shape: 1 2048 1 1 (2048)
I0929 11:22:30.596835  5438 net.cpp:165] Memory required for data: 265267588
I0929 11:22:30.596839  5438 layer_factory.hpp:77] Creating layer conv5_1_1x1_proj
I0929 11:22:30.596848  5438 net.cpp:100] Creating Layer conv5_1_1x1_proj
I0929 11:22:30.596853  5438 net.cpp:434] conv5_1_1x1_proj <- conv4_6_conv4_6/relu_0_split_1
I0929 11:22:30.596871  5438 net.cpp:408] conv5_1_1x1_proj -> conv5_1_1x1_proj
I0929 11:22:30.602818  5438 net.cpp:150] Setting up conv5_1_1x1_proj
I0929 11:22:30.602834  5438 net.cpp:157] Top shape: 1 2048 7 7 (100352)
I0929 11:22:30.602838  5438 net.cpp:165] Memory required for data: 265668996
I0929 11:22:30.602844  5438 layer_factory.hpp:77] Creating layer conv5_1_1x1_proj/bn
I0929 11:22:30.602852  5438 net.cpp:100] Creating Layer conv5_1_1x1_proj/bn
I0929 11:22:30.602857  5438 net.cpp:434] conv5_1_1x1_proj/bn <- conv5_1_1x1_proj
I0929 11:22:30.602864  5438 net.cpp:395] conv5_1_1x1_proj/bn -> conv5_1_1x1_proj (in-place)
I0929 11:22:30.603101  5438 net.cpp:150] Setting up conv5_1_1x1_proj/bn
I0929 11:22:30.603111  5438 net.cpp:157] Top shape: 1 2048 7 7 (100352)
I0929 11:22:30.603113  5438 net.cpp:165] Memory required for data: 266070404
I0929 11:22:30.603122  5438 layer_factory.hpp:77] Creating layer conv5_1_1x1_proj/bn/scale
I0929 11:22:30.603128  5438 net.cpp:100] Creating Layer conv5_1_1x1_proj/bn/scale
I0929 11:22:30.603132  5438 net.cpp:434] conv5_1_1x1_proj/bn/scale <- conv5_1_1x1_proj
I0929 11:22:30.603137  5438 net.cpp:395] conv5_1_1x1_proj/bn/scale -> conv5_1_1x1_proj (in-place)
I0929 11:22:30.603194  5438 layer_factory.hpp:77] Creating layer conv5_1_1x1_proj/bn/scale
I0929 11:22:30.603335  5438 net.cpp:150] Setting up conv5_1_1x1_proj/bn/scale
I0929 11:22:30.603343  5438 net.cpp:157] Top shape: 1 2048 7 7 (100352)
I0929 11:22:30.603346  5438 net.cpp:165] Memory required for data: 266471812
I0929 11:22:30.603353  5438 layer_factory.hpp:77] Creating layer conv5_1
I0929 11:22:30.603360  5438 net.cpp:100] Creating Layer conv5_1
I0929 11:22:30.603364  5438 net.cpp:434] conv5_1 <- conv5_1_1x1_up
I0929 11:22:30.603369  5438 net.cpp:434] conv5_1 <- conv5_1_1x1_increase_conv5_1_1x1_increase/bn/scale_0_split_1
I0929 11:22:30.603374  5438 net.cpp:434] conv5_1 <- conv5_1_1x1_proj
I0929 11:22:30.603377  5438 net.cpp:408] conv5_1 -> conv5_1
I0929 11:22:30.603435  5438 net.cpp:150] Setting up conv5_1
I0929 11:22:30.603440  5438 net.cpp:157] Top shape: 1 2048 7 7 (100352)
I0929 11:22:30.603443  5438 net.cpp:165] Memory required for data: 266873220
I0929 11:22:30.603447  5438 layer_factory.hpp:77] Creating layer conv5_1/relu
I0929 11:22:30.603452  5438 net.cpp:100] Creating Layer conv5_1/relu
I0929 11:22:30.603456  5438 net.cpp:434] conv5_1/relu <- conv5_1
I0929 11:22:30.603459  5438 net.cpp:395] conv5_1/relu -> conv5_1 (in-place)
I0929 11:22:30.604092  5438 net.cpp:150] Setting up conv5_1/relu
I0929 11:22:30.604106  5438 net.cpp:157] Top shape: 1 2048 7 7 (100352)
I0929 11:22:30.604110  5438 net.cpp:165] Memory required for data: 267274628
I0929 11:22:30.604115  5438 layer_factory.hpp:77] Creating layer conv5_1_conv5_1/relu_0_split
I0929 11:22:30.604120  5438 net.cpp:100] Creating Layer conv5_1_conv5_1/relu_0_split
I0929 11:22:30.604125  5438 net.cpp:434] conv5_1_conv5_1/relu_0_split <- conv5_1
I0929 11:22:30.604131  5438 net.cpp:408] conv5_1_conv5_1/relu_0_split -> conv5_1_conv5_1/relu_0_split_0
I0929 11:22:30.604138  5438 net.cpp:408] conv5_1_conv5_1/relu_0_split -> conv5_1_conv5_1/relu_0_split_1
I0929 11:22:30.604187  5438 net.cpp:150] Setting up conv5_1_conv5_1/relu_0_split
I0929 11:22:30.604195  5438 net.cpp:157] Top shape: 1 2048 7 7 (100352)
I0929 11:22:30.604200  5438 net.cpp:157] Top shape: 1 2048 7 7 (100352)
I0929 11:22:30.604203  5438 net.cpp:165] Memory required for data: 268077444
I0929 11:22:30.604207  5438 layer_factory.hpp:77] Creating layer conv5_2_1x1_reduce
I0929 11:22:30.604213  5438 net.cpp:100] Creating Layer conv5_2_1x1_reduce
I0929 11:22:30.604218  5438 net.cpp:434] conv5_2_1x1_reduce <- conv5_1_conv5_1/relu_0_split_0
I0929 11:22:30.604223  5438 net.cpp:408] conv5_2_1x1_reduce -> conv5_2_1x1_reduce
I0929 11:22:30.607647  5438 net.cpp:150] Setting up conv5_2_1x1_reduce
I0929 11:22:30.607662  5438 net.cpp:157] Top shape: 1 512 7 7 (25088)
I0929 11:22:30.607666  5438 net.cpp:165] Memory required for data: 268177796
I0929 11:22:30.607672  5438 layer_factory.hpp:77] Creating layer conv5_2_1x1_reduce/bn
I0929 11:22:30.607695  5438 net.cpp:100] Creating Layer conv5_2_1x1_reduce/bn
I0929 11:22:30.607702  5438 net.cpp:434] conv5_2_1x1_reduce/bn <- conv5_2_1x1_reduce
I0929 11:22:30.607707  5438 net.cpp:395] conv5_2_1x1_reduce/bn -> conv5_2_1x1_reduce (in-place)
I0929 11:22:30.607950  5438 net.cpp:150] Setting up conv5_2_1x1_reduce/bn
I0929 11:22:30.607959  5438 net.cpp:157] Top shape: 1 512 7 7 (25088)
I0929 11:22:30.607962  5438 net.cpp:165] Memory required for data: 268278148
I0929 11:22:30.607970  5438 layer_factory.hpp:77] Creating layer conv5_2_1x1_reduce/bn/scale
I0929 11:22:30.607977  5438 net.cpp:100] Creating Layer conv5_2_1x1_reduce/bn/scale
I0929 11:22:30.607981  5438 net.cpp:434] conv5_2_1x1_reduce/bn/scale <- conv5_2_1x1_reduce
I0929 11:22:30.607986  5438 net.cpp:395] conv5_2_1x1_reduce/bn/scale -> conv5_2_1x1_reduce (in-place)
I0929 11:22:30.608036  5438 layer_factory.hpp:77] Creating layer conv5_2_1x1_reduce/bn/scale
I0929 11:22:30.608180  5438 net.cpp:150] Setting up conv5_2_1x1_reduce/bn/scale
I0929 11:22:30.608187  5438 net.cpp:157] Top shape: 1 512 7 7 (25088)
I0929 11:22:30.608191  5438 net.cpp:165] Memory required for data: 268378500
I0929 11:22:30.608196  5438 layer_factory.hpp:77] Creating layer conv5_2_1x1_reduce/relu
I0929 11:22:30.608201  5438 net.cpp:100] Creating Layer conv5_2_1x1_reduce/relu
I0929 11:22:30.608206  5438 net.cpp:434] conv5_2_1x1_reduce/relu <- conv5_2_1x1_reduce
I0929 11:22:30.608212  5438 net.cpp:395] conv5_2_1x1_reduce/relu -> conv5_2_1x1_reduce (in-place)
I0929 11:22:30.608844  5438 net.cpp:150] Setting up conv5_2_1x1_reduce/relu
I0929 11:22:30.608858  5438 net.cpp:157] Top shape: 1 512 7 7 (25088)
I0929 11:22:30.608863  5438 net.cpp:165] Memory required for data: 268478852
I0929 11:22:30.608867  5438 layer_factory.hpp:77] Creating layer conv5_2_3x3
I0929 11:22:30.608877  5438 net.cpp:100] Creating Layer conv5_2_3x3
I0929 11:22:30.608882  5438 net.cpp:434] conv5_2_3x3 <- conv5_2_1x1_reduce
I0929 11:22:30.608887  5438 net.cpp:408] conv5_2_3x3 -> conv5_2_3x3
I0929 11:22:30.615803  5438 net.cpp:150] Setting up conv5_2_3x3
I0929 11:22:30.615819  5438 net.cpp:157] Top shape: 1 512 7 7 (25088)
I0929 11:22:30.615823  5438 net.cpp:165] Memory required for data: 268579204
I0929 11:22:30.615829  5438 layer_factory.hpp:77] Creating layer conv5_2_3x3/bn
I0929 11:22:30.615838  5438 net.cpp:100] Creating Layer conv5_2_3x3/bn
I0929 11:22:30.615841  5438 net.cpp:434] conv5_2_3x3/bn <- conv5_2_3x3
I0929 11:22:30.615847  5438 net.cpp:395] conv5_2_3x3/bn -> conv5_2_3x3 (in-place)
I0929 11:22:30.616094  5438 net.cpp:150] Setting up conv5_2_3x3/bn
I0929 11:22:30.616102  5438 net.cpp:157] Top shape: 1 512 7 7 (25088)
I0929 11:22:30.616106  5438 net.cpp:165] Memory required for data: 268679556
I0929 11:22:30.616112  5438 layer_factory.hpp:77] Creating layer conv5_2_3x3/bn/scale
I0929 11:22:30.616119  5438 net.cpp:100] Creating Layer conv5_2_3x3/bn/scale
I0929 11:22:30.616123  5438 net.cpp:434] conv5_2_3x3/bn/scale <- conv5_2_3x3
I0929 11:22:30.616127  5438 net.cpp:395] conv5_2_3x3/bn/scale -> conv5_2_3x3 (in-place)
I0929 11:22:30.616183  5438 layer_factory.hpp:77] Creating layer conv5_2_3x3/bn/scale
I0929 11:22:30.616322  5438 net.cpp:150] Setting up conv5_2_3x3/bn/scale
I0929 11:22:30.616330  5438 net.cpp:157] Top shape: 1 512 7 7 (25088)
I0929 11:22:30.616333  5438 net.cpp:165] Memory required for data: 268779908
I0929 11:22:30.616339  5438 layer_factory.hpp:77] Creating layer conv5_2_3x3/relu
I0929 11:22:30.616345  5438 net.cpp:100] Creating Layer conv5_2_3x3/relu
I0929 11:22:30.616350  5438 net.cpp:434] conv5_2_3x3/relu <- conv5_2_3x3
I0929 11:22:30.616354  5438 net.cpp:395] conv5_2_3x3/relu -> conv5_2_3x3 (in-place)
I0929 11:22:30.616577  5438 net.cpp:150] Setting up conv5_2_3x3/relu
I0929 11:22:30.616587  5438 net.cpp:157] Top shape: 1 512 7 7 (25088)
I0929 11:22:30.616590  5438 net.cpp:165] Memory required for data: 268880260
I0929 11:22:30.616595  5438 layer_factory.hpp:77] Creating layer conv5_2_1x1_increase
I0929 11:22:30.616602  5438 net.cpp:100] Creating Layer conv5_2_1x1_increase
I0929 11:22:30.616619  5438 net.cpp:434] conv5_2_1x1_increase <- conv5_2_3x3
I0929 11:22:30.616627  5438 net.cpp:408] conv5_2_1x1_increase -> conv5_2_1x1_increase
I0929 11:22:30.620653  5438 net.cpp:150] Setting up conv5_2_1x1_increase
I0929 11:22:30.620668  5438 net.cpp:157] Top shape: 1 2048 7 7 (100352)
I0929 11:22:30.620672  5438 net.cpp:165] Memory required for data: 269281668
I0929 11:22:30.620678  5438 layer_factory.hpp:77] Creating layer conv5_2_1x1_increase/bn
I0929 11:22:30.620687  5438 net.cpp:100] Creating Layer conv5_2_1x1_increase/bn
I0929 11:22:30.620693  5438 net.cpp:434] conv5_2_1x1_increase/bn <- conv5_2_1x1_increase
I0929 11:22:30.620699  5438 net.cpp:395] conv5_2_1x1_increase/bn -> conv5_2_1x1_increase (in-place)
I0929 11:22:30.620952  5438 net.cpp:150] Setting up conv5_2_1x1_increase/bn
I0929 11:22:30.620961  5438 net.cpp:157] Top shape: 1 2048 7 7 (100352)
I0929 11:22:30.620965  5438 net.cpp:165] Memory required for data: 269683076
I0929 11:22:30.620972  5438 layer_factory.hpp:77] Creating layer conv5_2_1x1_increase/bn/scale
I0929 11:22:30.620980  5438 net.cpp:100] Creating Layer conv5_2_1x1_increase/bn/scale
I0929 11:22:30.620983  5438 net.cpp:434] conv5_2_1x1_increase/bn/scale <- conv5_2_1x1_increase
I0929 11:22:30.620988  5438 net.cpp:395] conv5_2_1x1_increase/bn/scale -> conv5_2_1x1_increase (in-place)
I0929 11:22:30.621043  5438 layer_factory.hpp:77] Creating layer conv5_2_1x1_increase/bn/scale
I0929 11:22:30.621186  5438 net.cpp:150] Setting up conv5_2_1x1_increase/bn/scale
I0929 11:22:30.621194  5438 net.cpp:157] Top shape: 1 2048 7 7 (100352)
I0929 11:22:30.621197  5438 net.cpp:165] Memory required for data: 270084484
I0929 11:22:30.621203  5438 layer_factory.hpp:77] Creating layer conv5_2_1x1_increase_conv5_2_1x1_increase/bn/scale_0_split
I0929 11:22:30.621209  5438 net.cpp:100] Creating Layer conv5_2_1x1_increase_conv5_2_1x1_increase/bn/scale_0_split
I0929 11:22:30.621212  5438 net.cpp:434] conv5_2_1x1_increase_conv5_2_1x1_increase/bn/scale_0_split <- conv5_2_1x1_increase
I0929 11:22:30.621218  5438 net.cpp:408] conv5_2_1x1_increase_conv5_2_1x1_increase/bn/scale_0_split -> conv5_2_1x1_increase_conv5_2_1x1_increase/bn/scale_0_split_0
I0929 11:22:30.621225  5438 net.cpp:408] conv5_2_1x1_increase_conv5_2_1x1_increase/bn/scale_0_split -> conv5_2_1x1_increase_conv5_2_1x1_increase/bn/scale_0_split_1
I0929 11:22:30.621265  5438 net.cpp:150] Setting up conv5_2_1x1_increase_conv5_2_1x1_increase/bn/scale_0_split
I0929 11:22:30.621273  5438 net.cpp:157] Top shape: 1 2048 7 7 (100352)
I0929 11:22:30.621276  5438 net.cpp:157] Top shape: 1 2048 7 7 (100352)
I0929 11:22:30.621279  5438 net.cpp:165] Memory required for data: 270887300
I0929 11:22:30.621282  5438 layer_factory.hpp:77] Creating layer conv5_2_global_pool
I0929 11:22:30.621290  5438 net.cpp:100] Creating Layer conv5_2_global_pool
I0929 11:22:30.621295  5438 net.cpp:434] conv5_2_global_pool <- conv5_2_1x1_increase_conv5_2_1x1_increase/bn/scale_0_split_0
I0929 11:22:30.621299  5438 net.cpp:408] conv5_2_global_pool -> conv5_2_global_pool
I0929 11:22:30.621325  5438 net.cpp:150] Setting up conv5_2_global_pool
I0929 11:22:30.621331  5438 net.cpp:157] Top shape: 1 2048 1 1 (2048)
I0929 11:22:30.621335  5438 net.cpp:165] Memory required for data: 270895492
I0929 11:22:30.621337  5438 layer_factory.hpp:77] Creating layer conv5_2_1x1_down
I0929 11:22:30.621345  5438 net.cpp:100] Creating Layer conv5_2_1x1_down
I0929 11:22:30.621351  5438 net.cpp:434] conv5_2_1x1_down <- conv5_2_global_pool
I0929 11:22:30.621356  5438 net.cpp:408] conv5_2_1x1_down -> conv5_2_1x1_down
I0929 11:22:30.622977  5438 net.cpp:150] Setting up conv5_2_1x1_down
I0929 11:22:30.622990  5438 net.cpp:157] Top shape: 1 128 1 1 (128)
I0929 11:22:30.622994  5438 net.cpp:165] Memory required for data: 270896004
I0929 11:22:30.623001  5438 layer_factory.hpp:77] Creating layer conv5_2_1x1_down/relu
I0929 11:22:30.623008  5438 net.cpp:100] Creating Layer conv5_2_1x1_down/relu
I0929 11:22:30.623013  5438 net.cpp:434] conv5_2_1x1_down/relu <- conv5_2_1x1_down
I0929 11:22:30.623018  5438 net.cpp:395] conv5_2_1x1_down/relu -> conv5_2_1x1_down (in-place)
I0929 11:22:30.623251  5438 net.cpp:150] Setting up conv5_2_1x1_down/relu
I0929 11:22:30.623262  5438 net.cpp:157] Top shape: 1 128 1 1 (128)
I0929 11:22:30.623265  5438 net.cpp:165] Memory required for data: 270896516
I0929 11:22:30.623268  5438 layer_factory.hpp:77] Creating layer conv5_2_1x1_up
I0929 11:22:30.623277  5438 net.cpp:100] Creating Layer conv5_2_1x1_up
I0929 11:22:30.623281  5438 net.cpp:434] conv5_2_1x1_up <- conv5_2_1x1_down
I0929 11:22:30.623288  5438 net.cpp:408] conv5_2_1x1_up -> conv5_2_1x1_up
I0929 11:22:30.626070  5438 net.cpp:150] Setting up conv5_2_1x1_up
I0929 11:22:30.626086  5438 net.cpp:157] Top shape: 1 2048 1 1 (2048)
I0929 11:22:30.626091  5438 net.cpp:165] Memory required for data: 270904708
I0929 11:22:30.626098  5438 layer_factory.hpp:77] Creating layer conv5_2_prob
I0929 11:22:30.626106  5438 net.cpp:100] Creating Layer conv5_2_prob
I0929 11:22:30.626111  5438 net.cpp:434] conv5_2_prob <- conv5_2_1x1_up
I0929 11:22:30.626116  5438 net.cpp:395] conv5_2_prob -> conv5_2_1x1_up (in-place)
I0929 11:22:30.626329  5438 net.cpp:150] Setting up conv5_2_prob
I0929 11:22:30.626341  5438 net.cpp:157] Top shape: 1 2048 1 1 (2048)
I0929 11:22:30.626344  5438 net.cpp:165] Memory required for data: 270912900
I0929 11:22:30.626348  5438 layer_factory.hpp:77] Creating layer conv5_2
I0929 11:22:30.626354  5438 net.cpp:100] Creating Layer conv5_2
I0929 11:22:30.626358  5438 net.cpp:434] conv5_2 <- conv5_2_1x1_up
I0929 11:22:30.626363  5438 net.cpp:434] conv5_2 <- conv5_2_1x1_increase_conv5_2_1x1_increase/bn/scale_0_split_1
I0929 11:22:30.626366  5438 net.cpp:434] conv5_2 <- conv5_1_conv5_1/relu_0_split_1
I0929 11:22:30.626370  5438 net.cpp:408] conv5_2 -> conv5_2
I0929 11:22:30.626437  5438 net.cpp:150] Setting up conv5_2
I0929 11:22:30.626444  5438 net.cpp:157] Top shape: 1 2048 7 7 (100352)
I0929 11:22:30.626447  5438 net.cpp:165] Memory required for data: 271314308
I0929 11:22:30.626451  5438 layer_factory.hpp:77] Creating layer conv5_2/relu
I0929 11:22:30.626456  5438 net.cpp:100] Creating Layer conv5_2/relu
I0929 11:22:30.626459  5438 net.cpp:434] conv5_2/relu <- conv5_2
I0929 11:22:30.626466  5438 net.cpp:395] conv5_2/relu -> conv5_2 (in-place)
I0929 11:22:30.626677  5438 net.cpp:150] Setting up conv5_2/relu
I0929 11:22:30.626688  5438 net.cpp:157] Top shape: 1 2048 7 7 (100352)
I0929 11:22:30.626690  5438 net.cpp:165] Memory required for data: 271715716
I0929 11:22:30.626693  5438 layer_factory.hpp:77] Creating layer conv5_2_conv5_2/relu_0_split
I0929 11:22:30.626699  5438 net.cpp:100] Creating Layer conv5_2_conv5_2/relu_0_split
I0929 11:22:30.626704  5438 net.cpp:434] conv5_2_conv5_2/relu_0_split <- conv5_2
I0929 11:22:30.626709  5438 net.cpp:408] conv5_2_conv5_2/relu_0_split -> conv5_2_conv5_2/relu_0_split_0
I0929 11:22:30.626715  5438 net.cpp:408] conv5_2_conv5_2/relu_0_split -> conv5_2_conv5_2/relu_0_split_1
I0929 11:22:30.626765  5438 net.cpp:150] Setting up conv5_2_conv5_2/relu_0_split
I0929 11:22:30.626771  5438 net.cpp:157] Top shape: 1 2048 7 7 (100352)
I0929 11:22:30.626775  5438 net.cpp:157] Top shape: 1 2048 7 7 (100352)
I0929 11:22:30.626778  5438 net.cpp:165] Memory required for data: 272518532
I0929 11:22:30.626781  5438 layer_factory.hpp:77] Creating layer conv5_3_1x1_reduce
I0929 11:22:30.626796  5438 net.cpp:100] Creating Layer conv5_3_1x1_reduce
I0929 11:22:30.626798  5438 net.cpp:434] conv5_3_1x1_reduce <- conv5_2_conv5_2/relu_0_split_0
I0929 11:22:30.626806  5438 net.cpp:408] conv5_3_1x1_reduce -> conv5_3_1x1_reduce
I0929 11:22:30.630780  5438 net.cpp:150] Setting up conv5_3_1x1_reduce
I0929 11:22:30.630800  5438 net.cpp:157] Top shape: 1 512 7 7 (25088)
I0929 11:22:30.630805  5438 net.cpp:165] Memory required for data: 272618884
I0929 11:22:30.630810  5438 layer_factory.hpp:77] Creating layer conv5_3_1x1_reduce/bn
I0929 11:22:30.630820  5438 net.cpp:100] Creating Layer conv5_3_1x1_reduce/bn
I0929 11:22:30.630825  5438 net.cpp:434] conv5_3_1x1_reduce/bn <- conv5_3_1x1_reduce
I0929 11:22:30.630831  5438 net.cpp:395] conv5_3_1x1_reduce/bn -> conv5_3_1x1_reduce (in-place)
I0929 11:22:30.631083  5438 net.cpp:150] Setting up conv5_3_1x1_reduce/bn
I0929 11:22:30.631093  5438 net.cpp:157] Top shape: 1 512 7 7 (25088)
I0929 11:22:30.631095  5438 net.cpp:165] Memory required for data: 272719236
I0929 11:22:30.631104  5438 layer_factory.hpp:77] Creating layer conv5_3_1x1_reduce/bn/scale
I0929 11:22:30.631111  5438 net.cpp:100] Creating Layer conv5_3_1x1_reduce/bn/scale
I0929 11:22:30.631114  5438 net.cpp:434] conv5_3_1x1_reduce/bn/scale <- conv5_3_1x1_reduce
I0929 11:22:30.631119  5438 net.cpp:395] conv5_3_1x1_reduce/bn/scale -> conv5_3_1x1_reduce (in-place)
I0929 11:22:30.631172  5438 layer_factory.hpp:77] Creating layer conv5_3_1x1_reduce/bn/scale
I0929 11:22:30.631314  5438 net.cpp:150] Setting up conv5_3_1x1_reduce/bn/scale
I0929 11:22:30.631321  5438 net.cpp:157] Top shape: 1 512 7 7 (25088)
I0929 11:22:30.631325  5438 net.cpp:165] Memory required for data: 272819588
I0929 11:22:30.631330  5438 layer_factory.hpp:77] Creating layer conv5_3_1x1_reduce/relu
I0929 11:22:30.631337  5438 net.cpp:100] Creating Layer conv5_3_1x1_reduce/relu
I0929 11:22:30.631341  5438 net.cpp:434] conv5_3_1x1_reduce/relu <- conv5_3_1x1_reduce
I0929 11:22:30.631346  5438 net.cpp:395] conv5_3_1x1_reduce/relu -> conv5_3_1x1_reduce (in-place)
I0929 11:22:30.631988  5438 net.cpp:150] Setting up conv5_3_1x1_reduce/relu
I0929 11:22:30.632002  5438 net.cpp:157] Top shape: 1 512 7 7 (25088)
I0929 11:22:30.632006  5438 net.cpp:165] Memory required for data: 272919940
I0929 11:22:30.632010  5438 layer_factory.hpp:77] Creating layer conv5_3_3x3
I0929 11:22:30.632019  5438 net.cpp:100] Creating Layer conv5_3_3x3
I0929 11:22:30.632024  5438 net.cpp:434] conv5_3_3x3 <- conv5_3_1x1_reduce
I0929 11:22:30.632030  5438 net.cpp:408] conv5_3_3x3 -> conv5_3_3x3
I0929 11:22:30.638690  5438 net.cpp:150] Setting up conv5_3_3x3
I0929 11:22:30.638708  5438 net.cpp:157] Top shape: 1 512 7 7 (25088)
I0929 11:22:30.638712  5438 net.cpp:165] Memory required for data: 273020292
I0929 11:22:30.638718  5438 layer_factory.hpp:77] Creating layer conv5_3_3x3/bn
I0929 11:22:30.638725  5438 net.cpp:100] Creating Layer conv5_3_3x3/bn
I0929 11:22:30.638730  5438 net.cpp:434] conv5_3_3x3/bn <- conv5_3_3x3
I0929 11:22:30.638736  5438 net.cpp:395] conv5_3_3x3/bn -> conv5_3_3x3 (in-place)
I0929 11:22:30.638991  5438 net.cpp:150] Setting up conv5_3_3x3/bn
I0929 11:22:30.639001  5438 net.cpp:157] Top shape: 1 512 7 7 (25088)
I0929 11:22:30.639004  5438 net.cpp:165] Memory required for data: 273120644
I0929 11:22:30.639011  5438 layer_factory.hpp:77] Creating layer conv5_3_3x3/bn/scale
I0929 11:22:30.639017  5438 net.cpp:100] Creating Layer conv5_3_3x3/bn/scale
I0929 11:22:30.639021  5438 net.cpp:434] conv5_3_3x3/bn/scale <- conv5_3_3x3
I0929 11:22:30.639025  5438 net.cpp:395] conv5_3_3x3/bn/scale -> conv5_3_3x3 (in-place)
I0929 11:22:30.639078  5438 layer_factory.hpp:77] Creating layer conv5_3_3x3/bn/scale
I0929 11:22:30.639227  5438 net.cpp:150] Setting up conv5_3_3x3/bn/scale
I0929 11:22:30.639235  5438 net.cpp:157] Top shape: 1 512 7 7 (25088)
I0929 11:22:30.639238  5438 net.cpp:165] Memory required for data: 273220996
I0929 11:22:30.639245  5438 layer_factory.hpp:77] Creating layer conv5_3_3x3/relu
I0929 11:22:30.639250  5438 net.cpp:100] Creating Layer conv5_3_3x3/relu
I0929 11:22:30.639253  5438 net.cpp:434] conv5_3_3x3/relu <- conv5_3_3x3
I0929 11:22:30.639259  5438 net.cpp:395] conv5_3_3x3/relu -> conv5_3_3x3 (in-place)
I0929 11:22:30.639894  5438 net.cpp:150] Setting up conv5_3_3x3/relu
I0929 11:22:30.639909  5438 net.cpp:157] Top shape: 1 512 7 7 (25088)
I0929 11:22:30.639912  5438 net.cpp:165] Memory required for data: 273321348
I0929 11:22:30.639916  5438 layer_factory.hpp:77] Creating layer conv5_3_1x1_increase
I0929 11:22:30.639926  5438 net.cpp:100] Creating Layer conv5_3_1x1_increase
I0929 11:22:30.639931  5438 net.cpp:434] conv5_3_1x1_increase <- conv5_3_3x3
I0929 11:22:30.639938  5438 net.cpp:408] conv5_3_1x1_increase -> conv5_3_1x1_increase
I0929 11:22:30.643829  5438 net.cpp:150] Setting up conv5_3_1x1_increase
I0929 11:22:30.643859  5438 net.cpp:157] Top shape: 1 2048 7 7 (100352)
I0929 11:22:30.643864  5438 net.cpp:165] Memory required for data: 273722756
I0929 11:22:30.643870  5438 layer_factory.hpp:77] Creating layer conv5_3_1x1_increase/bn
I0929 11:22:30.643877  5438 net.cpp:100] Creating Layer conv5_3_1x1_increase/bn
I0929 11:22:30.643882  5438 net.cpp:434] conv5_3_1x1_increase/bn <- conv5_3_1x1_increase
I0929 11:22:30.643887  5438 net.cpp:395] conv5_3_1x1_increase/bn -> conv5_3_1x1_increase (in-place)
I0929 11:22:30.644140  5438 net.cpp:150] Setting up conv5_3_1x1_increase/bn
I0929 11:22:30.644150  5438 net.cpp:157] Top shape: 1 2048 7 7 (100352)
I0929 11:22:30.644152  5438 net.cpp:165] Memory required for data: 274124164
I0929 11:22:30.644160  5438 layer_factory.hpp:77] Creating layer conv5_3_1x1_increase/bn/scale
I0929 11:22:30.644165  5438 net.cpp:100] Creating Layer conv5_3_1x1_increase/bn/scale
I0929 11:22:30.644170  5438 net.cpp:434] conv5_3_1x1_increase/bn/scale <- conv5_3_1x1_increase
I0929 11:22:30.644174  5438 net.cpp:395] conv5_3_1x1_increase/bn/scale -> conv5_3_1x1_increase (in-place)
I0929 11:22:30.644232  5438 layer_factory.hpp:77] Creating layer conv5_3_1x1_increase/bn/scale
I0929 11:22:30.644379  5438 net.cpp:150] Setting up conv5_3_1x1_increase/bn/scale
I0929 11:22:30.644387  5438 net.cpp:157] Top shape: 1 2048 7 7 (100352)
I0929 11:22:30.644390  5438 net.cpp:165] Memory required for data: 274525572
I0929 11:22:30.644397  5438 layer_factory.hpp:77] Creating layer conv5_3_1x1_increase_conv5_3_1x1_increase/bn/scale_0_split
I0929 11:22:30.644402  5438 net.cpp:100] Creating Layer conv5_3_1x1_increase_conv5_3_1x1_increase/bn/scale_0_split
I0929 11:22:30.644405  5438 net.cpp:434] conv5_3_1x1_increase_conv5_3_1x1_increase/bn/scale_0_split <- conv5_3_1x1_increase
I0929 11:22:30.644417  5438 net.cpp:408] conv5_3_1x1_increase_conv5_3_1x1_increase/bn/scale_0_split -> conv5_3_1x1_increase_conv5_3_1x1_increase/bn/scale_0_split_0
I0929 11:22:30.644423  5438 net.cpp:408] conv5_3_1x1_increase_conv5_3_1x1_increase/bn/scale_0_split -> conv5_3_1x1_increase_conv5_3_1x1_increase/bn/scale_0_split_1
I0929 11:22:30.644465  5438 net.cpp:150] Setting up conv5_3_1x1_increase_conv5_3_1x1_increase/bn/scale_0_split
I0929 11:22:30.644474  5438 net.cpp:157] Top shape: 1 2048 7 7 (100352)
I0929 11:22:30.644479  5438 net.cpp:157] Top shape: 1 2048 7 7 (100352)
I0929 11:22:30.644481  5438 net.cpp:165] Memory required for data: 275328388
I0929 11:22:30.644484  5438 layer_factory.hpp:77] Creating layer conv5_3_global_pool
I0929 11:22:30.644490  5438 net.cpp:100] Creating Layer conv5_3_global_pool
I0929 11:22:30.644495  5438 net.cpp:434] conv5_3_global_pool <- conv5_3_1x1_increase_conv5_3_1x1_increase/bn/scale_0_split_0
I0929 11:22:30.644500  5438 net.cpp:408] conv5_3_global_pool -> conv5_3_global_pool
I0929 11:22:30.644526  5438 net.cpp:150] Setting up conv5_3_global_pool
I0929 11:22:30.644532  5438 net.cpp:157] Top shape: 1 2048 1 1 (2048)
I0929 11:22:30.644536  5438 net.cpp:165] Memory required for data: 275336580
I0929 11:22:30.644538  5438 layer_factory.hpp:77] Creating layer conv5_3_1x1_down
I0929 11:22:30.644546  5438 net.cpp:100] Creating Layer conv5_3_1x1_down
I0929 11:22:30.644549  5438 net.cpp:434] conv5_3_1x1_down <- conv5_3_global_pool
I0929 11:22:30.644553  5438 net.cpp:408] conv5_3_1x1_down -> conv5_3_1x1_down
I0929 11:22:30.646178  5438 net.cpp:150] Setting up conv5_3_1x1_down
I0929 11:22:30.646191  5438 net.cpp:157] Top shape: 1 128 1 1 (128)
I0929 11:22:30.646195  5438 net.cpp:165] Memory required for data: 275337092
I0929 11:22:30.646203  5438 layer_factory.hpp:77] Creating layer conv5_3_1x1_down/relu
I0929 11:22:30.646209  5438 net.cpp:100] Creating Layer conv5_3_1x1_down/relu
I0929 11:22:30.646214  5438 net.cpp:434] conv5_3_1x1_down/relu <- conv5_3_1x1_down
I0929 11:22:30.646219  5438 net.cpp:395] conv5_3_1x1_down/relu -> conv5_3_1x1_down (in-place)
I0929 11:22:30.646438  5438 net.cpp:150] Setting up conv5_3_1x1_down/relu
I0929 11:22:30.646448  5438 net.cpp:157] Top shape: 1 128 1 1 (128)
I0929 11:22:30.646463  5438 net.cpp:165] Memory required for data: 275337604
I0929 11:22:30.646467  5438 layer_factory.hpp:77] Creating layer conv5_3_1x1_up
I0929 11:22:30.646476  5438 net.cpp:100] Creating Layer conv5_3_1x1_up
I0929 11:22:30.646481  5438 net.cpp:434] conv5_3_1x1_up <- conv5_3_1x1_down
I0929 11:22:30.646486  5438 net.cpp:408] conv5_3_1x1_up -> conv5_3_1x1_up
I0929 11:22:30.649261  5438 net.cpp:150] Setting up conv5_3_1x1_up
I0929 11:22:30.649276  5438 net.cpp:157] Top shape: 1 2048 1 1 (2048)
I0929 11:22:30.649281  5438 net.cpp:165] Memory required for data: 275345796
I0929 11:22:30.649287  5438 layer_factory.hpp:77] Creating layer conv5_3_prob
I0929 11:22:30.649296  5438 net.cpp:100] Creating Layer conv5_3_prob
I0929 11:22:30.649299  5438 net.cpp:434] conv5_3_prob <- conv5_3_1x1_up
I0929 11:22:30.649304  5438 net.cpp:395] conv5_3_prob -> conv5_3_1x1_up (in-place)
I0929 11:22:30.649528  5438 net.cpp:150] Setting up conv5_3_prob
I0929 11:22:30.649538  5438 net.cpp:157] Top shape: 1 2048 1 1 (2048)
I0929 11:22:30.649541  5438 net.cpp:165] Memory required for data: 275353988
I0929 11:22:30.649545  5438 layer_factory.hpp:77] Creating layer conv5_3
I0929 11:22:30.649552  5438 net.cpp:100] Creating Layer conv5_3
I0929 11:22:30.649556  5438 net.cpp:434] conv5_3 <- conv5_3_1x1_up
I0929 11:22:30.649561  5438 net.cpp:434] conv5_3 <- conv5_3_1x1_increase_conv5_3_1x1_increase/bn/scale_0_split_1
I0929 11:22:30.649565  5438 net.cpp:434] conv5_3 <- conv5_2_conv5_2/relu_0_split_1
I0929 11:22:30.649570  5438 net.cpp:408] conv5_3 -> conv5_3
I0929 11:22:30.649637  5438 net.cpp:150] Setting up conv5_3
I0929 11:22:30.649644  5438 net.cpp:157] Top shape: 1 2048 7 7 (100352)
I0929 11:22:30.649647  5438 net.cpp:165] Memory required for data: 275755396
I0929 11:22:30.649652  5438 layer_factory.hpp:77] Creating layer conv5_3/relu
I0929 11:22:30.649657  5438 net.cpp:100] Creating Layer conv5_3/relu
I0929 11:22:30.649659  5438 net.cpp:434] conv5_3/relu <- conv5_3
I0929 11:22:30.649663  5438 net.cpp:395] conv5_3/relu -> conv5_3 (in-place)
I0929 11:22:30.649878  5438 net.cpp:150] Setting up conv5_3/relu
I0929 11:22:30.649889  5438 net.cpp:157] Top shape: 1 2048 7 7 (100352)
I0929 11:22:30.649893  5438 net.cpp:165] Memory required for data: 276156804
I0929 11:22:30.649895  5438 layer_factory.hpp:77] Creating layer pool5/7x7_s1
I0929 11:22:30.649902  5438 net.cpp:100] Creating Layer pool5/7x7_s1
I0929 11:22:30.649905  5438 net.cpp:434] pool5/7x7_s1 <- conv5_3
I0929 11:22:30.649910  5438 net.cpp:408] pool5/7x7_s1 -> pool5/7x7_s1
I0929 11:22:30.650981  5438 net.cpp:150] Setting up pool5/7x7_s1
I0929 11:22:30.650995  5438 net.cpp:157] Top shape: 1 2048 1 1 (2048)
I0929 11:22:30.651000  5438 net.cpp:165] Memory required for data: 276164996
I0929 11:22:30.651003  5438 layer_factory.hpp:77] Creating layer bottleneck
I0929 11:22:30.651015  5438 net.cpp:100] Creating Layer bottleneck
I0929 11:22:30.651020  5438 net.cpp:434] bottleneck <- pool5/7x7_s1
I0929 11:22:30.651026  5438 net.cpp:408] bottleneck -> bottleneck
I0929 11:22:30.659852  5438 net.cpp:150] Setting up bottleneck
I0929 11:22:30.659865  5438 net.cpp:157] Top shape: 1 256 (256)
I0929 11:22:30.659869  5438 net.cpp:165] Memory required for data: 276166020
I0929 11:22:30.659876  5438 layer_factory.hpp:77] Creating layer fc8_1
I0929 11:22:30.659885  5438 net.cpp:100] Creating Layer fc8_1
I0929 11:22:30.659890  5438 net.cpp:434] fc8_1 <- bottleneck
I0929 11:22:30.659895  5438 net.cpp:408] fc8_1 -> fc8
I0929 11:22:30.660087  5438 net.cpp:150] Setting up fc8_1
I0929 11:22:30.660095  5438 net.cpp:157] Top shape: 1 12 (12)
I0929 11:22:30.660099  5438 net.cpp:165] Memory required for data: 276166068
I0929 11:22:30.660104  5438 layer_factory.hpp:77] Creating layer accuracy
I0929 11:22:30.660115  5438 net.cpp:100] Creating Layer accuracy
I0929 11:22:30.660120  5438 net.cpp:434] accuracy <- fc8
I0929 11:22:30.660123  5438 net.cpp:434] accuracy <- label
I0929 11:22:30.660135  5438 net.cpp:408] accuracy -> accuracy
…
