…
    mean_value: 123
  }
  image_data_param {
    source: "./data/VisDA2017/train.txt"
    batch_size: 8
    shuffle: true
    new_height: 224
    new_width: 224
  }
}
layer {
  name: "target_data"
  type: "ImageData"
  top: "target_data"
  top: "target_label"
  include {
    phase: TRAIN
  }
  transform_param {
    mirror: true
    crop_size: 224
    mean_value: 104
    mean_value: 117
    mean_value: 123
  }
  image_data_param {
    source: "./data/VisDA2017/test.txt"
    batch_size: 8
    shuffle: true
    new_height: 224
    new_width: 224
  }
}
layer {
  name: "target_label_silence"
  type: "Silence"
  bottom: "target_label"
  include {
    phase: TRAIN
  }
}
layer {
  name: "data"
  type: "Concat"
  bottom: "source_data"
  bottom: "target_data"
  top: "data"
  include {
    phase: TRAIN
  }
  concat_param {
    axis: 0
  }
}
layer {
  name: "conv1/7x7_s2"
  type: "Convolution"
  bottom: "data"
  top: "conv1/7x7_s2"
  convolution_param {
    num_output: 64
    bias_term: false
    pad: 3
    kernel_size: 7
    stride: 2
  }
}
layer {
  name: "conv1/7x7_s2/bn"
  type: "BatchNorm"
  bottom: "conv1/7x7_s2"
  top: "conv1/7x7_s2"
  batch_norm_param {
    use_global_stats: true
  }
}
layer {
  name: "conv1/7x7_s2/bn/scale"
  type: "Scale"
  bottom: "conv1/7x7_s2"
  top: "conv1/7x7_s2"
  scale_param {
    bias_term: true
  }
}
layer {
  name: "conv1/relu_7x7_s2"
  type: "ReLU"
  bottom: "conv1/7x7_s2"
  top: "conv1/7x7_s2"
}
layer {
  name: "pool1/3x3_s2"
  type: "Pooling"
  bottom: "conv1/7x7_s2"
  top: "pool1/3x3_s2"
  pooling_param {
    pool: MAX
    kernel_size: 3
    stride: 2
  }
}
layer {
  name: "conv2_1_1x1_reduce"
  type: "Convolution"
  bottom: "pool1/3x3_s2"
  top: "conv2_1_1x1_reduce"
  convolution_param {
    num_output: 64
    bias_term: false
    kernel_size: 1
    stride: 1
  }
}
layer {
  name: "conv2_1_1x1_reduce/bn"
  type: "BatchNorm"
  bottom: "conv2_1_1x1_reduce"
  top: "conv2_1_1x1_reduce"
  batch_norm_param {
    use_global_stats: true
  }
}
layer {
  name: "conv2_1_1x1_reduce/bn/scale"
  type: "Scale"
  bottom: "conv2_1_1x1_reduce"
  top: "conv2_1_1x1_reduce"
  scale_param {
    bias_term: true
  }
}
layer {
  name: "conv2_1_1x1_reduce/relu"
  type: "ReLU"
  bottom: "conv2_1_1x1_reduce"
  top: "conv2_1_1x1_reduce"
}
layer {
  name: "conv2_1_3x3"
  type: "Convolution"
  bottom: "conv2_1_1x1_reduce"
  top: "conv2_1_3x3"
  convolution_param {
    num_output: 64
    bias_term: false
    pad: 1
    kernel_size: 3
    stride: 1
  }
}
layer {
  name: "conv2_1_3x3/bn"
  type: "BatchNorm"
  bottom: "conv2_1_3x3"
  top: "conv2_1_3x3"
  batch_norm_param {
    use_global_stats: true
  }
}
layer {
  name: "conv2_1_3x3/bn/scale"
  type: "Scale"
  bottom: "conv2_1_3x3"
  top: "conv2_1_3x3"
  scale_param {
    bias_term: true
  }
}
layer {
  name: "conv2_1_3x3/relu"
  type: "ReLU"
  bottom: "conv2_1_3x3"
  top: "conv2_1_3x3"
}
layer {
  name: "conv2_1_1x1_increase"
  type: "Convolution"
  bottom: "conv2_1_3x3"
  top: "conv2_1_1x1_increase"
  convolution_param {
    num_output: 256
    bias_term: false
    kernel_size: 1
    stride: 1
  }
}
layer {
  name: "conv2_1_1x1_increase/bn"
  type: "BatchNorm"
  bottom: "conv2_1_1x1_increase"
  top: "conv2_1_1x1_increase"
  batch_norm_param {
    use_global_stats: true
  }
}
layer {
  name: "conv2_1_1x1_increase/bn/scale"
  type: "Scale"
  bottom: "conv2_1_1x1_increase"
  top: "conv2_1_1x1_increase"
  scale_param {
    bias_term: true
  }
}
layer {
  name: "conv2_1_global_pool"
  type: "Pooling"
  bottom: "conv2_1_1x1_increase"
  top: "conv2_1_global_pool"
  pooling_param {
    pool: AVE
    engine: CAFFE
    global_pooling: true
  }
}
layer {
  name: "conv2_1_1x1_down"
  type: "Convolution"
  bottom: "conv2_1_global_pool"
  top: "conv2_1_1x1_down"
  convolution_param {
    num_output: 16
    kernel_size: 1
    stride: 1
  }
}
layer {
  name: "conv2_1_1x1_down/relu"
  type: "ReLU"
  bottom: "conv2_1_1x1_down"
  top: "conv2_1_1x1_down"
}
layer {
  name: "conv2_1_1x1_up"
  type: "Convolution"
  bottom: "conv2_1_1x1_down"
  top: "conv2_1_1x1_up"
  convolution_param {
    num_output: 256
    kernel_size: 1
    stride: 1
  }
}
layer {
  name: "conv2_1_prob"
  type: "Sigmoid"
  bottom: "conv2_1_1x1_up"
  top: "conv2_1_1x1_up"
}
layer {
  name: "conv2_1_1x1_proj"
  type: "Convolution"
  bottom: "pool1/3x3_s2"
  top: "conv2_1_1x1_proj"
  convolution_param {
    num_output: 256
    bias_term: false
    kernel_size: 1
    stride: 1
  }
}
layer {
  name: "conv2_1_1x1_proj/bn"
  type: "BatchNorm"
  bottom: "conv2_1_1x1_proj"
  top: "conv2_1_1x1_proj"
  batch_norm_param {
    use_global_stats: true
  }
}
layer {
  name: "conv2_1_1x1_proj/bn/scale"
  type: "Scale"
  bottom: "conv2_1_1x1_proj"
  top: "conv2_1_1x1_proj"
  scale_param {
    bias_term: true
  }
}
layer {
  name: "conv2_1"
  type: "Axpy"
  bottom: "conv2_1_1x1_up"
  bottom: "conv2_1_1x1_increase"
  bottom: "conv2_1_1x1_proj"
  top: "conv2_1"
}
layer {
  name: "conv2_1/relu"
  type: "ReLU"
  bottom: "conv2_1"
  top: "conv2_1"
}
layer {
  name: "conv2_2_1x1_reduce"
  type: "Convolution"
  bottom: "conv2_1"
  top: "conv2_2_1x1_reduce"
  convolution_param {
    num_output: 64
    bias_term: false
    kernel_size: 1
    stride: 1
  }
}
layer {
  name: "conv2_2_1x1_reduce/bn"
  type: "BatchNorm"
  bottom: "conv2_2_1x1_reduce"
  top: "conv2_2_1x1_reduce"
  batch_norm_param {
    use_global_stats: true
  }
}
layer {
  name: "conv2_2_1x1_reduce/bn/scale"
  type: "Scale"
  bottom: "conv2_2_1x1_reduce"
  top: "conv2_2_1x1_reduce"
  scale_param {
    bias_term: true
  }
}
layer {
  name: "conv2_2_1x1_reduce/relu"
  type: "ReLU"
  bottom: "conv2_2_1x1_reduce"
  top: "conv2_2_1x1_reduce"
}
layer {
  name: "conv2_2_3x3"
  type: "Convolution"
  bottom: "conv2_2_1x1_reduce"
  top: "conv2_2_3x3"
  convolution_param {
    num_output: 64
    bias_term: false
    pad: 1
    kernel_size: 3
    stride: 1
  }
}
layer {
  name: "conv2_2_3x3/bn"
  type: "BatchNorm"
  bottom: "conv2_2_3x3"
  top: "conv2_2_3x3"
  batch_norm_param {
    use_global_stats: true
  }
}
layer {
  name: "conv2_2_3x3/bn/scale"
  type: "Scale"
  bottom: "conv2_2_3x3"
  top: "conv2_2_3x3"
  scale_param {
    bias_term: true
  }
}
layer {
  name: "conv2_2_3x3/relu"
  type: "ReLU"
  bottom: "conv2_2_3x3"
  top: "conv2_2_3x3"
}
layer {
  name: "conv2_2_1x1_increase"
  type: "Convolution"
  bottom: "conv2_2_3x3"
  top: "conv2_2_1x1_increase"
  convolution_param {
    num_output: 256
    bias_term: false
    kernel_size: 1
    stride: 1
  }
}
layer {
  name: "conv2_2_1x1_increase/bn"
  type: "BatchNorm"
  bottom: "conv2_2_1x1_increase"
  top: "conv2_2_1x1_increase"
  batch_norm_param {
    use_global_stats: true
  }
}
layer {
  name: "conv2_2_1x1_increase/bn/scale"
  type: "Scale"
  bottom: "conv2_2_1x1_increase"
  top: "conv2_2_1x1_increase"
  scale_param {
    bias_term: true
  }
}
layer {
  name: "conv2_2_global_pool"
  type: "Pooling"
  bottom: "conv2_2_1x1_increase"
  top: "conv2_2_global_pool"
  pooling_param {
    pool: AVE
    engine: CAFFE
    global_pooling: true
  }
}
layer {
  name: "conv2_2_1x1_down"
  type: "Convolution"
  bottom: "conv2_2_global_pool"
  top: "conv2_2_1x1_down"
  convolution_param {
    num_output: 16
    kernel_size: 1
    stride: 1
  }
}
layer {
  name: "conv2_2_1x1_down/relu"
  type: "ReLU"
  bottom: "conv2_2_1x1_down"
  top: "conv2_2_1x1_down"
}
layer {
  name: "conv2_2_1x1_up"
  type: "Convolution"
  bottom: "conv2_2_1x1_down"
  top: "conv2_2_1x1_up"
  convolution_param {
    num_output: 256
    kernel_size: 1
    stride: 1
  }
}
layer {
  name: "conv2_2_prob"
  type: "Sigmoid"
  bottom: "conv2_2_1x1_up"
  top: "conv2_2_1x1_up"
}
layer {
  name: "conv2_2"
  type: "Axpy"
  bottom: "conv2_2_1x1_up"
  bottom: "conv2_2_1x1_increase"
  bottom: "conv2_1"
  top: "conv2_2"
}
layer {
  name: "conv2_2/relu"
  type: "ReLU"
  bottom: "conv2_2"
  top: "conv2_2"
}
layer {
  name: "conv2_3_1x1_reduce"
  type: "Convolution"
  bottom: "conv2_2"
  top: "conv2_3_1x1_reduce"
  convolution_param {
    num_output: 64
    bias_term: false
    kernel_size: 1
    stride: 1
  }
}
layer {
  name: "conv2_3_1x1_reduce/bn"
  type: "BatchNorm"
  bottom: "conv2_3_1x1_reduce"
  top: "conv2_3_1x1_reduce"
  batch_norm_param {
    use_global_stats: true
  }
}
layer {
  name: "conv2_3_1x1_reduce/bn/scale"
  type: "Scale"
  bottom: "conv2_3_1x1_reduce"
  top: "conv2_3_1x1_reduce"
  scale_param {
    bias_term: true
  }
}
layer {
  name: "conv2_3_1x1_reduce/relu"
  type: "ReLU"
  bottom: "conv2_3_1x1_reduce"
  top: "conv2_3_1x1_reduce"
}
layer {
  name: "conv2_3_3x3"
  type: "Convolution"
  bottom: "conv2_3_1x1_reduce"
  top: "conv2_3_3x3"
  convolution_param {
    num_output: 64
    bias_term: false
    pad: 1
    kernel_size: 3
    stride: 1
  }
}
layer {
  name: "conv2_3_3x3/bn"
  type: "BatchNorm"
  bottom: "conv2_3_3x3"
  top: "conv2_3_3x3"
  batch_norm_param {
    use_global_stats: true
  }
}
layer {
  name: "conv2_3_3x3/bn/scale"
  type: "Scale"
  bottom: "conv2_3_3x3"
  top: "conv2_3_3x3"
  scale_param {
    bias_term: true
  }
}
layer {
  name: "conv2_3_3x3/relu"
  type: "ReLU"
  bottom: "conv2_3_3x3"
  top: "conv2_3_3x3"
}
layer {
  name: "conv2_3_1x1_increase"
  type: "Convolution"
  bottom: "conv2_3_3x3"
  top: "conv2_3_1x1_increase"
  convolution_param {
    num_output: 256
    bias_term: false
    kernel_size: 1
    stride: 1
  }
}
layer {
  name: "conv2_3_1x1_increase/bn"
  type: "BatchNorm"
  bottom: "conv2_3_1x1_increase"
  top: "conv2_3_1x1_increase"
  batch_norm_param {
    use_global_stats: true
  }
}
layer {
  name: "conv2_3_1x1_increase/bn/scale"
  type: "Scale"
  bottom: "conv2_3_1x1_increase"
  top: "conv2_3_1x1_increase"
  scale_param {
    bias_term: true
  }
}
layer {
  name: "conv2_3_global_pool"
  type: "Pooling"
  bottom: "conv2_3_1x1_increase"
  top: "conv2_3_global_pool"
  pooling_param {
    pool: AVE
    engine: CAFFE
    global_pooling: true
  }
}
layer {
  name: "conv2_3_1x1_down"
  type: "Convolution"
  bottom: "conv2_3_global_pool"
  top: "conv2_3_1x1_down"
  convolution_param {
    num_output: 16
    kernel_size: 1
    stride: 1
  }
}
layer {
  name: "conv2_3_1x1_down/relu"
  type: "ReLU"
  bottom: "conv2_3_1x1_down"
  top: "conv2_3_1x1_down"
}
layer {
  name: "conv2_3_1x1_up"
  type: "Convolution"
  bottom: "conv2_3_1x1_down"
  top: "conv2_3_1x1_up"
  convolution_param {
    num_output: 256
    kernel_size: 1
    stride: 1
  }
}
layer {
  name: "conv2_3_prob"
  type: "Sigmoid"
  bottom: "conv2_3_1x1_up"
  top: "conv2_3_1x1_up"
}
layer {
  name: "conv2_3"
  type: "Axpy"
  bottom: "conv2_3_1x1_up"
  bottom: "conv2_3_1x1_increase"
  bottom: "conv2_2"
  top: "conv2_3"
}
layer {
  name: "conv2_3/relu"
  type: "ReLU"
  bottom: "conv2_3"
  top: "conv2_3"
}
layer {
  name: "conv3_1_1x1_reduce"
  type: "Convolution"
  bottom: "conv2_3"
  top: "conv3_1_1x1_reduce"
  convolution_param {
    num_output: 128
    bias_term: false
    kernel_size: 1
    stride: 2
  }
}
layer {
  name: "conv3_1_1x1_reduce/bn"
  type: "BatchNorm"
  bottom: "conv3_1_1x1_reduce"
  top: "conv3_1_1x1_reduce"
  batch_norm_param {
    use_global_stats: true
  }
}
layer {
  name: "conv3_1_1x1_reduce/bn/scale"
  type: "Scale"
  bottom: "conv3_1_1x1_reduce"
  top: "conv3_1_1x1_reduce"
  scale_param {
    bias_term: true
  }
}
layer {
  name: "conv3_1_1x1_reduce/relu"
  type: "ReLU"
  bottom: "conv3_1_1x1_reduce"
  top: "conv3_1_1x1_reduce"
}
layer {
  name: "conv3_1_3x3"
  type: "Convolution"
  bottom: "conv3_1_1x1_reduce"
  top: "conv3_1_3x3"
  convolution_param {
    num_output: 128
    bias_term: false
    pad: 1
    kernel_size: 3
    stride: 1
  }
}
layer {
  name: "conv3_1_3x3/bn"
  type: "BatchNorm"
  bottom: "conv3_1_3x3"
  top: "conv3_1_3x3"
  batch_norm_param {
    use_global_stats: true
  }
}
layer {
  name: "conv3_1_3x3/bn/scale"
  type: "Scale"
  bottom: "conv3_1_3x3"
  top: "conv3_1_3x3"
  scale_param {
    bias_term: true
  }
}
layer {
  name: "conv3_1_3x3/relu"
  type: "ReLU"
  bottom: "conv3_1_3x3"
  top: "conv3_1_3x3"
}
layer {
  name: "conv3_1_1x1_increase"
  type: "Convolution"
  bottom: "conv3_1_3x3"
  top: "conv3_1_1x1_increase"
  convolution_param {
    num_output: 512
    bias_term: false
    kernel_size: 1
    stride: 1
  }
}
layer {
  name: "conv3_1_1x1_increase/bn"
  type: "BatchNorm"
  bottom: "conv3_1_1x1_increase"
  top: "conv3_1_1x1_increase"
  batch_norm_param {
    use_global_stats: true
  }
}
layer {
  name: "conv3_1_1x1_increase/bn/scale"
  type: "Scale"
  bottom: "conv3_1_1x1_increase"
  top: "conv3_1_1x1_increase"
  scale_param {
    bias_term: true
  }
}
layer {
  name: "conv3_1_global_pool"
  type: "Pooling"
  bottom: "conv3_1_1x1_increase"
  top: "conv3_1_global_pool"
  pooling_param {
    pool: AVE
    engine: CAFFE
    global_pooling: true
  }
}
layer {
  name: "conv3_1_1x1_down"
  type: "Convolution"
  bottom: "conv3_1_global_pool"
  top: "conv3_1_1x1_down"
  convolution_param {
    num_output: 32
    kernel_size: 1
    stride: 1
  }
}
layer {
  name: "conv3_1_1x1_down/relu"
  type: "ReLU"
  bottom: "conv3_1_1x1_down"
  top: "conv3_1_1x1_down"
}
layer {
  name: "conv3_1_1x1_up"
  type: "Convolution"
  bottom: "conv3_1_1x1_down"
  top: "conv3_1_1x1_up"
  convolution_param {
    num_output: 512
    kernel_size: 1
    stride: 1
  }
}
layer {
  name: "conv3_1_prob"
  type: "Sigmoid"
  bottom: "conv3_1_1x1_up"
  top: "conv3_1_1x1_up"
}
layer {
  name: "conv3_1_1x1_proj"
  type: "Convolution"
  bottom: "conv2_3"
  top: "conv3_1_1x1_proj"
  convolution_param {
    num_output: 512
    bias_term: false
    kernel_size: 1
    stride: 2
  }
}
layer {
  name: "conv3_1_1x1_proj/bn"
  type: "BatchNorm"
  bottom: "conv3_1_1x1_proj"
  top: "conv3_1_1x1_proj"
  batch_norm_param {
    use_global_stats: true
  }
}
layer {
  name: "conv3_1_1x1_proj/bn/scale"
  type: "Scale"
  bottom: "conv3_1_1x1_proj"
  top: "conv3_1_1x1_proj"
  scale_param {
    bias_term: true
  }
}
layer {
  name: "conv3_1"
  type: "Axpy"
  bottom: "conv3_1_1x1_up"
  bottom: "conv3_1_1x1_increase"
  bottom: "conv3_1_1x1_proj"
  top: "conv3_1"
}
layer {
  name: "conv3_1/relu"
  type: "ReLU"
  bottom: "conv3_1"
  top: "conv3_1"
}
layer {
  name: "conv3_2_1x1_reduce"
  type: "Convolution"
  bottom: "conv3_1"
  top: "conv3_2_1x1_reduce"
  convolution_param {
    num_output: 128
    bias_term: false
    kernel_size: 1
    stride: 1
  }
}
layer {
  name: "conv3_2_1x1_reduce/bn"
  type: "BatchNorm"
  bottom: "conv3_2_1x1_reduce"
  top: "conv3_2_1x1_reduce"
  batch_norm_param {
    use_global_stats: true
  }
}
layer {
  name: "conv3_2_1x1_reduce/bn/scale"
  type: "Scale"
  bottom: "conv3_2_1x1_reduce"
  top: "conv3_2_1x1_reduce"
  scale_param {
    bias_term: true
  }
}
layer {
  name: "conv3_2_1x1_reduce/relu"
  type: "ReLU"
  bottom: "conv3_2_1x1_reduce"
  top: "conv3_2_1x1_reduce"
}
layer {
  name: "conv3_2_3x3"
  type: "Convolution"
  bottom: "conv3_2_1x1_reduce"
  top: "conv3_2_3x3"
  convolution_param {
    num_output: 128
    bias_term: false
    pad: 1
    kernel_size: 3
    stride: 1
  }
}
layer {
  name: "conv3_2_3x3/bn"
  type: "BatchNorm"
  bottom: "conv3_2_3x3"
  top: "conv3_2_3x3"
  batch_norm_param {
    use_global_stats: true
  }
}
layer {
  name: "conv3_2_3x3/bn/scale"
  type: "Scale"
  bottom: "conv3_2_3x3"
  top: "conv3_2_3x3"
  scale_param {
    bias_term: true
  }
}
layer {
  name: "conv3_2_3x3/relu"
  type: "ReLU"
  bottom: "conv3_2_3x3"
  top: "conv3_2_3x3"
}
layer {
  name: "conv3_2_1x1_increase"
  type: "Convolution"
  bottom: "conv3_2_3x3"
  top: "conv3_2_1x1_increase"
  convolution_param {
    num_output: 512
    bias_term: false
    kernel_size: 1
    stride: 1
  }
}
layer {
  name: "conv3_2_1x1_increase/bn"
  type: "BatchNorm"
  bottom: "conv3_2_1x1_increase"
  top: "conv3_2_1x1_increase"
  batch_norm_param {
    use_global_stats: true
  }
}
layer {
  name: "conv3_2_1x1_increase/bn/scale"
  type: "Scale"
  bottom: "conv3_2_1x1_increase"
  top: "conv3_2_1x1_increase"
  scale_param {
    bias_term: true
  }
}
layer {
  name: "conv3_2_global_pool"
  type: "Pooling"
  bottom: "conv3_2_1x1_increase"
  top: "conv3_2_global_pool"
  pooling_param {
    pool: AVE
    engine: CAFFE
    global_pooling: true
  }
}
layer {
  name: "conv3_2_1x1_down"
  type: "Convolution"
  bottom: "conv3_2_global_pool"
  top: "conv3_2_1x1_down"
  convolution_param {
    num_output: 32
    kernel_size: 1
    stride: 1
  }
}
layer {
  name: "conv3_2_1x1_down/relu"
  type: "ReLU"
  bottom: "conv3_2_1x1_down"
  top: "conv3_2_1x1_down"
}
layer {
  name: "conv3_2_1x1_up"
  type: "Convolution"
  bottom: "conv3_2_1x1_down"
  top: "conv3_2_1x1_up"
  convolution_param {
    num_output: 512
    kernel_size: 1
    stride: 1
  }
}
layer {
  name: "conv3_2_prob"
  type: "Sigmoid"
  bottom: "conv3_2_1x1_up"
  top: "conv3_2_1x1_up"
}
layer {
  name: "conv3_2"
  type: "Axpy"
  bottom: "conv3_2_1x1_up"
  bottom: "conv3_2_1x1_increase"
  bottom: "conv3_1"
  top: "conv3_2"
}
layer {
  name: "conv3_2/relu"
  type: "ReLU"
  bottom: "conv3_2"
  top: "conv3_2"
}
layer {
  name: "conv3_3_1x1_reduce"
  type: "Convolution"
  bottom: "conv3_2"
  top: "conv3_3_1x1_reduce"
  convolution_param {
    num_output: 128
    bias_term: false
    kernel_size: 1
    stride: 1
  }
}
layer {
  name: "conv3_3_1x1_reduce/bn"
  type: "BatchNorm"
  bottom: "conv3_3_1x1_reduce"
  top: "conv3_3_1x1_reduce"
  batch_norm_param {
    use_global_stats: true
  }
}
layer {
  name: "conv3_3_1x1_reduce/bn/scale"
  type: "Scale"
  bottom: "conv3_3_1x1_reduce"
  top: "conv3_3_1x1_reduce"
  scale_param {
    bias_term: true
  }
}
layer {
  name: "conv3_3_1x1_reduce/relu"
  type: "ReLU"
  bottom: "conv3_3_1x1_reduce"
  top: "conv3_3_1x1_reduce"
}
layer {
  name: "conv3_3_3x3"
  type: "Convolution"
  bottom: "conv3_3_1x1_reduce"
  top: "conv3_3_3x3"
  convolution_param {
    num_output: 128
    bias_term: false
    pad: 1
    kernel_size: 3
    stride: 1
  }
}
layer {
  name: "conv3_3_3x3/bn"
  type: "BatchNorm"
  bottom: "conv3_3_3x3"
  top: "conv3_3_3x3"
  batch_norm_param {
    use_global_stats: true
  }
}
layer {
  name: "conv3_3_3x3/bn/scale"
  type: "Scale"
  bottom: "conv3_3_3x3"
  top: "conv3_3_3x3"
  scale_param {
    bias_term: true
  }
}
layer {
  name: "conv3_3_3x3/relu"
  type: "ReLU"
  bottom: "conv3_3_3x3"
  top: "conv3_3_3x3"
}
layer {
  name: "conv3_3_1x1_increase"
  type: "Convolution"
  bottom: "conv3_3_3x3"
  top: "conv3_3_1x1_increase"
  convolution_param {
    num_output: 512
    bias_term: false
    kernel_size: 1
    stride: 1
  }
}
layer {
  name: "conv3_3_1x1_increase/bn"
  type: "BatchNorm"
  bottom: "conv3_3_1x1_increase"
  top: "conv3_3_1x1_increase"
  batch_norm_param {
    use_global_stats: true
  }
}
layer {
  name: "conv3_3_1x1_increase/bn/scale"
  type: "Scale"
  bottom: "conv3_3_1x1_increase"
  top: "conv3_3_1x1_increase"
  scale_param {
    bias_term: true
  }
}
layer {
  name: "conv3_3_global_pool"
  type: "Pooling"
  bottom: "conv3_3_1x1_increase"
  top: "conv3_3_global_pool"
  pooling_param {
    pool: AVE
    engine: CAFFE
    global_pooling: true
  }
}
layer {
  name: "conv3_3_1x1_down"
  type: "Convolution"
  bottom: "conv3_3_global_pool"
  top: "conv3_3_1x1_down"
  convolution_param {
    num_output: 32
    kernel_size: 1
    stride: 1
  }
}
layer {
  name: "conv3_3_1x1_down/relu"
  type: "ReLU"
  bottom: "conv3_3_1x1_down"
  top: "conv3_3_1x1_down"
}
layer {
  name: "conv3_3_1x1_up"
  type: "Convolution"
  bottom: "conv3_3_1x1_down"
  top: "conv3_3_1x1_up"
  convolution_param {
    num_output: 512
    kernel_size: 1
    stride: 1
  }
}
layer {
  name: "conv3_3_prob"
  type: "Sigmoid"
  bottom: "conv3_3_1x1_up"
  top: "conv3_3_1x1_up"
}
layer {
  name: "conv3_3"
  type: "Axpy"
  bottom: "conv3_3_1x1_up"
  bottom: "conv3_3_1x1_increase"
  bottom: "conv3_2"
  top: "conv3_3"
}
layer {
  name: "conv3_3/relu"
  type: "ReLU"
  bottom: "conv3_3"
  top: "conv3_3"
}
layer {
  name: "conv3_4_1x1_reduce"
  type: "Convolution"
  bottom: "conv3_3"
  top: "conv3_4_1x1_reduce"
  convolution_param {
    num_output: 128
    bias_term: false
    kernel_size: 1
    stride: 1
  }
}
layer {
  name: "conv3_4_1x1_reduce/bn"
  type: "BatchNorm"
  bottom: "conv3_4_1x1_reduce"
  top: "conv3_4_1x1_reduce"
  batch_norm_param {
    use_global_stats: true
  }
}
layer {
  name: "conv3_4_1x1_reduce/bn/scale"
  type: "Scale"
  bottom: "conv3_4_1x1_reduce"
  top: "conv3_4_1x1_reduce"
  scale_param {
    bias_term: true
  }
}
layer {
  name: "conv3_4_1x1_reduce/relu"
  type: "ReLU"
  bottom: "conv3_4_1x1_reduce"
  top: "conv3_4_1x1_reduce"
}
layer {
  name: "conv3_4_3x3"
  type: "Convolution"
  bottom: "conv3_4_1x1_reduce"
  top: "conv3_4_3x3"
  convolution_param {
    num_output: 128
    bias_term: false
    pad: 1
    kernel_size: 3
    stride: 1
  }
}
layer {
  name: "conv3_4_3x3/bn"
  type: "BatchNorm"
  bottom: "conv3_4_3x3"
  top: "conv3_4_3x3"
  batch_norm_param {
    use_global_stats: true
  }
}
layer {
  name: "conv3_4_3x3/bn/scale"
  type: "Scale"
  bottom: "conv3_4_3x3"
  top: "conv3_4_3x3"
  scale_param {
    bias_term: true
  }
}
layer {
  name: "conv3_4_3x3/relu"
  type: "ReLU"
  bottom: "conv3_4_3x3"
  top: "conv3_4_3x3"
}
layer {
  name: "conv3_4_1x1_increase"
  type: "Convolution"
  bottom: "conv3_4_3x3"
  top: "conv3_4_1x1_increase"
  convolution_param {
    num_output: 512
    bias_term: false
    kernel_size: 1
    stride: 1
  }
}
layer {
  name: "conv3_4_1x1_increase/bn"
  type: "BatchNorm"
  bottom: "conv3_4_1x1_increase"
  top: "conv3_4_1x1_increase"
  batch_norm_param {
    use_global_stats: true
  }
}
layer {
  name: "conv3_4_1x1_increase/bn/scale"
  type: "Scale"
  bottom: "conv3_4_1x1_increase"
  top: "conv3_4_1x1_increase"
  scale_param {
    bias_term: true
  }
}
layer {
  name: "conv3_4_global_pool"
  type: "Pooling"
  bottom: "conv3_4_1x1_increase"
  top: "conv3_4_global_pool"
  pooling_param {
    pool: AVE
    engine: CAFFE
    global_pooling: true
  }
}
layer {
  name: "conv3_4_1x1_down"
  type: "Convolution"
  bottom: "conv3_4_global_pool"
  top: "conv3_4_1x1_down"
  convolution_param {
    num_output: 32
    kernel_size: 1
    stride: 1
  }
}
layer {
  name: "conv3_4_1x1_down/relu"
  type: "ReLU"
  bottom: "conv3_4_1x1_down"
  top: "conv3_4_1x1_down"
}
layer {
  name: "conv3_4_1x1_up"
  type: "Convolution"
  bottom: "conv3_4_1x1_down"
  top: "conv3_4_1x1_up"
  convolution_param {
    num_output: 512
    kernel_size: 1
    stride: 1
  }
}
layer {
  name: "conv3_4_prob"
  type: "Sigmoid"
  bottom: "conv3_4_1x1_up"
  top: "conv3_4_1x1_up"
}
layer {
  name: "conv3_4"
  type: "Axpy"
  bottom: "conv3_4_1x1_up"
  bottom: "conv3_4_1x1_increase"
  bottom: "conv3_3"
  top: "conv3_4"
}
layer {
  name: "conv3_4/relu"
  type: "ReLU"
  bottom: "conv3_4"
  top: "conv3_4"
}
layer {
  name: "conv4_1_1x1_reduce"
  type: "Convolution"
  bottom: "conv3_4"
  top: "conv4_1_1x1_reduce"
  convolution_param {
    num_output: 256
    bias_term: false
    kernel_size: 1
    stride: 2
  }
}
layer {
  name: "conv4_1_1x1_reduce/bn"
  type: "BatchNorm"
  bottom: "conv4_1_1x1_reduce"
  top: "conv4_1_1x1_reduce"
  batch_norm_param {
    use_global_stats: true
  }
}
layer {
  name: "conv4_1_1x1_reduce/bn/scale"
  type: "Scale"
  bottom: "conv4_1_1x1_reduce"
  top: "conv4_1_1x1_reduce"
  scale_param {
    bias_term: true
  }
}
layer {
  name: "conv4_1_1x1_reduce/relu"
  type: "ReLU"
  bottom: "conv4_1_1x1_reduce"
  top: "conv4_1_1x1_reduce"
}
layer {
  name: "conv4_1_3x3"
  type: "Convolution"
  bottom: "conv4_1_1x1_reduce"
  top: "conv4_1_3x3"
  convolution_param {
    num_output: 256
    bias_term: false
    pad: 1
    kernel_size: 3
    stride: 1
  }
}
layer {
  name: "conv4_1_3x3/bn"
  type: "BatchNorm"
  bottom: "conv4_1_3x3"
  top: "conv4_1_3x3"
  batch_norm_param {
    use_global_stats: true
  }
}
layer {
  name: "conv4_1_3x3/bn/scale"
  type: "Scale"
  bottom: "conv4_1_3x3"
  top: "conv4_1_3x3"
  scale_param {
    bias_term: true
  }
}
layer {
  name: "conv4_1_3x3/relu"
  type: "ReLU"
  bottom: "conv4_1_3x3"
  top: "conv4_1_3x3"
}
layer {
  name: "conv4_1_1x1_increase"
  type: "Convolution"
  bottom: "conv4_1_3x3"
  top: "conv4_1_1x1_increase"
  convolution_param {
    num_output: 1024
    bias_term: false
    kernel_size: 1
    stride: 1
  }
}
layer {
  name: "conv4_1_1x1_increase/bn"
  type: "BatchNorm"
  bottom: "conv4_1_1x1_increase"
  top: "conv4_1_1x1_increase"
  batch_norm_param {
    use_global_stats: true
  }
}
layer {
  name: "conv4_1_1x1_increase/bn/scale"
  type: "Scale"
  bottom: "conv4_1_1x1_increase"
  top: "conv4_1_1x1_increase"
  scale_param {
    bias_term: true
  }
}
layer {
  name: "conv4_1_global_pool"
  type: "Pooling"
  bottom: "conv4_1_1x1_increase"
  top: "conv4_1_global_pool"
  pooling_param {
    pool: AVE
    engine: CAFFE
    global_pooling: true
  }
}
layer {
  name: "conv4_1_1x1_down"
  type: "Convolution"
  bottom: "conv4_1_global_pool"
  top: "conv4_1_1x1_down"
  convolution_param {
    num_output: 64
    kernel_size: 1
    stride: 1
  }
}
layer {
  name: "conv4_1_1x1_down/relu"
  type: "ReLU"
  bottom: "conv4_1_1x1_down"
  top: "conv4_1_1x1_down"
}
layer {
  name: "conv4_1_1x1_up"
  type: "Convolution"
  bottom: "conv4_1_1x1_down"
  top: "conv4_1_1x1_up"
  convolution_param {
    num_output: 1024
    kernel_size: 1
    stride: 1
  }
}
layer {
  name: "conv4_1_prob"
  type: "Sigmoid"
  bottom: "conv4_1_1x1_up"
  top: "conv4_1_1x1_up"
}
layer {
  name: "conv4_1_1x1_proj"
  type: "Convolution"
  bottom: "conv3_4"
  top: "conv4_1_1x1_proj"
  convolution_param {
    num_output: 1024
    bias_term: false
    kernel_size: 1
    stride: 2
  }
}
layer {
  name: "conv4_1_1x1_proj/bn"
  type: "BatchNorm"
  bottom: "conv4_1_1x1_proj"
  top: "conv4_1_1x1_proj"
  batch_norm_param {
    use_global_stats: true
  }
}
layer {
  name: "conv4_1_1x1_proj/bn/scale"
  type: "Scale"
  bottom: "conv4_1_1x1_proj"
  top: "conv4_1_1x1_proj"
  scale_param {
    bias_term: true
  }
}
layer {
  name: "conv4_1"
  type: "Axpy"
  bottom: "conv4_1_1x1_up"
  bottom: "conv4_1_1x1_increase"
  bottom: "conv4_1_1x1_proj"
  top: "conv4_1"
}
layer {
  name: "conv4_1/relu"
  type: "ReLU"
  bottom: "conv4_1"
  top: "conv4_1"
}
layer {
  name: "conv4_2_1x1_reduce"
  type: "Convolution"
  bottom: "conv4_1"
  top: "conv4_2_1x1_reduce"
  convolution_param {
    num_output: 256
    bias_term: false
    kernel_size: 1
    stride: 1
  }
}
layer {
  name: "conv4_2_1x1_reduce/bn"
  type: "BatchNorm"
  bottom: "conv4_2_1x1_reduce"
  top: "conv4_2_1x1_reduce"
  batch_norm_param {
    use_global_stats: true
  }
}
layer {
  name: "conv4_2_1x1_reduce/bn/scale"
  type: "Scale"
  bottom: "conv4_2_1x1_reduce"
  top: "conv4_2_1x1_reduce"
  scale_param {
    bias_term: true
  }
}
layer {
  name: "conv4_2_1x1_reduce/relu"
  type: "ReLU"
  bottom: "conv4_2_1x1_reduce"
  top: "conv4_2_1x1_reduce"
}
layer {
  name: "conv4_2_3x3"
  type: "Convolution"
  bottom: "conv4_2_1x1_reduce"
  top: "conv4_2_3x3"
  convolution_param {
    num_output: 256
    bias_term: false
    pad: 1
    kernel_size: 3
    stride: 1
  }
}
layer {
  name: "conv4_2_3x3/bn"
  type: "BatchNorm"
  bottom: "conv4_2_3x3"
  top: "conv4_2_3x3"
  batch_norm_param {
    use_global_stats: true
  }
}
layer {
  name: "conv4_2_3x3/bn/scale"
  type: "Scale"
  bottom: "conv4_2_3x3"
  top: "conv4_2_3x3"
  scale_param {
    bias_term: true
  }
}
layer {
  name: "conv4_2_3x3/relu"
  type: "ReLU"
  bottom: "conv4_2_3x3"
  top: "conv4_2_3x3"
}
layer {
  name: "conv4_2_1x1_increase"
  type: "Convolution"
  bottom: "conv4_2_3x3"
  top: "conv4_2_1x1_increase"
  convolution_param {
    num_output: 1024
    bias_term: false
    kernel_size: 1
    stride: 1
  }
}
layer {
  name: "conv4_2_1x1_increase/bn"
  type: "BatchNorm"
  bottom: "conv4_2_1x1_increase"
  top: "conv4_2_1x1_increase"
  batch_norm_param {
    use_global_stats: true
  }
}
layer {
  name: "conv4_2_1x1_increase/bn/scale"
  type: "Scale"
  bottom: "conv4_2_1x1_increase"
  top: "conv4_2_1x1_increase"
  scale_param {
    bias_term: true
  }
}
layer {
  name: "conv4_2_global_pool"
  type: "Pooling"
  bottom: "conv4_2_1x1_increase"
  top: "conv4_2_global_pool"
  pooling_param {
    pool: AVE
    engine: CAFFE
    global_pooling: true
  }
}
layer {
  name: "conv4_2_1x1_down"
  type: "Convolution"
  bottom: "conv4_2_global_pool"
  top: "conv4_2_1x1_down"
  convolution_param {
    num_output: 64
    kernel_size: 1
    stride: 1
  }
}
layer {
  name: "conv4_2_1x1_down/relu"
  type: "ReLU"
  bottom: "conv4_2_1x1_down"
  top: "conv4_2_1x1_down"
}
layer {
  name: "conv4_2_1x1_up"
  type: "Convolution"
  bottom: "conv4_2_1x1_down"
  top: "conv4_2_1x1_up"
  convolution_param {
    num_output: 1024
    kernel_size: 1
    stride: 1
  }
}
layer {
  name: "conv4_2_prob"
  type: "Sigmoid"
  bottom: "conv4_2_1x1_up"
  top: "conv4_2_1x1_up"
}
layer {
  name: "conv4_2"
  type: "Axpy"
  bottom: "conv4_2_1x1_up"
  bottom: "conv4_2_1x1_increase"
  bottom: "conv4_1"
  top: "conv4_2"
}
layer {
  name: "conv4_2/relu"
  type: "ReLU"
  bottom: "conv4_2"
  top: "conv4_2"
}
layer {
  name: "conv4_3_1x1_reduce"
  type: "Convolution"
  bottom: "conv4_2"
  top: "conv4_3_1x1_reduce"
  convolution_param {
    num_output: 256
    bias_term: false
    kernel_size: 1
    stride: 1
  }
}
layer {
  name: "conv4_3_1x1_reduce/bn"
  type: "BatchNorm"
  bottom: "conv4_3_1x1_reduce"
  top: "conv4_3_1x1_reduce"
  batch_norm_param {
    use_global_stats: true
  }
}
layer {
  name: "conv4_3_1x1_reduce/bn/scale"
  type: "Scale"
  bottom: "conv4_3_1x1_reduce"
  top: "conv4_3_1x1_reduce"
  scale_param {
    bias_term: true
  }
}
layer {
  name: "conv4_3_1x1_reduce/relu"
  type: "ReLU"
  bottom: "conv4_3_1x1_reduce"
  top: "conv4_3_1x1_reduce"
}
layer {
  n
I0928 12:03:43.671907   735 layer_factory.hpp:77] Creating layer source_data
I0928 12:03:43.671948   735 net.cpp:100] Creating Layer source_data
I0928 12:03:43.671958   735 net.cpp:408] source_data -> source_data
I0928 12:03:43.671983   735 net.cpp:408] source_data -> source_label
I0928 12:03:43.672386   735 image_data_layer.cpp:38] Opening file ./data/VisDA2017/train.txt
I0928 12:03:43.731150   735 image_data_layer.cpp:53] Shuffling data
I0928 12:03:43.745451   735 image_data_layer.cpp:58] A total of 152397 images.
I0928 12:03:43.908057   735 image_data_layer.cpp:85] output data size: 8,3,224,224
I0928 12:03:43.917680   735 net.cpp:150] Setting up source_data
I0928 12:03:43.917743   735 net.cpp:157] Top shape: 8 3 224 224 (1204224)
I0928 12:03:43.917752   735 net.cpp:157] Top shape: 8 (8)
I0928 12:03:43.917758   735 net.cpp:165] Memory required for data: 4816928
I0928 12:03:43.917767   735 layer_factory.hpp:77] Creating layer source_label_source_data_1_split
I0928 12:03:43.917781   735 net.cpp:100] Creating Layer source_label_source_data_1_split
I0928 12:03:43.917794   735 net.cpp:434] source_label_source_data_1_split <- source_label
I0928 12:03:43.917809   735 net.cpp:408] source_label_source_data_1_split -> source_label_source_data_1_split_0
I0928 12:03:43.917820   735 net.cpp:408] source_label_source_data_1_split -> source_label_source_data_1_split_1
I0928 12:03:43.917889   735 net.cpp:150] Setting up source_label_source_data_1_split
I0928 12:03:43.917898   735 net.cpp:157] Top shape: 8 (8)
I0928 12:03:43.917902   735 net.cpp:157] Top shape: 8 (8)
I0928 12:03:43.917906   735 net.cpp:165] Memory required for data: 4816992
I0928 12:03:43.917912   735 layer_factory.hpp:77] Creating layer target_data
I0928 12:03:43.917928   735 net.cpp:100] Creating Layer target_data
I0928 12:03:43.917934   735 net.cpp:408] target_data -> target_data
I0928 12:03:43.917968   735 net.cpp:408] target_data -> target_label
I0928 12:03:43.917981   735 image_data_layer.cpp:38] Opening file ./data/VisDA2017/test.txt
I0928 12:03:43.935621   735 image_data_layer.cpp:53] Shuffling data
I0928 12:03:43.939396   735 image_data_layer.cpp:58] A total of 55388 images.
I0928 12:03:44.071722   735 image_data_layer.cpp:85] output data size: 8,3,224,224
I0928 12:03:44.080947   735 net.cpp:150] Setting up target_data
I0928 12:03:44.080965   735 net.cpp:157] Top shape: 8 3 224 224 (1204224)
I0928 12:03:44.080971   735 net.cpp:157] Top shape: 8 (8)
I0928 12:03:44.080976   735 net.cpp:165] Memory required for data: 9633920
I0928 12:03:44.080981   735 layer_factory.hpp:77] Creating layer target_label_silence
I0928 12:03:44.080994   735 net.cpp:100] Creating Layer target_label_silence
I0928 12:03:44.081001   735 net.cpp:434] target_label_silence <- target_label
I0928 12:03:44.081008   735 net.cpp:150] Setting up target_label_silence
I0928 12:03:44.081012   735 net.cpp:165] Memory required for data: 9633920
I0928 12:03:44.081015   735 layer_factory.hpp:77] Creating layer data
I0928 12:03:44.081027   735 net.cpp:100] Creating Layer data
I0928 12:03:44.081032   735 net.cpp:434] data <- source_data
I0928 12:03:44.081037   735 net.cpp:434] data <- target_data
I0928 12:03:44.081043   735 net.cpp:408] data -> data
I0928 12:03:44.081084   735 net.cpp:150] Setting up data
I0928 12:03:44.081090   735 net.cpp:157] Top shape: 16 3 224 224 (2408448)
I0928 12:03:44.081094   735 net.cpp:165] Memory required for data: 19267712
I0928 12:03:44.081097   735 layer_factory.hpp:77] Creating layer conv1/7x7_s2
I0928 12:03:44.081110   735 net.cpp:100] Creating Layer conv1/7x7_s2
I0928 12:03:44.081115   735 net.cpp:434] conv1/7x7_s2 <- data
I0928 12:03:44.081120   735 net.cpp:408] conv1/7x7_s2 -> conv1/7x7_s2
I0928 12:03:44.338470   735 net.cpp:150] Setting up conv1/7x7_s2
I0928 12:03:44.338500   735 net.cpp:157] Top shape: 16 64 112 112 (12845056)
I0928 12:03:44.338505   735 net.cpp:165] Memory required for data: 70647936
I0928 12:03:44.338522   735 layer_factory.hpp:77] Creating layer conv1/7x7_s2/bn
I0928 12:03:44.338537   735 net.cpp:100] Creating Layer conv1/7x7_s2/bn
I0928 12:03:44.338542   735 net.cpp:434] conv1/7x7_s2/bn <- conv1/7x7_s2
I0928 12:03:44.338549   735 net.cpp:395] conv1/7x7_s2/bn -> conv1/7x7_s2 (in-place)
I0928 12:03:44.338744   735 net.cpp:150] Setting up conv1/7x7_s2/bn
I0928 12:03:44.338752   735 net.cpp:157] Top shape: 16 64 112 112 (12845056)
I0928 12:03:44.338757   735 net.cpp:165] Memory required for data: 122028160
I0928 12:03:44.338768   735 layer_factory.hpp:77] Creating layer conv1/7x7_s2/bn/scale
I0928 12:03:44.338779   735 net.cpp:100] Creating Layer conv1/7x7_s2/bn/scale
I0928 12:03:44.338789   735 net.cpp:434] conv1/7x7_s2/bn/scale <- conv1/7x7_s2
I0928 12:03:44.338794   735 net.cpp:395] conv1/7x7_s2/bn/scale -> conv1/7x7_s2 (in-place)
I0928 12:03:44.338838   735 layer_factory.hpp:77] Creating layer conv1/7x7_s2/bn/scale
I0928 12:03:44.338963   735 net.cpp:150] Setting up conv1/7x7_s2/bn/scale
I0928 12:03:44.338973   735 net.cpp:157] Top shape: 16 64 112 112 (12845056)
I0928 12:03:44.338976   735 net.cpp:165] Memory required for data: 173408384
I0928 12:03:44.338984   735 layer_factory.hpp:77] Creating layer conv1/relu_7x7_s2
I0928 12:03:44.338995   735 net.cpp:100] Creating Layer conv1/relu_7x7_s2
I0928 12:03:44.338999   735 net.cpp:434] conv1/relu_7x7_s2 <- conv1/7x7_s2
I0928 12:03:44.339004   735 net.cpp:395] conv1/relu_7x7_s2 -> conv1/7x7_s2 (in-place)
I0928 12:03:44.339169   735 net.cpp:150] Setting up conv1/relu_7x7_s2
I0928 12:03:44.339179   735 net.cpp:157] Top shape: 16 64 112 112 (12845056)
I0928 12:03:44.339184   735 net.cpp:165] Memory required for data: 224788608
I0928 12:03:44.339186   735 layer_factory.hpp:77] Creating layer pool1/3x3_s2
I0928 12:03:44.339195   735 net.cpp:100] Creating Layer pool1/3x3_s2
I0928 12:03:44.339198   735 net.cpp:434] pool1/3x3_s2 <- conv1/7x7_s2
I0928 12:03:44.339203   735 net.cpp:408] pool1/3x3_s2 -> pool1/3x3_s2
I0928 12:03:44.339279   735 net.cpp:150] Setting up pool1/3x3_s2
I0928 12:03:44.339288   735 net.cpp:157] Top shape: 16 64 56 56 (3211264)
I0928 12:03:44.339293   735 net.cpp:165] Memory required for data: 237633664
I0928 12:03:44.339295   735 layer_factory.hpp:77] Creating layer pool1/3x3_s2_pool1/3x3_s2_0_split
I0928 12:03:44.339303   735 net.cpp:100] Creating Layer pool1/3x3_s2_pool1/3x3_s2_0_split
I0928 12:03:44.339305   735 net.cpp:434] pool1/3x3_s2_pool1/3x3_s2_0_split <- pool1/3x3_s2
I0928 12:03:44.339310   735 net.cpp:408] pool1/3x3_s2_pool1/3x3_s2_0_split -> pool1/3x3_s2_pool1/3x3_s2_0_split_0
I0928 12:03:44.339318   735 net.cpp:408] pool1/3x3_s2_pool1/3x3_s2_0_split -> pool1/3x3_s2_pool1/3x3_s2_0_split_1
I0928 12:03:44.339345   735 net.cpp:150] Setting up pool1/3x3_s2_pool1/3x3_s2_0_split
I0928 12:03:44.339351   735 net.cpp:157] Top shape: 16 64 56 56 (3211264)
I0928 12:03:44.339355   735 net.cpp:157] Top shape: 16 64 56 56 (3211264)
I0928 12:03:44.339359   735 net.cpp:165] Memory required for data: 263323776
I0928 12:03:44.339362   735 layer_factory.hpp:77] Creating layer conv2_1_1x1_reduce
I0928 12:03:44.339370   735 net.cpp:100] Creating Layer conv2_1_1x1_reduce
I0928 12:03:44.339375   735 net.cpp:434] conv2_1_1x1_reduce <- pool1/3x3_s2_pool1/3x3_s2_0_split_0
I0928 12:03:44.339380   735 net.cpp:408] conv2_1_1x1_reduce -> conv2_1_1x1_reduce
I0928 12:03:44.341286   735 net.cpp:150] Setting up conv2_1_1x1_reduce
I0928 12:03:44.341301   735 net.cpp:157] Top shape: 16 64 56 56 (3211264)
I0928 12:03:44.341306   735 net.cpp:165] Memory required for data: 276168832
I0928 12:03:44.341312   735 layer_factory.hpp:77] Creating layer conv2_1_1x1_reduce/bn
I0928 12:03:44.341318   735 net.cpp:100] Creating Layer conv2_1_1x1_reduce/bn
I0928 12:03:44.341323   735 net.cpp:434] conv2_1_1x1_reduce/bn <- conv2_1_1x1_reduce
I0928 12:03:44.341329   735 net.cpp:395] conv2_1_1x1_reduce/bn -> conv2_1_1x1_reduce (in-place)
I0928 12:03:44.341488   735 net.cpp:150] Setting up conv2_1_1x1_reduce/bn
I0928 12:03:44.341495   735 net.cpp:157] Top shape: 16 64 56 56 (3211264)
I0928 12:03:44.341500   735 net.cpp:165] Memory required for data: 289013888
I0928 12:03:44.341509   735 layer_factory.hpp:77] Creating layer conv2_1_1x1_reduce/bn/scale
I0928 12:03:44.341517   735 net.cpp:100] Creating Layer conv2_1_1x1_reduce/bn/scale
I0928 12:03:44.341521   735 net.cpp:434] conv2_1_1x1_reduce/bn/scale <- conv2_1_1x1_reduce
I0928 12:03:44.341526   735 net.cpp:395] conv2_1_1x1_reduce/bn/scale -> conv2_1_1x1_reduce (in-place)
I0928 12:03:44.341560   735 layer_factory.hpp:77] Creating layer conv2_1_1x1_reduce/bn/scale
I0928 12:03:44.341655   735 net.cpp:150] Setting up conv2_1_1x1_reduce/bn/scale
I0928 12:03:44.341662   735 net.cpp:157] Top shape: 16 64 56 56 (3211264)
I0928 12:03:44.341666   735 net.cpp:165] Memory required for data: 301858944
I0928 12:03:44.341672   735 layer_factory.hpp:77] Creating layer conv2_1_1x1_reduce/relu
I0928 12:03:44.341678   735 net.cpp:100] Creating Layer conv2_1_1x1_reduce/relu
I0928 12:03:44.341682   735 net.cpp:434] conv2_1_1x1_reduce/relu <- conv2_1_1x1_reduce
I0928 12:03:44.341686   735 net.cpp:395] conv2_1_1x1_reduce/relu -> conv2_1_1x1_reduce (in-place)
I0928 12:03:44.342114   735 net.cpp:150] Setting up conv2_1_1x1_reduce/relu
I0928 12:03:44.342128   735 net.cpp:157] Top shape: 16 64 56 56 (3211264)
I0928 12:03:44.342133   735 net.cpp:165] Memory required for data: 314704000
I0928 12:03:44.342137   735 layer_factory.hpp:77] Creating layer conv2_1_3x3
I0928 12:03:44.342145   735 net.cpp:100] Creating Layer conv2_1_3x3
I0928 12:03:44.342149   735 net.cpp:434] conv2_1_3x3 <- conv2_1_1x1_reduce
I0928 12:03:44.342155   735 net.cpp:408] conv2_1_3x3 -> conv2_1_3x3
I0928 12:03:44.343806   735 net.cpp:150] Setting up conv2_1_3x3
I0928 12:03:44.343819   735 net.cpp:157] Top shape: 16 64 56 56 (3211264)
I0928 12:03:44.343824   735 net.cpp:165] Memory required for data: 327549056
I0928 12:03:44.343830   735 layer_factory.hpp:77] Creating layer conv2_1_3x3/bn
I0928 12:03:44.343840   735 net.cpp:100] Creating Layer conv2_1_3x3/bn
I0928 12:03:44.343859   735 net.cpp:434] conv2_1_3x3/bn <- conv2_1_3x3
I0928 12:03:44.343865   735 net.cpp:395] conv2_1_3x3/bn -> conv2_1_3x3 (in-place)
I0928 12:03:44.344033   735 net.cpp:150] Setting up conv2_1_3x3/bn
I0928 12:03:44.344040   735 net.cpp:157] Top shape: 16 64 56 56 (3211264)
I0928 12:03:44.344044   735 net.cpp:165] Memory required for data: 340394112
I0928 12:03:44.344051   735 layer_factory.hpp:77] Creating layer conv2_1_3x3/bn/scale
I0928 12:03:44.344058   735 net.cpp:100] Creating Layer conv2_1_3x3/bn/scale
I0928 12:03:44.344061   735 net.cpp:434] conv2_1_3x3/bn/scale <- conv2_1_3x3
I0928 12:03:44.344066   735 net.cpp:395] conv2_1_3x3/bn/scale -> conv2_1_3x3 (in-place)
I0928 12:03:44.344101   735 layer_factory.hpp:77] Creating layer conv2_1_3x3/bn/scale
I0928 12:03:44.344200   735 net.cpp:150] Setting up conv2_1_3x3/bn/scale
I0928 12:03:44.344208   735 net.cpp:157] Top shape: 16 64 56 56 (3211264)
I0928 12:03:44.344211   735 net.cpp:165] Memory required for data: 353239168
I0928 12:03:44.344219   735 layer_factory.hpp:77] Creating layer conv2_1_3x3/relu
I0928 12:03:44.344225   735 net.cpp:100] Creating Layer conv2_1_3x3/relu
I0928 12:03:44.344229   735 net.cpp:434] conv2_1_3x3/relu <- conv2_1_3x3
I0928 12:03:44.344234   735 net.cpp:395] conv2_1_3x3/relu -> conv2_1_3x3 (in-place)
I0928 12:03:44.344660   735 net.cpp:150] Setting up conv2_1_3x3/relu
I0928 12:03:44.344673   735 net.cpp:157] Top shape: 16 64 56 56 (3211264)
I0928 12:03:44.344677   735 net.cpp:165] Memory required for data: 366084224
I0928 12:03:44.344681   735 layer_factory.hpp:77] Creating layer conv2_1_1x1_increase
I0928 12:03:44.344689   735 net.cpp:100] Creating Layer conv2_1_1x1_increase
I0928 12:03:44.344693   735 net.cpp:434] conv2_1_1x1_increase <- conv2_1_3x3
I0928 12:03:44.344699   735 net.cpp:408] conv2_1_1x1_increase -> conv2_1_1x1_increase
I0928 12:03:44.345600   735 net.cpp:150] Setting up conv2_1_1x1_increase
I0928 12:03:44.345614   735 net.cpp:157] Top shape: 16 256 56 56 (12845056)
I0928 12:03:44.345619   735 net.cpp:165] Memory required for data: 417464448
I0928 12:03:44.345625   735 layer_factory.hpp:77] Creating layer conv2_1_1x1_increase/bn
I0928 12:03:44.345633   735 net.cpp:100] Creating Layer conv2_1_1x1_increase/bn
I0928 12:03:44.345638   735 net.cpp:434] conv2_1_1x1_increase/bn <- conv2_1_1x1_increase
I0928 12:03:44.345643   735 net.cpp:395] conv2_1_1x1_increase/bn -> conv2_1_1x1_increase (in-place)
I0928 12:03:44.345808   735 net.cpp:150] Setting up conv2_1_1x1_increase/bn
I0928 12:03:44.345816   735 net.cpp:157] Top shape: 16 256 56 56 (12845056)
I0928 12:03:44.345821   735 net.cpp:165] Memory required for data: 468844672
I0928 12:03:44.345829   735 layer_factory.hpp:77] Creating layer conv2_1_1x1_increase/bn/scale
I0928 12:03:44.345835   735 net.cpp:100] Creating Layer conv2_1_1x1_increase/bn/scale
I0928 12:03:44.345839   735 net.cpp:434] conv2_1_1x1_increase/bn/scale <- conv2_1_1x1_increase
I0928 12:03:44.345844   735 net.cpp:395] conv2_1_1x1_increase/bn/scale -> conv2_1_1x1_increase (in-place)
I0928 12:03:44.345880   735 layer_factory.hpp:77] Creating layer conv2_1_1x1_increase/bn/scale
I0928 12:03:44.345969   735 net.cpp:150] Setting up conv2_1_1x1_increase/bn/scale
I0928 12:03:44.345976   735 net.cpp:157] Top shape: 16 256 56 56 (12845056)
I0928 12:03:44.345980   735 net.cpp:165] Memory required for data: 520224896
I0928 12:03:44.345986   735 layer_factory.hpp:77] Creating layer conv2_1_1x1_increase_conv2_1_1x1_increase/bn/scale_0_split
I0928 12:03:44.345993   735 net.cpp:100] Creating Layer conv2_1_1x1_increase_conv2_1_1x1_increase/bn/scale_0_split
I0928 12:03:44.345996   735 net.cpp:434] conv2_1_1x1_increase_conv2_1_1x1_increase/bn/scale_0_split <- conv2_1_1x1_increase
I0928 12:03:44.346002   735 net.cpp:408] conv2_1_1x1_increase_conv2_1_1x1_increase/bn/scale_0_split -> conv2_1_1x1_increase_conv2_1_1x1_increase/bn/scale_0_split_0
I0928 12:03:44.346009   735 net.cpp:408] conv2_1_1x1_increase_conv2_1_1x1_increase/bn/scale_0_split -> conv2_1_1x1_increase_conv2_1_1x1_increase/bn/scale_0_split_1
I0928 12:03:44.346055   735 net.cpp:150] Setting up conv2_1_1x1_increase_conv2_1_1x1_increase/bn/scale_0_split
I0928 12:03:44.346061   735 net.cpp:157] Top shape: 16 256 56 56 (12845056)
I0928 12:03:44.346066   735 net.cpp:157] Top shape: 16 256 56 56 (12845056)
I0928 12:03:44.346069   735 net.cpp:165] Memory required for data: 622985344
I0928 12:03:44.346072   735 layer_factory.hpp:77] Creating layer conv2_1_global_pool
I0928 12:03:44.346082   735 net.cpp:100] Creating Layer conv2_1_global_pool
I0928 12:03:44.346086   735 net.cpp:434] conv2_1_global_pool <- conv2_1_1x1_increase_conv2_1_1x1_increase/bn/scale_0_split_0
I0928 12:03:44.346091   735 net.cpp:408] conv2_1_global_pool -> conv2_1_global_pool
I0928 12:03:44.346114   735 net.cpp:150] Setting up conv2_1_global_pool
I0928 12:03:44.346122   735 net.cpp:157] Top shape: 16 256 1 1 (4096)
I0928 12:03:44.346124   735 net.cpp:165] Memory required for data: 623001728
I0928 12:03:44.346127   735 layer_factory.hpp:77] Creating layer conv2_1_1x1_down
I0928 12:03:44.346134   735 net.cpp:100] Creating Layer conv2_1_1x1_down
I0928 12:03:44.346138   735 net.cpp:434] conv2_1_1x1_down <- conv2_1_global_pool
I0928 12:03:44.346143   735 net.cpp:408] conv2_1_1x1_down -> conv2_1_1x1_down
I0928 12:03:44.347319   735 net.cpp:150] Setting up conv2_1_1x1_down
I0928 12:03:44.347332   735 net.cpp:157] Top shape: 16 16 1 1 (256)
I0928 12:03:44.347337   735 net.cpp:165] Memory required for data: 623002752
I0928 12:03:44.347344   735 layer_factory.hpp:77] Creating layer conv2_1_1x1_down/relu
I0928 12:03:44.347352   735 net.cpp:100] Creating Layer conv2_1_1x1_down/relu
I0928 12:03:44.347357   735 net.cpp:434] conv2_1_1x1_down/relu <- conv2_1_1x1_down
I0928 12:03:44.347362   735 net.cpp:395] conv2_1_1x1_down/relu -> conv2_1_1x1_down (in-place)
I0928 12:03:44.347532   735 net.cpp:150] Setting up conv2_1_1x1_down/relu
I0928 12:03:44.347542   735 net.cpp:157] Top shape: 16 16 1 1 (256)
I0928 12:03:44.347545   735 net.cpp:165] Memory required for data: 623003776
I0928 12:03:44.347548   735 layer_factory.hpp:77] Creating layer conv2_1_1x1_up
I0928 12:03:44.347558   735 net.cpp:100] Creating Layer conv2_1_1x1_up
I0928 12:03:44.347563   735 net.cpp:434] conv2_1_1x1_up <- conv2_1_1x1_down
I0928 12:03:44.347569   735 net.cpp:408] conv2_1_1x1_up -> conv2_1_1x1_up
I0928 12:03:44.348567   735 net.cpp:150] Setting up conv2_1_1x1_up
I0928 12:03:44.348579   735 net.cpp:157] Top shape: 16 256 1 1 (4096)
I0928 12:03:44.348584   735 net.cpp:165] Memory required for data: 623020160
I0928 12:03:44.348590   735 layer_factory.hpp:77] Creating layer conv2_1_prob
I0928 12:03:44.348600   735 net.cpp:100] Creating Layer conv2_1_prob
I0928 12:03:44.348605   735 net.cpp:434] conv2_1_prob <- conv2_1_1x1_up
I0928 12:03:44.348613   735 net.cpp:395] conv2_1_prob -> conv2_1_1x1_up (in-place)
I0928 12:03:44.348781   735 net.cpp:150] Setting up conv2_1_prob
I0928 12:03:44.348796   735 net.cpp:157] Top shape: 16 256 1 1 (4096)
I0928 12:03:44.348801   735 net.cpp:165] Memory required for data: 623036544
I0928 12:03:44.348805   735 layer_factory.hpp:77] Creating layer conv2_1_1x1_proj
I0928 12:03:44.348814   735 net.cpp:100] Creating Layer conv2_1_1x1_proj
I0928 12:03:44.348819   735 net.cpp:434] conv2_1_1x1_proj <- pool1/3x3_s2_pool1/3x3_s2_0_split_1
I0928 12:03:44.348825   735 net.cpp:408] conv2_1_1x1_proj -> conv2_1_1x1_proj
I0928 12:03:44.349768   735 net.cpp:150] Setting up conv2_1_1x1_proj
I0928 12:03:44.349782   735 net.cpp:157] Top shape: 16 256 56 56 (12845056)
I0928 12:03:44.349792   735 net.cpp:165] Memory required for data: 674416768
I0928 12:03:44.349797   735 layer_factory.hpp:77] Creating layer conv2_1_1x1_proj/bn
I0928 12:03:44.349807   735 net.cpp:100] Creating Layer conv2_1_1x1_proj/bn
I0928 12:03:44.349812   735 net.cpp:434] conv2_1_1x1_proj/bn <- conv2_1_1x1_proj
I0928 12:03:44.349817   735 net.cpp:395] conv2_1_1x1_proj/bn -> conv2_1_1x1_proj (in-place)
I0928 12:03:44.349985   735 net.cpp:150] Setting up conv2_1_1x1_proj/bn
I0928 12:03:44.349993   735 net.cpp:157] Top shape: 16 256 56 56 (12845056)
I0928 12:03:44.350008   735 net.cpp:165] Memory required for data: 725796992
I0928 12:03:44.350016   735 layer_factory.hpp:77] Creating layer conv2_1_1x1_proj/bn/scale
I0928 12:03:44.350024   735 net.cpp:100] Creating Layer conv2_1_1x1_proj/bn/scale
I0928 12:03:44.350029   735 net.cpp:434] conv2_1_1x1_proj/bn/scale <- conv2_1_1x1_proj
I0928 12:03:44.350034   735 net.cpp:395] conv2_1_1x1_proj/bn/scale -> conv2_1_1x1_proj (in-place)
I0928 12:03:44.350075   735 layer_factory.hpp:77] Creating layer conv2_1_1x1_proj/bn/scale
I0928 12:03:44.350177   735 net.cpp:150] Setting up conv2_1_1x1_proj/bn/scale
I0928 12:03:44.350183   735 net.cpp:157] Top shape: 16 256 56 56 (12845056)
I0928 12:03:44.350188   735 net.cpp:165] Memory required for data: 777177216
I0928 12:03:44.350198   735 layer_factory.hpp:77] Creating layer conv2_1
I0928 12:03:44.350206   735 net.cpp:100] Creating Layer conv2_1
I0928 12:03:44.350210   735 net.cpp:434] conv2_1 <- conv2_1_1x1_up
I0928 12:03:44.350215   735 net.cpp:434] conv2_1 <- conv2_1_1x1_increase_conv2_1_1x1_increase/bn/scale_0_split_1
I0928 12:03:44.350221   735 net.cpp:434] conv2_1 <- conv2_1_1x1_proj
I0928 12:03:44.350226   735 net.cpp:408] conv2_1 -> conv2_1
I0928 12:03:44.350276   735 net.cpp:150] Setting up conv2_1
I0928 12:03:44.350283   735 net.cpp:157] Top shape: 16 256 56 56 (12845056)
I0928 12:03:44.350287   735 net.cpp:165] Memory required for data: 828557440
I0928 12:03:44.350291   735 layer_factory.hpp:77] Creating layer conv2_1/relu
I0928 12:03:44.350301   735 net.cpp:100] Creating Layer conv2_1/relu
I0928 12:03:44.350304   735 net.cpp:434] conv2_1/relu <- conv2_1
I0928 12:03:44.350308   735 net.cpp:395] conv2_1/relu -> conv2_1 (in-place)
I0928 12:03:44.350476   735 net.cpp:150] Setting up conv2_1/relu
I0928 12:03:44.350484   735 net.cpp:157] Top shape: 16 256 56 56 (12845056)
I0928 12:03:44.350488   735 net.cpp:165] Memory required for data: 879937664
I0928 12:03:44.350492   735 layer_factory.hpp:77] Creating layer conv2_1_conv2_1/relu_0_split
I0928 12:03:44.350497   735 net.cpp:100] Creating Layer conv2_1_conv2_1/relu_0_split
I0928 12:03:44.350500   735 net.cpp:434] conv2_1_conv2_1/relu_0_split <- conv2_1
I0928 12:03:44.350507   735 net.cpp:408] conv2_1_conv2_1/relu_0_split -> conv2_1_conv2_1/relu_0_split_0
I0928 12:03:44.350513   735 net.cpp:408] conv2_1_conv2_1/relu_0_split -> conv2_1_conv2_1/relu_0_split_1
I0928 12:03:44.350551   735 net.cpp:150] Setting up conv2_1_conv2_1/relu_0_split
I0928 12:03:44.350558   735 net.cpp:157] Top shape: 16 256 56 56 (12845056)
I0928 12:03:44.350564   735 net.cpp:157] Top shape: 16 256 56 56 (12845056)
I0928 12:03:44.350566   735 net.cpp:165] Memory required for data: 982698112
I0928 12:03:44.350570   735 layer_factory.hpp:77] Creating layer conv2_2_1x1_reduce
I0928 12:03:44.350577   735 net.cpp:100] Creating Layer conv2_2_1x1_reduce
I0928 12:03:44.350581   735 net.cpp:434] conv2_2_1x1_reduce <- conv2_1_conv2_1/relu_0_split_0
I0928 12:03:44.350587   735 net.cpp:408] conv2_2_1x1_reduce -> conv2_2_1x1_reduce
I0928 12:03:44.351552   735 net.cpp:150] Setting up conv2_2_1x1_reduce
I0928 12:03:44.351567   735 net.cpp:157] Top shape: 16 64 56 56 (3211264)
I0928 12:03:44.351570   735 net.cpp:165] Memory required for data: 995543168
I0928 12:03:44.351577   735 layer_factory.hpp:77] Creating layer conv2_2_1x1_reduce/bn
I0928 12:03:44.351585   735 net.cpp:100] Creating Layer conv2_2_1x1_reduce/bn
I0928 12:03:44.351590   735 net.cpp:434] conv2_2_1x1_reduce/bn <- conv2_2_1x1_reduce
I0928 12:03:44.351595   735 net.cpp:395] conv2_2_1x1_reduce/bn -> conv2_2_1x1_reduce (in-place)
I0928 12:03:44.351781   735 net.cpp:150] Setting up conv2_2_1x1_reduce/bn
I0928 12:03:44.351794   735 net.cpp:157] Top shape: 16 64 56 56 (3211264)
I0928 12:03:44.351799   735 net.cpp:165] Memory required for data: 1008388224
I0928 12:03:44.351806   735 layer_factory.hpp:77] Creating layer conv2_2_1x1_reduce/bn/scale
I0928 12:03:44.351814   735 net.cpp:100] Creating Layer conv2_2_1x1_reduce/bn/scale
I0928 12:03:44.351819   735 net.cpp:434] conv2_2_1x1_reduce/bn/scale <- conv2_2_1x1_reduce
I0928 12:03:44.351836   735 net.cpp:395] conv2_2_1x1_reduce/bn/scale -> conv2_2_1x1_reduce (in-place)
I0928 12:03:44.351878   735 layer_factory.hpp:77] Creating layer conv2_2_1x1_reduce/bn/scale
I0928 12:03:44.351989   735 net.cpp:150] Setting up conv2_2_1x1_reduce/bn/scale
I0928 12:03:44.351995   735 net.cpp:157] Top shape: 16 64 56 56 (3211264)
I0928 12:03:44.351999   735 net.cpp:165] Memory required for data: 1021233280
I0928 12:03:44.352005   735 layer_factory.hpp:77] Creating layer conv2_2_1x1_reduce/relu
I0928 12:03:44.352012   735 net.cpp:100] Creating Layer conv2_2_1x1_reduce/relu
I0928 12:03:44.352016   735 net.cpp:434] conv2_2_1x1_reduce/relu <- conv2_2_1x1_reduce
I0928 12:03:44.352020   735 net.cpp:395] conv2_2_1x1_reduce/relu -> conv2_2_1x1_reduce (in-place)
I0928 12:03:44.352190   735 net.cpp:150] Setting up conv2_2_1x1_reduce/relu
I0928 12:03:44.352198   735 net.cpp:157] Top shape: 16 64 56 56 (3211264)
I0928 12:03:44.352202   735 net.cpp:165] Memory required for data: 1034078336
I0928 12:03:44.352206   735 layer_factory.hpp:77] Creating layer conv2_2_3x3
I0928 12:03:44.352216   735 net.cpp:100] Creating Layer conv2_2_3x3
I0928 12:03:44.352219   735 net.cpp:434] conv2_2_3x3 <- conv2_2_1x1_reduce
I0928 12:03:44.352226   735 net.cpp:408] conv2_2_3x3 -> conv2_2_3x3
I0928 12:03:44.353200   735 net.cpp:150] Setting up conv2_2_3x3
I0928 12:03:44.353214   735 net.cpp:157] Top shape: 16 64 56 56 (3211264)
I0928 12:03:44.353219   735 net.cpp:165] Memory required for data: 1046923392
I0928 12:03:44.353224   735 layer_factory.hpp:77] Creating layer conv2_2_3x3/bn
I0928 12:03:44.353235   735 net.cpp:100] Creating Layer conv2_2_3x3/bn
I0928 12:03:44.353240   735 net.cpp:434] conv2_2_3x3/bn <- conv2_2_3x3
I0928 12:03:44.353245   735 net.cpp:395] conv2_2_3x3/bn -> conv2_2_3x3 (in-place)
I0928 12:03:44.353432   735 net.cpp:150] Setting up conv2_2_3x3/bn
I0928 12:03:44.353440   735 net.cpp:157] Top shape: 16 64 56 56 (3211264)
I0928 12:03:44.353443   735 net.cpp:165] Memory required for data: 1059768448
I0928 12:03:44.353451   735 layer_factory.hpp:77] Creating layer conv2_2_3x3/bn/scale
I0928 12:03:44.353456   735 net.cpp:100] Creating Layer conv2_2_3x3/bn/scale
I0928 12:03:44.353461   735 net.cpp:434] conv2_2_3x3/bn/scale <- conv2_2_3x3
I0928 12:03:44.353466   735 net.cpp:395] conv2_2_3x3/bn/scale -> conv2_2_3x3 (in-place)
I0928 12:03:44.353505   735 layer_factory.hpp:77] Creating layer conv2_2_3x3/bn/scale
I0928 12:03:44.353615   735 net.cpp:150] Setting up conv2_2_3x3/bn/scale
I0928 12:03:44.353622   735 net.cpp:157] Top shape: 16 64 56 56 (3211264)
I0928 12:03:44.353626   735 net.cpp:165] Memory required for data: 1072613504
I0928 12:03:44.353631   735 layer_factory.hpp:77] Creating layer conv2_2_3x3/relu
I0928 12:03:44.353637   735 net.cpp:100] Creating Layer conv2_2_3x3/relu
I0928 12:03:44.353641   735 net.cpp:434] conv2_2_3x3/relu <- conv2_2_3x3
I0928 12:03:44.353646   735 net.cpp:395] conv2_2_3x3/relu -> conv2_2_3x3 (in-place)
I0928 12:03:44.353819   735 net.cpp:150] Setting up conv2_2_3x3/relu
I0928 12:03:44.353829   735 net.cpp:157] Top shape: 16 64 56 56 (3211264)
I0928 12:03:44.353833   735 net.cpp:165] Memory required for data: 1085458560
I0928 12:03:44.353837   735 layer_factory.hpp:77] Creating layer conv2_2_1x1_increase
I0928 12:03:44.353847   735 net.cpp:100] Creating Layer conv2_2_1x1_increase
I0928 12:03:44.353852   735 net.cpp:434] conv2_2_1x1_increase <- conv2_2_3x3
I0928 12:03:44.353857   735 net.cpp:408] conv2_2_1x1_increase -> conv2_2_1x1_increase
I0928 12:03:44.354826   735 net.cpp:150] Setting up conv2_2_1x1_increase
I0928 12:03:44.354840   735 net.cpp:157] Top shape: 16 256 56 56 (12845056)
I0928 12:03:44.354845   735 net.cpp:165] Memory required for data: 1136838784
I0928 12:03:44.354849   735 layer_factory.hpp:77] Creating layer conv2_2_1x1_increase/bn
I0928 12:03:44.354858   735 net.cpp:100] Creating Layer conv2_2_1x1_increase/bn
I0928 12:03:44.354863   735 net.cpp:434] conv2_2_1x1_increase/bn <- conv2_2_1x1_increase
I0928 12:03:44.354871   735 net.cpp:395] conv2_2_1x1_increase/bn -> conv2_2_1x1_increase (in-place)
I0928 12:03:44.355060   735 net.cpp:150] Setting up conv2_2_1x1_increase/bn
I0928 12:03:44.355069   735 net.cpp:157] Top shape: 16 256 56 56 (12845056)
I0928 12:03:44.355074   735 net.cpp:165] Memory required for data: 1188219008
I0928 12:03:44.355082   735 layer_factory.hpp:77] Creating layer conv2_2_1x1_increase/bn/scale
I0928 12:03:44.355087   735 net.cpp:100] Creating Layer conv2_2_1x1_increase/bn/scale
I0928 12:03:44.355093   735 net.cpp:434] conv2_2_1x1_increase/bn/scale <- conv2_2_1x1_increase
I0928 12:03:44.355098   735 net.cpp:395] conv2_2_1x1_increase/bn/scale -> conv2_2_1x1_increase (in-place)
I0928 12:03:44.355134   735 layer_factory.hpp:77] Creating layer conv2_2_1x1_increase/bn/scale
I0928 12:03:44.355238   735 net.cpp:150] Setting up conv2_2_1x1_increase/bn/scale
I0928 12:03:44.355245   735 net.cpp:157] Top shape: 16 256 56 56 (12845056)
I0928 12:03:44.355249   735 net.cpp:165] Memory required for data: 1239599232
I0928 12:03:44.355255   735 layer_factory.hpp:77] Creating layer conv2_2_1x1_increase_conv2_2_1x1_increase/bn/scale_0_split
I0928 12:03:44.355262   735 net.cpp:100] Creating Layer conv2_2_1x1_increase_conv2_2_1x1_increase/bn/scale_0_split
I0928 12:03:44.355264   735 net.cpp:434] conv2_2_1x1_increase_conv2_2_1x1_increase/bn/scale_0_split <- conv2_2_1x1_increase
I0928 12:03:44.355269   735 net.cpp:408] conv2_2_1x1_increase_conv2_2_1x1_increase/bn/scale_0_split -> conv2_2_1x1_increase_conv2_2_1x1_increase/bn/scale_0_split_0
I0928 12:03:44.355278   735 net.cpp:408] conv2_2_1x1_increase_conv2_2_1x1_increase/bn/scale_0_split -> conv2_2_1x1_increase_conv2_2_1x1_increase/bn/scale_0_split_1
I0928 12:03:44.355312   735 net.cpp:150] Setting up conv2_2_1x1_increase_conv2_2_1x1_increase/bn/scale_0_split
I0928 12:03:44.355319   735 net.cpp:157] Top shape: 16 256 56 56 (12845056)
I0928 12:03:44.355324   735 net.cpp:157] Top shape: 16 256 56 56 (12845056)
I0928 12:03:44.355326   735 net.cpp:165] Memory required for data: 1342359680
I0928 12:03:44.355329   735 layer_factory.hpp:77] Creating layer conv2_2_global_pool
I0928 12:03:44.355337   735 net.cpp:100] Creating Layer conv2_2_global_pool
I0928 12:03:44.355341   735 net.cpp:434] conv2_2_global_pool <- conv2_2_1x1_increase_conv2_2_1x1_increase/bn/scale_0_split_0
I0928 12:03:44.355346   735 net.cpp:408] conv2_2_global_pool -> conv2_2_global_pool
I0928 12:03:44.355367   735 net.cpp:150] Setting up conv2_2_global_pool
I0928 12:03:44.355373   735 net.cpp:157] Top shape: 16 256 1 1 (4096)
I0928 12:03:44.355377   735 net.cpp:165] Memory required for data: 1342376064
I0928 12:03:44.355381   735 layer_factory.hpp:77] Creating layer conv2_2_1x1_down
I0928 12:03:44.355388   735 net.cpp:100] Creating Layer conv2_2_1x1_down
I0928 12:03:44.355392   735 net.cpp:434] conv2_2_1x1_down <- conv2_2_global_pool
I0928 12:03:44.355397   735 net.cpp:408] conv2_2_1x1_down -> conv2_2_1x1_down
I0928 12:03:44.356405   735 net.cpp:150] Setting up conv2_2_1x1_down
I0928 12:03:44.356418   735 net.cpp:157] Top shape: 16 16 1 1 (256)
I0928 12:03:44.356422   735 net.cpp:165] Memory required for data: 1342377088
I0928 12:03:44.356429   735 layer_factory.hpp:77] Creating layer conv2_2_1x1_down/relu
I0928 12:03:44.356437   735 net.cpp:100] Creating Layer conv2_2_1x1_down/relu
I0928 12:03:44.356442   735 net.cpp:434] conv2_2_1x1_down/relu <- conv2_2_1x1_down
I0928 12:03:44.356447   735 net.cpp:395] conv2_2_1x1_down/relu -> conv2_2_1x1_down (in-place)
I0928 12:03:44.356889   735 net.cpp:150] Setting up conv2_2_1x1_down/relu
I0928 12:03:44.356902   735 net.cpp:157] Top shape: 16 16 1 1 (256)
I0928 12:03:44.356907   735 net.cpp:165] Memory required for data: 1342378112
I0928 12:03:44.356910   735 layer_factory.hpp:77] Creating layer conv2_2_1x1_up
I0928 12:03:44.356919   735 net.cpp:100] Creating Layer conv2_2_1x1_up
I0928 12:03:44.356922   735 net.cpp:434] conv2_2_1x1_up <- conv2_2_1x1_down
I0928 12:03:44.356930   735 net.cpp:408] conv2_2_1x1_up -> conv2_2_1x1_up
I0928 12:03:44.357648   735 net.cpp:150] Setting up conv2_2_1x1_up
I0928 12:03:44.357659   735 net.cpp:157] Top shape: 16 256 1 1 (4096)
I0928 12:03:44.357676   735 net.cpp:165] Memory required for data: 1342394496
I0928 12:03:44.357683   735 layer_factory.hpp:77] Creating layer conv2_2_prob
I0928 12:03:44.357693   735 net.cpp:100] Creating Layer conv2_2_prob
I0928 12:03:44.357698   735 net.cpp:434] conv2_2_prob <- conv2_2_1x1_up
I0928 12:03:44.357707   735 net.cpp:395] conv2_2_prob -> conv2_2_1x1_up (in-place)
I0928 12:03:44.358147   735 net.cpp:150] Setting up conv2_2_prob
I0928 12:03:44.358160   735 net.cpp:157] Top shape: 16 256 1 1 (4096)
I0928 12:03:44.358165   735 net.cpp:165] Memory required for data: 1342410880
I0928 12:03:44.358168   735 layer_factory.hpp:77] Creating layer conv2_2
I0928 12:03:44.358176   735 net.cpp:100] Creating Layer conv2_2
I0928 12:03:44.358181   735 net.cpp:434] conv2_2 <- conv2_2_1x1_up
I0928 12:03:44.358186   735 net.cpp:434] conv2_2 <- conv2_2_1x1_increase_conv2_2_1x1_increase/bn/scale_0_split_1
I0928 12:03:44.358191   735 net.cpp:434] conv2_2 <- conv2_1_conv2_1/relu_0_split_1
I0928 12:03:44.358196   735 net.cpp:408] conv2_2 -> conv2_2
I0928 12:03:44.358252   735 net.cpp:150] Setting up conv2_2
I0928 12:03:44.358260   735 net.cpp:157] Top shape: 16 256 56 56 (12845056)
I0928 12:03:44.358264   735 net.cpp:165] Memory required for data: 1393791104
I0928 12:03:44.358268   735 layer_factory.hpp:77] Creating layer conv2_2/relu
I0928 12:03:44.358273   735 net.cpp:100] Creating Layer conv2_2/relu
I0928 12:03:44.358276   735 net.cpp:434] conv2_2/relu <- conv2_2
I0928 12:03:44.358283   735 net.cpp:395] conv2_2/relu -> conv2_2 (in-place)
I0928 12:03:44.358440   735 net.cpp:150] Setting up conv2_2/relu
I0928 12:03:44.358449   735 net.cpp:157] Top shape: 16 256 56 56 (12845056)
I0928 12:03:44.358453   735 net.cpp:165] Memory required for data: 1445171328
I0928 12:03:44.358456   735 layer_factory.hpp:77] Creating layer conv2_2_conv2_2/relu_0_split
I0928 12:03:44.358461   735 net.cpp:100] Creating Layer conv2_2_conv2_2/relu_0_split
I0928 12:03:44.358465   735 net.cpp:434] conv2_2_conv2_2/relu_0_split <- conv2_2
I0928 12:03:44.358472   735 net.cpp:408] conv2_2_conv2_2/relu_0_split -> conv2_2_conv2_2/relu_0_split_0
I0928 12:03:44.358481   735 net.cpp:408] conv2_2_conv2_2/relu_0_split -> conv2_2_conv2_2/relu_0_split_1
I0928 12:03:44.358527   735 net.cpp:150] Setting up conv2_2_conv2_2/relu_0_split
I0928 12:03:44.358533   735 net.cpp:157] Top shape: 16 256 56 56 (12845056)
I0928 12:03:44.358538   735 net.cpp:157] Top shape: 16 256 56 56 (12845056)
I0928 12:03:44.358541   735 net.cpp:165] Memory required for data: 1547931776
I0928 12:03:44.358546   735 layer_factory.hpp:77] Creating layer conv2_3_1x1_reduce
I0928 12:03:44.358553   735 net.cpp:100] Creating Layer conv2_3_1x1_reduce
I0928 12:03:44.358557   735 net.cpp:434] conv2_3_1x1_reduce <- conv2_2_conv2_2/relu_0_split_0
I0928 12:03:44.358562   735 net.cpp:408] conv2_3_1x1_reduce -> conv2_3_1x1_reduce
I0928 12:03:44.359792   735 net.cpp:150] Setting up conv2_3_1x1_reduce
I0928 12:03:44.359807   735 net.cpp:157] Top shape: 16 64 56 56 (3211264)
I0928 12:03:44.359812   735 net.cpp:165] Memory required for data: 1560776832
I0928 12:03:44.359817   735 layer_factory.hpp:77] Creating layer conv2_3_1x1_reduce/bn
I0928 12:03:44.359824   735 net.cpp:100] Creating Layer conv2_3_1x1_reduce/bn
I0928 12:03:44.359829   735 net.cpp:434] conv2_3_1x1_reduce/bn <- conv2_3_1x1_reduce
I0928 12:03:44.359836   735 net.cpp:395] conv2_3_1x1_reduce/bn -> conv2_3_1x1_reduce (in-place)
I0928 12:03:44.360029   735 net.cpp:150] Setting up conv2_3_1x1_reduce/bn
I0928 12:03:44.360038   735 net.cpp:157] Top shape: 16 64 56 56 (3211264)
I0928 12:03:44.360041   735 net.cpp:165] Memory required for data: 1573621888
I0928 12:03:44.360049   735 layer_factory.hpp:77] Creating layer conv2_3_1x1_reduce/bn/scale
I0928 12:03:44.360055   735 net.cpp:100] Creating Layer conv2_3_1x1_reduce/bn/scale
I0928 12:03:44.360059   735 net.cpp:434] conv2_3_1x1_reduce/bn/scale <- conv2_3_1x1_reduce
I0928 12:03:44.360066   735 net.cpp:395] conv2_3_1x1_reduce/bn/scale -> conv2_3_1x1_reduce (in-place)
I0928 12:03:44.360103   735 layer_factory.hpp:77] Creating layer conv2_3_1x1_reduce/bn/scale
I0928 12:03:44.360239   735 net.cpp:150] Setting up conv2_3_1x1_reduce/bn/scale
I0928 12:03:44.360247   735 net.cpp:157] Top shape: 16 64 56 56 (3211264)
I0928 12:03:44.360251   735 net.cpp:165] Memory required for data: 1586466944
I0928 12:03:44.360256   735 layer_factory.hpp:77] Creating layer conv2_3_1x1_reduce/relu
I0928 12:03:44.360263   735 net.cpp:100] Creating Layer conv2_3_1x1_reduce/relu
I0928 12:03:44.360267   735 net.cpp:434] conv2_3_1x1_reduce/relu <- conv2_3_1x1_reduce
I0928 12:03:44.360273   735 net.cpp:395] conv2_3_1x1_reduce/relu -> conv2_3_1x1_reduce (in-place)
I0928 12:03:44.360442   735 net.cpp:150] Setting up conv2_3_1x1_reduce/relu
I0928 12:03:44.360452   735 net.cpp:157] Top shape: 16 64 56 56 (3211264)
I0928 12:03:44.360456   735 net.cpp:165] Memory required for data: 1599312000
I0928 12:03:44.360460   735 layer_factory.hpp:77] Creating layer conv2_3_3x3
I0928 12:03:44.360469   735 net.cpp:100] Creating Layer conv2_3_3x3
I0928 12:03:44.360474   735 net.cpp:434] conv2_3_3x3 <- conv2_3_1x1_reduce
I0928 12:03:44.360479   735 net.cpp:408] conv2_3_3x3 -> conv2_3_3x3
I0928 12:03:44.361479   735 net.cpp:150] Setting up conv2_3_3x3
I0928 12:03:44.361492   735 net.cpp:157] Top shape: 16 64 56 56 (3211264)
I0928 12:03:44.361497   735 net.cpp:165] Memory required for data: 1612157056
I0928 12:03:44.361503   735 layer_factory.hpp:77] Creating layer conv2_3_3x3/bn
I0928 12:03:44.361512   735 net.cpp:100] Creating Layer conv2_3_3x3/bn
I0928 12:03:44.361517   735 net.cpp:434] conv2_3_3x3/bn <- conv2_3_3x3
I0928 12:03:44.361522   735 net.cpp:395] conv2_3_3x3/bn -> conv2_3_3x3 (in-place)
I0928 12:03:44.361713   735 net.cpp:150] Setting up conv2_3_3x3/bn
I0928 12:03:44.361721   735 net.cpp:157] Top shape: 16 64 56 56 (3211264)
I0928 12:03:44.361726   735 net.cpp:165] Memory required for data: 1625002112
I0928 12:03:44.361739   735 layer_factory.hpp:77] Creating layer conv2_3_3x3/bn/scale
I0928 12:03:44.361748   735 net.cpp:100] Creating Layer conv2_3_3x3/bn/scale
I0928 12:03:44.361752   735 net.cpp:434] conv2_3_3x3/bn/scale <- conv2_3_3x3
I0928 12:03:44.361757   735 net.cpp:395] conv2_3_3x3/bn/scale -> conv2_3_3x3 (in-place)
I0928 12:03:44.361804   735 layer_factory.hpp:77] Creating layer conv2_3_3x3/bn/scale
I0928 12:03:44.361920   735 net.cpp:150] Setting up conv2_3_3x3/bn/scale
I0928 12:03:44.361927   735 net.cpp:157] Top shape: 16 64 56 56 (3211264)
I0928 12:03:44.361932   735 net.cpp:165] Memory required for data: 1637847168
I0928 12:03:44.361937   735 layer_factory.hpp:77] Creating layer conv2_3_3x3/relu
I0928 12:03:44.361943   735 net.cpp:100] Creating Layer conv2_3_3x3/relu
I0928 12:03:44.361948   735 net.cpp:434] conv2_3_3x3/relu <- conv2_3_3x3
I0928 12:03:44.361951   735 net.cpp:395] conv2_3_3x3/relu -> conv2_3_3x3 (in-place)
I0928 12:03:44.362115   735 net.cpp:150] Setting up conv2_3_3x3/relu
I0928 12:03:44.362125   735 net.cpp:157] Top shape: 16 64 56 56 (3211264)
I0928 12:03:44.362129   735 net.cpp:165] Memory required for data: 1650692224
I0928 12:03:44.362133   735 layer_factory.hpp:77] Creating layer conv2_3_1x1_increase
I0928 12:03:44.362143   735 net.cpp:100] Creating Layer conv2_3_1x1_increase
I0928 12:03:44.362146   735 net.cpp:434] conv2_3_1x1_increase <- conv2_3_3x3
I0928 12:03:44.362152   735 net.cpp:408] conv2_3_1x1_increase -> conv2_3_1x1_increase
I0928 12:03:44.363147   735 net.cpp:150] Setting up conv2_3_1x1_increase
I0928 12:03:44.363160   735 net.cpp:157] Top shape: 16 256 56 56 (12845056)
I0928 12:03:44.363164   735 net.cpp:165] Memory required for data: 1702072448
I0928 12:03:44.363169   735 layer_factory.hpp:77] Creating layer conv2_3_1x1_increase/bn
I0928 12:03:44.363178   735 net.cpp:100] Creating Layer conv2_3_1x1_increase/bn
I0928 12:03:44.363181   735 net.cpp:434] conv2_3_1x1_increase/bn <- conv2_3_1x1_increase
I0928 12:03:44.363190   735 net.cpp:395] conv2_3_1x1_increase/bn -> conv2_3_1x1_increase (in-place)
I0928 12:03:44.363374   735 net.cpp:150] Setting up conv2_3_1x1_increase/bn
I0928 12:03:44.363382   735 net.cpp:157] Top shape: 16 256 56 56 (12845056)
I0928 12:03:44.363397   735 net.cpp:165] Memory required for data: 1753452672
I0928 12:03:44.363405   735 layer_factory.hpp:77] Creating layer conv2_3_1x1_increase/bn/scale
I0928 12:03:44.363418   735 net.cpp:100] Creating Layer conv2_3_1x1_increase/bn/scale
I0928 12:03:44.363422   735 net.cpp:434] conv2_3_1x1_increase/bn/scale <- conv2_3_1x1_increase
I0928 12:03:44.363427   735 net.cpp:395] conv2_3_1x1_increase/bn/scale -> conv2_3_1x1_increase (in-place)
I0928 12:03:44.363471   735 layer_factory.hpp:77] Creating layer conv2_3_1x1_increase/bn/scale
I0928 12:03:44.363577   735 net.cpp:150] Setting up conv2_3_1x1_increase/bn/scale
I0928 12:03:44.363584   735 net.cpp:157] Top shape: 16 256 56 56 (12845056)
I0928 12:03:44.363589   735 net.cpp:165] Memory required for data: 1804832896
I0928 12:03:44.363595   735 layer_factory.hpp:77] Creating layer conv2_3_1x1_increase_conv2_3_1x1_increase/bn/scale_0_split
I0928 12:03:44.363600   735 net.cpp:100] Creating Layer conv2_3_1x1_increase_conv2_3_1x1_increase/bn/scale_0_split
I0928 12:03:44.363605   735 net.cpp:434] conv2_3_1x1_increase_conv2_3_1x1_increase/bn/scale_0_split <- conv2_3_1x1_increase
I0928 12:03:44.363610   735 net.cpp:408] conv2_3_1x1_increase_conv2_3_1x1_increase/bn/scale_0_split -> conv2_3_1x1_increase_conv2_3_1x1_increase/bn/scale_0_split_0
I0928 12:03:44.363617   735 net.cpp:408] conv2_3_1x1_increase_conv2_3_1x1_increase/bn/scale_0_split -> conv2_3_1x1_increase_conv2_3_1x1_increase/bn/scale_0_split_1
I0928 12:03:44.363652   735 net.cpp:150] Setting up conv2_3_1x1_increase_conv2_3_1x1_increase/bn/scale_0_split
I0928 12:03:44.363658   735 net.cpp:157] Top shape: 16 256 56 56 (12845056)
I0928 12:03:44.363663   735 net.cpp:157] Top shape: 16 256 56 56 (12845056)
I0928 12:03:44.363667   735 net.cpp:165] Memory required for data: 1907593344
I0928 12:03:44.363669   735 layer_factory.hpp:77] Creating layer conv2_3_global_pool
I0928 12:03:44.363678   735 net.cpp:100] Creating Layer conv2_3_global_pool
I0928 12:03:44.363682   735 net.cpp:434] conv2_3_global_pool <- conv2_3_1x1_increase_conv2_3_1x1_increase/bn/scale_0_split_0
I0928 12:03:44.363687   735 net.cpp:408] conv2_3_global_pool -> conv2_3_global_pool
I0928 12:03:44.363708   735 net.cpp:150] Setting up conv2_3_global_pool
I0928 12:03:44.363714   735 net.cpp:157] Top shape: 16 256 1 1 (4096)
I0928 12:03:44.363718   735 net.cpp:165] Memory required for data: 1907609728
I0928 12:03:44.363720   735 layer_factory.hpp:77] Creating layer conv2_3_1x1_down
I0928 12:03:44.363729   735 net.cpp:100] Creating Layer conv2_3_1x1_down
I0928 12:03:44.363734   735 net.cpp:434] conv2_3_1x1_down <- conv2_3_global_pool
I0928 12:03:44.363739   735 net.cpp:408] conv2_3_1x1_down -> conv2_3_1x1_down
I0928 12:03:44.364763   735 net.cpp:150] Setting up conv2_3_1x1_down
I0928 12:03:44.364778   735 net.cpp:157] Top shape: 16 16 1 1 (256)
I0928 12:03:44.364783   735 net.cpp:165] Memory required for data: 1907610752
I0928 12:03:44.364795   735 layer_factory.hpp:77] Creating layer conv2_3_1x1_down/relu
I0928 12:03:44.364804   735 net.cpp:100] Creating Layer conv2_3_1x1_down/relu
I0928 12:03:44.364809   735 net.cpp:434] conv2_3_1x1_down/relu <- conv2_3_1x1_down
I0928 12:03:44.364815   735 net.cpp:395] conv2_3_1x1_down/relu -> conv2_3_1x1_down (in-place)
I0928 12:03:44.364980   735 net.cpp:150] Setting up conv2_3_1x1_down/relu
I0928 12:03:44.364990   735 net.cpp:157] Top shape: 16 16 1 1 (256)
I0928 12:03:44.364995   735 net.cpp:165] Memory required for data: 1907611776
I0928 12:03:44.364997   735 layer_factory.hpp:77] Creating layer conv2_3_1x1_up
I0928 12:03:44.365010   735 net.cpp:100] Creating Layer conv2_3_1x1_up
I0928 12:03:44.365015   735 net.cpp:434] conv2_3_1x1_up <- conv2_3_1x1_down
I0928 12:03:44.365020   735 net.cpp:408] conv2_3_1x1_up -> conv2_3_1x1_up
I0928 12:03:44.366037   735 net.cpp:150] Setting up conv2_3_1x1_up
I0928 12:03:44.366055   735 net.cpp:157] Top shape: 16 256 1 1 (4096)
I0928 12:03:44.366060   735 net.cpp:165] Memory required for data: 1907628160
I0928 12:03:44.366065   735 layer_factory.hpp:77] Creating layer conv2_3_prob
I0928 12:03:44.366083   735 net.cpp:100] Creating Layer conv2_3_prob
I0928 12:03:44.366089   735 net.cpp:434] conv2_3_prob <- conv2_3_1x1_up
I0928 12:03:44.366096   735 net.cpp:395] conv2_3_prob -> conv2_3_1x1_up (in-place)
I0928 12:03:44.366530   735 net.cpp:150] Setting up conv2_3_prob
I0928 12:03:44.366544   735 net.cpp:157] Top shape: 16 256 1 1 (4096)
I0928 12:03:44.366547   735 net.cpp:165] Memory required for data: 1907644544
I0928 12:03:44.366550   735 layer_factory.hpp:77] Creating layer conv2_3
I0928 12:03:44.366559   735 net.cpp:100] Creating Layer conv2_3
I0928 12:03:44.366564   735 net.cpp:434] conv2_3 <- conv2_3_1x1_up
I0928 12:03:44.366569   735 net.cpp:434] conv2_3 <- conv2_3_1x1_increase_conv2_3_1x1_increase/bn/scale_0_split_1
I0928 12:03:44.366574   735 net.cpp:434] conv2_3 <- conv2_2_conv2_2/relu_0_split_1
I0928 12:03:44.366580   735 net.cpp:408] conv2_3 -> conv2_3
I0928 12:03:44.366637   735 net.cpp:150] Setting up conv2_3
I0928 12:03:44.366644   735 net.cpp:157] Top shape: 16 256 56 56 (12845056)
I0928 12:03:44.366648   735 net.cpp:165] Memory required for data: 1959024768
I0928 12:03:44.366652   735 layer_factory.hpp:77] Creating layer conv2_3/relu
I0928 12:03:44.366657   735 net.cpp:100] Creating Layer conv2_3/relu
I0928 12:03:44.366660   735 net.cpp:434] conv2_3/relu <- conv2_3
I0928 12:03:44.366667   735 net.cpp:395] conv2_3/relu -> conv2_3 (in-place)
I0928 12:03:44.366832   735 net.cpp:150] Setting up conv2_3/relu
I0928 12:03:44.366842   735 net.cpp:157] Top shape: 16 256 56 56 (12845056)
I0928 12:03:44.366844   735 net.cpp:165] Memory required for data: 2010404992
I0928 12:03:44.366848   735 layer_factory.hpp:77] Creating layer conv2_3_conv2_3/relu_0_split
I0928 12:03:44.366856   735 net.cpp:100] Creating Layer conv2_3_conv2_3/relu_0_split
I0928 12:03:44.366860   735 net.cpp:434] conv2_3_conv2_3/relu_0_split <- conv2_3
I0928 12:03:44.366865   735 net.cpp:408] conv2_3_conv2_3/relu_0_split -> conv2_3_conv2_3/relu_0_split_0
I0928 12:03:44.366873   735 net.cpp:408] conv2_3_conv2_3/relu_0_split -> conv2_3_conv2_3/relu_0_split_1
I0928 12:03:44.366914   735 net.cpp:150] Setting up conv2_3_conv2_3/relu_0_split
I0928 12:03:44.366920   735 net.cpp:157] Top shape: 16 256 56 56 (12845056)
I0928 12:03:44.366925   735 net.cpp:157] Top shape: 16 256 56 56 (12845056)
I0928 12:03:44.366927   735 net.cpp:165] Memory required for data: 2113165440
I0928 12:03:44.366932   735 layer_factory.hpp:77] Creating layer conv3_1_1x1_reduce
I0928 12:03:44.366943   735 net.cpp:100] Creating Layer conv3_1_1x1_reduce
I0928 12:03:44.366948   735 net.cpp:434] conv3_1_1x1_reduce <- conv2_3_conv2_3/relu_0_split_0
I0928 12:03:44.366952   735 net.cpp:408] conv3_1_1x1_reduce -> conv3_1_1x1_reduce
I0928 12:03:44.367940   735 net.cpp:150] Setting up conv3_1_1x1_reduce
I0928 12:03:44.367954   735 net.cpp:157] Top shape: 16 128 28 28 (1605632)
I0928 12:03:44.367959   735 net.cpp:165] Memory required for data: 2119587968
I0928 12:03:44.367964   735 layer_factory.hpp:77] Creating layer conv3_1_1x1_reduce/bn
I0928 12:03:44.367974   735 net.cpp:100] Creating Layer conv3_1_1x1_reduce/bn
I0928 12:03:44.367979   735 net.cpp:434] conv3_1_1x1_reduce/bn <- conv3_1_1x1_reduce
I0928 12:03:44.367985   735 net.cpp:395] conv3_1_1x1_reduce/bn -> conv3_1_1x1_reduce (in-place)
I0928 12:03:44.369192   735 net.cpp:150] Setting up conv3_1_1x1_reduce/bn
I0928 12:03:44.369205   735 net.cpp:157] Top shape: 16 128 28 28 (1605632)
I0928 12:03:44.369210   735 net.cpp:165] Memory required for data: 2126010496
I0928 12:03:44.369218   735 layer_factory.hpp:77] Creating layer conv3_1_1x1_reduce/bn/scale
I0928 12:03:44.369225   735 net.cpp:100] Creating Layer conv3_1_1x1_reduce/bn/scale
I0928 12:03:44.369230   735 net.cpp:434] conv3_1_1x1_reduce/bn/scale <- conv3_1_1x1_reduce
I0928 12:03:44.369235   735 net.cpp:395] conv3_1_1x1_reduce/bn/scale -> conv3_1_1x1_reduce (in-place)
I0928 12:03:44.369282   735 layer_factory.hpp:77] Creating layer conv3_1_1x1_reduce/bn/scale
I0928 12:03:44.369395   735 net.cpp:150] Setting up conv3_1_1x1_reduce/bn/scale
I0928 12:03:44.369415   735 net.cpp:157] Top shape: 16 128 28 28 (1605632)
I0928 12:03:44.369418   735 net.cpp:165] Memory required for data: 2132433024
I0928 12:03:44.369424   735 layer_factory.hpp:77] Creating layer conv3_1_1x1_reduce/relu
I0928 12:03:44.369431   735 net.cpp:100] Creating Layer conv3_1_1x1_reduce/relu
I0928 12:03:44.369436   735 net.cpp:434] conv3_1_1x1_reduce/relu <- conv3_1_1x1_reduce
I0928 12:03:44.369441   735 net.cpp:395] conv3_1_1x1_reduce/relu -> conv3_1_1x1_reduce (in-place)
I0928 12:03:44.369618   735 net.cpp:150] Setting up conv3_1_1x1_reduce/relu
I0928 12:03:44.369627   735 net.cpp:157] Top shape: 16 128 28 28 (1605632)
I0928 12:03:44.369632   735 net.cpp:165] Memory required for data: 2138855552
I0928 12:03:44.369635   735 layer_factory.hpp:77] Creating layer conv3_1_3x3
I0928 12:03:44.369643   735 net.cpp:100] Creating Layer conv3_1_3x3
I0928 12:03:44.369647   735 net.cpp:434] conv3_1_3x3 <- conv3_1_1x1_reduce
I0928 12:03:44.369652   735 net.cpp:408] conv3_1_3x3 -> conv3_1_3x3
I0928 12:03:44.372035   735 net.cpp:150] Setting up conv3_1_3x3
I0928 12:03:44.372048   735 net.cpp:157] Top shape: 16 128 28 28 (1605632)
I0928 12:03:44.372053   735 net.cpp:165] Memory required for data: 2145278080
I0928 12:03:44.372058   735 layer_factory.hpp:77] Creating layer conv3_1_3x3/bn
I0928 12:03:44.372066   735 net.cpp:100] Creating Layer conv3_1_3x3/bn
I0928 12:03:44.372071   735 net.cpp:434] conv3_1_3x3/bn <- conv3_1_3x3
I0928 12:03:44.372079   735 net.cpp:395] conv3_1_3x3/bn -> conv3_1_3x3 (in-place)
I0928 12:03:44.372272   735 net.cpp:150] Setting up conv3_1_3x3/bn
I0928 12:03:44.372278   735 net.cpp:157] Top shape: 16 128 28 28 (1605632)
I0928 12:03:44.372282   735 net.cpp:165] Memory required for data: 2151700608
I0928 12:03:44.372290   735 layer_factory.hpp:77] Creating layer conv3_1_3x3/bn/scale
I0928 12:03:44.372295   735 net.cpp:100] Creating Layer conv3_1_3x3/bn/scale
I0928 12:03:44.372300   735 net.cpp:434] conv3_1_3x3/bn/scale <- conv3_1_3x3
I0928 12:03:44.372304   735 net.cpp:395] conv3_1_3x3/bn/scale -> conv3_1_3x3 (in-place)
I0928 12:03:44.372344   735 layer_factory.hpp:77] Creating layer conv3_1_3x3/bn/scale
I0928 12:03:44.372450   735 net.cpp:150] Setting up conv3_1_3x3/bn/scale
I0928 12:03:44.372457   735 net.cpp:157] Top shape: 16 128 28 28 (1605632)
I0928 12:03:44.372462   735 net.cpp:165] Memory required for data: 2158123136
I0928 12:03:44.372467   735 layer_factory.hpp:77] Creating layer conv3_1_3x3/relu
I0928 12:03:44.372473   735 net.cpp:100] Creating Layer conv3_1_3x3/relu
I0928 12:03:44.372476   735 net.cpp:434] conv3_1_3x3/relu <- conv3_1_3x3
I0928 12:03:44.372483   735 net.cpp:395] conv3_1_3x3/relu -> conv3_1_3x3 (in-place)
I0928 12:03:44.372658   735 net.cpp:150] Setting up conv3_1_3x3/relu
I0928 12:03:44.372666   735 net.cpp:157] Top shape: 16 128 28 28 (1605632)
I0928 12:03:44.372671   735 net.cpp:165] Memory required for data: 2164545664
I0928 12:03:44.372674   735 layer_factory.hpp:77] Creating layer conv3_1_1x1_increase
I0928 12:03:44.372684   735 net.cpp:100] Creating Layer conv3_1_1x1_increase
I0928 12:03:44.372687   735 net.cpp:434] conv3_1_1x1_increase <- conv3_1_3x3
I0928 12:03:44.372692   735 net.cpp:408] conv3_1_1x1_increase -> conv3_1_1x1_increase
I0928 12:03:44.373725   735 net.cpp:150] Setting up conv3_1_1x1_increase
I0928 12:03:44.373739   735 net.cpp:157] Top shape: 16 512 28 28 (6422528)
I0928 12:03:44.373744   735 net.cpp:165] Memory required for data: 2190235776
I0928 12:03:44.373749   735 layer_factory.hpp:77] Creating layer conv3_1_1x1_increase/bn
I0928 12:03:44.373757   735 net.cpp:100] Creating Layer conv3_1_1x1_increase/bn
I0928 12:03:44.373762   735 net.cpp:434] conv3_1_1x1_increase/bn <- conv3_1_1x1_increase
I0928 12:03:44.373769   735 net.cpp:395] conv3_1_1x1_increase/bn -> conv3_1_1x1_increase (in-place)
I0928 12:03:44.373966   735 net.cpp:150] Setting up conv3_1_1x1_increase/bn
I0928 12:03:44.373975   735 net.cpp:157] Top shape: 16 512 28 28 (6422528)
I0928 12:03:44.373978   735 net.cpp:165] Memory required for data: 2215925888
I0928 12:03:44.373998   735 layer_factory.hpp:77] Creating layer conv3_1_1x1_increase/bn/scale
I0928 12:03:44.374006   735 net.cpp:100] Creating Layer conv3_1_1x1_increase/bn/scale
I0928 12:03:44.374009   735 net.cpp:434] conv3_1_1x1_increase/bn/scale <- conv3_1_1x1_increase
I0928 12:03:44.374014   735 net.cpp:395] conv3_1_1x1_increase/bn/scale -> conv3_1_1x1_increase (in-place)
I0928 12:03:44.374058   735 layer_factory.hpp:77] Creating layer conv3_1_1x1_increase/bn/scale
I0928 12:03:44.374161   735 net.cpp:150] Setting up conv3_1_1x1_increase/bn/scale
I0928 12:03:44.374168   735 net.cpp:157] Top shape: 16 512 28 28 (6422528)
I0928 12:03:44.374172   735 net.cpp:165] Memory required for data: 2241616000
I0928 12:03:44.374177   735 layer_factory.hpp:77] Creating layer conv3_1_1x1_increase_conv3_1_1x1_increase/bn/scale_0_split
I0928 12:03:44.374186   735 net.cpp:100] Creating Layer conv3_1_1x1_increase_conv3_1_1x1_increase/bn/scale_0_split
I0928 12:03:44.374189   735 net.cpp:434] conv3_1_1x1_increase_conv3_1_1x1_increase/bn/scale_0_split <- conv3_1_1x1_increase
I0928 12:03:44.374193   735 net.cpp:408] conv3_1_1x1_increase_conv3_1_1x1_increase/bn/scale_0_split -> conv3_1_1x1_increase_conv3_1_1x1_increase/bn/scale_0_split_0
I0928 12:03:44.374200   735 net.cpp:408] conv3_1_1x1_increase_conv3_1_1x1_increase/bn/scale_0_split -> conv3_1_1x1_increase_conv3_1_1x1_increase/bn/scale_0_split_1
I0928 12:03:44.374238   735 net.cpp:150] Setting up conv3_1_1x1_increase_conv3_1_1x1_increase/bn/scale_0_split
I0928 12:03:44.374243   735 net.cpp:157] Top shape: 16 512 28 28 (6422528)
I0928 12:03:44.374248   735 net.cpp:157] Top shape: 16 512 28 28 (6422528)
I0928 12:03:44.374251   735 net.cpp:165] Memory required for data: 2292996224
I0928 12:03:44.374254   735 layer_factory.hpp:77] Creating layer conv3_1_global_pool
I0928 12:03:44.374259   735 net.cpp:100] Creating Layer conv3_1_global_pool
I0928 12:03:44.374264   735 net.cpp:434] conv3_1_global_pool <- conv3_1_1x1_increase_conv3_1_1x1_increase/bn/scale_0_split_0
I0928 12:03:44.374269   735 net.cpp:408] conv3_1_global_pool -> conv3_1_global_pool
I0928 12:03:44.374292   735 net.cpp:150] Setting up conv3_1_global_pool
I0928 12:03:44.374297   735 net.cpp:157] Top shape: 16 512 1 1 (8192)
I0928 12:03:44.374301   735 net.cpp:165] Memory required for data: 2293028992
I0928 12:03:44.374305   735 layer_factory.hpp:77] Creating layer conv3_1_1x1_down
I0928 12:03:44.374312   735 net.cpp:100] Creating Layer conv3_1_1x1_down
I0928 12:03:44.374316   735 net.cpp:434] conv3_1_1x1_down <- conv3_1_global_pool
I0928 12:03:44.374322   735 net.cpp:408] conv3_1_1x1_down -> conv3_1_1x1_down
I0928 12:03:44.375377   735 net.cpp:150] Setting up conv3_1_1x1_down
I0928 12:03:44.375391   735 net.cpp:157] Top shape: 16 32 1 1 (512)
I0928 12:03:44.375396   735 net.cpp:165] Memory required for data: 2293031040
I0928 12:03:44.375402   735 layer_factory.hpp:77] Creating layer conv3_1_1x1_down/relu
I0928 12:03:44.375409   735 net.cpp:100] Creating Layer conv3_1_1x1_down/relu
I0928 12:03:44.375414   735 net.cpp:434] conv3_1_1x1_down/relu <- conv3_1_1x1_down
I0928 12:03:44.375422   735 net.cpp:395] conv3_1_1x1_down/relu -> conv3_1_1x1_down (in-place)
I0928 12:03:44.375589   735 net.cpp:150] Setting up conv3_1_1x1_down/relu
I0928 12:03:44.375598   735 net.cpp:157] Top shape: 16 32 1 1 (512)
I0928 12:03:44.375602   735 net.cpp:165] Memory required for data: 2293033088
I0928 12:03:44.375607   735 layer_factory.hpp:77] Creating layer conv3_1_1x1_up
I0928 12:03:44.375614   735 net.cpp:100] Creating Layer conv3_1_1x1_up
I0928 12:03:44.375618   735 net.cpp:434] conv3_1_1x1_up <- conv3_1_1x1_down
I0928 12:03:44.375625   735 net.cpp:408] conv3_1_1x1_up -> conv3_1_1x1_up
I0928 12:03:44.376682   735 net.cpp:150] Setting up conv3_1_1x1_up
I0928 12:03:44.376695   735 net.cpp:157] Top shape: 16 512 1 1 (8192)
I0928 12:03:44.376699   735 net.cpp:165] Memory required for data: 2293065856
I0928 12:03:44.376706   735 layer_factory.hpp:77] Creating layer conv3_1_prob
I0928 12:03:44.376713   735 net.cpp:100] Creating Layer conv3_1_prob
I0928 12:03:44.376729   735 net.cpp:434] conv3_1_prob <- conv3_1_1x1_up
I0928 12:03:44.376739   735 net.cpp:395] conv3_1_prob -> conv3_1_1x1_up (in-place)
I0928 12:03:44.376915   735 net.cpp:150] Setting up conv3_1_prob
I0928 12:03:44.376926   735 net.cpp:157] Top shape: 16 512 1 1 (8192)
I0928 12:03:44.376930   735 net.cpp:165] Memory required for data: 2293098624
I0928 12:03:44.376933   735 layer_factory.hpp:77] Creating layer conv3_1_1x1_proj
I0928 12:03:44.376943   735 net.cpp:100] Creating Layer conv3_1_1x1_proj
I0928 12:03:44.376948   735 net.cpp:434] conv3_1_1x1_proj <- conv2_3_conv2_3/relu_0_split_1
I0928 12:03:44.376955   735 net.cpp:408] conv3_1_1x1_proj -> conv3_1_1x1_proj
I0928 12:03:44.378018   735 net.cpp:150] Setting up conv3_1_1x1_proj
I0928 12:03:44.378032   735 net.cpp:157] Top shape: 16 512 28 28 (6422528)
I0928 12:03:44.378036   735 net.cpp:165] Memory required for data: 2318788736
I0928 12:03:44.378042   735 layer_factory.hpp:77] Creating layer conv3_1_1x1_proj/bn
I0928 12:03:44.378051   735 net.cpp:100] Creating Layer conv3_1_1x1_proj/bn
I0928 12:03:44.378057   735 net.cpp:434] conv3_1_1x1_proj/bn <- conv3_1_1x1_proj
I0928 12:03:44.378062   735 net.cpp:395] conv3_1_1x1_proj/bn -> conv3_1_1x1_proj (in-place)
I0928 12:03:44.378242   735 net.cpp:150] Setting up conv3_1_1x1_proj/bn
I0928 12:03:44.378250   735 net.cpp:157] Top shape: 16 512 28 28 (6422528)
I0928 12:03:44.378254   735 net.cpp:165] Memory required for data: 2344478848
I0928 12:03:44.378262   735 layer_factory.hpp:77] Creating layer conv3_1_1x1_proj/bn/scale
I0928 12:03:44.378270   735 net.cpp:100] Creating Layer conv3_1_1x1_proj/bn/scale
I0928 12:03:44.378274   735 net.cpp:434] conv3_1_1x1_proj/bn/scale <- conv3_1_1x1_proj
I0928 12:03:44.378278   735 net.cpp:395] conv3_1_1x1_proj/bn/scale -> conv3_1_1x1_proj (in-place)
I0928 12:03:44.378319   735 layer_factory.hpp:77] Creating layer conv3_1_1x1_proj/bn/scale
I0928 12:03:44.378424   735 net.cpp:150] Setting up conv3_1_1x1_proj/bn/scale
I0928 12:03:44.378432   735 net.cpp:157] Top shape: 16 512 28 28 (6422528)
I0928 12:03:44.378435   735 net.cpp:165] Memory required for data: 2370168960
I0928 12:03:44.378442   735 layer_factory.hpp:77] Creating layer conv3_1
I0928 12:03:44.378448   735 net.cpp:100] Creating Layer conv3_1
I0928 12:03:44.378451   735 net.cpp:434] conv3_1 <- conv3_1_1x1_up
I0928 12:03:44.378455   735 net.cpp:434] conv3_1 <- conv3_1_1x1_increase_conv3_1_1x1_increase/bn/scale_0_split_1
I0928 12:03:44.378459   735 net.cpp:434] conv3_1 <- conv3_1_1x1_proj
I0928 12:03:44.378469   735 net.cpp:408] conv3_1 -> conv3_1
I0928 12:03:44.378520   735 net.cpp:150] Setting up conv3_1
I0928 12:03:44.378527   735 net.cpp:157] Top shape: 16 512 28 28 (6422528)
I0928 12:03:44.378531   735 net.cpp:165] Memory required for data: 2395859072
I0928 12:03:44.378535   735 layer_factory.hpp:77] Creating layer conv3_1/relu
I0928 12:03:44.378540   735 net.cpp:100] Creating Layer conv3_1/relu
I0928 12:03:44.378543   735 net.cpp:434] conv3_1/relu <- conv3_1
I0928 12:03:44.378547   735 net.cpp:395] conv3_1/relu -> conv3_1 (in-place)
I0928 12:03:44.378989   735 net.cpp:150] Setting up conv3_1/relu
I0928 12:03:44.379003   735 net.cpp:157] Top shape: 16 512 28 28 (6422528)
I0928 12:03:44.379006   735 net.cpp:165] Memory required for data: 2421549184
I0928 12:03:44.379010   735 layer_factory.hpp:77] Creating layer conv3_1_conv3_1/relu_0_split
I0928 12:03:44.379019   735 net.cpp:100] Creating Layer conv3_1_conv3_1/relu_0_split
I0928 12:03:44.379022   735 net.cpp:434] conv3_1_conv3_1/relu_0_split <- conv3_1
I0928 12:03:44.379027   735 net.cpp:408] conv3_1_conv3_1/relu_0_split -> conv3_1_conv3_1/relu_0_split_0
I0928 12:03:44.379035   735 net.cpp:408] conv3_1_conv3_1/relu_0_split -> conv3_1_conv3_1/relu_0_split_1
I0928 12:03:44.379081   735 net.cpp:150] Setting up conv3_1_conv3_1/relu_0_split
I0928 12:03:44.379087   735 net.cpp:157] Top shape: 16 512 28 28 (6422528)
I0928 12:03:44.379091   735 net.cpp:157] Top shape: 16 512 28 28 (6422528)
I0928 12:03:44.379094   735 net.cpp:165] Memory required for data: 2472929408
I0928 12:03:44.379109   735 layer_factory.hpp:77] Creating layer conv3_2_1x1_reduce
I0928 12:03:44.379118   735 net.cpp:100] Creating Layer conv3_2_1x1_reduce
I0928 12:03:44.379123   735 net.cpp:434] conv3_2_1x1_reduce <- conv3_1_conv3_1/relu_0_split_0
I0928 12:03:44.379128   735 net.cpp:408] conv3_2_1x1_reduce -> conv3_2_1x1_reduce
I0928 12:03:44.379868   735 net.cpp:150] Setting up conv3_2_1x1_reduce
I0928 12:03:44.379879   735 net.cpp:157] Top shape: 16 128 28 28 (1605632)
I0928 12:03:44.379884   735 net.cpp:165] Memory required for data: 2479351936
I0928 12:03:44.379889   735 layer_factory.hpp:77] Creating layer conv3_2_1x1_reduce/bn
I0928 12:03:44.379899   735 net.cpp:100] Creating Layer conv3_2_1x1_reduce/bn
I0928 12:03:44.379904   735 net.cpp:434] conv3_2_1x1_reduce/bn <- conv3_2_1x1_reduce
I0928 12:03:44.379911   735 net.cpp:395] conv3_2_1x1_reduce/bn -> conv3_2_1x1_reduce (in-place)
I0928 12:03:44.380097   735 net.cpp:150] Setting up conv3_2_1x1_reduce/bn
I0928 12:03:44.380105   735 net.cpp:157] Top shape: 16 128 28 28 (1605632)
I0928 12:03:44.380108   735 net.cpp:165] Memory required for data: 2485774464
I0928 12:03:44.380115   735 layer_factory.hpp:77] Creating layer conv3_2_1x1_reduce/bn/scale
I0928 12:03:44.380125   735 net.cpp:100] Creating Layer conv3_2_1x1_reduce/bn/scale
I0928 12:03:44.380128   735 net.cpp:434] conv3_2_1x1_reduce/bn/scale <- conv3_2_1x1_reduce
I0928 12:03:44.380132   735 net.cpp:395] conv3_2_1x1_reduce/bn/scale -> conv3_2_1x1_reduce (in-place)
I0928 12:03:44.380172   735 layer_factory.hpp:77] Creating layer conv3_2_1x1_reduce/bn/scale
I0928 12:03:44.380277   735 net.cpp:150] Setting up conv3_2_1x1_reduce/bn/scale
I0928 12:03:44.380285   735 net.cpp:157] Top shape: 16 128 28 28 (1605632)
I0928 12:03:44.380288   735 net.cpp:165] Memory required for data: 2492196992
I0928 12:03:44.380293   735 layer_factory.hpp:77] Creating layer conv3_2_1x1_reduce/relu
I0928 12:03:44.380300   735 net.cpp:100] Creating Layer conv3_2_1x1_reduce/relu
I0928 12:03:44.380303   735 net.cpp:434] conv3_2_1x1_reduce/relu <- conv3_2_1x1_reduce
I0928 12:03:44.380311   735 net.cpp:395] conv3_2_1x1_reduce/relu -> conv3_2_1x1_reduce (in-place)
I0928 12:03:44.380755   735 net.cpp:150] Setting up conv3_2_1x1_reduce/relu
I0928 12:03:44.380767   735 net.cpp:157] Top shape: 16 128 28 28 (1605632)
I0928 12:03:44.380772   735 net.cpp:165] Memory required for data: 2498619520
I0928 12:03:44.380776   735 layer_factory.hpp:77] Creating layer conv3_2_3x3
I0928 12:03:44.380791   735 net.cpp:100] Creating Layer conv3_2_3x3
I0928 12:03:44.380797   735 net.cpp:434] conv3_2_3x3 <- conv3_2_1x1_reduce
I0928 12:03:44.380805   735 net.cpp:408] conv3_2_3x3 -> conv3_2_3x3
I0928 12:03:44.382138   735 net.cpp:150] Setting up conv3_2_3x3
I0928 12:03:44.382153   735 net.cpp:157] Top shape: 16 128 28 28 (1605632)
I0928 12:03:44.382158   735 net.cpp:165] Memory required for data: 2505042048
I0928 12:03:44.382164   735 layer_factory.hpp:77] Creating layer conv3_2_3x3/bn
I0928 12:03:44.382172   735 net.cpp:100] Creating Layer conv3_2_3x3/bn
I0928 12:03:44.382179   735 net.cpp:434] conv3_2_3x3/bn <- conv3_2_3x3
I0928 12:03:44.382184   735 net.cpp:395] conv3_2_3x3/bn -> conv3_2_3x3 (in-place)
I0928 12:03:44.382378   735 net.cpp:150] Setting up conv3_2_3x3/bn
I0928 12:03:44.382385   735 net.cpp:157] Top shape: 16 128 28 28 (1605632)
I0928 12:03:44.382390   735 net.cpp:165] Memory required for data: 2511464576
I0928 12:03:44.382397   735 layer_factory.hpp:77] Creating layer conv3_2_3x3/bn/scale
I0928 12:03:44.382407   735 net.cpp:100] Creating Layer conv3_2_3x3/bn/scale
I0928 12:03:44.382412   735 net.cpp:434] conv3_2_3x3/bn/scale <- conv3_2_3x3
I0928 12:03:44.382416   735 net.cpp:395] conv3_2_3x3/bn/scale -> conv3_2_3x3 (in-place)
I0928 12:03:44.382457   735 layer_factory.hpp:77] Creating layer conv3_2_3x3/bn/scale
I0928 12:03:44.382565   735 net.cpp:150] Setting up conv3_2_3x3/bn/scale
I0928 12:03:44.382571   735 net.cpp:157] Top shape: 16 128 28 28 (1605632)
I0928 12:03:44.382575   735 net.cpp:165] Memory required for data: 2517887104
I0928 12:03:44.382581   735 layer_factory.hpp:77] Creating layer conv3_2_3x3/relu
I0928 12:03:44.382598   735 net.cpp:100] Creating Layer conv3_2_3x3/relu
I0928 12:03:44.382602   735 net.cpp:434] conv3_2_3x3/relu <- conv3_2_3x3
I0928 12:03:44.382608   735 net.cpp:395] conv3_2_3x3/relu -> conv3_2_3x3 (in-place)
I0928 12:03:44.382796   735 net.cpp:150] Setting up conv3_2_3x3/relu
I0928 12:03:44.382805   735 net.cpp:157] Top shape: 16 128 28 28 (1605632)
I0928 12:03:44.382810   735 net.cpp:165] Memory required for data: 2524309632
I0928 12:03:44.382813   735 layer_factory.hpp:77] Creating layer conv3_2_1x1_increase
I0928 12:03:44.382823   735 net.cpp:100] Creating Layer conv3_2_1x1_increase
I0928 12:03:44.382828   735 net.cpp:434] conv3_2_1x1_increase <- conv3_2_3x3
I0928 12:03:44.382834   735 net.cpp:408] conv3_2_1x1_increase -> conv3_2_1x1_increase
I0928 12:03:44.383885   735 net.cpp:150] Setting up conv3_2_1x1_increase
I0928 12:03:44.383898   735 net.cpp:157] Top shape: 16 512 28 28 (6422528)
I0928 12:03:44.383903   735 net.cpp:165] Memory required for data: 2549999744
I0928 12:03:44.383909   735 layer_factory.hpp:77] Creating layer conv3_2_1x1_increase/bn
I0928 12:03:44.383919   735 net.cpp:100] Creating Layer conv3_2_1x1_increase/bn
I0928 12:03:44.383924   735 net.cpp:434] conv3_2_1x1_increase/bn <- conv3_2_1x1_increase
I0928 12:03:44.383929   735 net.cpp:395] conv3_2_1x1_increase/bn -> conv3_2_1x1_increase (in-place)
I0928 12:03:44.384120   735 net.cpp:150] Setting up conv3_2_1x1_increase/bn
I0928 12:03:44.384127   735 net.cpp:157] Top shape: 16 512 28 28 (6422528)
I0928 12:03:44.384131   735 net.cpp:165] Memory required for data: 2575689856
I0928 12:03:44.384138   735 layer_factory.hpp:77] Creating layer conv3_2_1x1_increase/bn/scale
I0928 12:03:44.384147   735 net.cpp:100] Creating Layer conv3_2_1x1_increase/bn/scale
I0928 12:03:44.384151   735 net.cpp:434] conv3_2_1x1_increase/bn/scale <- conv3_2_1x1_increase
I0928 12:03:44.384155   735 net.cpp:395] conv3_2_1x1_increase/bn/scale -> conv3_2_1x1_increase (in-place)
I0928 12:03:44.384196   735 layer_factory.hpp:77] Creating layer conv3_2_1x1_increase/bn/scale
I0928 12:03:44.384302   735 net.cpp:150] Setting up conv3_2_1x1_increase/bn/scale
I0928 12:03:44.384310   735 net.cpp:157] Top shape: 16 512 28 28 (6422528)
I0928 12:03:44.384313   735 net.cpp:165] Memory required for data: 2601379968
I0928 12:03:44.384318   735 layer_factory.hpp:77] Creating layer conv3_2_1x1_increase_conv3_2_1x1_increase/bn/scale_0_split
I0928 12:03:44.384327   735 net.cpp:100] Creating Layer conv3_2_1x1_increase_conv3_2_1x1_increase/bn/scale_0_split
I0928 12:03:44.384332   735 net.cpp:434] conv3_2_1x1_increase_conv3_2_1x1_increase/bn/scale_0_split <- conv3_2_1x1_increase
I0928 12:03:44.384336   735 net.cpp:408] conv3_2_1x1_increase_conv3_2_1x1_increase/bn/scale_0_split -> conv3_2_1x1_increase_conv3_2_1x1_increase/bn/scale_0_split_0
I0928 12:03:44.384343   735 net.cpp:408] conv3_2_1x1_increase_conv3_2_1x1_increase/bn/scale_0_split -> conv3_2_1x1_increase_conv3_2_1x1_increase/bn/scale_0_split_1
I0928 12:03:44.384382   735 net.cpp:150] Setting up conv3_2_1x1_increase_conv3_2_1x1_increase/bn/scale_0_split
I0928 12:03:44.384388   735 net.cpp:157] Top shape: 16 512 28 28 (6422528)
I0928 12:03:44.384393   735 net.cpp:157] Top shape: 16 512 28 28 (6422528)
I0928 12:03:44.384395   735 net.cpp:165] Memory required for data: 2652760192
I0928 12:03:44.384399   735 layer_factory.hpp:77] Creating layer conv3_2_global_pool
I0928 12:03:44.384405   735 net.cpp:100] Creating Layer conv3_2_global_pool
I0928 12:03:44.384408   735 net.cpp:434] conv3_2_global_pool <- conv3_2_1x1_increase_conv3_2_1x1_increase/bn/scale_0_split_0
I0928 12:03:44.384414   735 net.cpp:408] conv3_2_global_pool -> conv3_2_global_pool
I0928 12:03:44.384436   735 net.cpp:150] Setting up conv3_2_global_pool
I0928 12:03:44.384443   735 net.cpp:157] Top shape: 16 512 1 1 (8192)
I0928 12:03:44.384446   735 net.cpp:165] Memory required for data: 2652792960
I0928 12:03:44.384449   735 layer_factory.hpp:77] Creating layer conv3_2_1x1_down
I0928 12:03:44.384457   735 net.cpp:100] Creating Layer conv3_2_1x1_down
I0928 12:03:44.384472   735 net.cpp:434] conv3_2_1x1_down <- conv3_2_global_pool
I0928 12:03:44.384479   735 net.cpp:408] conv3_2_1x1_down -> conv3_2_1x1_down
I0928 12:03:44.385548   735 net.cpp:150] Setting up conv3_2_1x1_down
I0928 12:03:44.385562   735 net.cpp:157] Top shape: 16 32 1 1 (512)
I0928 12:03:44.385566   735 net.cpp:165] Memory required for data: 2652795008
I0928 12:03:44.385573   735 layer_factory.hpp:77] Creating layer conv3_2_1x1_down/relu
I0928 12:03:44.385582   735 net.cpp:100] Creating Layer conv3_2_1x1_down/relu
I0928 12:03:44.385587   735 net.cpp:434] conv3_2_1x1_down/relu <- conv3_2_1x1_down
I0928 12:03:44.385594   735 net.cpp:395] conv3_2_1x1_down/relu -> conv3_2_1x1_down (in-place)
I0928 12:03:44.385767   735 net.cpp:150] Setting up conv3_2_1x1_down/relu
I0928 12:03:44.385776   735 net.cpp:157] Top shape: 16 32 1 1 (512)
I0928 12:03:44.385782   735 net.cpp:165] Memory required for data: 2652797056
I0928 12:03:44.385790   735 layer_factory.hpp:77] Creating layer conv3_2_1x1_up
I0928 12:03:44.385802   735 net.cpp:100] Creating Layer conv3_2_1x1_up
I0928 12:03:44.385805   735 net.cpp:434] conv3_2_1x1_up <- conv3_2_1x1_down
I0928 12:03:44.385812   735 net.cpp:408] conv3_2_1x1_up -> conv3_2_1x1_up
I0928 12:03:44.386885   735 net.cpp:150] Setting up conv3_2_1x1_up
I0928 12:03:44.386899   735 net.cpp:157] Top shape: 16 512 1 1 (8192)
I0928 12:03:44.386904   735 net.cpp:165] Memory required for data: 2652829824
I0928 12:03:44.386910   735 layer_factory.hpp:77] Creating layer conv3_2_prob
I0928 12:03:44.386919   735 net.cpp:100] Creating Layer conv3_2_prob
I0928 12:03:44.386924   735 net.cpp:434] conv3_2_prob <- conv3_2_1x1_up
I0928 12:03:44.386929   735 net.cpp:395] conv3_2_prob -> conv3_2_1x1_up (in-place)
I0928 12:03:44.387099   735 net.cpp:150] Setting up conv3_2_prob
I0928 12:03:44.387109   735 net.cpp:157] Top shape: 16 512 1 1 (8192)
I0928 12:03:44.387112   735 net.cpp:165] Memory required for data: 2652862592
I0928 12:03:44.387115   735 layer_factory.hpp:77] Creating layer conv3_2
I0928 12:03:44.387121   735 net.cpp:100] Creating Layer conv3_2
I0928 12:03:44.387126   735 net.cpp:434] conv3_2 <- conv3_2_1x1_up
I0928 12:03:44.387131   735 net.cpp:434] conv3_2 <- conv3_2_1x1_increase_conv3_2_1x1_increase/bn/scale_0_split_1
I0928 12:03:44.387136   735 net.cpp:434] conv3_2 <- conv3_1_conv3_1/relu_0_split_1
I0928 12:03:44.387145   735 net.cpp:408] conv3_2 -> conv3_2
I0928 12:03:44.387199   735 net.cpp:150] Setting up conv3_2
I0928 12:03:44.387207   735 net.cpp:157] Top shape: 16 512 28 28 (6422528)
I0928 12:03:44.387210   735 net.cpp:165] Memory required for data: 2678552704
I0928 12:03:44.387213   735 layer_factory.hpp:77] Creating layer conv3_2/relu
I0928 12:03:44.387219   735 net.cpp:100] Creating Layer conv3_2/relu
I0928 12:03:44.387223   735 net.cpp:434] conv3_2/relu <- conv3_2
I0928 12:03:44.387228   735 net.cpp:395] conv3_2/relu -> conv3_2 (in-place)
I0928 12:03:44.387392   735 net.cpp:150] Setting up conv3_2/relu
I0928 12:03:44.387399   735 net.cpp:157] Top shape: 16 512 28 28 (6422528)
I0928 12:03:44.387403   735 net.cpp:165] Memory required for data: 2704242816
I0928 12:03:44.387406   735 layer_factory.hpp:77] Creating layer conv3_2_conv3_2/relu_0_split
I0928 12:03:44.387418   735 net.cpp:100] Creating Layer conv3_2_conv3_2/relu_0_split
I0928 12:03:44.387423   735 net.cpp:434] conv3_2_conv3_2/relu_0_split <- conv3_2
I0928 12:03:44.387426   735 net.cpp:408] conv3_2_conv3_2/relu_0_split -> conv3_2_conv3_2/relu_0_split_0
I0928 12:03:44.387434   735 net.cpp:408] conv3_2_conv3_2/relu_0_split -> conv3_2_conv3_2/relu_0_split_1
I0928 12:03:44.387476   735 net.cpp:150] Setting up conv3_2_conv3_2/relu_0_split
I0928 12:03:44.387483   735 net.cpp:157] Top shape: 16 512 28 28 (6422528)
I0928 12:03:44.387488   735 net.cpp:157] Top shape: 16 512 28 28 (6422528)
I0928 12:03:44.387490   735 net.cpp:165] Memory required for data: 2755623040
I0928 12:03:44.387495   735 layer_factory.hpp:77] Creating layer conv3_3_1x1_reduce
I0928 12:03:44.387504   735 net.cpp:100] Creating Layer conv3_3_1x1_reduce
I0928 12:03:44.387521   735 net.cpp:434] conv3_3_1x1_reduce <- conv3_2_conv3_2/relu_0_split_0
I0928 12:03:44.387528   735 net.cpp:408] conv3_3_1x1_reduce -> conv3_3_1x1_reduce
I0928 12:03:44.388844   735 net.cpp:150] Setting up conv3_3_1x1_reduce
I0928 12:03:44.388857   735 net.cpp:157] Top shape: 16 128 28 28 (1605632)
I0928 12:03:44.388861   735 net.cpp:165] Memory required for data: 2762045568
I0928 12:03:44.388881   735 layer_factory.hpp:77] Creating layer conv3_3_1x1_reduce/bn
I0928 12:03:44.388891   735 net.cpp:100] Creating Layer conv3_3_1x1_reduce/bn
I0928 12:03:44.388896   735 net.cpp:434] conv3_3_1x1_reduce/bn <- conv3_3_1x1_reduce
I0928 12:03:44.388901   735 net.cpp:395] conv3_3_1x1_reduce/bn -> conv3_3_1x1_reduce (in-place)
I0928 12:03:44.389096   735 net.cpp:150] Setting up conv3_3_1x1_reduce/bn
I0928 12:03:44.389104   735 net.cpp:157] Top shape: 16 128 28 28 (1605632)
I0928 12:03:44.389107   735 net.cpp:165] Memory required for data: 2768468096
I0928 12:03:44.389116   735 layer_factory.hpp:77] Creating layer conv3_3_1x1_reduce/bn/scale
I0928 12:03:44.389122   735 net.cpp:100] Creating Layer conv3_3_1x1_reduce/bn/scale
I0928 12:03:44.389125   735 net.cpp:434] conv3_3_1x1_reduce/bn/scale <- conv3_3_1x1_reduce
I0928 12:03:44.389129   735 net.cpp:395] conv3_3_1x1_reduce/bn/scale -> conv3_3_1x1_reduce (in-place)
I0928 12:03:44.389168   735 layer_factory.hpp:77] Creating layer conv3_3_1x1_reduce/bn/scale
I0928 12:03:44.389276   735 net.cpp:150] Setting up conv3_3_1x1_reduce/bn/scale
I0928 12:03:44.389283   735 net.cpp:157] Top shape: 16 128 28 28 (1605632)
I0928 12:03:44.389286   735 net.cpp:165] Memory required for data: 2774890624
I0928 12:03:44.389292   735 layer_factory.hpp:77] Creating layer conv3_3_1x1_reduce/relu
I0928 12:03:44.389298   735 net.cpp:100] Creating Layer conv3_3_1x1_reduce/relu
I0928 12:03:44.389302   735 net.cpp:434] conv3_3_1x1_reduce/relu <- conv3_3_1x1_reduce
I0928 12:03:44.389305   735 net.cpp:395] conv3_3_1x1_reduce/relu -> conv3_3_1x1_reduce (in-place)
I0928 12:03:44.389761   735 net.cpp:150] Setting up conv3_3_1x1_reduce/relu
I0928 12:03:44.389773   735 net.cpp:157] Top shape: 16 128 28 28 (1605632)
I0928 12:03:44.389777   735 net.cpp:165] Memory required for data: 2781313152
I0928 12:03:44.389780   735 layer_factory.hpp:77] Creating layer conv3_3_3x3
I0928 12:03:44.389799   735 net.cpp:100] Creating Layer conv3_3_3x3
I0928 12:03:44.389806   735 net.cpp:434] conv3_3_3x3 <- conv3_3_1x1_reduce
I0928 12:03:44.389811   735 net.cpp:408] conv3_3_3x3 -> conv3_3_3x3
I0928 12:03:44.391952   735 net.cpp:150] Setting up conv3_3_3x3
I0928 12:03:44.391968   735 net.cpp:157] Top shape: 16 128 28 28 (1605632)
I0928 12:03:44.391971   735 net.cpp:165] Memory required for data: 2787735680
I0928 12:03:44.391976   735 layer_factory.hpp:77] Creating layer conv3_3_3x3/bn
I0928 12:03:44.391983   735 net.cpp:100] Creating Layer conv3_3_3x3/bn
I0928 12:03:44.391988   735 net.cpp:434] conv3_3_3x3/bn <- conv3_3_3x3
I0928 12:03:44.391993   735 net.cpp:395] conv3_3_3x3/bn -> conv3_3_3x3 (in-place)
I0928 12:03:44.392200   735 net.cpp:150] Setting up conv3_3_3x3/bn
I0928 12:03:44.392208   735 net.cpp:157] Top shape: 16 128 28 28 (1605632)
I0928 12:03:44.392212   735 net.cpp:165] Memory required for data: 2794158208
I0928 12:03:44.392220   735 layer_factory.hpp:77] Creating layer conv3_3_3x3/bn/scale
I0928 12:03:44.392225   735 net.cpp:100] Creating Layer conv3_3_3x3/bn/scale
I0928 12:03:44.392228   735 net.cpp:434] conv3_3_3x3/bn/scale <- conv3_3_3x3
I0928 12:03:44.392232   735 net.cpp:395] conv3_3_3x3/bn/scale -> conv3_3_3x3 (in-place)
I0928 12:03:44.392272   735 layer_factory.hpp:77] Creating layer conv3_3_3x3/bn/scale
I0928 12:03:44.392383   735 net.cpp:150] Setting up conv3_3_3x3/bn/scale
I0928 12:03:44.392391   735 net.cpp:157] Top shape: 16 128 28 28 (1605632)
I0928 12:03:44.392393   735 net.cpp:165] Memory required for data: 2800580736
I0928 12:03:44.392400   735 layer_factory.hpp:77] Creating layer conv3_3_3x3/relu
I0928 12:03:44.392405   735 net.cpp:100] Creating Layer conv3_3_3x3/relu
I0928 12:03:44.392419   735 net.cpp:434] conv3_3_3x3/relu <- conv3_3_3x3
I0928 12:03:44.392426   735 net.cpp:395] conv3_3_3x3/relu -> conv3_3_3x3 (in-place)
I0928 12:03:44.392879   735 net.cpp:150] Setting up conv3_3_3x3/relu
I0928 12:03:44.392891   735 net.cpp:157] Top shape: 16 128 28 28 (1605632)
I0928 12:03:44.392895   735 net.cpp:165] Memory required for data: 2807003264
I0928 12:03:44.392899   735 layer_factory.hpp:77] Creating layer conv3_3_1x1_increase
I0928 12:03:44.392909   735 net.cpp:100] Creating Layer conv3_3_1x1_increase
I0928 12:03:44.392912   735 net.cpp:434] conv3_3_1x1_increase <- conv3_3_3x3
I0928 12:03:44.392920   735 net.cpp:408] conv3_3_1x1_increase -> conv3_3_1x1_increase
I0928 12:03:44.393968   735 net.cpp:150] Setting up conv3_3_1x1_increase
I0928 12:03:44.393982   735 net.cpp:157] Top shape: 16 512 28 28 (6422528)
I0928 12:03:44.393986   735 net.cpp:165] Memory required for data: 2832693376
I0928 12:03:44.393991   735 layer_factory.hpp:77] Creating layer conv3_3_1x1_increase/bn
I0928 12:03:44.394001   735 net.cpp:100] Creating Layer conv3_3_1x1_increase/bn
I0928 12:03:44.394006   735 net.cpp:434] conv3_3_1x1_increase/bn <- conv3_3_1x1_increase
I0928 12:03:44.394011   735 net.cpp:395] conv3_3_1x1_increase/bn -> conv3_3_1x1_increase (in-place)
I0928 12:03:44.394209   735 net.cpp:150] Setting up conv3_3_1x1_increase/bn
I0928 12:03:44.394217   735 net.cpp:157] Top shape: 16 512 28 28 (6422528)
I0928 12:03:44.394220   735 net.cpp:165] Memory required for data: 2858383488
I0928 12:03:44.394227   735 layer_factory.hpp:77] Creating layer conv3_3_1x1_increase/bn/scale
I0928 12:03:44.394234   735 net.cpp:100] Creating Layer conv3_3_1x1_increase/bn/scale
I0928 12:03:44.394237   735 net.cpp:434] conv3_3_1x1_increase/bn/scale <- conv3_3_1x1_increase
I0928 12:03:44.394242   735 net.cpp:395] conv3_3_1x1_increase/bn/scale -> conv3_3_1x1_increase (in-place)
I0928 12:03:44.394284   735 layer_factory.hpp:77] Creating layer conv3_3_1x1_increase/bn/scale
I0928 12:03:44.394395   735 net.cpp:150] Setting up conv3_3_1x1_increase/bn/scale
I0928 12:03:44.394403   735 net.cpp:157] Top shape: 16 512 28 28 (6422528)
I0928 12:03:44.394407   735 net.cpp:165] Memory required for data: 2884073600
I0928 12:03:44.394412   735 layer_factory.hpp:77] Creating layer conv3_3_1x1_increase_conv3_3_1x1_increase/bn/scale_0_split
I0928 12:03:44.394428   735 net.cpp:100] Creating Layer conv3_3_1x1_increase_conv3_3_1x1_increase/bn/scale_0_split
I0928 12:03:44.394433   735 net.cpp:434] conv3_3_1x1_increase_conv3_3_1x1_increase/bn/scale_0_split <- conv3_3_1x1_increase
I0928 12:03:44.394438   735 net.cpp:408] conv3_3_1x1_increase_conv3_3_1x1_increase/bn/scale_0_split -> conv3_3_1x1_increase_conv3_3_1x1_increase/bn/scale_0_split_0
I0928 12:03:44.394443   735 net.cpp:408] conv3_3_1x1_increase_conv3_3_1x1_increase/bn/scale_0_split -> conv3_3_1x1_increase_conv3_3_1x1_increase/bn/scale_0_split_1
I0928 12:03:44.394482   735 net.cpp:150] Setting up conv3_3_1x1_increase_conv3_3_1x1_increase/bn/scale_0_split
I0928 12:03:44.394490   735 net.cpp:157] Top shape: 16 512 28 28 (6422528)
I0928 12:03:44.394492   735 net.cpp:157] Top shape: 16 512 28 28 (6422528)
I0928 12:03:44.394495   735 net.cpp:165] Memory required for data: 2935453824
I0928 12:03:44.394500   735 layer_factory.hpp:77] Creating layer conv3_3_global_pool
I0928 12:03:44.394506   735 net.cpp:100] Creating Layer conv3_3_global_pool
I0928 12:03:44.394510   735 net.cpp:434] conv3_3_global_pool <- conv3_3_1x1_increase_conv3_3_1x1_increase/bn/scale_0_split_0
I0928 12:03:44.394515   735 net.cpp:408] conv3_3_global_pool -> conv3_3_global_pool
I0928 12:03:44.394536   735 net.cpp:150] Setting up conv3_3_global_pool
I0928 12:03:44.394543   735 net.cpp:157] Top shape: 16 512 1 1 (8192)
I0928 12:03:44.394546   735 net.cpp:165] Memory required for data: 2935486592
I0928 12:03:44.394548   735 layer_factory.hpp:77] Creating layer conv3_3_1x1_down
I0928 12:03:44.394557   735 net.cpp:100] Creating Layer conv3_3_1x1_down
I0928 12:03:44.394562   735 net.cpp:434] conv3_3_1x1_down <- conv3_3_global_pool
I0928 12:03:44.394578   735 net.cpp:408] conv3_3_1x1_down -> conv3_3_1x1_down
I0928 12:03:44.395361   735 net.cpp:150] Setting up conv3_3_1x1_down
I0928 12:03:44.395373   735 net.cpp:157] Top shape: 16 32 1 1 (512)
I0928 12:03:44.395376   735 net.cpp:165] Memory required for data: 2935488640
I0928 12:03:44.395382   735 layer_factory.hpp:77] Creating layer conv3_3_1x1_down/relu
I0928 12:03:44.395390   735 net.cpp:100] Creating Layer conv3_3_1x1_down/relu
I0928 12:03:44.395395   735 net.cpp:434] conv3_3_1x1_down/relu <- conv3_3_1x1_down
I0928 12:03:44.395400   735 net.cpp:395] conv3_3_1x1_down/relu -> conv3_3_1x1_down (in-place)
I0928 12:03:44.395849   735 net.cpp:150] Setting up conv3_3_1x1_down/relu
I0928 12:03:44.395862   735 net.cpp:157] Top shape: 16 32 1 1 (512)
I0928 12:03:44.395866   735 net.cpp:165] Memory required for data: 2935490688
I0928 12:03:44.395869   735 layer_factory.hpp:77] Creating layer conv3_3_1x1_up
I0928 12:03:44.395879   735 net.cpp:100] Creating Layer conv3_3_1x1_up
I0928 12:03:44.395882   735 net.cpp:434] conv3_3_1x1_up <- conv3_3_1x1_down
I0928 12:03:44.395889   735 net.cpp:408] conv3_3_1x1_up -> conv3_3_1x1_up
I0928 12:03:44.396970   735 net.cpp:150] Setting up conv3_3_1x1_up
I0928 12:03:44.396982   735 net.cpp:157] Top shape: 16 512 1 1 (8192)
I0928 12:03:44.396986   735 net.cpp:165] Memory required for data: 2935523456
I0928 12:03:44.396992   735 layer_factory.hpp:77] Creating layer conv3_3_prob
I0928 12:03:44.397001   735 net.cpp:100] Creating Layer conv3_3_prob
I0928 12:03:44.397004   735 net.cpp:434] conv3_3_prob <- conv3_3_1x1_up
I0928 12:03:44.397009   735 net.cpp:395] conv3_3_prob -> conv3_3_1x1_up (in-place)
I0928 12:03:44.397177   735 net.cpp:150] Setting up conv3_3_prob
I0928 12:03:44.397187   735 net.cpp:157] Top shape: 16 512 1 1 (8192)
I0928 12:03:44.397191   735 net.cpp:165] Memory required for data: 2935556224
I0928 12:03:44.397194   735 layer_factory.hpp:77] Creating layer conv3_3
I0928 12:03:44.397200   735 net.cpp:100] Creating Layer conv3_3
I0928 12:03:44.397205   735 net.cpp:434] conv3_3 <- conv3_3_1x1_up
I0928 12:03:44.397210   735 net.cpp:434] conv3_3 <- conv3_3_1x1_increase_conv3_3_1x1_increase/bn/scale_0_split_1
I0928 12:03:44.397214   735 net.cpp:434] conv3_3 <- conv3_2_conv3_2/relu_0_split_1
I0928 12:03:44.397218   735 net.cpp:408] conv3_3 -> conv3_3
I0928 12:03:44.397274   735 net.cpp:150] Setting up conv3_3
I0928 12:03:44.397282   735 net.cpp:157] Top shape: 16 512 28 28 (6422528)
I0928 12:03:44.397285   735 net.cpp:165] Memory required for data: 2961246336
I0928 12:03:44.397289   735 layer_factory.hpp:77] Creating layer conv3_3/relu
I0928 12:03:44.397294   735 net.cpp:100] Creating Layer conv3_3/relu
I0928 12:03:44.397297   735 net.cpp:434] conv3_3/relu <- conv3_3
I0928 12:03:44.397301   735 net.cpp:395] conv3_3/relu -> conv3_3 (in-place)
I0928 12:03:44.397469   735 net.cpp:150] Setting up conv3_3/relu
I0928 12:03:44.397478   735 net.cpp:157] Top shape: 16 512 28 28 (6422528)
I0928 12:03:44.397481   735 net.cpp:165] Memory required for data: 2986936448
I0928 12:03:44.397485   735 layer_factory.hpp:77] Creating layer conv3_3_conv3_3/relu_0_split
I0928 12:03:44.397490   735 net.cpp:100] Creating Layer conv3_3_conv3_3/relu_0_split
I0928 12:03:44.397493   735 net.cpp:434] conv3_3_conv3_3/relu_0_split <- conv3_3
I0928 12:03:44.397498   735 net.cpp:408] conv3_3_conv3_3/relu_0_split -> conv3_3_conv3_3/relu_0_split_0
I0928 12:03:44.397505   735 net.cpp:408] conv3_3_conv3_3/relu_0_split -> conv3_3_conv3_3/relu_0_split_1
I0928 12:03:44.397548   735 net.cpp:150] Setting up conv3_3_conv3_3/relu_0_split
I0928 12:03:44.397555   735 net.cpp:157] Top shape: 16 512 28 28 (6422528)
I0928 12:03:44.397559   735 net.cpp:157] Top shape: 16 512 28 28 (6422528)
I0928 12:03:44.397562   735 net.cpp:165] Memory required for data: 3038316672
I0928 12:03:44.397564   735 layer_factory.hpp:77] Creating layer conv3_4_1x1_reduce
I0928 12:03:44.397573   735 net.cpp:100] Creating Layer conv3_4_1x1_reduce
I0928 12:03:44.397578   735 net.cpp:434] conv3_4_1x1_reduce <- conv3_3_conv3_3/relu_0_split_0
I0928 12:03:44.397598   735 net.cpp:408] conv3_4_1x1_reduce -> conv3_4_1x1_reduce
I0928 12:03:44.399664   735 net.cpp:150] Setting up conv3_4_1x1_reduce
I0928 12:03:44.399678   735 net.cpp:157] Top shape: 16 128 28 28 (1605632)
I0928 12:03:44.399682   735 net.cpp:165] Memory required for data: 3044739200
I0928 12:03:44.399688   735 layer_factory.hpp:77] Creating layer conv3_4_1x1_reduce/bn
I0928 12:03:44.399696   735 net.cpp:100] Creating Layer conv3_4_1x1_reduce/bn
I0928 12:03:44.399700   735 net.cpp:434] conv3_4_1x1_reduce/bn <- conv3_4_1x1_reduce
I0928 12:03:44.399705   735 net.cpp:395] conv3_4_1x1_reduce/bn -> conv3_4_1x1_reduce (in-place)
I0928 12:03:44.399912   735 net.cpp:150] Setting up conv3_4_1x1_reduce/bn
I0928 12:03:44.399921   735 net.cpp:157] Top shape: 16 128 28 28 (1605632)
I0928 12:03:44.399924   735 net.cpp:165] Memory required for data: 3051161728
I0928 12:03:44.399931   735 layer_factory.hpp:77] Creating layer conv3_4_1x1_reduce/bn/scale
I0928 12:03:44.399937   735 net.cpp:100] Creating Layer conv3_4_1x1_reduce/bn/scale
I0928 12:03:44.399940   735 net.cpp:434] conv3_4_1x1_reduce/bn/scale <- conv3_4_1x1_reduce
I0928 12:03:44.399946   735 net.cpp:395] conv3_4_1x1_reduce/bn/scale -> conv3_4_1x1_reduce (in-place)
I0928 12:03:44.399986   735 layer_factory.hpp:77] Creating layer conv3_4_1x1_reduce/bn/scale
I0928 12:03:44.400099   735 net.cpp:150] Setting up conv3_4_1x1_reduce/bn/scale
I0928 12:03:44.400108   735 net.cpp:157] Top shape: 16 128 28 28 (1605632)
I0928 12:03:44.400111   735 net.cpp:165] Memory required for data: 3057584256
I0928 12:03:44.400116   735 layer_factory.hpp:77] Creating layer conv3_4_1x1_reduce/relu
I0928 12:03:44.400121   735 net.cpp:100] Creating Layer conv3_4_1x1_reduce/relu
I0928 12:03:44.400125   735 net.cpp:434] conv3_4_1x1_reduce/relu <- conv3_4_1x1_reduce
I0928 12:03:44.400130   735 net.cpp:395] conv3_4_1x1_reduce/relu -> conv3_4_1x1_reduce (in-place)
I0928 12:03:44.400308   735 net.cpp:150] Setting up conv3_4_1x1_reduce/relu
I0928 12:03:44.400317   735 net.cpp:157] Top shape: 16 128 28 28 (1605632)
I0928 12:03:44.400321   735 net.cpp:165] Memory required for data: 3064006784
I0928 12:03:44.400324   735 layer_factory.hpp:77] Creating layer conv3_4_3x3
I0928 12:03:44.400332   735 net.cpp:100] Creating Layer conv3_4_3x3
I0928 12:03:44.400337   735 net.cpp:434] conv3_4_3x3 <- conv3_4_1x1_reduce
I0928 12:03:44.400342   735 net.cpp:408] conv3_4_3x3 -> conv3_4_3x3
I0928 12:03:44.401695   735 net.cpp:150] Setting up conv3_4_3x3
I0928 12:03:44.401710   735 net.cpp:157] Top shape: 16 128 28 28 (1605632)
I0928 12:03:44.401713   735 net.cpp:165] Memory required for data: 3070429312
I0928 12:03:44.401720   735 layer_factory.hpp:77] Creating layer conv3_4_3x3/bn
I0928 12:03:44.401727   735 net.cpp:100] Creating Layer conv3_4_3x3/bn
I0928 12:03:44.401731   735 net.cpp:434] conv3_4_3x3/bn <- conv3_4_3x3
I0928 12:03:44.401736   735 net.cpp:395] conv3_4_3x3/bn -> conv3_4_3x3 (in-place)
I0928 12:03:44.401949   735 net.cpp:150] Setting up conv3_4_3x3/bn
I0928 12:03:44.401958   735 net.cpp:157] Top shape: 16 128 28 28 (1605632)
I0928 12:03:44.401962   735 net.cpp:165] Memory required for data: 3076851840
I0928 12:03:44.401968   735 layer_factory.hpp:77] Creating layer conv3_4_3x3/bn/scale
I0928 12:03:44.401974   735 net.cpp:100] Creating Layer conv3_4_3x3/bn/scale
I0928 12:03:44.401978   735 net.cpp:434] conv3_4_3x3/bn/scale <- conv3_4_3x3
I0928 12:03:44.401981   735 net.cpp:395] conv3_4_3x3/bn/scale -> conv3_4_3x3 (in-place)
I0928 12:03:44.402026   735 layer_factory.hpp:77] Creating layer conv3_4_3x3/bn/scale
I0928 12:03:44.402142   735 net.cpp:150] Setting up conv3_4_3x3/bn/scale
I0928 12:03:44.402149   735 net.cpp:157] Top shape: 16 128 28 28 (1605632)
I0928 12:03:44.402153   735 net.cpp:165] Memory required for data: 3083274368
I0928 12:03:44.402158   735 layer_factory.hpp:77] Creating layer conv3_4_3x3/relu
I0928 12:03:44.402164   735 net.cpp:100] Creating Layer conv3_4_3x3/relu
I0928 12:03:44.402168   735 net.cpp:434] conv3_4_3x3/relu <- conv3_4_3x3
I0928 12:03:44.402173   735 net.cpp:395] conv3_4_3x3/relu -> conv3_4_3x3 (in-place)
I0928 12:03:44.402635   735 net.cpp:150] Setting up conv3_4_3x3/relu
I0928 12:03:44.402648   735 net.cpp:157] Top shape: 16 128 28 28 (1605632)
I0928 12:03:44.402652   735 net.cpp:165] Memory required for data: 3089696896
I0928 12:03:44.402655   735 layer_factory.hpp:77] Creating layer conv3_4_1x1_increase
I0928 12:03:44.402667   735 net.cpp:100] Creating Layer conv3_4_1x1_increase
I0928 12:03:44.402673   735 net.cpp:434] conv3_4_1x1_increase <- conv3_4_3x3
I0928 12:03:44.402678   735 net.cpp:408] conv3_4_1x1_increase -> conv3_4_1x1_increase
I0928 12:03:44.403451   735 net.cpp:150] Setting up conv3_4_1x1_increase
I0928 12:03:44.403465   735 net.cpp:157] Top shape: 16 512 28 28 (6422528)
I0928 12:03:44.403468   735 net.cpp:165] Memory required for data: 3115387008
I0928 12:03:44.403475   735 layer_factory.hpp:77] Creating layer conv3_4_1x1_increase/bn
I0928 12:03:44.403481   735 net.cpp:100] Creating Layer conv3_4_1x1_increase/bn
I0928 12:03:44.403484   735 net.cpp:434] conv3_4_1x1_increase/bn <- conv3_4_1x1_increase
I0928 12:03:44.403491   735 net.cpp:395] conv3_4_1x1_increase/bn -> conv3_4_1x1_increase (in-place)
I0928 12:03:44.403690   735 net.cpp:150] Setting up conv3_4_1x1_increase/bn
I0928 12:03:44.403698   735 net.cpp:157] Top shape: 16 512 28 28 (6422528)
I0928 12:03:44.403702   735 net.cpp:165] Memory required for data: 3141077120
I0928 12:03:44.403708   735 layer_factory.hpp:77] Creating layer conv3_4_1x1_increase/bn/scale
I0928 12:03:44.403713   735 net.cpp:100] Creating Layer conv3_4_1x1_increase/bn/scale
I0928 12:03:44.403717   735 net.cpp:434] conv3_4_1x1_increase/bn/scale <- conv3_4_1x1_increase
I0928 12:03:44.403722   735 net.cpp:395] conv3_4_1x1_increase/bn/scale -> conv3_4_1x1_increase (in-place)
I0928 12:03:44.403764   735 layer_factory.hpp:77] Creating layer conv3_4_1x1_increase/bn/scale
I0928 12:03:44.403882   735 net.cpp:150] Setting up conv3_4_1x1_increase/bn/scale
I0928 12:03:44.403890   735 net.cpp:157] Top shape: 16 512 28 28 (6422528)
I0928 12:03:44.403893   735 net.cpp:165] Memory required for data: 3166767232
I0928 12:03:44.403898   735 layer_factory.hpp:77] Creating layer conv3_4_1x1_increase_conv3_4_1x1_increase/bn/scale_0_split
I0928 12:03:44.403904   735 net.cpp:100] Creating Layer conv3_4_1x1_increase_conv3_4_1x1_increase/bn/scale_0_split
I0928 12:03:44.403908   735 net.cpp:434] conv3_4_1x1_increase_conv3_4_1x1_increase/bn/scale_0_split <- conv3_4_1x1_increase
I0928 12:03:44.403913   735 net.cpp:408] conv3_4_1x1_increase_conv3_4_1x1_increase/bn/scale_0_split -> conv3_4_1x1_increase_conv3_4_1x1_increase/bn/scale_0_split_0
I0928 12:03:44.403920   735 net.cpp:408] conv3_4_1x1_increase_conv3_4_1x1_increase/bn/scale_0_split -> conv3_4_1x1_increase_conv3_4_1x1_increase/bn/scale_0_split_1
I0928 12:03:44.403959   735 net.cpp:150] Setting up conv3_4_1x1_increase_conv3_4_1x1_increase/bn/scale_0_split
I0928 12:03:44.403969   735 net.cpp:157] Top shape: 16 512 28 28 (6422528)
I0928 12:03:44.403972   735 net.cpp:157] Top shape: 16 512 28 28 (6422528)
I0928 12:03:44.403975   735 net.cpp:165] Memory required for data: 3218147456
I0928 12:03:44.403978   735 layer_factory.hpp:77] Creating layer conv3_4_global_pool
I0928 12:03:44.403983   735 net.cpp:100] Creating Layer conv3_4_global_pool
I0928 12:03:44.403987   735 net.cpp:434] conv3_4_global_pool <- conv3_4_1x1_increase_conv3_4_1x1_increase/bn/scale_0_split_0
I0928 12:03:44.403991   735 net.cpp:408] conv3_4_global_pool -> conv3_4_global_pool
I0928 12:03:44.404017   735 net.cpp:150] Setting up conv3_4_global_pool
I0928 12:03:44.404023   735 net.cpp:157] Top shape: 16 512 1 1 (8192)
I0928 12:03:44.404026   735 net.cpp:165] Memory required for data: 3218180224
I0928 12:03:44.404029   735 layer_factory.hpp:77] Creating layer conv3_4_1x1_down
I0928 12:03:44.404036   735 net.cpp:100] Creating Layer conv3_4_1x1_down
I0928 12:03:44.404039   735 net.cpp:434] conv3_4_1x1_down <- conv3_4_global_pool
I0928 12:03:44.404045   735 net.cpp:408] conv3_4_1x1_down -> conv3_4_1x1_down
I0928 12:03:44.405115   735 net.cpp:150] Setting up conv3_4_1x1_down
I0928 12:03:44.405141   735 net.cpp:157] Top shape: 16 32 1 1 (512)
I0928 12:03:44.405148   735 net.cpp:165] Memory required for data: 3218182272
I0928 12:03:44.405153   735 layer_factory.hpp:77] Creating layer conv3_4_1x1_down/relu
I0928 12:03:44.405159   735 net.cpp:100] Creating Layer conv3_4_1x1_down/relu
I0928 12:03:44.405164   735 net.cpp:434] conv3_4_1x1_down/relu <- conv3_4_1x1_down
I0928 12:03:44.405169   735 net.cpp:395] conv3_4_1x1_down/relu -> conv3_4_1x1_down (in-place)
I0928 12:03:44.405628   735 net.cpp:150] Setting up conv3_4_1x1_down/relu
I0928 12:03:44.405640   735 net.cpp:157] Top shape: 16 32 1 1 (512)
I0928 12:03:44.405643   735 net.cpp:165] Memory required for data: 3218184320
I0928 12:03:44.405647   735 layer_factory.hpp:77] Creating layer conv3_4_1x1_up
I0928 12:03:44.405658   735 net.cpp:100] Creating Layer conv3_4_1x1_up
I0928 12:03:44.405661   735 net.cpp:434] conv3_4_1x1_up <- conv3_4_1x1_down
I0928 12:03:44.405668   735 net.cpp:408] conv3_4_1x1_up -> conv3_4_1x1_up
I0928 12:03:44.406472   735 net.cpp:150] Setting up conv3_4_1x1_up
I0928 12:03:44.406484   735 net.cpp:157] Top shape: 16 512 1 1 (8192)
I0928 12:03:44.406487   735 net.cpp:165] Memory required for data: 3218217088
I0928 12:03:44.406493   735 layer_factory.hpp:77] Creating layer conv3_4_prob
I0928 12:03:44.406499   735 net.cpp:100] Creating Layer conv3_4_prob
I0928 12:03:44.406503   735 net.cpp:434] conv3_4_prob <- conv3_4_1x1_up
I0928 12:03:44.406507   735 net.cpp:395] conv3_4_prob -> conv3_4_1x1_up (in-place)
I0928 12:03:44.406956   735 net.cpp:150] Setting up conv3_4_prob
I0928 12:03:44.406970   735 net.cpp:157] Top shape: 16 512 1 1 (8192)
I0928 12:03:44.406975   735 net.cpp:165] Memory required for data: 3218249856
I0928 12:03:44.406980   735 layer_factory.hpp:77] Creating layer conv3_4
I0928 12:03:44.406985   735 net.cpp:100] Creating Layer conv3_4
I0928 12:03:44.406988   735 net.cpp:434] conv3_4 <- conv3_4_1x1_up
I0928 12:03:44.406993   735 net.cpp:434] conv3_4 <- conv3_4_1x1_increase_conv3_4_1x1_increase/bn/scale_0_split_1
I0928 12:03:44.406997   735 net.cpp:434] conv3_4 <- conv3_3_conv3_3/relu_0_split_1
I0928 12:03:44.407003   735 net.cpp:408] conv3_4 -> conv3_4
I0928 12:03:44.407063   735 net.cpp:150] Setting up conv3_4
I0928 12:03:44.407070   735 net.cpp:157] Top shape: 16 512 28 28 (6422528)
I0928 12:03:44.407073   735 net.cpp:165] Memory required for data: 3243939968
I0928 12:03:44.407076   735 layer_factory.hpp:77] Creating layer conv3_4/relu
I0928 12:03:44.407081   735 net.cpp:100] Creating Layer conv3_4/relu
I0928 12:03:44.407085   735 net.cpp:434] conv3_4/relu <- conv3_4
I0928 12:03:44.407089   735 net.cpp:395] conv3_4/relu -> conv3_4 (in-place)
I0928 12:03:44.407258   735 net.cpp:150] Setting up conv3_4/relu
I0928 12:03:44.407266   735 net.cpp:157] Top shape: 16 512 28 28 (6422528)
I0928 12:03:44.407270   735 net.cpp:165] Memory required for data: 3269630080
I0928 12:03:44.407274   735 layer_factory.hpp:77] Creating layer conv3_4_conv3_4/relu_0_split
I0928 12:03:44.407279   735 net.cpp:100] Creating Layer conv3_4_conv3_4/relu_0_split
I0928 12:03:44.407281   735 net.cpp:434] conv3_4_conv3_4/relu_0_split <- conv3_4
I0928 12:03:44.407289   735 net.cpp:408] conv3_4_conv3_4/relu_0_split -> conv3_4_conv3_4/relu_0_split_0
I0928 12:03:44.407294   735 net.cpp:408] conv3_4_conv3_4/relu_0_split -> conv3_4_conv3_4/relu_0_split_1
I0928 12:03:44.407343   735 net.cpp:150] Setting up conv3_4_conv3_4/relu_0_split
I0928 12:03:44.407351   735 net.cpp:157] Top shape: 16 512 28 28 (6422528)
I0928 12:03:44.407354   735 net.cpp:157] Top shape: 16 512 28 28 (6422528)
I0928 12:03:44.407356   735 net.cpp:165] Memory required for data: 3321010304
I0928 12:03:44.407361   735 layer_factory.hpp:77] Creating layer conv4_1_1x1_reduce
I0928 12:03:44.407369   735 net.cpp:100] Creating Layer conv4_1_1x1_reduce
I0928 12:03:44.407373   735 net.cpp:434] conv4_1_1x1_reduce <- conv3_4_conv3_4/relu_0_split_0
I0928 12:03:44.407378   735 net.cpp:408] conv4_1_1x1_reduce -> conv4_1_1x1_reduce
I0928 12:03:44.408468   735 net.cpp:150] Setting up conv4_1_1x1_reduce
I0928 12:03:44.408493   735 net.cpp:157] Top shape: 16 256 14 14 (802816)
I0928 12:03:44.408499   735 net.cpp:165] Memory required for data: 3324221568
I0928 12:03:44.408504   735 layer_factory.hpp:77] Creating layer conv4_1_1x1_reduce/bn
I0928 12:03:44.408512   735 net.cpp:100] Creating Layer conv4_1_1x1_reduce/bn
I0928 12:03:44.408516   735 net.cpp:434] conv4_1_1x1_reduce/bn <- conv4_1_1x1_reduce
I0928 12:03:44.408521   735 net.cpp:395] conv4_1_1x1_reduce/bn -> conv4_1_1x1_reduce (in-place)
I0928 12:03:44.408741   735 net.cpp:150] Setting up conv4_1_1x1_reduce/bn
I0928 12:03:44.408749   735 net.cpp:157] Top shape: 16 256 14 14 (802816)
I0928 12:03:44.408752   735 net.cpp:165] Memory required for data: 3327432832
I0928 12:03:44.408761   735 layer_factory.hpp:77] Creating layer conv4_1_1x1_reduce/bn/scale
I0928 12:03:44.408766   735 net.cpp:100] Creating Layer conv4_1_1x1_reduce/bn/scale
I0928 12:03:44.408769   735 net.cpp:434] conv4_1_1x1_reduce/bn/scale <- conv4_1_1x1_reduce
I0928 12:03:44.408773   735 net.cpp:395] conv4_1_1x1_reduce/bn/scale -> conv4_1_1x1_reduce (in-place)
I0928 12:03:44.408825   735 layer_factory.hpp:77] Creating layer conv4_1_1x1_reduce/bn/scale
I0928 12:03:44.408938   735 net.cpp:150] Setting up conv4_1_1x1_reduce/bn/scale
I0928 12:03:44.408946   735 net.cpp:157] Top shape: 16 256 14 14 (802816)
I0928 12:03:44.408948   735 net.cpp:165] Memory required for data: 3330644096
I0928 12:03:44.408953   735 layer_factory.hpp:77] Creating layer conv4_1_1x1_reduce/relu
I0928 12:03:44.408960   735 net.cpp:100] Creating Layer conv4_1_1x1_reduce/relu
I0928 12:03:44.408964   735 net.cpp:434] conv4_1_1x1_reduce/relu <- conv4_1_1x1_reduce
I0928 12:03:44.408999   735 net.cpp:395] conv4_1_1x1_reduce/relu -> conv4_1_1x1_reduce (in-place)
I0928 12:03:44.409173   735 net.cpp:150] Setting up conv4_1_1x1_reduce/relu
I0928 12:03:44.409183   735 net.cpp:157] Top shape: 16 256 14 14 (802816)
I0928 12:03:44.409185   735 net.cpp:165] Memory required for data: 3333855360
I0928 12:03:44.409188   735 layer_factory.hpp:77] Creating layer conv4_1_3x3
I0928 12:03:44.409198   735 net.cpp:100] Creating Layer conv4_1_3x3
I0928 12:03:44.409202   735 net.cpp:434] conv4_1_3x3 <- conv4_1_1x1_reduce
I0928 12:03:44.409206   735 net.cpp:408] conv4_1_3x3 -> conv4_1_3x3
I0928 12:03:44.412009   735 net.cpp:150] Setting up conv4_1_3x3
I0928 12:03:44.412024   735 net.cpp:157] Top shape: 16 256 14 14 (802816)
I0928 12:03:44.412027   735 net.cpp:165] Memory required for data: 3337066624
I0928 12:03:44.412034   735 layer_factory.hpp:77] Creating layer conv4_1_3x3/bn
I0928 12:03:44.412039   735 net.cpp:100] Creating Layer conv4_1_3x3/bn
I0928 12:03:44.412044   735 net.cpp:434] conv4_1_3x3/bn <- conv4_1_3x3
I0928 12:03:44.412050   735 net.cpp:395] conv4_1_3x3/bn -> conv4_1_3x3 (in-place)
I0928 12:03:44.412258   735 net.cpp:150] Setting up conv4_1_3x3/bn
I0928 12:03:44.412266   735 net.cpp:157] Top shape: 16 256 14 14 (802816)
I0928 12:03:44.412269   735 net.cpp:165] Memory required for data: 3340277888
I0928 12:03:44.412276   735 layer_factory.hpp:77] Creating layer conv4_1_3x3/bn/scale
I0928 12:03:44.412282   735 net.cpp:100] Creating Layer conv4_1_3x3/bn/scale
I0928 12:03:44.412286   735 net.cpp:434] conv4_1_3x3/bn/scale <- conv4_1_3x3
I0928 12:03:44.412291   735 net.cpp:395] conv4_1_3x3/bn/scale -> conv4_1_3x3 (in-place)
I0928 12:03:44.412333   735 layer_factory.hpp:77] Creating layer conv4_1_3x3/bn/scale
I0928 12:03:44.412449   735 net.cpp:150] Setting up conv4_1_3x3/bn/scale
I0928 12:03:44.412457   735 net.cpp:157] Top shape: 16 256 14 14 (802816)
I0928 12:03:44.412461   735 net.cpp:165] Memory required for data: 3343489152
I0928 12:03:44.412467   735 layer_factory.hpp:77] Creating layer conv4_1_3x3/relu
I0928 12:03:44.412472   735 net.cpp:100] Creating Layer conv4_1_3x3/relu
I0928 12:03:44.412477   735 net.cpp:434] conv4_1_3x3/relu <- conv4_1_3x3
I0928 12:03:44.412480   735 net.cpp:395] conv4_1_3x3/relu -> conv4_1_3x3 (in-place)
I0928 12:03:44.412657   735 net.cpp:150] Setting up conv4_1_3x3/relu
I0928 12:03:44.412667   735 net.cpp:157] Top shape: 16 256 14 14 (802816)
I0928 12:03:44.412683   735 net.cpp:165] Memory required for data: 3346700416
I0928 12:03:44.412686   735 layer_factory.hpp:77] Creating layer conv4_1_1x1_increase
I0928 12:03:44.412695   735 net.cpp:100] Creating Layer conv4_1_1x1_increase
I0928 12:03:44.412699   735 net.cpp:434] conv4_1_1x1_increase <- conv4_1_3x3
I0928 12:03:44.412706   735 net.cpp:408] conv4_1_1x1_increase -> conv4_1_1x1_increase
I0928 12:03:44.414937   735 net.cpp:150] Setting up conv4_1_1x1_increase
I0928 12:03:44.414950   735 net.cpp:157] Top shape: 16 1024 14 14 (3211264)
I0928 12:03:44.414954   735 net.cpp:165] Memory required for data: 3359545472
I0928 12:03:44.414959   735 layer_factory.hpp:77] Creating layer conv4_1_1x1_increase/bn
I0928 12:03:44.414971   735 net.cpp:100] Creating Layer conv4_1_1x1_increase/bn
I0928 12:03:44.414978   735 net.cpp:434] conv4_1_1x1_increase/bn <- conv4_1_1x1_increase
I0928 12:03:44.414983   735 net.cpp:395] conv4_1_1x1_increase/bn -> conv4_1_1x1_increase (in-place)
I0928 12:03:44.415189   735 net.cpp:150] Setting up conv4_1_1x1_increase/bn
I0928 12:03:44.415197   735 net.cpp:157] Top shape: 16 1024 14 14 (3211264)
I0928 12:03:44.415200   735 net.cpp:165] Memory required for data: 3372390528
I0928 12:03:44.415207   735 layer_factory.hpp:77] Creating layer conv4_1_1x1_increase/bn/scale
I0928 12:03:44.415215   735 net.cpp:100] Creating Layer conv4_1_1x1_increase/bn/scale
I0928 12:03:44.415218   735 net.cpp:434] conv4_1_1x1_increase/bn/scale <- conv4_1_1x1_increase
I0928 12:03:44.415222   735 net.cpp:395] conv4_1_1x1_increase/bn/scale -> conv4_1_1x1_increase (in-place)
I0928 12:03:44.415261   735 layer_factory.hpp:77] Creating layer conv4_1_1x1_increase/bn/scale
I0928 12:03:44.415380   735 net.cpp:150] Setting up conv4_1_1x1_increase/bn/scale
I0928 12:03:44.415388   735 net.cpp:157] Top shape: 16 1024 14 14 (3211264)
I0928 12:03:44.415391   735 net.cpp:165] Memory required for data: 3385235584
I0928 12:03:44.415396   735 layer_factory.hpp:77] Creating layer conv4_1_1x1_increase_conv4_1_1x1_increase/bn/scale_0_split
I0928 12:03:44.415403   735 net.cpp:100] Creating Layer conv4_1_1x1_increase_conv4_1_1x1_increase/bn/scale_0_split
I0928 12:03:44.415407   735 net.cpp:434] conv4_1_1x1_increase_conv4_1_1x1_increase/bn/scale_0_split <- conv4_1_1x1_increase
I0928 12:03:44.415411   735 net.cpp:408] conv4_1_1x1_increase_conv4_1_1x1_increase/bn/scale_0_split -> conv4_1_1x1_increase_conv4_1_1x1_increase/bn/scale_0_split_0
I0928 12:03:44.415418   735 net.cpp:408] conv4_1_1x1_increase_conv4_1_1x1_increase/bn/scale_0_split -> conv4_1_1x1_increase_conv4_1_1x1_increase/bn/scale_0_split_1
I0928 12:03:44.415459   735 net.cpp:150] Setting up conv4_1_1x1_increase_conv4_1_1x1_increase/bn/scale_0_split
I0928 12:03:44.415467   735 net.cpp:157] Top shape: 16 1024 14 14 (3211264)
I0928 12:03:44.415469   735 net.cpp:157] Top shape: 16 1024 14 14 (3211264)
I0928 12:03:44.415472   735 net.cpp:165] Memory required for data: 3410925696
I0928 12:03:44.415475   735 layer_factory.hpp:77] Creating layer conv4_1_global_pool
I0928 12:03:44.415480   735 net.cpp:100] Creating Layer conv4_1_global_pool
I0928 12:03:44.415484   735 net.cpp:434] conv4_1_global_pool <- conv4_1_1x1_increase_conv4_1_1x1_increase/bn/scale_0_split_0
I0928 12:03:44.415489   735 net.cpp:408] conv4_1_global_pool -> conv4_1_global_pool
I0928 12:03:44.415513   735 net.cpp:150] Setting up conv4_1_global_pool
I0928 12:03:44.415519   735 net.cpp:157] Top shape: 16 1024 1 1 (16384)
I0928 12:03:44.415521   735 net.cpp:165] Memory required for data: 3410991232
I0928 12:03:44.415524   735 layer_factory.hpp:77] Creating layer conv4_1_1x1_down
I0928 12:03:44.415532   735 net.cpp:100] Creating Layer conv4_1_1x1_down
I0928 12:03:44.415537   735 net.cpp:434] conv4_1_1x1_down <- conv4_1_global_pool
I0928 12:03:44.415542   735 net.cpp:408] conv4_1_1x1_down -> conv4_1_1x1_down
I0928 12:03:44.416682   735 net.cpp:150] Setting up conv4_1_1x1_down
I0928 12:03:44.416695   735 net.cpp:157] Top shape: 16 64 1 1 (1024)
I0928 12:03:44.416699   735 net.cpp:165] Memory required for data: 3410995328
I0928 12:03:44.416718   735 layer_factory.hpp:77] Creating layer conv4_1_1x1_down/relu
I0928 12:03:44.416724   735 net.cpp:100] Creating Layer conv4_1_1x1_down/relu
I0928 12:03:44.416728   735 net.cpp:434] conv4_1_1x1_down/relu <- conv4_1_1x1_down
I0928 12:03:44.416735   735 net.cpp:395] conv4_1_1x1_down/relu -> conv4_1_1x1_down (in-place)
I0928 12:03:44.416918   735 net.cpp:150] Setting up conv4_1_1x1_down/relu
I0928 12:03:44.416927   735 net.cpp:157] Top shape: 16 64 1 1 (1024)
I0928 12:03:44.416931   735 net.cpp:165] Memory required for data: 3410999424
I0928 12:03:44.416934   735 layer_factory.hpp:77] Creating layer conv4_1_1x1_up
I0928 12:03:44.416944   735 net.cpp:100] Creating Layer conv4_1_1x1_up
I0928 12:03:44.416946   735 net.cpp:434] conv4_1_1x1_up <- conv4_1_1x1_down
I0928 12:03:44.416952   735 net.cpp:408] conv4_1_1x1_up -> conv4_1_1x1_up
I0928 12:03:44.418092   735 net.cpp:150] Setting up conv4_1_1x1_up
I0928 12:03:44.418107   735 net.cpp:157] Top shape: 16 1024 1 1 (16384)
I0928 12:03:44.418112   735 net.cpp:165] Memory required for data: 3411064960
I0928 12:03:44.418118   735 layer_factory.hpp:77] Creating layer conv4_1_prob
I0928 12:03:44.418126   735 net.cpp:100] Creating Layer conv4_1_prob
I0928 12:03:44.418130   735 net.cpp:434] conv4_1_prob <- conv4_1_1x1_up
I0928 12:03:44.418138   735 net.cpp:395] conv4_1_prob -> conv4_1_1x1_up (in-place)
I0928 12:03:44.418603   735 net.cpp:150] Setting up conv4_1_prob
I0928 12:03:44.418617   735 net.cpp:157] Top shape: 16 1024 1 1 (16384)
I0928 12:03:44.418619   735 net.cpp:165] Memory required for data: 3411130496
I0928 12:03:44.418623   735 layer_factory.hpp:77] Creating layer conv4_1_1x1_proj
I0928 12:03:44.418633   735 net.cpp:100] Creating Layer conv4_1_1x1_proj
I0928 12:03:44.418637   735 net.cpp:434] conv4_1_1x1_proj <- conv3_4_conv3_4/relu_0_split_1
I0928 12:03:44.418642   735 net.cpp:408] conv4_1_1x1_proj -> conv4_1_1x1_proj
I0928 12:03:44.420779   735 net.cpp:150] Setting up conv4_1_1x1_proj
I0928 12:03:44.420799   735 net.cpp:157] Top shape: 16 1024 14 14 (3211264)
I0928 12:03:44.420802   735 net.cpp:165] Memory required for data: 3423975552
I0928 12:03:44.420809   735 layer_factory.hpp:77] Creating layer conv4_1_1x1_proj/bn
I0928 12:03:44.420816   735 net.cpp:100] Creating Layer conv4_1_1x1_proj/bn
I0928 12:03:44.420820   735 net.cpp:434] conv4_1_1x1_proj/bn <- conv4_1_1x1_proj
I0928 12:03:44.420825   735 net.cpp:395] conv4_1_1x1_proj/bn -> conv4_1_1x1_proj (in-place)
I0928 12:03:44.421031   735 net.cpp:150] Setting up conv4_1_1x1_proj/bn
I0928 12:03:44.421041   735 net.cpp:157] Top shape: 16 1024 14 14 (3211264)
I0928 12:03:44.421043   735 net.cpp:165] Memory required for data: 3436820608
I0928 12:03:44.421051   735 layer_factory.hpp:77] Creating layer conv4_1_1x1_proj/bn/scale
I0928 12:03:44.421058   735 net.cpp:100] Creating Layer conv4_1_1x1_proj/bn/scale
I0928 12:03:44.421061   735 net.cpp:434] conv4_1_1x1_proj/bn/scale <- conv4_1_1x1_proj
I0928 12:03:44.421066   735 net.cpp:395] conv4_1_1x1_proj/bn/scale -> conv4_1_1x1_proj (in-place)
I0928 12:03:44.421106   735 layer_factory.hpp:77] Creating layer conv4_1_1x1_proj/bn/scale
I0928 12:03:44.421226   735 net.cpp:150] Setting up conv4_1_1x1_proj/bn/scale
I0928 12:03:44.421233   735 net.cpp:157] Top shape: 16 1024 14 14 (3211264)
I0928 12:03:44.421236   735 net.cpp:165] Memory required for data: 3449665664
I0928 12:03:44.421241   735 layer_factory.hpp:77] Creating layer conv4_1
I0928 12:03:44.421248   735 net.cpp:100] Creating Layer conv4_1
I0928 12:03:44.421252   735 net.cpp:434] conv4_1 <- conv4_1_1x1_up
I0928 12:03:44.421257   735 net.cpp:434] conv4_1 <- conv4_1_1x1_increase_conv4_1_1x1_increase/bn/scale_0_split_1
I0928 12:03:44.421260   735 net.cpp:434] conv4_1 <- conv4_1_1x1_proj
I0928 12:03:44.421265   735 net.cpp:408] conv4_1 -> conv4_1
I0928 12:03:44.421321   735 net.cpp:150] Setting up conv4_1
I0928 12:03:44.421329   735 net.cpp:157] Top shape: 16 1024 14 14 (3211264)
I0928 12:03:44.421331   735 net.cpp:165] Memory required for data: 3462510720
I0928 12:03:44.421345   735 layer_factory.hpp:77] Creating layer conv4_1/relu
I0928 12:03:44.421351   735 net.cpp:100] Creating Layer conv4_1/relu
I0928 12:03:44.421355   735 net.cpp:434] conv4_1/relu <- conv4_1
I0928 12:03:44.421360   735 net.cpp:395] conv4_1/relu -> conv4_1 (in-place)
I0928 12:03:44.422106   735 net.cpp:150] Setting up conv4_1/relu
I0928 12:03:44.422118   735 net.cpp:157] Top shape: 16 1024 14 14 (3211264)
I0928 12:03:44.422122   735 net.cpp:165] Memory required for data: 3475355776
I0928 12:03:44.422127   735 layer_factory.hpp:77] Creating layer conv4_1_conv4_1/relu_0_split
I0928 12:03:44.422132   735 net.cpp:100] Creating Layer conv4_1_conv4_1/relu_0_split
I0928 12:03:44.422135   735 net.cpp:434] conv4_1_conv4_1/relu_0_split <- conv4_1
I0928 12:03:44.422140   735 net.cpp:408] conv4_1_conv4_1/relu_0_split -> conv4_1_conv4_1/relu_0_split_0
I0928 12:03:44.422147   735 net.cpp:408] conv4_1_conv4_1/relu_0_split -> conv4_1_conv4_1/relu_0_split_1
I0928 12:03:44.422202   735 net.cpp:150] Setting up conv4_1_conv4_1/relu_0_split
I0928 12:03:44.422209   735 net.cpp:157] Top shape: 16 1024 14 14 (3211264)
I0928 12:03:44.422214   735 net.cpp:157] Top shape: 16 1024 14 14 (3211264)
I0928 12:03:44.422216   735 net.cpp:165] Memory required for data: 3501045888
I0928 12:03:44.422220   735 layer_factory.hpp:77] Creating layer conv4_2_1x1_reduce
I0928 12:03:44.422231   735 net.cpp:100] Creating Layer conv4_2_1x1_reduce
I0928 12:03:44.422237   735 net.cpp:434] conv4_2_1x1_reduce <- conv4_1_conv4_1/relu_0_split_0
I0928 12:03:44.422245   735 net.cpp:408] conv4_2_1x1_reduce -> conv4_2_1x1_reduce
I0928 12:03:44.423913   735 net.cpp:150] Setting up conv4_2_1x1_reduce
I0928 12:03:44.423928   735 net.cpp:157] Top shape: 16 256 14 14 (802816)
I0928 12:03:44.423933   735 net.cpp:165] Memory required for data: 3504257152
I0928 12:03:44.423938   735 layer_factory.hpp:77] Creating layer conv4_2_1x1_reduce/bn
I0928 12:03:44.423946   735 net.cpp:100] Creating Layer conv4_2_1x1_reduce/bn
I0928 12:03:44.423951   735 net.cpp:434] conv4_2_1x1_reduce/bn <- conv4_2_1x1_reduce
I0928 12:03:44.423956   735 net.cpp:395] conv4_2_1x1_reduce/bn -> conv4_2_1x1_reduce (in-place)
I0928 12:03:44.424172   735 net.cpp:150] Setting up conv4_2_1x1_reduce/bn
I0928 12:03:44.424180   735 net.cpp:157] Top shape: 16 256 14 14 (802816)
I0928 12:03:44.424183   735 net.cpp:165] Memory required for data: 3507468416
I0928 12:03:44.424190   735 layer_factory.hpp:77] Creating layer conv4_2_1x1_reduce/bn/scale
I0928 12:03:44.424199   735 net.cpp:100] Creating Layer conv4_2_1x1_reduce/bn/scale
I0928 12:03:44.424203   735 net.cpp:434] conv4_2_1x1_reduce/bn/scale <- conv4_2_1x1_reduce
I0928 12:03:44.424207   735 net.cpp:395] conv4_2_1x1_reduce/bn/scale -> conv4_2_1x1_reduce (in-place)
I0928 12:03:44.424252   735 layer_factory.hpp:77] Creating layer conv4_2_1x1_reduce/bn/scale
I0928 12:03:44.424366   735 net.cpp:150] Setting up conv4_2_1x1_reduce/bn/scale
I0928 12:03:44.424373   735 net.cpp:157] Top shape: 16 256 14 14 (802816)
I0928 12:03:44.424376   735 net.cpp:165] Memory required for data: 3510679680
I0928 12:03:44.424381   735 layer_factory.hpp:77] Creating layer conv4_2_1x1_reduce/relu
I0928 12:03:44.424386   735 net.cpp:100] Creating Layer conv4_2_1x1_reduce/relu
I0928 12:03:44.424389   735 net.cpp:434] conv4_2_1x1_reduce/relu <- conv4_2_1x1_reduce
I0928 12:03:44.424396   735 net.cpp:395] conv4_2_1x1_reduce/relu -> conv4_2_1x1_reduce (in-place)
I0928 12:03:44.424568   735 net.cpp:150] Setting up conv4_2_1x1_reduce/relu
I0928 12:03:44.424577   735 net.cpp:157] Top shape: 16 256 14 14 (802816)
I0928 12:03:44.424581   735 net.cpp:165] Memory required for data: 3513890944
I0928 12:03:44.424583   735 layer_factory.hpp:77] Creating layer conv4_2_3x3
I0928 12:03:44.424592   735 net.cpp:100] Creating Layer conv4_2_3x3
I0928 12:03:44.424597   735 net.cpp:434] conv4_2_3x3 <- conv4_2_1x1_reduce
I0928 12:03:44.424602   735 net.cpp:408] conv4_2_3x3 -> conv4_2_3x3
I0928 12:03:44.427445   735 net.cpp:150] Setting up conv4_2_3x3
I0928 12:03:44.427459   735 net.cpp:157] Top shape: 16 256 14 14 (802816)
I0928 12:03:44.427474   735 net.cpp:165] Memory required for data: 3517102208
I0928 12:03:44.427480   735 layer_factory.hpp:77] Creating layer conv4_2_3x3/bn
I0928 12:03:44.427489   735 net.cpp:100] Creating Layer conv4_2_3x3/bn
I0928 12:03:44.427495   735 net.cpp:434] conv4_2_3x3/bn <- conv4_2_3x3
I0928 12:03:44.427500   735 net.cpp:395] conv4_2_3x3/bn -> conv4_2_3x3 (in-place)
I0928 12:03:44.427711   735 net.cpp:150] Setting up conv4_2_3x3/bn
I0928 12:03:44.427719   735 net.cpp:157] Top shape: 16 256 14 14 (802816)
I0928 12:03:44.427722   735 net.cpp:165] Memory required for data: 3520313472
I0928 12:03:44.427729   735 layer_factory.hpp:77] Creating layer conv4_2_3x3/bn/scale
I0928 12:03:44.427739   735 net.cpp:100] Creating Layer conv4_2_3x3/bn/scale
I0928 12:03:44.427743   735 net.cpp:434] conv4_2_3x3/bn/scale <- conv4_2_3x3
I0928 12:03:44.427747   735 net.cpp:395] conv4_2_3x3/bn/scale -> conv4_2_3x3 (in-place)
I0928 12:03:44.427798   735 layer_factory.hpp:77] Creating layer conv4_2_3x3/bn/scale
I0928 12:03:44.427920   735 net.cpp:150] Setting up conv4_2_3x3/bn/scale
I0928 12:03:44.427928   735 net.cpp:157] Top shape: 16 256 14 14 (802816)
I0928 12:03:44.427932   735 net.cpp:165] Memory required for data: 3523524736
I0928 12:03:44.427937   735 layer_factory.hpp:77] Creating layer conv4_2_3x3/relu
I0928 12:03:44.427942   735 net.cpp:100] Creating Layer conv4_2_3x3/relu
I0928 12:03:44.427944   735 net.cpp:434] conv4_2_3x3/relu <- conv4_2_3x3
I0928 12:03:44.427950   735 net.cpp:395] conv4_2_3x3/relu -> conv4_2_3x3 (in-place)
I0928 12:03:44.428128   735 net.cpp:150] Setting up conv4_2_3x3/relu
I0928 12:03:44.428138   735 net.cpp:157] Top shape: 16 256 14 14 (802816)
I0928 12:03:44.428140   735 net.cpp:165] Memory required for data: 3526736000
I0928 12:03:44.428143   735 layer_factory.hpp:77] Creating layer conv4_2_1x1_increase
I0928 12:03:44.428153   735 net.cpp:100] Creating Layer conv4_2_1x1_increase
I0928 12:03:44.428156   735 net.cpp:434] conv4_2_1x1_increase <- conv4_2_3x3
I0928 12:03:44.428164   735 net.cpp:408] conv4_2_1x1_increase -> conv4_2_1x1_increase
I0928 12:03:44.430423   735 net.cpp:150] Setting up conv4_2_1x1_increase
I0928 12:03:44.430438   735 net.cpp:157] Top shape: 16 1024 14 14 (3211264)
I0928 12:03:44.430440   735 net.cpp:165] Memory required for data: 3539581056
I0928 12:03:44.430446   735 layer_factory.hpp:77] Creating layer conv4_2_1x1_increase/bn
I0928 12:03:44.430454   735 net.cpp:100] Creating Layer conv4_2_1x1_increase/bn
I0928 12:03:44.430459   735 net.cpp:434] conv4_2_1x1_increase/bn <- conv4_2_1x1_increase
I0928 12:03:44.430464   735 net.cpp:395] conv4_2_1x1_increase/bn -> conv4_2_1x1_increase (in-place)
I0928 12:03:44.430678   735 net.cpp:150] Setting up conv4_2_1x1_increase/bn
I0928 12:03:44.430686   735 net.cpp:157] Top shape: 16 1024 14 14 (3211264)
I0928 12:03:44.430690   735 net.cpp:165] Memory required for data: 3552426112
I0928 12:03:44.430696   735 layer_factory.hpp:77] Creating layer conv4_2_1x1_increase/bn/scale
I0928 12:03:44.430702   735 net.cpp:100] Creating Layer conv4_2_1x1_increase/bn/scale
I0928 12:03:44.430706   735 net.cpp:434] conv4_2_1x1_increase/bn/scale <- conv4_2_1x1_increase
I0928 12:03:44.430711   735 net.cpp:395] conv4_2_1x1_increase/bn/scale -> conv4_2_1x1_increase (in-place)
I0928 12:03:44.430750   735 layer_factory.hpp:77] Creating layer conv4_2_1x1_increase/bn/scale
I0928 12:03:44.430881   735 net.cpp:150] Setting up conv4_2_1x1_increase/bn/scale
I0928 12:03:44.430891   735 net.cpp:157] Top shape: 16 1024 14 14 (3211264)
I0928 12:03:44.430894   735 net.cpp:165] Memory required for data: 3565271168
I0928 12:03:44.430901   735 layer_factory.hpp:77] Creating layer conv4_2_1x1_increase_conv4_2_1x1_increase/bn/scale_0_split
I0928 12:03:44.430905   735 net.cpp:100] Creating Layer conv4_2_1x1_increase_conv4_2_1x1_increase/bn/scale_0_split
I0928 12:03:44.430909   735 net.cpp:434] conv4_2_1x1_increase_conv4_2_1x1_increase/bn/scale_0_split <- conv4_2_1x1_increase
I0928 12:03:44.430913   735 net.cpp:408] conv4_2_1x1_increase_conv4_2_1x1_increase/bn/scale_0_split -> conv4_2_1x1_increase_conv4_2_1x1_increase/bn/scale_0_split_0
I0928 12:03:44.430932   735 net.cpp:408] conv4_2_1x1_increase_conv4_2_1x1_increase/bn/scale_0_split -> conv4_2_1x1_increase_conv4_2_1x1_increase/bn/scale_0_split_1
I0928 12:03:44.430976   735 net.cpp:150] Setting up conv4_2_1x1_increase_conv4_2_1x1_increase/bn/scale_0_split
I0928 12:03:44.430984   735 net.cpp:157] Top shape: 16 1024 14 14 (3211264)
I0928 12:03:44.430989   735 net.cpp:157] Top shape: 16 1024 14 14 (3211264)
I0928 12:03:44.430990   735 net.cpp:165] Memory required for data: 3590961280
I0928 12:03:44.430994   735 layer_factory.hpp:77] Creating layer conv4_2_global_pool
I0928 12:03:44.430999   735 net.cpp:100] Creating Layer conv4_2_global_pool
I0928 12:03:44.431002   735 net.cpp:434] conv4_2_global_pool <- conv4_2_1x1_increase_conv4_2_1x1_increase/bn/scale_0_split_0
I0928 12:03:44.431008   735 net.cpp:408] conv4_2_global_pool -> conv4_2_global_pool
I0928 12:03:44.431033   735 net.cpp:150] Setting up conv4_2_global_pool
I0928 12:03:44.431040   735 net.cpp:157] Top shape: 16 1024 1 1 (16384)
I0928 12:03:44.431042   735 net.cpp:165] Memory required for data: 3591026816
I0928 12:03:44.431046   735 layer_factory.hpp:77] Creating layer conv4_2_1x1_down
I0928 12:03:44.431053   735 net.cpp:100] Creating Layer conv4_2_1x1_down
I0928 12:03:44.431058   735 net.cpp:434] conv4_2_1x1_down <- conv4_2_global_pool
I0928 12:03:44.431063   735 net.cpp:408] conv4_2_1x1_down -> conv4_2_1x1_down
I0928 12:03:44.432225   735 net.cpp:150] Setting up conv4_2_1x1_down
I0928 12:03:44.432238   735 net.cpp:157] Top shape: 16 64 1 1 (1024)
I0928 12:03:44.432242   735 net.cpp:165] Memory required for data: 3591030912
I0928 12:03:44.432248   735 layer_factory.hpp:77] Creating layer conv4_2_1x1_down/relu
I0928 12:03:44.432255   735 net.cpp:100] Creating Layer conv4_2_1x1_down/relu
I0928 12:03:44.432258   735 net.cpp:434] conv4_2_1x1_down/relu <- conv4_2_1x1_down
I0928 12:03:44.432265   735 net.cpp:395] conv4_2_1x1_down/relu -> conv4_2_1x1_down (in-place)
I0928 12:03:44.432442   735 net.cpp:150] Setting up conv4_2_1x1_down/relu
I0928 12:03:44.432452   735 net.cpp:157] Top shape: 16 64 1 1 (1024)
I0928 12:03:44.432456   735 net.cpp:165] Memory required for data: 3591035008
I0928 12:03:44.432458   735 layer_factory.hpp:77] Creating layer conv4_2_1x1_up
I0928 12:03:44.432467   735 net.cpp:100] Creating Layer conv4_2_1x1_up
I0928 12:03:44.432471   735 net.cpp:434] conv4_2_1x1_up <- conv4_2_1x1_down
I0928 12:03:44.432477   735 net.cpp:408] conv4_2_1x1_up -> conv4_2_1x1_up
I0928 12:03:44.433639   735 net.cpp:150] Setting up conv4_2_1x1_up
I0928 12:03:44.433651   735 net.cpp:157] Top shape: 16 1024 1 1 (16384)
I0928 12:03:44.433655   735 net.cpp:165] Memory required for data: 3591100544
I0928 12:03:44.433661   735 layer_factory.hpp:77] Creating layer conv4_2_prob
I0928 12:03:44.433667   735 net.cpp:100] Creating Layer conv4_2_prob
I0928 12:03:44.433673   735 net.cpp:434] conv4_2_prob <- conv4_2_1x1_up
I0928 12:03:44.433681   735 net.cpp:395] conv4_2_prob -> conv4_2_1x1_up (in-place)
I0928 12:03:44.433861   735 net.cpp:150] Setting up conv4_2_prob
I0928 12:03:44.433871   735 net.cpp:157] Top shape: 16 1024 1 1 (16384)
I0928 12:03:44.433873   735 net.cpp:165] Memory required for data: 3591166080
I0928 12:03:44.433877   735 layer_factory.hpp:77] Creating layer conv4_2
I0928 12:03:44.433882   735 net.cpp:100] Creating Layer conv4_2
I0928 12:03:44.433887   735 net.cpp:434] conv4_2 <- conv4_2_1x1_up
I0928 12:03:44.433890   735 net.cpp:434] conv4_2 <- conv4_2_1x1_increase_conv4_2_1x1_increase/bn/scale_0_split_1
I0928 12:03:44.433894   735 net.cpp:434] conv4_2 <- conv4_1_conv4_1/relu_0_split_1
I0928 12:03:44.433900   735 net.cpp:408] conv4_2 -> conv4_2
I0928 12:03:44.433962   735 net.cpp:150] Setting up conv4_2
…
I0928 12:03:44.756039   735 net.cpp:165] Memory required for data: 253989764
I0928 12:03:44.756048   735 layer_factory.hpp:77] Creating layer conv4_6_1x1_reduce/bn/scale
I0928 12:03:44.756054   735 net.cpp:100] Creating Layer conv4_6_1x1_reduce/bn/scale
I0928 12:03:44.756057   735 net.cpp:434] conv4_6_1x1_reduce/bn/scale <- conv4_6_1x1_reduce
I0928 12:03:44.756062   735 net.cpp:395] conv4_6_1x1_reduce/bn/scale -> conv4_6_1x1_reduce (in-place)
I0928 12:03:44.756106   735 layer_factory.hpp:77] Creating layer conv4_6_1x1_reduce/bn/scale
I0928 12:03:44.756214   735 net.cpp:150] Setting up conv4_6_1x1_reduce/bn/scale
I0928 12:03:44.756222   735 net.cpp:157] Top shape: 1 256 14 14 (50176)
I0928 12:03:44.756224   735 net.cpp:165] Memory required for data: 254190468
I0928 12:03:44.756230   735 layer_factory.hpp:77] Creating layer conv4_6_1x1_reduce/relu
I0928 12:03:44.756237   735 net.cpp:100] Creating Layer conv4_6_1x1_reduce/relu
I0928 12:03:44.756242   735 net.cpp:434] conv4_6_1x1_reduce/relu <- conv4_6_1x1_reduce
I0928 12:03:44.756245   735 net.cpp:395] conv4_6_1x1_reduce/relu -> conv4_6_1x1_reduce (in-place)
I0928 12:03:44.756466   735 net.cpp:150] Setting up conv4_6_1x1_reduce/relu
I0928 12:03:44.756476   735 net.cpp:157] Top shape: 1 256 14 14 (50176)
I0928 12:03:44.756480   735 net.cpp:165] Memory required for data: 254391172
I0928 12:03:44.756484   735 layer_factory.hpp:77] Creating layer conv4_6_3x3
I0928 12:03:44.756494   735 net.cpp:100] Creating Layer conv4_6_3x3
I0928 12:03:44.756500   735 net.cpp:434] conv4_6_3x3 <- conv4_6_1x1_reduce
I0928 12:03:44.756505   735 net.cpp:408] conv4_6_3x3 -> conv4_6_3x3
I0928 12:03:44.759757   735 net.cpp:150] Setting up conv4_6_3x3
I0928 12:03:44.759773   735 net.cpp:157] Top shape: 1 256 14 14 (50176)
I0928 12:03:44.759778   735 net.cpp:165] Memory required for data: 254591876
I0928 12:03:44.759783   735 layer_factory.hpp:77] Creating layer conv4_6_3x3/bn
I0928 12:03:44.759795   735 net.cpp:100] Creating Layer conv4_6_3x3/bn
I0928 12:03:44.759801   735 net.cpp:434] conv4_6_3x3/bn <- conv4_6_3x3
I0928 12:03:44.759809   735 net.cpp:395] conv4_6_3x3/bn -> conv4_6_3x3 (in-place)
I0928 12:03:44.760006   735 net.cpp:150] Setting up conv4_6_3x3/bn
I0928 12:03:44.760015   735 net.cpp:157] Top shape: 1 256 14 14 (50176)
I0928 12:03:44.760017   735 net.cpp:165] Memory required for data: 254792580
I0928 12:03:44.760025   735 layer_factory.hpp:77] Creating layer conv4_6_3x3/bn/scale
I0928 12:03:44.760030   735 net.cpp:100] Creating Layer conv4_6_3x3/bn/scale
I0928 12:03:44.760033   735 net.cpp:434] conv4_6_3x3/bn/scale <- conv4_6_3x3
I0928 12:03:44.760038   735 net.cpp:395] conv4_6_3x3/bn/scale -> conv4_6_3x3 (in-place)
I0928 12:03:44.760077   735 layer_factory.hpp:77] Creating layer conv4_6_3x3/bn/scale
I0928 12:03:44.760186   735 net.cpp:150] Setting up conv4_6_3x3/bn/scale
I0928 12:03:44.760193   735 net.cpp:157] Top shape: 1 256 14 14 (50176)
I0928 12:03:44.760196   735 net.cpp:165] Memory required for data: 254993284
I0928 12:03:44.760201   735 layer_factory.hpp:77] Creating layer conv4_6_3x3/relu
I0928 12:03:44.760206   735 net.cpp:100] Creating Layer conv4_6_3x3/relu
I0928 12:03:44.760210   735 net.cpp:434] conv4_6_3x3/relu <- conv4_6_3x3
I0928 12:03:44.760215   735 net.cpp:395] conv4_6_3x3/relu -> conv4_6_3x3 (in-place)
I0928 12:03:44.760437   735 net.cpp:150] Setting up conv4_6_3x3/relu
I0928 12:03:44.760447   735 net.cpp:157] Top shape: 1 256 14 14 (50176)
I0928 12:03:44.760452   735 net.cpp:165] Memory required for data: 255193988
I0928 12:03:44.760454   735 layer_factory.hpp:77] Creating layer conv4_6_1x1_increase
I0928 12:03:44.760463   735 net.cpp:100] Creating Layer conv4_6_1x1_increase
I0928 12:03:44.760466   735 net.cpp:434] conv4_6_1x1_increase <- conv4_6_3x3
I0928 12:03:44.760471   735 net.cpp:408] conv4_6_1x1_increase -> conv4_6_1x1_increase
I0928 12:03:44.763036   735 net.cpp:150] Setting up conv4_6_1x1_increase
I0928 12:03:44.763051   735 net.cpp:157] Top shape: 1 1024 14 14 (200704)
I0928 12:03:44.763053   735 net.cpp:165] Memory required for data: 255996804
I0928 12:03:44.763059   735 layer_factory.hpp:77] Creating layer conv4_6_1x1_increase/bn
I0928 12:03:44.763068   735 net.cpp:100] Creating Layer conv4_6_1x1_increase/bn
I0928 12:03:44.763072   735 net.cpp:434] conv4_6_1x1_increase/bn <- conv4_6_1x1_increase
I0928 12:03:44.763078   735 net.cpp:395] conv4_6_1x1_increase/bn -> conv4_6_1x1_increase (in-place)
I0928 12:03:44.763295   735 net.cpp:150] Setting up conv4_6_1x1_increase/bn
I0928 12:03:44.763304   735 net.cpp:157] Top shape: 1 1024 14 14 (200704)
I0928 12:03:44.763308   735 net.cpp:165] Memory required for data: 256799620
I0928 12:03:44.763315   735 layer_factory.hpp:77] Creating layer conv4_6_1x1_increase/bn/scale
I0928 12:03:44.763322   735 net.cpp:100] Creating Layer conv4_6_1x1_increase/bn/scale
I0928 12:03:44.763327   735 net.cpp:434] conv4_6_1x1_increase/bn/scale <- conv4_6_1x1_increase
I0928 12:03:44.763331   735 net.cpp:395] conv4_6_1x1_increase/bn/scale -> conv4_6_1x1_increase (in-place)
I0928 12:03:44.763380   735 layer_factory.hpp:77] Creating layer conv4_6_1x1_increase/bn/scale
I0928 12:03:44.763507   735 net.cpp:150] Setting up conv4_6_1x1_increase/bn/scale
I0928 12:03:44.763530   735 net.cpp:157] Top shape: 1 1024 14 14 (200704)
I0928 12:03:44.763535   735 net.cpp:165] Memory required for data: 257602436
I0928 12:03:44.763540   735 layer_factory.hpp:77] Creating layer conv4_6_1x1_increase_conv4_6_1x1_increase/bn/scale_0_split
I0928 12:03:44.763546   735 net.cpp:100] Creating Layer conv4_6_1x1_increase_conv4_6_1x1_increase/bn/scale_0_split
I0928 12:03:44.763550   735 net.cpp:434] conv4_6_1x1_increase_conv4_6_1x1_increase/bn/scale_0_split <- conv4_6_1x1_increase
I0928 12:03:44.763556   735 net.cpp:408] conv4_6_1x1_increase_conv4_6_1x1_increase/bn/scale_0_split -> conv4_6_1x1_increase_conv4_6_1x1_increase/bn/scale_0_split_0
I0928 12:03:44.763564   735 net.cpp:408] conv4_6_1x1_increase_conv4_6_1x1_increase/bn/scale_0_split -> conv4_6_1x1_increase_conv4_6_1x1_increase/bn/scale_0_split_1
I0928 12:03:44.763605   735 net.cpp:150] Setting up conv4_6_1x1_increase_conv4_6_1x1_increase/bn/scale_0_split
I0928 12:03:44.763612   735 net.cpp:157] Top shape: 1 1024 14 14 (200704)
I0928 12:03:44.763615   735 net.cpp:157] Top shape: 1 1024 14 14 (200704)
I0928 12:03:44.763618   735 net.cpp:165] Memory required for data: 259208068
I0928 12:03:44.763622   735 layer_factory.hpp:77] Creating layer conv4_6_global_pool
I0928 12:03:44.763628   735 net.cpp:100] Creating Layer conv4_6_global_pool
I0928 12:03:44.763633   735 net.cpp:434] conv4_6_global_pool <- conv4_6_1x1_increase_conv4_6_1x1_increase/bn/scale_0_split_0
I0928 12:03:44.763636   735 net.cpp:408] conv4_6_global_pool -> conv4_6_global_pool
I0928 12:03:44.763659   735 net.cpp:150] Setting up conv4_6_global_pool
I0928 12:03:44.763665   735 net.cpp:157] Top shape: 1 1024 1 1 (1024)
I0928 12:03:44.763669   735 net.cpp:165] Memory required for data: 259212164
I0928 12:03:44.763671   735 layer_factory.hpp:77] Creating layer conv4_6_1x1_down
I0928 12:03:44.763679   735 net.cpp:100] Creating Layer conv4_6_1x1_down
I0928 12:03:44.763684   735 net.cpp:434] conv4_6_1x1_down <- conv4_6_global_pool
I0928 12:03:44.763689   735 net.cpp:408] conv4_6_1x1_down -> conv4_6_1x1_down
I0928 12:03:44.765043   735 net.cpp:150] Setting up conv4_6_1x1_down
I0928 12:03:44.765058   735 net.cpp:157] Top shape: 1 64 1 1 (64)
I0928 12:03:44.765061   735 net.cpp:165] Memory required for data: 259212420
I0928 12:03:44.765067   735 layer_factory.hpp:77] Creating layer conv4_6_1x1_down/relu
I0928 12:03:44.765076   735 net.cpp:100] Creating Layer conv4_6_1x1_down/relu
I0928 12:03:44.765081   735 net.cpp:434] conv4_6_1x1_down/relu <- conv4_6_1x1_down
I0928 12:03:44.765086   735 net.cpp:395] conv4_6_1x1_down/relu -> conv4_6_1x1_down (in-place)
I0928 12:03:44.765297   735 net.cpp:150] Setting up conv4_6_1x1_down/relu
I0928 12:03:44.765306   735 net.cpp:157] Top shape: 1 64 1 1 (64)
I0928 12:03:44.765310   735 net.cpp:165] Memory required for data: 259212676
I0928 12:03:44.765313   735 layer_factory.hpp:77] Creating layer conv4_6_1x1_up
I0928 12:03:44.765322   735 net.cpp:100] Creating Layer conv4_6_1x1_up
I0928 12:03:44.765326   735 net.cpp:434] conv4_6_1x1_up <- conv4_6_1x1_down
I0928 12:03:44.765331   735 net.cpp:408] conv4_6_1x1_up -> conv4_6_1x1_up
I0928 12:03:44.766698   735 net.cpp:150] Setting up conv4_6_1x1_up
I0928 12:03:44.766712   735 net.cpp:157] Top shape: 1 1024 1 1 (1024)
I0928 12:03:44.766716   735 net.cpp:165] Memory required for data: 259216772
I0928 12:03:44.766722   735 layer_factory.hpp:77] Creating layer conv4_6_prob
I0928 12:03:44.766731   735 net.cpp:100] Creating Layer conv4_6_prob
I0928 12:03:44.766736   735 net.cpp:434] conv4_6_prob <- conv4_6_1x1_up
I0928 12:03:44.766741   735 net.cpp:395] conv4_6_prob -> conv4_6_1x1_up (in-place)
I0928 12:03:44.767350   735 net.cpp:150] Setting up conv4_6_prob
I0928 12:03:44.767369   735 net.cpp:157] Top shape: 1 1024 1 1 (1024)
I0928 12:03:44.767374   735 net.cpp:165] Memory required for data: 259220868
I0928 12:03:44.767377   735 layer_factory.hpp:77] Creating layer conv4_6
I0928 12:03:44.767385   735 net.cpp:100] Creating Layer conv4_6
I0928 12:03:44.767388   735 net.cpp:434] conv4_6 <- conv4_6_1x1_up
I0928 12:03:44.767405   735 net.cpp:434] conv4_6 <- conv4_6_1x1_increase_conv4_6_1x1_increase/bn/scale_0_split_1
I0928 12:03:44.767410   735 net.cpp:434] conv4_6 <- conv4_5_conv4_5/relu_0_split_1
I0928 12:03:44.767416   735 net.cpp:408] conv4_6 -> conv4_6
I0928 12:03:44.767479   735 net.cpp:150] Setting up conv4_6
I0928 12:03:44.767488   735 net.cpp:157] Top shape: 1 1024 14 14 (200704)
I0928 12:03:44.767490   735 net.cpp:165] Memory required for data: 260023684
I0928 12:03:44.767493   735 layer_factory.hpp:77] Creating layer conv4_6/relu
I0928 12:03:44.767499   735 net.cpp:100] Creating Layer conv4_6/relu
I0928 12:03:44.767503   735 net.cpp:434] conv4_6/relu <- conv4_6
I0928 12:03:44.767509   735 net.cpp:395] conv4_6/relu -> conv4_6 (in-place)
I0928 12:03:44.768095   735 net.cpp:150] Setting up conv4_6/relu
I0928 12:03:44.768108   735 net.cpp:157] Top shape: 1 1024 14 14 (200704)
I0928 12:03:44.768111   735 net.cpp:165] Memory required for data: 260826500
I0928 12:03:44.768115   735 layer_factory.hpp:77] Creating layer conv4_6_conv4_6/relu_0_split
I0928 12:03:44.768121   735 net.cpp:100] Creating Layer conv4_6_conv4_6/relu_0_split
I0928 12:03:44.768124   735 net.cpp:434] conv4_6_conv4_6/relu_0_split <- conv4_6
I0928 12:03:44.768131   735 net.cpp:408] conv4_6_conv4_6/relu_0_split -> conv4_6_conv4_6/relu_0_split_0
I0928 12:03:44.768138   735 net.cpp:408] conv4_6_conv4_6/relu_0_split -> conv4_6_conv4_6/relu_0_split_1
I0928 12:03:44.768187   735 net.cpp:150] Setting up conv4_6_conv4_6/relu_0_split
I0928 12:03:44.768193   735 net.cpp:157] Top shape: 1 1024 14 14 (200704)
I0928 12:03:44.768198   735 net.cpp:157] Top shape: 1 1024 14 14 (200704)
I0928 12:03:44.768199   735 net.cpp:165] Memory required for data: 262432132
I0928 12:03:44.768203   735 layer_factory.hpp:77] Creating layer conv5_1_1x1_reduce
I0928 12:03:44.768213   735 net.cpp:100] Creating Layer conv5_1_1x1_reduce
I0928 12:03:44.768218   735 net.cpp:434] conv5_1_1x1_reduce <- conv4_6_conv4_6/relu_0_split_0
I0928 12:03:44.768223   735 net.cpp:408] conv5_1_1x1_reduce -> conv5_1_1x1_reduce
I0928 12:03:44.770954   735 net.cpp:150] Setting up conv5_1_1x1_reduce
I0928 12:03:44.770968   735 net.cpp:157] Top shape: 1 512 7 7 (25088)
I0928 12:03:44.770972   735 net.cpp:165] Memory required for data: 262532484
I0928 12:03:44.770978   735 layer_factory.hpp:77] Creating layer conv5_1_1x1_reduce/bn
I0928 12:03:44.770987   735 net.cpp:100] Creating Layer conv5_1_1x1_reduce/bn
I0928 12:03:44.770992   735 net.cpp:434] conv5_1_1x1_reduce/bn <- conv5_1_1x1_reduce
I0928 12:03:44.770998   735 net.cpp:395] conv5_1_1x1_reduce/bn -> conv5_1_1x1_reduce (in-place)
I0928 12:03:44.771227   735 net.cpp:150] Setting up conv5_1_1x1_reduce/bn
I0928 12:03:44.771236   735 net.cpp:157] Top shape: 1 512 7 7 (25088)
I0928 12:03:44.771239   735 net.cpp:165] Memory required for data: 262632836
I0928 12:03:44.771246   735 layer_factory.hpp:77] Creating layer conv5_1_1x1_reduce/bn/scale
I0928 12:03:44.771251   735 net.cpp:100] Creating Layer conv5_1_1x1_reduce/bn/scale
I0928 12:03:44.771255   735 net.cpp:434] conv5_1_1x1_reduce/bn/scale <- conv5_1_1x1_reduce
I0928 12:03:44.771261   735 net.cpp:395] conv5_1_1x1_reduce/bn/scale -> conv5_1_1x1_reduce (in-place)
I0928 12:03:44.771308   735 layer_factory.hpp:77] Creating layer conv5_1_1x1_reduce/bn/scale
I0928 12:03:44.771442   735 net.cpp:150] Setting up conv5_1_1x1_reduce/bn/scale
I0928 12:03:44.771452   735 net.cpp:157] Top shape: 1 512 7 7 (25088)
I0928 12:03:44.771456   735 net.cpp:165] Memory required for data: 262733188
I0928 12:03:44.771461   735 layer_factory.hpp:77] Creating layer conv5_1_1x1_reduce/relu
I0928 12:03:44.771466   735 net.cpp:100] Creating Layer conv5_1_1x1_reduce/relu
I0928 12:03:44.771469   735 net.cpp:434] conv5_1_1x1_reduce/relu <- conv5_1_1x1_reduce
I0928 12:03:44.771473   735 net.cpp:395] conv5_1_1x1_reduce/relu -> conv5_1_1x1_reduce (in-place)
I0928 12:03:44.771683   735 net.cpp:150] Setting up conv5_1_1x1_reduce/relu
I0928 12:03:44.771693   735 net.cpp:157] Top shape: 1 512 7 7 (25088)
I0928 12:03:44.771708   735 net.cpp:165] Memory required for data: 262833540
I0928 12:03:44.771713   735 layer_factory.hpp:77] Creating layer conv5_1_3x3
I0928 12:03:44.771720   735 net.cpp:100] Creating Layer conv5_1_3x3
I0928 12:03:44.771723   735 net.cpp:434] conv5_1_3x3 <- conv5_1_1x1_reduce
I0928 12:03:44.771731   735 net.cpp:408] conv5_1_3x3 -> conv5_1_3x3
I0928 12:03:44.778585   735 net.cpp:150] Setting up conv5_1_3x3
I0928 12:03:44.778600   735 net.cpp:157] Top shape: 1 512 7 7 (25088)
I0928 12:03:44.778604   735 net.cpp:165] Memory required for data: 262933892
I0928 12:03:44.778611   735 layer_factory.hpp:77] Creating layer conv5_1_3x3/bn
I0928 12:03:44.778619   735 net.cpp:100] Creating Layer conv5_1_3x3/bn
I0928 12:03:44.778621   735 net.cpp:434] conv5_1_3x3/bn <- conv5_1_3x3
I0928 12:03:44.778628   735 net.cpp:395] conv5_1_3x3/bn -> conv5_1_3x3 (in-place)
I0928 12:03:44.778867   735 net.cpp:150] Setting up conv5_1_3x3/bn
I0928 12:03:44.778877   735 net.cpp:157] Top shape: 1 512 7 7 (25088)
I0928 12:03:44.778879   735 net.cpp:165] Memory required for data: 263034244
I0928 12:03:44.778887   735 layer_factory.hpp:77] Creating layer conv5_1_3x3/bn/scale
I0928 12:03:44.778894   735 net.cpp:100] Creating Layer conv5_1_3x3/bn/scale
I0928 12:03:44.778898   735 net.cpp:434] conv5_1_3x3/bn/scale <- conv5_1_3x3
I0928 12:03:44.778903   735 net.cpp:395] conv5_1_3x3/bn/scale -> conv5_1_3x3 (in-place)
I0928 12:03:44.778952   735 layer_factory.hpp:77] Creating layer conv5_1_3x3/bn/scale
I0928 12:03:44.779088   735 net.cpp:150] Setting up conv5_1_3x3/bn/scale
I0928 12:03:44.779095   735 net.cpp:157] Top shape: 1 512 7 7 (25088)
I0928 12:03:44.779098   735 net.cpp:165] Memory required for data: 263134596
I0928 12:03:44.779103   735 layer_factory.hpp:77] Creating layer conv5_1_3x3/relu
I0928 12:03:44.779109   735 net.cpp:100] Creating Layer conv5_1_3x3/relu
I0928 12:03:44.779112   735 net.cpp:434] conv5_1_3x3/relu <- conv5_1_3x3
I0928 12:03:44.779119   735 net.cpp:395] conv5_1_3x3/relu -> conv5_1_3x3 (in-place)
I0928 12:03:44.779350   735 net.cpp:150] Setting up conv5_1_3x3/relu
I0928 12:03:44.779359   735 net.cpp:157] Top shape: 1 512 7 7 (25088)
I0928 12:03:44.779363   735 net.cpp:165] Memory required for data: 263234948
I0928 12:03:44.779366   735 layer_factory.hpp:77] Creating layer conv5_1_1x1_increase
I0928 12:03:44.779376   735 net.cpp:100] Creating Layer conv5_1_1x1_increase
I0928 12:03:44.779378   735 net.cpp:434] conv5_1_1x1_increase <- conv5_1_3x3
I0928 12:03:44.779386   735 net.cpp:408] conv5_1_1x1_increase -> conv5_1_1x1_increase
I0928 12:03:44.783187   735 net.cpp:150] Setting up conv5_1_1x1_increase
I0928 12:03:44.783202   735 net.cpp:157] Top shape: 1 2048 7 7 (100352)
I0928 12:03:44.783205   735 net.cpp:165] Memory required for data: 263636356
I0928 12:03:44.783211   735 layer_factory.hpp:77] Creating layer conv5_1_1x1_increase/bn
I0928 12:03:44.783218   735 net.cpp:100] Creating Layer conv5_1_1x1_increase/bn
I0928 12:03:44.783222   735 net.cpp:434] conv5_1_1x1_increase/bn <- conv5_1_1x1_increase
I0928 12:03:44.783229   735 net.cpp:395] conv5_1_1x1_increase/bn -> conv5_1_1x1_increase (in-place)
I0928 12:03:44.783478   735 net.cpp:150] Setting up conv5_1_1x1_increase/bn
I0928 12:03:44.783486   735 net.cpp:157] Top shape: 1 2048 7 7 (100352)
I0928 12:03:44.783489   735 net.cpp:165] Memory required for data: 264037764
I0928 12:03:44.783496   735 layer_factory.hpp:77] Creating layer conv5_1_1x1_increase/bn/scale
I0928 12:03:44.783502   735 net.cpp:100] Creating Layer conv5_1_1x1_increase/bn/scale
I0928 12:03:44.783506   735 net.cpp:434] conv5_1_1x1_increase/bn/scale <- conv5_1_1x1_increase
I0928 12:03:44.783514   735 net.cpp:395] conv5_1_1x1_increase/bn/scale -> conv5_1_1x1_increase (in-place)
I0928 12:03:44.783567   735 layer_factory.hpp:77] Creating layer conv5_1_1x1_increase/bn/scale
I0928 12:03:44.783701   735 net.cpp:150] Setting up conv5_1_1x1_increase/bn/scale
I0928 12:03:44.783711   735 net.cpp:157] Top shape: 1 2048 7 7 (100352)
I0928 12:03:44.783713   735 net.cpp:165] Memory required for data: 264439172
I0928 12:03:44.783732   735 layer_factory.hpp:77] Creating layer conv5_1_1x1_increase_conv5_1_1x1_increase/bn/scale_0_split
I0928 12:03:44.783738   735 net.cpp:100] Creating Layer conv5_1_1x1_increase_conv5_1_1x1_increase/bn/scale_0_split
I0928 12:03:44.783743   735 net.cpp:434] conv5_1_1x1_increase_conv5_1_1x1_increase/bn/scale_0_split <- conv5_1_1x1_increase
I0928 12:03:44.783748   735 net.cpp:408] conv5_1_1x1_increase_conv5_1_1x1_increase/bn/scale_0_split -> conv5_1_1x1_increase_conv5_1_1x1_increase/bn/scale_0_split_0
I0928 12:03:44.783754   735 net.cpp:408] conv5_1_1x1_increase_conv5_1_1x1_increase/bn/scale_0_split -> conv5_1_1x1_increase_conv5_1_1x1_increase/bn/scale_0_split_1
I0928 12:03:44.783804   735 net.cpp:150] Setting up conv5_1_1x1_increase_conv5_1_1x1_increase/bn/scale_0_split
I0928 12:03:44.783812   735 net.cpp:157] Top shape: 1 2048 7 7 (100352)
I0928 12:03:44.783816   735 net.cpp:157] Top shape: 1 2048 7 7 (100352)
I0928 12:03:44.783818   735 net.cpp:165] Memory required for data: 265241988
I0928 12:03:44.783821   735 layer_factory.hpp:77] Creating layer conv5_1_global_pool
I0928 12:03:44.783828   735 net.cpp:100] Creating Layer conv5_1_global_pool
I0928 12:03:44.783831   735 net.cpp:434] conv5_1_global_pool <- conv5_1_1x1_increase_conv5_1_1x1_increase/bn/scale_0_split_0
I0928 12:03:44.783838   735 net.cpp:408] conv5_1_global_pool -> conv5_1_global_pool
I0928 12:03:44.783862   735 net.cpp:150] Setting up conv5_1_global_pool
I0928 12:03:44.783869   735 net.cpp:157] Top shape: 1 2048 1 1 (2048)
I0928 12:03:44.783871   735 net.cpp:165] Memory required for data: 265250180
I0928 12:03:44.783874   735 layer_factory.hpp:77] Creating layer conv5_1_1x1_down
I0928 12:03:44.783882   735 net.cpp:100] Creating Layer conv5_1_1x1_down
I0928 12:03:44.783886   735 net.cpp:434] conv5_1_1x1_down <- conv5_1_global_pool
I0928 12:03:44.783891   735 net.cpp:408] conv5_1_1x1_down -> conv5_1_1x1_down
I0928 12:03:44.785418   735 net.cpp:150] Setting up conv5_1_1x1_down
I0928 12:03:44.785431   735 net.cpp:157] Top shape: 1 128 1 1 (128)
I0928 12:03:44.785434   735 net.cpp:165] Memory required for data: 265250692
I0928 12:03:44.785441   735 layer_factory.hpp:77] Creating layer conv5_1_1x1_down/relu
I0928 12:03:44.785449   735 net.cpp:100] Creating Layer conv5_1_1x1_down/relu
I0928 12:03:44.785454   735 net.cpp:434] conv5_1_1x1_down/relu <- conv5_1_1x1_down
I0928 12:03:44.785459   735 net.cpp:395] conv5_1_1x1_down/relu -> conv5_1_1x1_down (in-place)
I0928 12:03:44.785673   735 net.cpp:150] Setting up conv5_1_1x1_down/relu
I0928 12:03:44.785683   735 net.cpp:157] Top shape: 1 128 1 1 (128)
I0928 12:03:44.785686   735 net.cpp:165] Memory required for data: 265251204
I0928 12:03:44.785691   735 layer_factory.hpp:77] Creating layer conv5_1_1x1_up
I0928 12:03:44.785698   735 net.cpp:100] Creating Layer conv5_1_1x1_up
I0928 12:03:44.785702   735 net.cpp:434] conv5_1_1x1_up <- conv5_1_1x1_down
I0928 12:03:44.785709   735 net.cpp:408] conv5_1_1x1_up -> conv5_1_1x1_up
I0928 12:03:44.788384   735 net.cpp:150] Setting up conv5_1_1x1_up
I0928 12:03:44.788398   735 net.cpp:157] Top shape: 1 2048 1 1 (2048)
I0928 12:03:44.788403   735 net.cpp:165] Memory required for data: 265259396
I0928 12:03:44.788408   735 layer_factory.hpp:77] Creating layer conv5_1_prob
I0928 12:03:44.788422   735 net.cpp:100] Creating Layer conv5_1_prob
I0928 12:03:44.788429   735 net.cpp:434] conv5_1_prob <- conv5_1_1x1_up
I0928 12:03:44.788434   735 net.cpp:395] conv5_1_prob -> conv5_1_1x1_up (in-place)
I0928 12:03:44.788650   735 net.cpp:150] Setting up conv5_1_prob
I0928 12:03:44.788661   735 net.cpp:157] Top shape: 1 2048 1 1 (2048)
I0928 12:03:44.788664   735 net.cpp:165] Memory required for data: 265267588
I0928 12:03:44.788668   735 layer_factory.hpp:77] Creating layer conv5_1_1x1_proj
I0928 12:03:44.788676   735 net.cpp:100] Creating Layer conv5_1_1x1_proj
I0928 12:03:44.788681   735 net.cpp:434] conv5_1_1x1_proj <- conv4_6_conv4_6/relu_0_split_1
I0928 12:03:44.788686   735 net.cpp:408] conv5_1_1x1_proj -> conv5_1_1x1_proj
I0928 12:03:44.794605   735 net.cpp:150] Setting up conv5_1_1x1_proj
I0928 12:03:44.794632   735 net.cpp:157] Top shape: 1 2048 7 7 (100352)
I0928 12:03:44.794637   735 net.cpp:165] Memory required for data: 265668996
I0928 12:03:44.794643   735 layer_factory.hpp:77] Creating layer conv5_1_1x1_proj/bn
I0928 12:03:44.794651   735 net.cpp:100] Creating Layer conv5_1_1x1_proj/bn
I0928 12:03:44.794657   735 net.cpp:434] conv5_1_1x1_proj/bn <- conv5_1_1x1_proj
I0928 12:03:44.794662   735 net.cpp:395] conv5_1_1x1_proj/bn -> conv5_1_1x1_proj (in-place)
I0928 12:03:44.794914   735 net.cpp:150] Setting up conv5_1_1x1_proj/bn
I0928 12:03:44.794922   735 net.cpp:157] Top shape: 1 2048 7 7 (100352)
I0928 12:03:44.794926   735 net.cpp:165] Memory required for data: 266070404
I0928 12:03:44.794934   735 layer_factory.hpp:77] Creating layer conv5_1_1x1_proj/bn/scale
I0928 12:03:44.794939   735 net.cpp:100] Creating Layer conv5_1_1x1_proj/bn/scale
I0928 12:03:44.794944   735 net.cpp:434] conv5_1_1x1_proj/bn/scale <- conv5_1_1x1_proj
I0928 12:03:44.794950   735 net.cpp:395] conv5_1_1x1_proj/bn/scale -> conv5_1_1x1_proj (in-place)
I0928 12:03:44.795004   735 layer_factory.hpp:77] Creating layer conv5_1_1x1_proj/bn/scale
I0928 12:03:44.795143   735 net.cpp:150] Setting up conv5_1_1x1_proj/bn/scale
I0928 12:03:44.795153   735 net.cpp:157] Top shape: 1 2048 7 7 (100352)
I0928 12:03:44.795156   735 net.cpp:165] Memory required for data: 266471812
I0928 12:03:44.795161   735 layer_factory.hpp:77] Creating layer conv5_1
I0928 12:03:44.795167   735 net.cpp:100] Creating Layer conv5_1
I0928 12:03:44.795171   735 net.cpp:434] conv5_1 <- conv5_1_1x1_up
I0928 12:03:44.795176   735 net.cpp:434] conv5_1 <- conv5_1_1x1_increase_conv5_1_1x1_increase/bn/scale_0_split_1
I0928 12:03:44.795179   735 net.cpp:434] conv5_1 <- conv5_1_1x1_proj
I0928 12:03:44.795183   735 net.cpp:408] conv5_1 -> conv5_1
I0928 12:03:44.795243   735 net.cpp:150] Setting up conv5_1
I0928 12:03:44.795250   735 net.cpp:157] Top shape: 1 2048 7 7 (100352)
I0928 12:03:44.795253   735 net.cpp:165] Memory required for data: 266873220
I0928 12:03:44.795256   735 layer_factory.hpp:77] Creating layer conv5_1/relu
I0928 12:03:44.795261   735 net.cpp:100] Creating Layer conv5_1/relu
I0928 12:03:44.795264   735 net.cpp:434] conv5_1/relu <- conv5_1
I0928 12:03:44.795269   735 net.cpp:395] conv5_1/relu -> conv5_1 (in-place)
I0928 12:03:44.795912   735 net.cpp:150] Setting up conv5_1/relu
I0928 12:03:44.795925   735 net.cpp:157] Top shape: 1 2048 7 7 (100352)
I0928 12:03:44.795928   735 net.cpp:165] Memory required for data: 267274628
I0928 12:03:44.795933   735 layer_factory.hpp:77] Creating layer conv5_1_conv5_1/relu_0_split
I0928 12:03:44.795938   735 net.cpp:100] Creating Layer conv5_1_conv5_1/relu_0_split
I0928 12:03:44.795943   735 net.cpp:434] conv5_1_conv5_1/relu_0_split <- conv5_1
I0928 12:03:44.795949   735 net.cpp:408] conv5_1_conv5_1/relu_0_split -> conv5_1_conv5_1/relu_0_split_0
I0928 12:03:44.795955   735 net.cpp:408] conv5_1_conv5_1/relu_0_split -> conv5_1_conv5_1/relu_0_split_1
I0928 12:03:44.796005   735 net.cpp:150] Setting up conv5_1_conv5_1/relu_0_split
I0928 12:03:44.796011   735 net.cpp:157] Top shape: 1 2048 7 7 (100352)
I0928 12:03:44.796015   735 net.cpp:157] Top shape: 1 2048 7 7 (100352)
I0928 12:03:44.796018   735 net.cpp:165] Memory required for data: 268077444
I0928 12:03:44.796021   735 layer_factory.hpp:77] Creating layer conv5_2_1x1_reduce
I0928 12:03:44.796030   735 net.cpp:100] Creating Layer conv5_2_1x1_reduce
I0928 12:03:44.796036   735 net.cpp:434] conv5_2_1x1_reduce <- conv5_1_conv5_1/relu_0_split_0
I0928 12:03:44.796041   735 net.cpp:408] conv5_2_1x1_reduce -> conv5_2_1x1_reduce
I0928 12:03:44.799443   735 net.cpp:150] Setting up conv5_2_1x1_reduce
I0928 12:03:44.799459   735 net.cpp:157] Top shape: 1 512 7 7 (25088)
I0928 12:03:44.799463   735 net.cpp:165] Memory required for data: 268177796
I0928 12:03:44.799468   735 layer_factory.hpp:77] Creating layer conv5_2_1x1_reduce/bn
I0928 12:03:44.799475   735 net.cpp:100] Creating Layer conv5_2_1x1_reduce/bn
I0928 12:03:44.799479   735 net.cpp:434] conv5_2_1x1_reduce/bn <- conv5_2_1x1_reduce
I0928 12:03:44.799500   735 net.cpp:395] conv5_2_1x1_reduce/bn -> conv5_2_1x1_reduce (in-place)
I0928 12:03:44.799736   735 net.cpp:150] Setting up conv5_2_1x1_reduce/bn
I0928 12:03:44.799743   735 net.cpp:157] Top shape: 1 512 7 7 (25088)
I0928 12:03:44.799746   735 net.cpp:165] Memory required for data: 268278148
I0928 12:03:44.799754   735 layer_factory.hpp:77] Creating layer conv5_2_1x1_reduce/bn/scale
I0928 12:03:44.799760   735 net.cpp:100] Creating Layer conv5_2_1x1_reduce/bn/scale
I0928 12:03:44.799763   735 net.cpp:434] conv5_2_1x1_reduce/bn/scale <- conv5_2_1x1_reduce
I0928 12:03:44.799768   735 net.cpp:395] conv5_2_1x1_reduce/bn/scale -> conv5_2_1x1_reduce (in-place)
I0928 12:03:44.799826   735 layer_factory.hpp:77] Creating layer conv5_2_1x1_reduce/bn/scale
I0928 12:03:44.799965   735 net.cpp:150] Setting up conv5_2_1x1_reduce/bn/scale
I0928 12:03:44.799973   735 net.cpp:157] Top shape: 1 512 7 7 (25088)
I0928 12:03:44.799976   735 net.cpp:165] Memory required for data: 268378500
I0928 12:03:44.799983   735 layer_factory.hpp:77] Creating layer conv5_2_1x1_reduce/relu
I0928 12:03:44.799988   735 net.cpp:100] Creating Layer conv5_2_1x1_reduce/relu
I0928 12:03:44.799991   735 net.cpp:434] conv5_2_1x1_reduce/relu <- conv5_2_1x1_reduce
I0928 12:03:44.799996   735 net.cpp:395] conv5_2_1x1_reduce/relu -> conv5_2_1x1_reduce (in-place)
I0928 12:03:44.800627   735 net.cpp:150] Setting up conv5_2_1x1_reduce/relu
I0928 12:03:44.800640   735 net.cpp:157] Top shape: 1 512 7 7 (25088)
I0928 12:03:44.800644   735 net.cpp:165] Memory required for data: 268478852
I0928 12:03:44.800647   735 layer_factory.hpp:77] Creating layer conv5_2_3x3
I0928 12:03:44.800657   735 net.cpp:100] Creating Layer conv5_2_3x3
I0928 12:03:44.800662   735 net.cpp:434] conv5_2_3x3 <- conv5_2_1x1_reduce
I0928 12:03:44.800670   735 net.cpp:408] conv5_2_3x3 -> conv5_2_3x3
I0928 12:03:44.807545   735 net.cpp:150] Setting up conv5_2_3x3
I0928 12:03:44.807564   735 net.cpp:157] Top shape: 1 512 7 7 (25088)
I0928 12:03:44.807567   735 net.cpp:165] Memory required for data: 268579204
I0928 12:03:44.807574   735 layer_factory.hpp:77] Creating layer conv5_2_3x3/bn
I0928 12:03:44.807580   735 net.cpp:100] Creating Layer conv5_2_3x3/bn
I0928 12:03:44.807585   735 net.cpp:434] conv5_2_3x3/bn <- conv5_2_3x3
I0928 12:03:44.807590   735 net.cpp:395] conv5_2_3x3/bn -> conv5_2_3x3 (in-place)
I0928 12:03:44.807833   735 net.cpp:150] Setting up conv5_2_3x3/bn
I0928 12:03:44.807842   735 net.cpp:157] Top shape: 1 512 7 7 (25088)
I0928 12:03:44.807845   735 net.cpp:165] Memory required for data: 268679556
I0928 12:03:44.807852   735 layer_factory.hpp:77] Creating layer conv5_2_3x3/bn/scale
I0928 12:03:44.807860   735 net.cpp:100] Creating Layer conv5_2_3x3/bn/scale
I0928 12:03:44.807864   735 net.cpp:434] conv5_2_3x3/bn/scale <- conv5_2_3x3
I0928 12:03:44.807869   735 net.cpp:395] conv5_2_3x3/bn/scale -> conv5_2_3x3 (in-place)
I0928 12:03:44.807924   735 layer_factory.hpp:77] Creating layer conv5_2_3x3/bn/scale
I0928 12:03:44.808068   735 net.cpp:150] Setting up conv5_2_3x3/bn/scale
I0928 12:03:44.808076   735 net.cpp:157] Top shape: 1 512 7 7 (25088)
I0928 12:03:44.808079   735 net.cpp:165] Memory required for data: 268779908
I0928 12:03:44.808085   735 layer_factory.hpp:77] Creating layer conv5_2_3x3/relu
I0928 12:03:44.808090   735 net.cpp:100] Creating Layer conv5_2_3x3/relu
I0928 12:03:44.808094   735 net.cpp:434] conv5_2_3x3/relu <- conv5_2_3x3
I0928 12:03:44.808099   735 net.cpp:395] conv5_2_3x3/relu -> conv5_2_3x3 (in-place)
I0928 12:03:44.808322   735 net.cpp:150] Setting up conv5_2_3x3/relu
I0928 12:03:44.808332   735 net.cpp:157] Top shape: 1 512 7 7 (25088)
I0928 12:03:44.808336   735 net.cpp:165] Memory required for data: 268880260
I0928 12:03:44.808338   735 layer_factory.hpp:77] Creating layer conv5_2_1x1_increase
I0928 12:03:44.808346   735 net.cpp:100] Creating Layer conv5_2_1x1_increase
I0928 12:03:44.808351   735 net.cpp:434] conv5_2_1x1_increase <- conv5_2_3x3
I0928 12:03:44.808357   735 net.cpp:408] conv5_2_1x1_increase -> conv5_2_1x1_increase
I0928 12:03:44.812275   735 net.cpp:150] Setting up conv5_2_1x1_increase
I0928 12:03:44.812290   735 net.cpp:157] Top shape: 1 2048 7 7 (100352)
I0928 12:03:44.812294   735 net.cpp:165] Memory required for data: 269281668
I0928 12:03:44.812299   735 layer_factory.hpp:77] Creating layer conv5_2_1x1_increase/bn
I0928 12:03:44.812305   735 net.cpp:100] Creating Layer conv5_2_1x1_increase/bn
I0928 12:03:44.812310   735 net.cpp:434] conv5_2_1x1_increase/bn <- conv5_2_1x1_increase
I0928 12:03:44.812316   735 net.cpp:395] conv5_2_1x1_increase/bn -> conv5_2_1x1_increase (in-place)
I0928 12:03:44.812556   735 net.cpp:150] Setting up conv5_2_1x1_increase/bn
I0928 12:03:44.812566   735 net.cpp:157] Top shape: 1 2048 7 7 (100352)
I0928 12:03:44.812568   735 net.cpp:165] Memory required for data: 269683076
I0928 12:03:44.812577   735 layer_factory.hpp:77] Creating layer conv5_2_1x1_increase/bn/scale
I0928 12:03:44.812582   735 net.cpp:100] Creating Layer conv5_2_1x1_increase/bn/scale
I0928 12:03:44.812585   735 net.cpp:434] conv5_2_1x1_increase/bn/scale <- conv5_2_1x1_increase
I0928 12:03:44.812589   735 net.cpp:395] conv5_2_1x1_increase/bn/scale -> conv5_2_1x1_increase (in-place)
I0928 12:03:44.812644   735 layer_factory.hpp:77] Creating layer conv5_2_1x1_increase/bn/scale
I0928 12:03:44.812795   735 net.cpp:150] Setting up conv5_2_1x1_increase/bn/scale
I0928 12:03:44.812804   735 net.cpp:157] Top shape: 1 2048 7 7 (100352)
I0928 12:03:44.812808   735 net.cpp:165] Memory required for data: 270084484
I0928 12:03:44.812813   735 layer_factory.hpp:77] Creating layer conv5_2_1x1_increase_conv5_2_1x1_increase/bn/scale_0_split
I0928 12:03:44.812819   735 net.cpp:100] Creating Layer conv5_2_1x1_increase_conv5_2_1x1_increase/bn/scale_0_split
I0928 12:03:44.812822   735 net.cpp:434] conv5_2_1x1_increase_conv5_2_1x1_increase/bn/scale_0_split <- conv5_2_1x1_increase
I0928 12:03:44.812829   735 net.cpp:408] conv5_2_1x1_increase_conv5_2_1x1_increase/bn/scale_0_split -> conv5_2_1x1_increase_conv5_2_1x1_increase/bn/scale_0_split_0
I0928 12:03:44.812835   735 net.cpp:408] conv5_2_1x1_increase_conv5_2_1x1_increase/bn/scale_0_split -> conv5_2_1x1_increase_conv5_2_1x1_increase/bn/scale_0_split_1
I0928 12:03:44.812880   735 net.cpp:150] Setting up conv5_2_1x1_increase_conv5_2_1x1_increase/bn/scale_0_split
I0928 12:03:44.812886   735 net.cpp:157] Top shape: 1 2048 7 7 (100352)
I0928 12:03:44.812891   735 net.cpp:157] Top shape: 1 2048 7 7 (100352)
I0928 12:03:44.812893   735 net.cpp:165] Memory required for data: 270887300
I0928 12:03:44.812896   735 layer_factory.hpp:77] Creating layer conv5_2_global_pool
I0928 12:03:44.812903   735 net.cpp:100] Creating Layer conv5_2_global_pool
I0928 12:03:44.812906   735 net.cpp:434] conv5_2_global_pool <- conv5_2_1x1_increase_conv5_2_1x1_increase/bn/scale_0_split_0
I0928 12:03:44.812911   735 net.cpp:408] conv5_2_global_pool -> conv5_2_global_pool
I0928 12:03:44.812937   735 net.cpp:150] Setting up conv5_2_global_pool
I0928 12:03:44.812942   735 net.cpp:157] Top shape: 1 2048 1 1 (2048)
I0928 12:03:44.812945   735 net.cpp:165] Memory required for data: 270895492
I0928 12:03:44.812948   735 layer_factory.hpp:77] Creating layer conv5_2_1x1_down
I0928 12:03:44.812955   735 net.cpp:100] Creating Layer conv5_2_1x1_down
I0928 12:03:44.812958   735 net.cpp:434] conv5_2_1x1_down <- conv5_2_global_pool
I0928 12:03:44.812964   735 net.cpp:408] conv5_2_1x1_down -> conv5_2_1x1_down
I0928 12:03:44.814538   735 net.cpp:150] Setting up conv5_2_1x1_down
I0928 12:03:44.814551   735 net.cpp:157] Top shape: 1 128 1 1 (128)
I0928 12:03:44.814555   735 net.cpp:165] Memory required for data: 270896004
I0928 12:03:44.814563   735 layer_factory.hpp:77] Creating layer conv5_2_1x1_down/relu
I0928 12:03:44.814570   735 net.cpp:100] Creating Layer conv5_2_1x1_down/relu
I0928 12:03:44.814575   735 net.cpp:434] conv5_2_1x1_down/relu <- conv5_2_1x1_down
I0928 12:03:44.814580   735 net.cpp:395] conv5_2_1x1_down/relu -> conv5_2_1x1_down (in-place)
I0928 12:03:44.814802   735 net.cpp:150] Setting up conv5_2_1x1_down/relu
I0928 12:03:44.814824   735 net.cpp:157] Top shape: 1 128 1 1 (128)
I0928 12:03:44.814828   735 net.cpp:165] Memory required for data: 270896516
I0928 12:03:44.814832   735 layer_factory.hpp:77] Creating layer conv5_2_1x1_up
I0928 12:03:44.814841   735 net.cpp:100] Creating Layer conv5_2_1x1_up
I0928 12:03:44.814846   735 net.cpp:434] conv5_2_1x1_up <- conv5_2_1x1_down
I0928 12:03:44.814854   735 net.cpp:408] conv5_2_1x1_up -> conv5_2_1x1_up
I0928 12:03:44.817625   735 net.cpp:150] Setting up conv5_2_1x1_up
I0928 12:03:44.817638   735 net.cpp:157] Top shape: 1 2048 1 1 (2048)
I0928 12:03:44.817642   735 net.cpp:165] Memory required for data: 270904708
I0928 12:03:44.817648   735 layer_factory.hpp:77] Creating layer conv5_2_prob
I0928 12:03:44.817657   735 net.cpp:100] Creating Layer conv5_2_prob
I0928 12:03:44.817662   735 net.cpp:434] conv5_2_prob <- conv5_2_1x1_up
I0928 12:03:44.817667   735 net.cpp:395] conv5_2_prob -> conv5_2_1x1_up (in-place)
I0928 12:03:44.817889   735 net.cpp:150] Setting up conv5_2_prob
I0928 12:03:44.817900   735 net.cpp:157] Top shape: 1 2048 1 1 (2048)
I0928 12:03:44.817903   735 net.cpp:165] Memory required for data: 270912900
I0928 12:03:44.817906   735 layer_factory.hpp:77] Creating layer conv5_2
I0928 12:03:44.817915   735 net.cpp:100] Creating Layer conv5_2
I0928 12:03:44.817919   735 net.cpp:434] conv5_2 <- conv5_2_1x1_up
I0928 12:03:44.817924   735 net.cpp:434] conv5_2 <- conv5_2_1x1_increase_conv5_2_1x1_increase/bn/scale_0_split_1
I0928 12:03:44.817927   735 net.cpp:434] conv5_2 <- conv5_1_conv5_1/relu_0_split_1
I0928 12:03:44.817934   735 net.cpp:408] conv5_2 -> conv5_2
I0928 12:03:44.817999   735 net.cpp:150] Setting up conv5_2
I0928 12:03:44.818006   735 net.cpp:157] Top shape: 1 2048 7 7 (100352)
I0928 12:03:44.818009   735 net.cpp:165] Memory required for data: 271314308
I0928 12:03:44.818012   735 layer_factory.hpp:77] Creating layer conv5_2/relu
I0928 12:03:44.818017   735 net.cpp:100] Creating Layer conv5_2/relu
I0928 12:03:44.818020   735 net.cpp:434] conv5_2/relu <- conv5_2
I0928 12:03:44.818027   735 net.cpp:395] conv5_2/relu -> conv5_2 (in-place)
I0928 12:03:44.818233   735 net.cpp:150] Setting up conv5_2/relu
I0928 12:03:44.818243   735 net.cpp:157] Top shape: 1 2048 7 7 (100352)
I0928 12:03:44.818245   735 net.cpp:165] Memory required for data: 271715716
I0928 12:03:44.818249   735 layer_factory.hpp:77] Creating layer conv5_2_conv5_2/relu_0_split
I0928 12:03:44.818254   735 net.cpp:100] Creating Layer conv5_2_conv5_2/relu_0_split
I0928 12:03:44.818258   735 net.cpp:434] conv5_2_conv5_2/relu_0_split <- conv5_2
I0928 12:03:44.818264   735 net.cpp:408] conv5_2_conv5_2/relu_0_split -> conv5_2_conv5_2/relu_0_split_0
I0928 12:03:44.818270   735 net.cpp:408] conv5_2_conv5_2/relu_0_split -> conv5_2_conv5_2/relu_0_split_1
I0928 12:03:44.818320   735 net.cpp:150] Setting up conv5_2_conv5_2/relu_0_split
I0928 12:03:44.818326   735 net.cpp:157] Top shape: 1 2048 7 7 (100352)
I0928 12:03:44.818330   735 net.cpp:157] Top shape: 1 2048 7 7 (100352)
I0928 12:03:44.818332   735 net.cpp:165] Memory required for data: 272518532
I0928 12:03:44.818336   735 layer_factory.hpp:77] Creating layer conv5_3_1x1_reduce
I0928 12:03:44.818349   735 net.cpp:100] Creating Layer conv5_3_1x1_reduce
I0928 12:03:44.818354   735 net.cpp:434] conv5_3_1x1_reduce <- conv5_2_conv5_2/relu_0_split_0
I0928 12:03:44.818359   735 net.cpp:408] conv5_3_1x1_reduce -> conv5_3_1x1_reduce
I0928 12:03:44.822262   735 net.cpp:150] Setting up conv5_3_1x1_reduce
I0928 12:03:44.822276   735 net.cpp:157] Top shape: 1 512 7 7 (25088)
I0928 12:03:44.822280   735 net.cpp:165] Memory required for data: 272618884
I0928 12:03:44.822286   735 layer_factory.hpp:77] Creating layer conv5_3_1x1_reduce/bn
I0928 12:03:44.822295   735 net.cpp:100] Creating Layer conv5_3_1x1_reduce/bn
I0928 12:03:44.822299   735 net.cpp:434] conv5_3_1x1_reduce/bn <- conv5_3_1x1_reduce
I0928 12:03:44.822304   735 net.cpp:395] conv5_3_1x1_reduce/bn -> conv5_3_1x1_reduce (in-place)
I0928 12:03:44.822540   735 net.cpp:150] Setting up conv5_3_1x1_reduce/bn
I0928 12:03:44.822563   735 net.cpp:157] Top shape: 1 512 7 7 (25088)
I0928 12:03:44.822566   735 net.cpp:165] Memory required for data: 272719236
I0928 12:03:44.822574   735 layer_factory.hpp:77] Creating layer conv5_3_1x1_reduce/bn/scale
I0928 12:03:44.822580   735 net.cpp:100] Creating Layer conv5_3_1x1_reduce/bn/scale
I0928 12:03:44.822583   735 net.cpp:434] conv5_3_1x1_reduce/bn/scale <- conv5_3_1x1_reduce
I0928 12:03:44.822590   735 net.cpp:395] conv5_3_1x1_reduce/bn/scale -> conv5_3_1x1_reduce (in-place)
I0928 12:03:44.822644   735 layer_factory.hpp:77] Creating layer conv5_3_1x1_reduce/bn/scale
I0928 12:03:44.822789   735 net.cpp:150] Setting up conv5_3_1x1_reduce/bn/scale
I0928 12:03:44.822800   735 net.cpp:157] Top shape: 1 512 7 7 (25088)
I0928 12:03:44.822803   735 net.cpp:165] Memory required for data: 272819588
I0928 12:03:44.822809   735 layer_factory.hpp:77] Creating layer conv5_3_1x1_reduce/relu
I0928 12:03:44.822815   735 net.cpp:100] Creating Layer conv5_3_1x1_reduce/relu
I0928 12:03:44.822819   735 net.cpp:434] conv5_3_1x1_reduce/relu <- conv5_3_1x1_reduce
I0928 12:03:44.822824   735 net.cpp:395] conv5_3_1x1_reduce/relu -> conv5_3_1x1_reduce (in-place)
I0928 12:03:44.823458   735 net.cpp:150] Setting up conv5_3_1x1_reduce/relu
I0928 12:03:44.823472   735 net.cpp:157] Top shape: 1 512 7 7 (25088)
I0928 12:03:44.823474   735 net.cpp:165] Memory required for data: 272919940
I0928 12:03:44.823478   735 layer_factory.hpp:77] Creating layer conv5_3_3x3
I0928 12:03:44.823489   735 net.cpp:100] Creating Layer conv5_3_3x3
I0928 12:03:44.823493   735 net.cpp:434] conv5_3_3x3 <- conv5_3_1x1_reduce
I0928 12:03:44.823499   735 net.cpp:408] conv5_3_3x3 -> conv5_3_3x3
I0928 12:03:44.829943   735 net.cpp:150] Setting up conv5_3_3x3
I0928 12:03:44.829958   735 net.cpp:157] Top shape: 1 512 7 7 (25088)
I0928 12:03:44.829962   735 net.cpp:165] Memory required for data: 273020292
I0928 12:03:44.829969   735 layer_factory.hpp:77] Creating layer conv5_3_3x3/bn
I0928 12:03:44.829977   735 net.cpp:100] Creating Layer conv5_3_3x3/bn
I0928 12:03:44.829980   735 net.cpp:434] conv5_3_3x3/bn <- conv5_3_3x3
I0928 12:03:44.829987   735 net.cpp:395] conv5_3_3x3/bn -> conv5_3_3x3 (in-place)
I0928 12:03:44.830226   735 net.cpp:150] Setting up conv5_3_3x3/bn
I0928 12:03:44.830236   735 net.cpp:157] Top shape: 1 512 7 7 (25088)
I0928 12:03:44.830240   735 net.cpp:165] Memory required for data: 273120644
I0928 12:03:44.830246   735 layer_factory.hpp:77] Creating layer conv5_3_3x3/bn/scale
I0928 12:03:44.830253   735 net.cpp:100] Creating Layer conv5_3_3x3/bn/scale
I0928 12:03:44.830256   735 net.cpp:434] conv5_3_3x3/bn/scale <- conv5_3_3x3
I0928 12:03:44.830261   735 net.cpp:395] conv5_3_3x3/bn/scale -> conv5_3_3x3 (in-place)
I0928 12:03:44.830312   735 layer_factory.hpp:77] Creating layer conv5_3_3x3/bn/scale
I0928 12:03:44.830456   735 net.cpp:150] Setting up conv5_3_3x3/bn/scale
I0928 12:03:44.830464   735 net.cpp:157] Top shape: 1 512 7 7 (25088)
I0928 12:03:44.830467   735 net.cpp:165] Memory required for data: 273220996
I0928 12:03:44.830472   735 layer_factory.hpp:77] Creating layer conv5_3_3x3/relu
I0928 12:03:44.830477   735 net.cpp:100] Creating Layer conv5_3_3x3/relu
I0928 12:03:44.830482   735 net.cpp:434] conv5_3_3x3/relu <- conv5_3_3x3
I0928 12:03:44.830487   735 net.cpp:395] conv5_3_3x3/relu -> conv5_3_3x3 (in-place)
I0928 12:03:44.831112   735 net.cpp:150] Setting up conv5_3_3x3/relu
I0928 12:03:44.831126   735 net.cpp:157] Top shape: 1 512 7 7 (25088)
I0928 12:03:44.831130   735 net.cpp:165] Memory required for data: 273321348
I0928 12:03:44.831133   735 layer_factory.hpp:77] Creating layer conv5_3_1x1_increase
I0928 12:03:44.831142   735 net.cpp:100] Creating Layer conv5_3_1x1_increase
I0928 12:03:44.831146   735 net.cpp:434] conv5_3_1x1_increase <- conv5_3_3x3
I0928 12:03:44.831152   735 net.cpp:408] conv5_3_1x1_increase -> conv5_3_1x1_increase
I0928 12:03:44.834993   735 net.cpp:150] Setting up conv5_3_1x1_increase
I0928 12:03:44.835007   735 net.cpp:157] Top shape: 1 2048 7 7 (100352)
I0928 12:03:44.835011   735 net.cpp:165] Memory required for data: 273722756
I0928 12:03:44.835031   735 layer_factory.hpp:77] Creating layer conv5_3_1x1_increase/bn
I0928 12:03:44.835041   735 net.cpp:100] Creating Layer conv5_3_1x1_increase/bn
I0928 12:03:44.835045   735 net.cpp:434] conv5_3_1x1_increase/bn <- conv5_3_1x1_increase
I0928 12:03:44.835052   735 net.cpp:395] conv5_3_1x1_increase/bn -> conv5_3_1x1_increase (in-place)
I0928 12:03:44.835299   735 net.cpp:150] Setting up conv5_3_1x1_increase/bn
I0928 12:03:44.835307   735 net.cpp:157] Top shape: 1 2048 7 7 (100352)
I0928 12:03:44.835310   735 net.cpp:165] Memory required for data: 274124164
I0928 12:03:44.835319   735 layer_factory.hpp:77] Creating layer conv5_3_1x1_increase/bn/scale
I0928 12:03:44.835325   735 net.cpp:100] Creating Layer conv5_3_1x1_increase/bn/scale
I0928 12:03:44.835330   735 net.cpp:434] conv5_3_1x1_increase/bn/scale <- conv5_3_1x1_increase
I0928 12:03:44.835333   735 net.cpp:395] conv5_3_1x1_increase/bn/scale -> conv5_3_1x1_increase (in-place)
I0928 12:03:44.835388   735 layer_factory.hpp:77] Creating layer conv5_3_1x1_increase/bn/scale
I0928 12:03:44.835533   735 net.cpp:150] Setting up conv5_3_1x1_increase/bn/scale
I0928 12:03:44.835541   735 net.cpp:157] Top shape: 1 2048 7 7 (100352)
I0928 12:03:44.835544   735 net.cpp:165] Memory required for data: 274525572
I0928 12:03:44.835551   735 layer_factory.hpp:77] Creating layer conv5_3_1x1_increase_conv5_3_1x1_increase/bn/scale_0_split
I0928 12:03:44.835556   735 net.cpp:100] Creating Layer conv5_3_1x1_increase_conv5_3_1x1_increase/bn/scale_0_split
I0928 12:03:44.835558   735 net.cpp:434] conv5_3_1x1_increase_conv5_3_1x1_increase/bn/scale_0_split <- conv5_3_1x1_increase
I0928 12:03:44.835566   735 net.cpp:408] conv5_3_1x1_increase_conv5_3_1x1_increase/bn/scale_0_split -> conv5_3_1x1_increase_conv5_3_1x1_increase/bn/scale_0_split_0
I0928 12:03:44.835572   735 net.cpp:408] conv5_3_1x1_increase_conv5_3_1x1_increase/bn/scale_0_split -> conv5_3_1x1_increase_conv5_3_1x1_increase/bn/scale_0_split_1
I0928 12:03:44.835613   735 net.cpp:150] Setting up conv5_3_1x1_increase_conv5_3_1x1_increase/bn/scale_0_split
I0928 12:03:44.835619   735 net.cpp:157] Top shape: 1 2048 7 7 (100352)
I0928 12:03:44.835623   735 net.cpp:157] Top shape: 1 2048 7 7 (100352)
I0928 12:03:44.835626   735 net.cpp:165] Memory required for data: 275328388
I0928 12:03:44.835629   735 layer_factory.hpp:77] Creating layer conv5_3_global_pool
I0928 12:03:44.835638   735 net.cpp:100] Creating Layer conv5_3_global_pool
I0928 12:03:44.835642   735 net.cpp:434] conv5_3_global_pool <- conv5_3_1x1_increase_conv5_3_1x1_increase/bn/scale_0_split_0
I0928 12:03:44.835647   735 net.cpp:408] conv5_3_global_pool -> conv5_3_global_pool
I0928 12:03:44.835672   735 net.cpp:150] Setting up conv5_3_global_pool
I0928 12:03:44.835678   735 net.cpp:157] Top shape: 1 2048 1 1 (2048)
I0928 12:03:44.835681   735 net.cpp:165] Memory required for data: 275336580
I0928 12:03:44.835685   735 layer_factory.hpp:77] Creating layer conv5_3_1x1_down
I0928 12:03:44.835692   735 net.cpp:100] Creating Layer conv5_3_1x1_down
I0928 12:03:44.835697   735 net.cpp:434] conv5_3_1x1_down <- conv5_3_global_pool
I0928 12:03:44.835702   735 net.cpp:408] conv5_3_1x1_down -> conv5_3_1x1_down
I0928 12:03:44.837280   735 net.cpp:150] Setting up conv5_3_1x1_down
I0928 12:03:44.837294   735 net.cpp:157] Top shape: 1 128 1 1 (128)
I0928 12:03:44.837297   735 net.cpp:165] Memory required for data: 275337092
I0928 12:03:44.837304   735 layer_factory.hpp:77] Creating layer conv5_3_1x1_down/relu
I0928 12:03:44.837311   735 net.cpp:100] Creating Layer conv5_3_1x1_down/relu
I0928 12:03:44.837314   735 net.cpp:434] conv5_3_1x1_down/relu <- conv5_3_1x1_down
I0928 12:03:44.837321   735 net.cpp:395] conv5_3_1x1_down/relu -> conv5_3_1x1_down (in-place)
I0928 12:03:44.837543   735 net.cpp:150] Setting up conv5_3_1x1_down/relu
I0928 12:03:44.837553   735 net.cpp:157] Top shape: 1 128 1 1 (128)
I0928 12:03:44.837556   735 net.cpp:165] Memory required for data: 275337604
I0928 12:03:44.837560   735 layer_factory.hpp:77] Creating layer conv5_3_1x1_up
I0928 12:03:44.837582   735 net.cpp:100] Creating Layer conv5_3_1x1_up
I0928 12:03:44.837589   735 net.cpp:434] conv5_3_1x1_up <- conv5_3_1x1_down
I0928 12:03:44.837595   735 net.cpp:408] conv5_3_1x1_up -> conv5_3_1x1_up
I0928 12:03:44.840356   735 net.cpp:150] Setting up conv5_3_1x1_up
I0928 12:03:44.840371   735 net.cpp:157] Top shape: 1 2048 1 1 (2048)
I0928 12:03:44.840375   735 net.cpp:165] Memory required for data: 275345796
I0928 12:03:44.840381   735 layer_factory.hpp:77] Creating layer conv5_3_prob
I0928 12:03:44.840396   735 net.cpp:100] Creating Layer conv5_3_prob
I0928 12:03:44.840401   735 net.cpp:434] conv5_3_prob <- conv5_3_1x1_up
I0928 12:03:44.840406   735 net.cpp:395] conv5_3_prob -> conv5_3_1x1_up (in-place)
I0928 12:03:44.840632   735 net.cpp:150] Setting up conv5_3_prob
I0928 12:03:44.840643   735 net.cpp:157] Top shape: 1 2048 1 1 (2048)
I0928 12:03:44.840647   735 net.cpp:165] Memory required for data: 275353988
I0928 12:03:44.840651   735 layer_factory.hpp:77] Creating layer conv5_3
I0928 12:03:44.840656   735 net.cpp:100] Creating Layer conv5_3
I0928 12:03:44.840659   735 net.cpp:434] conv5_3 <- conv5_3_1x1_up
I0928 12:03:44.840663   735 net.cpp:434] conv5_3 <- conv5_3_1x1_increase_conv5_3_1x1_increase/bn/scale_0_split_1
I0928 12:03:44.840667   735 net.cpp:434] conv5_3 <- conv5_2_conv5_2/relu_0_split_1
I0928 12:03:44.840672   735 net.cpp:408] conv5_3 -> conv5_3
I0928 12:03:44.840739   735 net.cpp:150] Setting up conv5_3
I0928 12:03:44.840749   735 net.cpp:157] Top shape: 1 2048 7 7 (100352)
I0928 12:03:44.840751   735 net.cpp:165] Memory required for data: 275755396
I0928 12:03:44.840754   735 layer_factory.hpp:77] Creating layer conv5_3/relu
I0928 12:03:44.840760   735 net.cpp:100] Creating Layer conv5_3/relu
I0928 12:03:44.840764   735 net.cpp:434] conv5_3/relu <- conv5_3
I0928 12:03:44.840768   735 net.cpp:395] conv5_3/relu -> conv5_3 (in-place)
I0928 12:03:44.840979   735 net.cpp:150] Setting up conv5_3/relu
I0928 12:03:44.840991   735 net.cpp:157] Top shape: 1 2048 7 7 (100352)
I0928 12:03:44.840993   735 net.cpp:165] Memory required for data: 276156804
I0928 12:03:44.840996   735 layer_factory.hpp:77] Creating layer pool5/7x7_s1
I0928 12:03:44.841004   735 net.cpp:100] Creating Layer pool5/7x7_s1
I0928 12:03:44.841009   735 net.cpp:434] pool5/7x7_s1 <- conv5_3
I0928 12:03:44.841017   735 net.cpp:408] pool5/7x7_s1 -> pool5/7x7_s1
I0928 12:03:44.842090   735 net.cpp:150] Setting up pool5/7x7_s1
I0928 12:03:44.842104   735 net.cpp:157] Top shape: 1 2048 1 1 (2048)
I0928 12:03:44.842108   735 net.cpp:165] Memory required for data: 276164996
I0928 12:03:44.842111   735 layer_factory.hpp:77] Creating layer bottleneck
I0928 12:03:44.842125   735 net.cpp:100] Creating Layer bottleneck
I0928 12:03:44.842130   735 net.cpp:434] bottleneck <- pool5/7x7_s1
I0928 12:03:44.842136   735 net.cpp:408] bottleneck -> bottleneck
I0928 12:03:44.850926   735 net.cpp:150] Setting up bottleneck
I0928 12:03:44.850940   735 net.cpp:157] Top shape: 1 256 (256)
I0928 12:03:44.850944   735 net.cpp:165] Memory required for data: 276166020
I0928 12:03:44.850950   735 layer_factory.hpp:77] Creating layer fc8_1
I0928 12:03:44.850957   735 net.cpp:100] Creating Layer fc8_1
I0928 12:03:44.850961   735 net.cpp:434] fc8_1 <- bottleneck
I0928 12:03:44.850970   735 net.cpp:408] fc8_1 -> fc8
I0928 12:03:44.851217   735 net.cpp:150] Setting up fc8_1
I0928 12:03:44.851227   735 net.cpp:157] Top shape: 1 31 (31)
I0928 12:03:44.851229   735 net.cpp:165] Memory required for data: 276166144
I0928 12:03:44.851235   735 layer_factory.hpp:77] Creating layer accuracy
I0928 12:03:44.851245   735 net.cpp:100] Creating Layer accuracy
I0928 12:03:44.851249   735 net.cpp:434] accuracy <- fc8
I0928 12:03:44.851253   735 net.cpp:434] accuracy <- label
I0928 12:03:44.851258   735 net.cpp:408] accuracy -> accuracy
…
